TD3_control/dir_Walker2D_002/biped-v6-2d-16_actor.pth (torch, 527895 bytes, 6 tensors)

l1.weight f4 [400, 24]
00000000: f004 3abf 61ee 4b40 eadd 8dbd ca84 1dbf
00000010: 0958 ef3d d570 34c0 d5ad 5dbd e73e e23c
00000020: fc0d 7dbd 4a92 8d3e 32a7 cf3f f9d7 8ebd
00000030: 80fe 0bbe aedf 36bc 01dc 08c0 84de b93e
00000040: 19ff 2d3e 7fe6 293e d9ff 97bf 00ee 7bbd
00000050: 05d2 f0bf 7d91 90be 57ef 6bbc 717c 52bf
00000060: 3e92 9b40 4088 dc3d 5121 863e 3019 0abf
00000070: 00fa 8d3f 87ac 6c40 09c6 3fbe 6cc6 713c
00000080: 2d14 56bf a576 a63e eda9 e43e 5e72 b8be
00000090: c91d c5bf a501 993e d086 933e d467 8d3e
000000a0: 1c63 3abf 3f85 ed3e fca5 c1bf ea10 d53e
000000b0: 463d f93f c681 93be 2ab6 cabf f3a3 623f
000000c0: e02d 993f 7ef3 3f3f 6b23 93be afce 0b3f
000000d0: 229a b3bf 80d0 363f 7b37 b8bd 6319 bb3d
000000e0: 3a98 dfbe 3a74 46bf d507 043e b897 c43d
000000f0: 11cd 88be 2d23 4a3d 3d6a 103f 87e7 aebd
00000100: 7575 81bf f494 f8bc 5dfb 16bf 176a 60bd
00000110: 6618 9dbd 511b 76bd 010e 33bf 456d 19be
00000120: dff0 4640 57a3 92be a1cd 04bf 9fe6 26c0
00000130: 7956 123e 1389 8640 7e8f d5bc 4f29 a5bd
00000140: 0878 35bf 5e6b 593f 67a8 42bf 7588 5dbe
00000150: f374 33bf c9a2 00bf 673d be3f 79dc dcbe
00000160: c148 60bf 5609 24bd 8ee9 8cbf 77cd 35bf
00000170: f373 e53f f089 6bbe 8f64 1bbf f185 ca3e
00000180: 91cc 5abf e521 643e 1486 c43d c265 e5bf
00000190: 083e 68bf dd9d f5bf ecc7 383e 0c4f 5bbd
000001a0: 19a0 7d3e f152 503c ed8f 2540 ac68 b13e
000001b0: 102e f0be 1ed2 f13d 4acb 01c0 1d82 6bbe
000001c0: b534 fc3e 3c13 033f 2d07 ce3f 22fe 223f
000001d0: bb5f 2640 ab1a 623d 6966 8dbe ad9c 28bf
000001e0: c204 fb3f 06e6 33bf 64ac adbf b4d7 0d3f
000001f0: b046 ccbf 9eae b23f b1fc 2ebe f08b e1bd
00000200: 7dab aabf f599 5c3e 53a3 aa40 ac23 b33e
00000210: a7ae 28c0 d1b3 863d 32c1 b0bb b27f a03e
00000220: 059a 20bf f6df 993d 7d92 6e3e f009 473f
00000230: 97d0 92be ca25 d6be 8eeb d5be 91d1 55bf
00000240: c303 29be 65d3 a63d 466c 833f 3985 42c0
00000250: bd8a 903f 14fd 6f3f b714 dc3d 9f1a 44be
00000260: fe8d 083f 8b96 6d3d 8cf6 1d40 1867 f3be
00000270: c097 9a3f bfaf 9dbd e414 2d3f 548d 8cbc
00000280: 72ad 17c0 0e60 1f3f 99dc 11c0 a30f be3d
00000290: 74c8 3040 aeb7 46be 5a9d 173f 2249 733e
000002a0: 8c18 9c3f b15f 47c0 4026 50bf 2162 c6be
000002b0: af50 aebf 0d01 8cc0 2249 ab3b e056 24be
000002c0: 461a aabe 38af fa3e 2290 bbbe 6978 51bf
000002d0: c2e3 c03e d92a 11be 124a 43bf d17e 5ebe
000002e0: 515f f2bf b378 17bf 8e87 20bf 291c 9e3e
000002f0: 64bb 1abf bcd1 fc3d 966f 85bf 4f6b 62bf
00000300: e8be 893e 8c76 ecbe 0250 af3e 0e80 1e3f
00000310: a1f9 1f40 7a47 2240 6ae6 353e 7248 a2bd
00000320: a2d0 273f 9230 f7bd fa84 873f f9a5 193f
00000330: 1d02 93bf e70e 593f 5dc6 85be f1ba eb3e
00000340: 59de df3e 0896 183f 7ea1 42c0 64c5 203c
00000350: f113 04be e705 e4be 2485 21bf 4dcb 05bf
00000360: 2f54 8440 87a6 bbbf 023a 94be 632a 0940
00000370: a998 9e3f 5c56 073f b183 463d 44ae f33d
00000380: b375 76bf 7b2a 353e 1e76 3fbd 9fd4 6e3d
00000390: 8009 0ebf 97de 54bd fdbb f0bf 47e9 b5be
000003a0: e0a5 243e c314 d63e 9611 a0c0 eff9 923e
000003b0: 74d3 0740 9357 923e c820 f3be 22bb 0cbf
000003c0: 52cb a1bf a8ca 303d f387 95be 4553 15c0
000003d0: 3a7f 8f3f 1830 cd3f 242a b6bd 826c f13d
000003e0: c6a6 3f3f 0d1e c2bf 1b0e a23f 11ec 47be
000003f0: b715 79bf 859c 053e d39b b63f 2bd5 d2ba
-0.72663784 3.1864245 -0.069270924 -0.61530745 0.11686713 -2.8193867 -0.054120857 0.027617885
-0.061780915 0.27650672 1.6222899 -0.06974787 -0.13671303 -0.011161728 -2.138428 0.36302578
0.16991843 0.16591834 -1.1874954 -0.06150627 -1.8814093 -0.28236 -0.014400325 -0.8222113
4.861602 0.10768175 0.26197293 -0.53944683 1.1091919 3.6980302 -0.18727888 0.01475678
-0.83624536 0.32512394 0.44660893 -0.36024755 -1.5399715 0.29884067 0.2881379 0.27618277
-0.7280748 0.4639072 -1.512878 0.41614467 1.9471824 -0.28809947 -1.5836842 0.88531417
1.1967125 0.74980915 -0.2873796 0.5461225 -1.4031413 0.71411896 -0.08994957 0.091357015
-0.43670827 -0.775211 0.12893613 0.095992506 -0.26718953 0.049349952 0.56412107 -0.08540254
-1.011397 -0.030344464 -0.589773 -0.054788675 -0.07670669 -0.060084645 -0.69943243 -0.1498309
3.1084516 -0.28640243 -0.51876265 -2.607826 0.14290799 4.2042327 -0.026069399 -0.080645196
-0.7088628 0.84929454 -0.7603821 -0.21634085 -0.70100325 -0.5024839 1.4862489 -0.43136957
-0.87611014 -0.040047966 -1.1008775 -0.7101664 1.792601 -0.23001838 -0.60700315 0.39555314
-0.85468394 0.22278555 0.09595886 -1.7921679 -0.9071965 -1.9188801 0.18045014 -0.05354218
0.24768104 0.012715087 2.5869095 0.3465017 -0.46910143 0.11807655 -2.0280328 -0.22998853
0.49258962 0.51201224 1.609594 0.63669026 2.599593 0.055201214 -0.27617195 -0.6586407
1.9610827 -0.7027286 -1.3568234 0.5540726 -1.5959072 1.3959539 -0.17088582 -0.11013019
-1.3333584 0.21543105 5.332437 0.34988153 -2.63566 0.06577266 -0.0053941244 0.31347424
-0.62735015 0.0751342 0.23298068 0.7774954 -0.28674766 -0.41825706 -0.41781276 -0.835229
-0.16505341 0.08145789 1.0267417 -3.0393813 1.129234 0.9374554 0.107461385 -0.1915078
0.5334166 0.058004897 2.468173 -0.47539592 1.207756 -0.076995365 0.6761 -0.017157234
-2.3699613 0.6225594 -2.2790892 0.09280326 2.7622347 -0.19406006 0.59224474 0.23758367
1.2194991 -3.1152155 -0.81308365 -0.3874674 -1.3618373 -4.3751283 0.005227224 -0.16048765
-0.3322317 0.48961806 -0.36633402 -0.81824356 0.37673765 -0.14176501 -0.762849 -0.21728064
-1.8935338 -0.5916855 -0.6270684 0.3088086 -0.60442185 0.12344691 -1.0424678 -0.8844499
0.26903462 -0.46184194 0.3424073 0.61914146 2.4996111 2.5356126 0.17763677 -0.07923974
0.65552723 -0.12069811 1.0587456 0.6001888 -1.148502 0.84788364 -0.26127902 0.46041062
0.43724325 0.5960393 -3.0411067 0.009812687 -0.12898232 -0.44535753 -0.6309378 -0.5226334
4.1352763 -1.4660195 -0.28950506 2.143212 1.2390338 0.5286615 0.048465434 0.11898473
-0.96273345 0.17691986 -0.046743505 0.05830824 -0.55483246 -0.05197009 -1.880737 -0.3552954
0.16078901 0.41812715 -5.0021467 0.2870631 2.122281 0.2858244 -0.47485948 -0.5497304
-1.2640173 0.043162018 -0.29205284 -2.3332074 1.1210701 1.6030302 -0.088947564 0.11788274
0.7486385 -1.5165421 1.2660555 -0.19523646 -0.9729876 0.13047989 1.4266304 -0.0016085258

l1.bias f4 [400]
00000000: a8f5 88bf 539a 203e baba 30bf 8a68 2abf
00000010: a01a 2abf 6a21 14bf 2dc8 713f a2ff 15bf
00000020: 6bac b7be 3083 6abe 4ed9 65bf 77d5 943f
00000030: f781 60bf fc60 94bf 1456 63bd f09e dc3d
00000040: cd0c c43e 667c 2fbf 58da 9abd c16b ca3c
00000050: 3a59 7dbf 099e d0bf a515 b83f 127f 6fbf
00000060: cad3 a5bf 5cce 8fbf b29e 4abf edcc ab3f
00000070: 0138 3fbf 1f92 b2bf a9bb 333f 3ee9 cabf
00000080: 0bcc 30bf a554 c3be 5600 533d a719 98bf
00000090: 0f04 8bbf 0f5d 21bf b6ab 93bf fe73 723f
000000a0: d24d efbf 47b6 3cbf 200d 8abf 3cad aa3f
000000b0: 3a8f dcbe f45b 60bf 2bdd 92bf b8fb 92bf
000000c0: 0cde a33f 4efa 94bf e164 74bf cca3 eebf
000000d0: 71d0 5fbe c4aa 70bd 6979 e1be 6942 9dbf
000000e0: 67b2 15bf 3893 5fbe e009 86bf 6a51 7dbf
000000f0: d58f 4d3f 445f ddbe d1e7 18bf 9ffb 23bd
00000100: a4df f73e 9d37 d9bf d014 e9be 47c6 33bf
00000110: 8614 c8be 16fd a4be 4823 f5bd 0d53 26bf
00000120: 6a0c cebd b1c8 59bf d471 8cbf 9272 67bf
00000130: e44e b0bf 16b9 04bf 3b1e 9cbb a06d 04bf
00000140: afd5 84be ca0a 97bf 84bd 74be f5f8 863f
00000150: 69c6 b3be a062 5bbf 4551 1bbf ce75 e93d
00000160: ff10 1abf eb1c f3bf a2f3 d13f 279d a4bf
00000170: f009 803e e7d2 3d3f f60b 17be afb0 1fbf
00000180: 91b1 4abe 43be 2e3f 3224 92bf e309 61bf
00000190: 28d2 d9be a99b 89bf 6b6b 13be b883 06bf
000001a0: 3ca0 49bf 8d28 693f 78b7 63be 584c c4bf
000001b0: dc5a 8bbf 3460 37bd c4fc 23bf da48 5fbf
000001c0: dcc9 a8bf d5ae 90bf afc6 07bf 853a 4fbf
000001d0: 372c 72bf 4cc1 38bf 6a11 20bf 2026 6d3d
000001e0: f4a2 a5bf 6d3f 15bf a143 f4bd 013c edbf
000001f0: f4ff 86bf 5363 91bf 78e5 edbe ae45 9dbf
00000200: ff1b b7bf e096 623f fbfd 413f 255c 97bf
00000210: 1f74 433d 4e7f f63e 7089 2dbe bca7 8fbf
00000220: ad79 94be 01bb 1bbf 65ef 87bf 26df 0dbf
00000230: 608d eabe 5304 5ebf 4122 acbf 3ad1 59bf
00000240: 01c7 f6be 6c00 98bf dda8 c4bd 62c4 95bf
00000250: f451 cebe 80d3 8f3f a7b5 96bf 40cf 0fbf
00000260: 8673 9cbf 8aef fb3e 1c33 27be 66fc 12bf
00000270: 3efb 0abe 99b0 8cbf 2e39 ef3e d9e4 e4bd
00000280: 4b32 033f 2ac6 a6bf 723e 193f bbeb 853f
00000290: 8ecc 87bf c045 e7be 9464 95bf dfc1 c5bf
000002a0: 1891 2cbf 576f 53bf 2bec 20bf a5d3 83bf
000002b0: 7b33 f7be 318e 5cbf 56ee 06bf c841 bdbf
000002c0: f91a 40bf 2617 48bf 9856 a1be 9124 6bbf
000002d0: 2c2f 15bf a035 a8bf 8a3c 98bd e34f 80be
000002e0: 5b28 56bf 0293 fbbe 1860 c93e 5144 91bf
000002f0: f9e4 e23f f30c 023e e1f0 1abf b410 4dbe
00000300: 2746 29bf c35e 61bf f90b 65bf 1b54 a4bf
00000310: deb2 7bbf 66a7 0abf 12ff 1fbf 8ef8 8ebf
00000320: a4a1 a23f abbf b2bf 3272 aebf a566 8cbf
00000330: 58e5 65bf 9c1d ffbe 21ab bebf 49a9 62bf
00000340: ca47 b4bf c55e 49bf 3f9d 793f eb0f a7bf
00000350: 6520 26bf 30b8 b23c 3f34 40bf 6ef9 543f
00000360: f2e3 4e3e 22aa 75bf 3f8e 2d3d ab19 48bf
00000370: bfe2 4fbf 9c0d d6be 4c2f 60bf a0eb b4bf
00000380: eaa9 9f3e ee02 b2be 984c 0bbf 61a6 94bd
00000390: d191 1abf 89d4 48bf af38 29bf cac3 30bf
000003a0: df17 a8bf 8148 183d 8d64 e1bf 23c3 4a3c
000003b0: a768 0abf 6572 35bf bb11 bf3e befc 2abf
000003c0: a4e8 14bf 5970 3fbf 3d28 35bf fafb 2fbf
000003d0: 744c 31bf 9355 49bf 5b5e 803e e147 bdbf
000003e0: 29ac 87bf c522 15bf 60b0 013e 05e4 25be
000003f0: 7f41 60bc e5f7 afbf 981e 323f 0dde 4abf
-1.0699968 0.1568387 -0.6903492 -0.66565764 -0.66446877 -0.57863486 0.9444607 -0.5859319
-0.35873732 -0.22901607 -0.89784706 1.1627644 -0.8769831 -1.1592097 -0.055502012 0.107725024
0.38291016 -0.6854919 -0.07561177 0.024709584 -0.98964274 -1.6298229 1.4381605 -0.9355327
-1.2955258 -1.1234851 -0.791484 1.3421913 -0.7469483 -1.3950843 0.7020822 -1.585243
-0.69061345 -0.38150516 0.051513992 -1.1882828 -1.0860614 -0.6303262 -1.1536777 0.9470824
-1.8695624 -0.73715633 -1.0785255 1.3334117 -0.43078023 -0.8764031 -1.1473745 -1.1483068
1.2802138 -1.1638887 -0.9546643 -1.8643737 -0.21856858 -0.058756605 -0.4403794 -1.2285892
-0.58475345 -0.21833503 -1.0471764 -0.98952353 0.80297595 -0.43236744 -0.59728724 -0.040034886
0.48412812 -1.6970097 -0.4552369 -0.7022442 -0.39078158 -0.3222434 -0.1196962 -0.64970475
-0.100609615 -0.85071856 -1.0972238 -0.90409195 -1.3774076 -0.5184492 -0.004764346 -0.51729774
-0.25944278 -1.1800168 -0.2390042 1.0544726 -0.35112312 -0.85697365 -0.6067088 0.113994226
-0.60182184 -1.89932 1.6402476 -1.2860459 0.25007582 0.74149936 -0.14750656 -0.6237897
-0.19794299 0.68259066 -1.1417296 -0.8790571 -0.4254315 -1.0750629 -0.14396445 -0.52544737
-0.78760123 0.910775 -0.22237957 -1.5335798 -1.0887103 -0.04476948 -0.64057565 -0.8722054
-1.3186603 -1.1303355 -0.5303754 -0.8094867 -0.94598716 -0.7216995 -0.6252657 0.057897687
-1.2940354 -0.58299905 -0.11926962 -1.8533937 -1.0546861 -1.1358436 -0.46464133 -1.228689
-1.4305419 0.88511467 0.7577817 -1.1824995 0.047718164 0.48144 -0.1694696 -1.1223063
-0.2899908 -0.6083222 -1.0619932 -0.5541862 -0.45810986 -0.8672535 -1.3447953 -0.8508488
-0.48198703 -1.1875129 -0.096025206 -1.1700556 -0.402969 1.123642 -1.1774186 -0.56175613
-1.2222755 0.4920619 -0.1632809 -0.5741638 -0.13572404 -1.0991393 0.46723312 -0.11176462
0.51248616 -1.3029225 0.5986091 1.0462564 -1.06093 -0.45170403 -1.1671319 -1.544979
-0.67408895 -0.82591766 -0.62860364 -1.0298964 -0.48281464 -0.86154467 -0.5270742 -1.47857
-0.75041157 -0.7816032 -0.31511378 -0.9185267 -0.58275104 -1.3141365 -0.07433422 -0.2506095
-0.8365533 -0.49135596 0.39331126 -1.1348974 1.7726127 0.12700252 -0.605238 -0.20025903
-0.6612267 -0.8803522 -0.89471394 -1.2838167 -0.98319805 -0.5416168 -0.6249858 -1.1169603
1.2705579 -1.3964742 -1.36286 -1.0968825 -0.89803076 -0.49827278 -1.4895974 -0.8853956
-1.4084408 -0.7866023 0.97505563 -1.3051733 -0.6489318 0.021816343 -0.7507972 0.831931
0.20204142 -0.9596273 0.042371985 -0.78164166 -0.8120536 -0.41807258 -0.8757217 -1.4134407
0.31184322 -0.3476786 -0.5441375 -0.07258297 -0.6037875 -0.784493 -0.6610212 -0.6904875
-1.3132285 0.03717852 -1.7608811 0.012375626 -0.54065937 -0.7087768 0.37318215 -0.66791904
-0.5816748 -0.74780804 -0.70764524 -0.6874386 -0.69257283 -0.786462 0.25071988 -1.4787561
-1.0599414 -0.5825618 0.12664938 -0.16200264 -0.0136874905 -1.3747526 0.6957793 -0.7924507

l2.weight f4 [300, 400]
00000000: 748c fdbd b756 3abe cdfb 5b3e c994 41be
00000010: 59c2 fe3d 5ede 7e3d 6f81 a23e fca3 3e3d
00000020: f83e e7be 77b1 19bf 7105 0e3b 5a2b b4bd
00000030: 5296 2fbf 4e07 d93e 347e 93bf 6978 80be
00000040: e276 c73d 20d6 00bd bd74 d1bd ca1d 03bd
00000050: f96a cabd 4027 a8bd baca b7bd bd9e a03e
00000060: 4dea bbbe 73fc 13be bf69 18be 0413 46bf
00000070: 49bd 473d 7064 73bf 35f3 29bf f514 3fbf
00000080: 581b a0be 50b2 8cbb 6bfd babe 151f 13bd
00000090: 0dbc bfbc 0cd8 c6bd eef2 04bf 05ee 813c
000000a0: 7b55 abbe 44cc 8d3e 959a 29bc 7548 cebe
000000b0: af4e a33d ec2b 343e b4bb b43d 4ced 85bf
000000c0: 5a31 bb3e 12e7 f03d ad13 413e d91c cdbe
000000d0: 5450 47bf 1e00 4dbe b6d7 0c3f 212b 8b3c
000000e0: 70cb 30be 8383 bd3e e11d f7be 283b 3ebf
000000f0: d469 babd afc9 40bf 01e7 2fbf 2097 b7be
00000100: 2680 513e 806e 99be 79ad 323f bbae 09bf
00000110: d22d 8fbf 9f8b 0dbf 6d5e 7c3e a90d 3dbf
00000120: 8770 edbd f884 17bf 88ca adbe 7f35 e4bd
00000130: 2347 c53e e9d8 5ebe 68a3 71bf e5a5 9e3e
00000140: 1c21 90be 1f24 923c b0cf 403f f544 0bbd
00000150: 5a23 69bf 17ac 983f 58fb 06be 35c4 b7be
00000160: 151f ecbd 1dfd d9bd 7718 4fbf 81f9 6e3f
00000170: 6ef6 99bd 8de6 6bbf ffe2 51bf bde4 33bf
00000180: 7e5d e6be 5354 cdbe 37a6 7dbd e190 8dbf
00000190: 6241 783f bd5e 8fbe 57b2 43bf 4a66 83bf
000001a0: 8462 fcbe 7b94 293e 6fba 95bf 6e5f 83be
000001b0: defc 89bf 9a0c 9bbe b86d c0bf dd38 40bf
000001c0: a576 d6bd 2458 01bf 219c 96be 5b74 0b3d
000001d0: 6a53 013f 212b 553e 437a 23bf 3bfa a3be
000001e0: 47e6 aabf 10a9 8cbe 05a8 90be 9330 0fbf
000001f0: 46a0 0cbf 60dd 09bf 8458 34bf fa40 84be
00000200: 6e1d 9c3e 80ff 62bf df98 413e 2edd cb3e
00000210: e0f7 0bbe c8d1 9d3f 9521 55bf eb9c 9a3e
00000220: 6445 833e 5f37 a4be c904 fd3e 05bb 83bd
00000230: dc6a b0bf 3a27 4abf c26c 933d 80c0 d1be
00000240: bca2 e33c 9882 17bf 94ac f23d 3f37 f5be
00000250: 0aa4 9cbe 739b 0c3f 809c c3be 39f5 b0be
00000260: 6da6 0fbe 8ccb 43be 7816 a13e e54a 683f
00000270: 3df0 193f 4443 dfbe ffe6 95be 102e 8bbe
00000280: 2733 d0bd 9679 e1bc b802 633f 4716 95bf
00000290: 2e2f 0dbf 1620 a1be fc84 cf3d 788d c0be
000002a0: d4d0 3cbe 8d66 8f3e 0a64 1e3d 821e a5bf
000002b0: 0145 f93c f1f2 5abb dfc7 3dbe eb4f 85be
000002c0: 4911 c9be 77eb 54bf d74e eebd 6926 233c
000002d0: 9a3c 003e 9673 c9be 5e18 12bf 018c 0cbf
000002e0: 81f7 9ebe 7182 2b3f da57 2abf 2de8 12be
000002f0: 5e1c 4fbe 6718 93bf f91a 26be 907f 0f3e
00000300: 3263 46be 2a15 a9bf 31bb 043d b0e2 8b3d
00000310: 6e6b 69bf 0f22 1fbf 3acb b4bf 6365 8ebd
00000320: 1bcd 453e c2bf 2cbf 3770 1fbf ef22 abbf
00000330: 67f1 853e ba3c 12bf 8526 a23f 2265 8ebf
00000340: 0a8d 40bb 3575 71bf 70e9 703c 1e50 97bf
00000350: f98a 43bf 31b0 47bf df58 8fbe 7223 8fbe
00000360: 876c 56bf 4761 a0be 90d6 d73e 94f1 82be
00000370: 1da0 aebf 519d 36bf 8457 9dbd df61 e2bd
00000380: dbec 1cbf 9bf5 45bf 5a07 b73e 1ec2 bebe
00000390: 9166 453f 2fd5 a8bf 4ade 45bf 18bd a33c
000003a0: 9f0a cc3e 6ff9 84bd b910 63bd 4fad f1be
000003b0: 66a0 8bbe 1b0a 1abe ada9 57bf 1134 11be
000003c0: 87fc 943d 589c 19bf 513c 66bf 56a6 a13c
000003d0: bced b33e 203b d4be 3aca b1be 885a c1be
000003e0: 3503 c4be cb09 0b3f 39c9 01bf ffd1 a1be
000003f0: eae5 d83e b557 dfbe 9197 ecbd 32af 37bf
-0.12380305 -0.18197142 0.21482773 -0.18904413 0.124394126 0.062223785 0.31739375 0.046543106
-0.4516523 -0.60036415 0.0021670724 -0.08797331 -0.68588746 0.42388386 -1.1522889 -0.25091866
0.09739472 -0.031454206 -0.10227344 -0.03201083 -0.09883685 -0.08210611 -0.08974214 0.31371108
-0.36702195 -0.1445177 -0.14884089 -0.77372766 0.0487645 -0.9507513 -0.6638673 -0.7464135
-0.31270862 -0.0042937174 -0.36521468 -0.035918314 -0.0234051 -0.097091764 -0.5193318 0.015860567
-0.33463654 0.27694905 -0.010351797 -0.40289655 0.07973992 0.1759488 0.08824864 -1.0463042
0.3656109 0.11762823 0.18855162 -0.40061072 -0.77856946 -0.20019576 0.5501665 0.016988339
-0.17265105 0.37014398 -0.48264983 -0.74309015 -0.09102216 -0.75307745 -0.6871186 -0.35857487
0.20459041 -0.29967117 0.6979595 -0.5378224 -1.1185858 -0.5529117 0.24645396 -0.7384897
-0.115937285 -0.5918727 -0.33943582 -0.11143016 0.38530836 -0.21762432 -0.94389963 0.30985942
-0.2815026 0.01783949 0.75316906 -0.03400131 -0.9106957 1.1927518 -0.13181818 -0.35891882
-0.11529366 -0.10643981 -0.80896705 0.9334946 -0.07517706 -0.9214867 -0.81986994 -0.702709
-0.44993204 -0.40103397 -0.061926093 -1.1059839 0.96974766 -0.28001967 -0.76444 -1.0265591
-0.4929391 0.16560547 -1.169752 -0.25658745 -1.0780294 -0.30283052 -1.5033484 -0.75086766
-0.104718484 -0.50525117 -0.29415992 0.034046512 0.50517905 0.20817234 -0.6385843 -0.32026848
-1.3351525 -0.27472734 -0.2825319 -0.55933493 -0.5493206 -0.53853416 -0.70447564 -0.25830823
0.30491203 -0.8867111 0.18905972 0.39817184 -0.13668776 1.2329645 -0.8325437 0.30197844
0.25638878 -0.32073495 0.49417713 -0.064321555 -1.3782611 -0.78966105 0.07198478 -0.40967178
0.027787559 -0.59183645 0.11849323 -0.47893712 -0.30593902 0.54924697 -0.38205338 -0.3456209
-0.1402833 -0.19120616 0.31462455 0.9073928 0.601322 -0.43606007 -0.292778 -0.2718358
-0.101660065 -0.027523797 0.88676023 -1.1647424 -0.55150115 -0.31469792 0.10132787 -0.37607932
-0.18439037 0.28007928 0.038669623 -1.2899935 0.030428411 -0.0033408965 -0.18533276 -0.26037535
-0.39271 -0.8317179 -0.11636131 0.009957888 0.12523118 -0.39345998 -0.5706843 -0.5490113
-0.31048205 0.6699591 -0.665403 -0.1434638 -0.20225665 -1.1491822 -0.16221227 0.14013505
-0.19373778 -1.3209584 0.032405082 0.068303466 -0.9117955 -0.62161344 -1.412452 -0.06952932
0.19316523 -0.674801 -0.622806 -1.3370036 0.26160738 -0.5712391 1.2668005 -1.1124613
-0.002938094 -0.9431947 0.014704093 -1.1821325 -0.7638393 -0.7800322 -0.2799749 -0.2795673
-0.8375935 -0.31324217 0.42155886 -0.25574934 -1.3642613 -0.71333796 -0.07682708 -0.11053824
-0.6129891 -0.7732789 0.35747796 -0.37257475 0.7710963 -1.3190058 -0.7729231 0.019987628
0.39851853 -0.06492888 -0.05543587 -0.47202536 -0.27270812 -0.15042917 -0.8424328 -0.14180018
0.07274728 -0.60004187 -0.89935786 0.019732635 0.35142314 -0.4145136 -0.347246 -0.37764382
-0.38283697 0.5431182 -0.50697666 -0.31605527 0.4236291 -0.43621603 -0.115523465 -0.717517

l2.bias f4 [300]
00000000: cbe9 bbbf 24bf 61be 77db 8bbe 64b6 27bf
00000010: c1c0 023e be94 9bbd 5a2f 50bf 8387 0cbe
00000020: c59b 87bf 1ceb d6bc 4e37 c6bc 7c57 afbb
00000030: 1ec7 083e bc55 01be 1d6f d5bc 732f e7bd
00000040: ef1e f7be ee5f d3bd f902 08bd a711 87bd
00000050: 5b1e 013e 5289 55be 4692 92bf 1e17 2dbe
00000060: 1233 c4bd 6b48 81bd d4ab 58bd a4c8 e0bc
00000070: ea2b d4bb 7411 f5bd 0875 41bd 484d d13e
00000080: b37a bebd ef79 a8bd 78f9 03bf de6d 99bd
00000090: 0a8c 213f 0188 4fbd a190 56bf 7d64 f9bd
000000a0: 978e 92be 921f 72bd 7282 dcbd 865f 70bf
000000b0: d090 34be dfda 23be 556b 8ebf 8c7c cabd
000000c0: cc46 d3bd db7f e5bd cfac 75bd 9fb7 9dbd
000000d0: f2e5 59be c5a1 e3be d780 693f 1828 bebf
000000e0: ea68 77bd eceb 76bd 6cf2 8cbd 0067 bfbd
000000f0: 9b87 74bf ae61 74bc bd67 4d3c c0db acbd
00000100: cfce b7bd 41c8 13bf ccae 41bd e8a4 07bd
00000110: e096 9abe bf2d e9be 830f 45bd b8e3 7c3f
00000120: c272 61bd edf2 86be dbe3 98bf 87fe c1bc
00000130: 40a6 60bf e1bf 36be 01b1 89bd 1097 84bc
00000140: 56ea a6bd e729 9dbd f084 cdbe 91f8 26bd
00000150: 4137 8cbd 8651 70bf 43f3 1b3c d84c 8cbd
00000160: 0192 f7be c06f 81bd c67f 87bd 64d9 8bbd
00000170: 6c66 e23e 10f0 42bf 851e adbc f43a 61bd
00000180: e652 e4be a4b7 9f3e be3f b2bd e244 97be
00000190: 80b8 c7bd dc07 f3bd b328 9fbd 99b9 02be
000001a0: 6408 c5bd c21d d1be 29a9 97bd fb29 dbbe
000001b0: 5bcb 8dbb 9aa4 b9bd 0352 aabd a1fd 9dbf
000001c0: c798 51bd 5c3e 1ebd 0ccd debd 133a 77bf
000001d0: 4225 80bc 03c9 49bf 85fe f8be 2ab9 30bf
000001e0: 0321 bd3d b34e 26bf 3528 a0bd b0f2 b7be
000001f0: 8c9a 683d 57bd b3be faab 4fbd bdb7 89bf
00000200: 454a 88bd 84c2 bbbd fd0f 40bf c959 0ebf
00000210: 9ed0 f0bd 6a9f 88bd 2033 ffbd e36b 82bf
00000220: 0142 36bf ffcb 6dbc 1b99 83be 9e43 99bf
00000230: a029 99bd 08a4 51bf 168d 88bd 0944 77be
00000240: 1dc0 c4be 2bfb ddbd 6596 d6bd 2425 01bd
00000250: 03b1 10be e0fb dabc ca65 1bbe 7e58 aebe
00000260: fd8e 9fbf 82ae d43c 633a 71bd 1ff1 ebbd
00000270: 61ca eebd c13e a2bd f4de 5ebd 11c4 efbe
00000280: dc10 d8bd c4ff e4bd 7760 03bd 7d5f b8be
00000290: a5ae 31bd 436c 28be f1cd 1abf 6092 913f
000002a0: 628c 28bf 4e3b 9dbc 9475 c7bd 1327 94bd
000002b0: 3224 83be a351 55bd aee2 debd a631 f7be
000002c0: 7fbd adbd 1124 80bd aa4b 84be 22eb 18bf
000002d0: 5cd5 58be fdea 323e dce0 7dbf 524b 49bf
000002e0: d735 c1bc 66c1 5dbd db91 b0bd 2c49 7ebb
000002f0: c04a da3d 71d6 70bd 832c 8ebd 510b 8bbd
00000300: b93a 6abc c8c4 e5bd 8fdb 65bd 7cbd adbd
00000310: 2855 433c 4e90 5cbf c29e 13bf 5086 dfbd
00000320: 16d4 9fbd d251 22bd 6cff acbf fb38 4fbd
00000330: 4527 a2bd bd9c 88be 0ffa 43be 1a04 51bf
00000340: 7f12 9fbf 0e31 e03b 8b92 95bd 3966 a6bd
00000350: a619 a93d 26ab 4bbd 6b14 debc eb2c abbd
00000360: 05b4 4ebe 37e8 80bd e4c2 f1bd 520b 78bd
00000370: 3cf5 abbe 1d6a debe bfb4 b13f a9fc 3ebd
00000380: 1aff f13e 0ff8 acbd 41dc f9bd bac0 5c3f
00000390: edf7 dcbb d836 62bf 3813 bebe bb90 cfbc
000003a0: a583 b0bd 5be6 afbd 9680 b2bd 0561 a6be
000003b0: 7a17 b6bd 96df fdbd 81c2 d3bd 305f 6cbd
000003c0: 21c1 cdbd afba eabe a93f 6cbd d354 13be
000003d0: b5ef 74bd 4457 05bd c6d1 86bd 2b9f 73bc
000003e0: ce19 f1bd 0d4d a6bd 3882 2bbd 9e32 abbd
000003f0: d7c6 3b3c c1f0 b5bd 2f4e debe cb4d 82bd
-1.4680723 -0.2204557 -0.27315876 -0.6551268 0.12768842 -0.0759673 -0.8132225 -0.13723569
-1.0594412 -0.026235156 -0.024196293 -0.005351005 0.13357207 -0.12630361 -0.02605396 -0.11288347
-0.48265788 -0.103210315 -0.03320596 -0.06595164 0.12609236 -0.20853165 -1.1450889 -0.1690335
-0.095800534 -0.06312641 -0.052898243 -0.027439423 -0.0064749615 -0.119662195 -0.04723075 0.40879273
-0.09300747 -0.08226382 -0.51552534 -0.07491659 0.6310431 -0.050666813 -0.83814436 -0.1217737
-0.28624412 -0.05911214 -0.10767068 -0.9389576 -0.17633367 -0.16001461 -1.1126505 -0.09887037
-0.10316238 -0.11206027 -0.059979256 -0.077010386 -0.21279123 -0.44459358 0.9121222 -1.4855986
-0.06040279 -0.060283586 -0.06882176 -0.093458176 -0.9551942 -0.014915867 0.01253694 -0.084403515
-0.089749925 -0.5772744 -0.04728584 -0.03311625 -0.30193233 -0.45542714 -0.048110496 0.9878497
-0.055041082 -0.26357213 -1.1944536 -0.023680938 -0.8775368 -0.17846633 -0.06723214 -0.016185313
-0.08150165 -0.07674008 -0.40140486 -0.040764395 -0.06846476 -0.93874395 0.009518447 -0.06850594
-0.4835358 -0.06320143 -0.06616168 -0.06828573 0.44218767 -0.76147556 -0.021132717 -0.054987863
-0.44594496 0.31194794 -0.08703564 -0.2954474 -0.097519875 -0.118667334 -0.07771435 -0.12766112
-0.09620741 -0.40843016 -0.074053116 -0.42805466 -0.0043272204 -0.090645984 -0.08316424 -1.2343026
-0.05117109 -0.03863369 -0.10878953 -0.9657299 -0.015642766 -0.78822345 -0.48631683 -0.6903254
0.09234812 -0.64963835 -0.07820169 -0.35927343 0.056788012 -0.35105392 -0.05070112 -1.0759197
-0.06654791 -0.0916796 -0.75024396 -0.5560575 -0.117585406 -0.06671031 -0.12460923 -1.0189174
-0.71194464 -0.0145139685 -0.25702748 -1.197376 -0.074786425 -0.81890917 -0.06667535 -0.24147047
-0.3842782 -0.10838922 -0.10477904 -0.03152956 -0.14130025 -0.026731431 -0.15175548 -0.3405189
-1.2465512 0.025962118 -0.058893573 -0.115205996 -0.116596945 -0.079221256 -0.054411843 -0.46829274
-0.10550091 -0.11181596 -0.032074418 -0.36010352 -0.043379445 -0.16447549 -0.6047049 1.1372795
-0.6583921 -0.019193318 -0.09739223 -0.07234015 -0.25613552 -0.052079808 -0.108830795 -0.48280066
-0.08483409 -0.06256879 -0.25838977 -0.59733784 -0.2117514 0.17472453 -0.99171233 -0.78630555
-0.023585243 -0.054139517 -0.0862157 -0.0038800938 0.10658789 -0.058798257 -0.06942084 -0.06789268
-0.014296227 -0.11219174 -0.05611759 -0.08483407 0.011922158 -0.8615769 -0.5766412 -0.1091429
-0.07804124 -0.03962881 -1.3515449 -0.05059145 -0.07917646 -0.26682082 -0.19138359 -0.81646883
-1.242752 0.0068417853 -0.073033415 -0.08124966 0.08256845 -0.049723767 -0.027109345 -0.08358177
-0.2018586 -0.062942915 -0.118047506 -0.06055767 -0.33585536 -0.43440333 1.3883284 -0.046627674
0.4726494 -0.08445751 -0.12200213 0.8623158 -0.0067434222 -0.88364935 -0.37124038 -0.025337568
-0.08618859 -0.08588859 -0.08715932 -0.32495895 -0.088911965 -0.12396161 -0.10339833 -0.057707965
-0.10046602 -0.45845553 -0.0576779 -0.14387827 -0.059798915 -0.032553926 -0.0658298 -0.014869492
-0.117725 -0.08120165 -0.041872233 -0.08359264 0.011460981 -0.08883811 -0.43419024 -0.06362494

l3.weight f4 [4, 300]
00000000: 2b15 063f a353 a2bd d074 5f3f b13e c93f
00000010: ed7e 6b3f 02a0 64bc 2773 cdbf 465a 683c
00000020: 3e56 fd3e 124a 9e3d 61e0 ddbc 8f28 89bc
00000030: e363 63c0 45de 823c 878e 963c 8e55 42bb
00000040: 8f0c 80be 2d18 b53b 0720 f3bd b115 10bd
00000050: 2d85 22c0 6001 a93d a3f3 22bf 12b9 8b3d
00000060: 9d5c a2bd 3268 583d 270d 343c 4f4a c53c
00000070: 2267 80bd 6d8f 95bd 19a2 eebc 8c29 08bc
00000080: 2863 4abb 21b5 8b3d d2bd 2d40 3e20 9d3d
00000090: 9f1d 783f abed 8c3c fd5f 4f3f e544 86bd
000000a0: 69f4 cfbd 740f 2c3f bf95 80bb 714f b63f
000000b0: 7f5d 613e 20b9 db3d 6f67 5a3f 337e d8be
000000c0: 2f2d fe3c e58d b8bd deba 0cbe db9a 84bc
000000d0: 1dea 823f ab5c 8bbd a4c2 86bf a0c4 53be
000000e0: 7a34 af3d 8ba5 a7bb 1ec3 5c3d 54bd b1bd
000000f0: df2c aabf 3a8c 0dbd 6deb 33bd 26e8 043c
00000100: 2986 3d3d 0b94 98be 8600 e03c c29c c2bc
00000110: 8823 7dbe ce10 afbd 4426 a03c 7f33 a5be
00000120: 817f 943d 45f7 a5bd cd9c 45bf 7d62 3f3c
00000130: 5384 b3bf d5b5 97bd 69a3 933c 6ef8 96bc
00000140: b382 47bc f3a1 9c3d 0bab c53e d4c4 60bc
00000150: 257d 35bd cb77 863d 9ecf 1abd f25e 303d
00000160: 0df5 ab3d d5da 24b9 7ac6 21bc c02f 3abd
00000170: e458 06bf eba5 bbbe 1b81 86bf 9eba 6a3c
00000180: 526a f53e 3f7b 873c 4be9 933b 4f01 50bf
00000190: 4a0a 303e 7ee9 d7bd bbc2 0b3d 865e b3bd
000001a0: 7242 023d 1658 8ebe b0b7 633d 740d b83e
000001b0: 7b0d 1a3c d77a fbbb 2864 18bd 9eaa 41be
000001c0: cdc0 453e 6190 93bc 1c69 54bd fa65 c5bc
000001d0: f27c b13c ce8b 3cbd 00f9 0abd 549a 0c3f
000001e0: f156 233e 3ad4 a9bf 38a1 443d 5048 b2bd
000001f0: cbd4 e33f beaf 20bf 9a72 063b a3bb dd3e
00000200: afbc fa3d a1b6 28bc 99c6 d9be 38e0 243d
00000210: b9ab 173f 73c7 41bd 4d6c d3bf 2c1a 023f
00000220: d251 c9bf 8468 a5bc 73d3 d33b ea96 b33f
00000230: ea53 31bb 2405 b83e a221 06bd 6b9f 2c3d
00000240: 8aab 8abe d026 393d 4b3c 2c3d a5b5 80bd
00000250: 059b 1b3d f1fa 54bc b0bb abbf 887a 873d
00000260: 94ed edbe 0c1e 4dbd c1e4 093e bd45 17bd
00000270: 8bc4 8b3d 7578 1fbd e456 74bd e5e7 093f
00000280: 2510 1fbe 270e af3d 7150 0abc af0c 8c3f
00000290: 84eb 33bd 7e64 9a3e b055 e43f 6548 9b3e
000002a0: 1a45 f0bd 6a36 b1bd 7bf3 503c 0013 f1bc
000002b0: 2a0d 333f c662 32bd 38d2 bb3c fa2a cbbb
000002c0: 54dc 5cbf 7c51 e9bc a0ff 863b f3f0 813e
000002d0: f620 26c0 7635 883d 3f4e 82bf 1544 2d3e
000002e0: b6ca 533a 6c61 84bd 6069 3bbb 878f b8bc
000002f0: eabd 2ac0 e28b 98bc 882c 20bd 6a3d b03c
00000300: 89b0 c8bd 20c5 903c 8da4 2bbd 4e3b e33c
00000310: 7162 0ebf 99f0 c4bc 7e3d fdbe 66e8 a53b
00000320: 8d82 e13c 631d 973c 7cdc ecbe 54b5 813a
00000330: fe6a 323c 19b2 9a3e 9801 943d bb34 5cbd
00000340: 6365 f4be f97d ecbd 5a35 3f3a d949 7cbc
00000350: 97dc cfbe caaa 8abd 9774 ebbb 7b5c 13bd
00000360: 5dcf 0abd 90d4 c03b f934 fbb9 0424 c7bc
00000370: 8fd6 5e3d d851 b43e f05c c33c 5be6 12bd
00000380: d4f2 02bf f5f7 1bbd 1706 5e3d 4d2f a63f
00000390: b6a4 813f e15d 9dbf 9c77 a23e 9ca9 a53d
000003a0: 02ae 88bf ffc2 c33f 763c 72bd 79b1 d03d
000003b0: 0680 d7bc fad3 c43c 6808 ca3b 10eb 043d
000003c0: 1871 13bd e737 9ebc e90f a33c ad71 2abe
000003d0: ab8c a23c ac58 eebc 8067 64ba b907 9dbb
000003e0: 5c30 533c 6056 283d 7f90 97bc 4f78 eebc
000003f0: dcb6 18be 1441 223d ac81 e43f 5351 4b3c
0.5237605 -0.07926109 0.87287617 1.5722257 0.9199055 -0.013954164 -1.6050767 0.014181679
0.4947986 0.077289715 -0.027084531 -0.016742973 -3.5529716 0.015975127 0.01837851 -0.0029653045
-0.2500958 0.0055265636 -0.11871343 -0.035176937 -2.5393784 0.082522154 -0.6365301 0.06822409
-0.07927821 0.052833743 0.010989464 0.024083285 -0.06269671 -0.07302747 -0.029130029 -0.008310687
-0.0030881856 0.06821657 2.7147107 0.07672165 0.969202 0.017203173 0.8100584 -0.06556109
-0.101540394 0.6721108 -0.003924101 1.4242994 0.22008322 0.10728669 0.8531408 -0.42283782
0.031027405 -0.09011439 -0.13743159 -0.016187122 1.0227696 -0.068047844 -1.052815 -0.20680475
0.08554931 -0.00511617 0.053897016 -0.086786896 -1.3294944 -0.03455756 -0.04392569 0.008111989
0.046270523 -0.29800448 0.027344 -0.023756389 -0.24720585 -0.08548127 0.019549496 -0.3226585
0.07250882 -0.081038035 -0.77192384 0.011681196 -1.4024757 -0.074077286 0.018022256 -0.018429007
-0.012177157 0.07648077 0.38607058 -0.0137188025 -0.0443088 0.065658174 -0.037795655 0.043059297
0.08396349 -0.0001572178 -0.009873981 -0.045455694 -0.52479386 -0.36650023 -1.050815 0.01432672
0.47932678 0.01653826 0.0045138947 -0.81251997 0.17191425 -0.10542582 0.034121256 -0.08758263
0.03180165 -0.2780158 0.0555951 0.35947764 0.009402628 -0.0076745558 -0.03720489 -0.18912742
0.19311829 -0.018013181 -0.051858053 -0.024096478 0.021666024 -0.046031766 -0.03392887 0.54922986
0.15951134 -1.3267891 0.048005313 -0.08705199 1.7799314 -0.6276816 0.0020515085 0.43307218
0.1224302 -0.010297448 -0.4253433 0.040252894 0.592464 -0.04730935 -1.6517426 0.50821185
-1.5728095 -0.020191438 0.0064644157 1.403043 -0.0027058073 0.35941422 -0.03274692 0.04214422
-0.27084 0.04520303 0.042049687 -0.06284646 0.037989635 -0.012999282 -1.3416653 0.06615168
-0.4647032 -0.050077483 0.13466169 -0.036931742 0.06824597 -0.038933236 -0.059653178 0.5386947
-0.15533502 0.08547621 -0.00844203 1.0941371 -0.043925777 0.30154794 1.783865 0.3032867
-0.1173193 -0.08652957 0.012753363 -0.029428005 0.6994196 -0.04355123 0.022927389 -0.0062001916
-0.86273694 -0.028481238 0.0041198283 0.25379142 -2.5957618 0.06650822 -1.0180129 0.16920502
0.00080792175 -0.06463894 -0.0028596744 -0.022529377 -2.6678414 -0.018621389 -0.03910497 0.02151366
-0.097992964 0.017672122 -0.041904975 0.02773824 -0.5561896 -0.024040507 -0.49460977 0.0050631044
0.027528072 0.01844663 -0.46261966 0.0009895959 0.010889767 0.30214003 0.072268665 -0.053761225
-0.47733602 -0.11547465 0.0007294022 -0.015398466 -0.40597984 -0.06770857 -0.0071855295 -0.035976868
-0.033889163 0.0058847144 -0.00047913918 -0.024309166 0.054403838 0.35218692 0.023848027 -0.035864215
-0.51151776 -0.038078267 0.054205026 1.2983185 1.0128391 -1.2294275 0.3173188 0.08088991
-1.0678103 1.5293883 -0.05913969 0.101901 -0.026306164 0.02402686 0.006165553 0.032450736
-0.035996526 -0.019313766 0.019905047 -0.16644926 0.019842466 -0.029095016 -0.00087129325 -0.0047921804
0.012889948 0.041098 -0.018501518 -0.029110102 -0.14913505 0.039612845 1.7852073 0.012409526

l3.bias f4 [4]
00000000: 2c1b 56bf d1ca b83e fdf0 c23d fda0 5dbe
-0.8363521 0.36092237 0.09518621 -0.21643443
