TD3_control/dir_Walker2D_002/biped-v8-2d-3_actor_t.pth (torch, 527895 bytes, 6 tensors)

l1.weight f4 [400, 24]
0	0x40250541	2.5784457
1	0x3e8c6e01	0.27427676
2	0x3e2d4f45	0.1692477
3	0x3e71cf5c	0.23614258
4	0x3fb46b08	1.4095163
5	0x405b7ecc	3.429614
6	0xbde145df	-0.10999655
7	0x3e0d82fe	0.13819501
8	0xbf958ac1	-1.1682969
9	0x3e537072	0.20648363
10	0x40288af6	2.6334815
11	0x3ed3cb26	0.41365927
12	0xbfded928	-1.7410021
13	0x3e610950	0.21976209
14	0x4072a74a	3.7914605
15	0x3e97a343	0.29616746
16	0xc08b0627	-4.344501
17	0xbd8e0705	-0.069349326
18	0xbfa8b01b	-1.3178743
19	0xbf41a758	-0.7564597
20	0x3f8b6ea4	1.089314
21	0x3e2b98af	0.16757463
22	0xbfd002a4	-1.6250806
23	0x3dec6424	0.11542538
24	0x40371903	2.8609016
25	0x3f1b7cf0	0.60737514
26	0xbdf5bdfc	-0.11999127
27	0x3fb95ef4	1.4482102
28	0x3e826ca5	0.25473514
29	0x3fae047c	1.3595119
30	0x3e0967ba	0.13418475
31	0xbdcaa85c	-0.09895393
32	0xbfd98739	-1.6994392
33	0xbc120f07	-0.008914716
34	0x40c1df40	6.058502
35	0x3ed10015	0.40820375
36	0xc06f2377	-3.7365396
37	0x3f283612	0.65707505
38	0x3e9c230b	0.30495486
39	0xbeceb92c	-0.4037565
40	0xc038eee7	-2.8895814
41	0x3ed6792b	0.4188932
42	0xbfdcf1b4	-1.7261262
43	0xbea8934b	-0.32924876
44	0x3f77ee8c	0.9684837
45	0xbf13a045	-0.57666427
46	0xbdd150fd	-0.102205254
47	0xbf94eb08	-1.1634226
48	0x40a9f1b0	5.310753
49	0x3e412b20	0.18864107
50	0xbd872c22	-0.066002145
51	0x404f2b0a	3.237002
52	0x3f7e2ac0	0.9928398
53	0x3ff97dcf	1.9491519
54	0x3e088c79	0.13334836
55	0xbd9fe66b	-0.078076206
56	0x3f039fc7	0.51415676
57	0xbed2c6c6	-0.41167277
58	0x4050b8f8	3.2612896
59	0x3ea45a7e	0.3210029
60	0x3f914001	1.1347657
61	0x3e096449	0.13417162
62	0x404b50b2	3.1768003
63	0x3d8e3dfb	0.069454156
64	0xbfc7fb6f	-1.5623606
65	0x3e7355ef	0.2376325
66	0xbf93e525	-1.1554304
67	0x3d5635a9	0.052297268
68	0xbe336ec4	-0.17522722
69	0x3cc7ab8b	0.02437379
70	0xbd474a0a	-0.048654594
71	0xbe5215c9	-0.20516123
72	0x3f996631	1.1984311
73	0xbf1ea108	-0.61964464
74	0xbd0a183c	-0.033714518
75	0xbf98ab9c	-1.1927371
76	0x3e94df06	0.29076403
77	0xc09eba4e	-4.9602423
78	0x3c9a0253	0.018799936
79	0x3e229f40	0.15881062
80	0xbf8b2b5b	-1.0872606
81	0xbefe125c	-0.49623382
82	0xbe9becf5	-0.3045422
83	0xbeb05332	-0.34438473
84	0xc037514c	-2.864337
85	0xbbd4593b	-0.0064803637
86	0xbf583708	-0.8445897
87	0x3ce6d21d	0.028176362
88	0xbff8ad6d	-1.9427925
89	0x3f4970aa	0.78687537
90	0x3fa2b4b6	1.2711399
91	0xbf404de3	-0.75118846
92	0xc02a7c1f	-2.6638258
93	0x3f22ce70	0.6359625
94	0xc02e0876	-2.7192664
95	0xbeed868b	-0.4639171
96	0x3f7fbe72	0.9989997
97	0x3ebd96bd	0.37029067
98	0xbf161d04	-0.58638024
99	0xbfa52168	-1.290082
100	0x3e0eb75a	0.1393713
101	0xbfa81379	-1.3130943
102	0x3e07cde2	0.13262132
103	0x3c94943d	0.018137092
104	0xc034f934	-2.8277102
105	0x3e9d0539	0.30668047
106	0x3f21d772	0.6321937
107	0x3f09fa56	0.5389761
108	0xc04394b1	-3.0559504
109	0x3ec767de	0.38946432
110	0x3fdb79a5	1.7146498
111	0x3e074b39	0.13212289
112	0x3f35d679	0.71030384
113	0x3f439f19	0.7641464
114	0x3ecba06d	0.39770833
115	0x3e11dcfa	0.14244452
116	0xbe4c9d2d	-0.19981833
117	0xbf470454	-0.7774098
118	0xbd5e3a2a	-0.05425469
119	0xbff4f28c	-1.913652
120	0xbfa0058d	-1.2501694
121	0x3f423532	0.7586242
122	0x3f094245	0.53616744
123	0xc02f422a	-2.7384133
124	0x3facb979	1.3494102
125	0xbf52004e	-0.82031715
126	0xba65ed3e	-0.00087710086
127	0x3e135496	0.14387736
128	0x3e67a240	0.22620487
129	0x3e0ab50c	0.13545626
130	0x402f3d10	2.738102
131	0x3f3345b5	0.7002824
132	0x3e7b3c72	0.24534777
133	0x3ef363d2	0.47537094
134	0x3f9c8228	1.222722
135	0x3de68e61	0.11257625
136	0x40613ff7	3.519529
137	0xba35c51a	-0.00069339725
138	0xc024ef76	-2.5771155
139	0x3e551fc4	0.20812899
140	0xc0333fae	-2.8007617
141	0xbe48f773	-0.19625644
142	0x3e25b70e	0.16183111
143	0xbf2a6528	-0.665606
144	0x3f388ed3	0.7209293
145	0xbf5e0e6a	-0.86740744
146	0xbeb80847	-0.35943815
147	0xbff2df46	-1.8974388
148	0x3fde3da8	1.7362566
149	0x3f334785	0.70031005
150	0xbdcc39cc	-0.099719614
151	0x3e4ff275	0.20307334
152	0x3e28e3a4	0.16493088
153	0xbe1fd541	-0.15608694
154	0x4047183c	3.1108541
155	0x3fbcaf45	1.4740988
156	0xbfbb8d74	-1.4652543
157	0x3f22e513	0.6363079
158	0xbf999dfb	-1.2001337
159	0x3dab2b76	0.08357899
160	0xbf981ba0	-1.188343
161	0xbf1ef373	-0.62090224
162	0xc0a67341	-5.201569
163	0xbf089533	-0.5335266
164	0x3ee950e2	0.4556952
165	0xbdd0e1e1	-0.10199333
166	0x3e5971a8	0.21234763
167	0xbfd5efff	-1.6713866
168	0x3fbeb081	1.4897615
169	0x3ef2900a	0.47375518
170	0xbef44063	-0.47705373
171	0x3f548435	0.8301423
172	0xbf5aa77e	-0.8541182
173	0x40879a96	4.2376204
174	0xbe1005e1	-0.14064743
175	0x3e4afb60	0.19822454
176	0xbf5b0208	-0.85549974
177	0xbfa8ddc0	-1.3192673
178	0x3f903c92	1.1268485
179	0xbf074002	-0.52832043
180	0xbf82ddcb	-1.0223936
181	0xbee50cd3	-0.44736347
182	0xbf4af740	-0.79283524
183	0xbd857c96	-0.065179035
184	0x3ff5e18e	1.9209459
185	0x3f22f351	0.6365252
186	0xc001716e	-2.0225482
187	0x3e3c1f6f	0.18371366
188	0xbecafe39	-0.39647081
189	0x3f4377a4	0.7635443
190	0x3ec7a4bd	0.38992873
191	0xbf8626e2	-1.0480616
192	0x410613be	8.37982
193	0x3d3e3eef	0.046446737
194	0x3e05cc80	0.13066292
195	0x401c34cc	2.4407225
196	0x3f680ac2	0.90641415
197	0x400080dd	2.0078652
198	0xbe2095ea	-0.15682188
199	0x3e2a9e38	0.16661918
200	0x3f09166d	0.53549844
201	0x3ddc7f72	0.10766496
202	0xbfe3cc84	-1.7796788
203	0x3d911cbc	0.07085559
204	0xc0630ba1	-3.5475848
205	0x3d88b4ca	0.06675108
206	0xbf2b26fd	-0.66856366
207	0xbe954762	-0.29156023
208	0x3f1c201c	0.60986495
209	0xbe65888d	-0.22415371
210	0xbe9ae0de	-0.30249685
211	0x3d4c4e8b	0.049879592
212	0x3f10edf7	0.56613106
213	0x3c9371bd	0.01799857
214	0x3f6df8fd	0.9295805
215	0xbffabcbb	-1.9588846
216	0x4127a297	10.477195
217	0x3e8f91b3	0.28040847
218	0x3edc9fb6	0.430906
219	0xbf110a84	-0.5665667
220	0x3e8b9f6d	0.2727007
221	0x40e8cca9	7.274983
222	0xbe1cce3d	-0.15313049
223	0x3a4f896f	0.00079169025
224	0xbfcc0932	-1.5940306
225	0xbebaa68d	-0.36455193
226	0x40ab3d48	5.3512306
227	0xbfd914a5	-1.6959425
228	0xbfb9cbf1	-1.4515363
229	0x3efb68ec	0.49103487
230	0x401def65	2.4677365
231	0x3b359ac4	0.0027710656
232	0xbf18d847	-0.59705013
233	0x3ecc47af	0.3989844
234	0xbfbe178d	-1.4850937
235	0x3e7ffb8a	0.24998298
236	0x3f28dc5c	0.6596124
237	0x3f13c8a8	0.5772805
238	0xbf6a47a4	-0.91515565
239	0x3c796355	0.0152214365
240	0xbe6780d4	-0.22607738
241	0xbe1569ce	-0.14591143
242	0x3f0c1c30	0.5473051
243	0xbf94a598	-1.1613035
244	0x3f605ac2	0.87638485
245	0xbf09885d	-0.537237
246	0x3cbc9645	0.023020873
247	0x3cc0a6ff	0.02351713
248	0xc0001d30	-2.0017815
249	0xbeba0383	-0.36330804
250	0x4110cf29	9.050576
251	0xbf22c4b6	-0.6358141
252	0xbeff85bd	-0.49906722
253	0xbbe86478	-0.007092055
254	0x40056221	2.0841143
255	0x3e6600aa	0.22461191

l1.bias f4 [400]
0	0xbf395bab	-0.724055
1	0xbfa7599e	-1.3074224
2	0x3ec984b6	0.39359063
3	0xbf52c370	-0.82329464
4	0xbfaba584	-1.3409886
5	0xc00c22e1	-2.1896288
6	0xbf7922b1	-0.9731856
7	0xbfd04512	-1.6271079
8	0xbea54790	-0.3228116
9	0xbc9a3d1c	-0.018827967
10	0xbf8b2aaa	-1.0872395
11	0xbfd81a3a	-1.6883004
12	0xbfb96691	-1.4484426
13	0xbf8ff9fa	-1.1248162
14	0xbf43e502	-0.76521313
15	0xbfde1bc3	-1.7352222
16	0xbfbda689	-1.4816447
17	0xbfbcb36e	-1.4742258
18	0xbf05a35d	-0.522024
19	0xbfdb3735	-1.7126223
20	0xbec5f537	-0.38663647
21	0xbf638bd3	-0.8888523
22	0xbfc849a7	-1.5647477
23	0xbf689ce3	-0.9086439
24	0x3ec0f69c	0.37688148
25	0xbe894db0	-0.26817083
26	0xbf826ecb	-1.0190061
27	0xbfc19dee	-1.5126321
28	0xbf042d17	-0.516313
29	0x3d41ad41	0.04728437
30	0xbfe788fb	-1.8088678
31	0xbf7a9a59	-0.97891766
32	0xbed9760c	-0.42472875
33	0xbf138173	-0.576194
34	0xbf671782	-0.90270245
35	0xbfc3eab4	-1.5306001
36	0x3e02fd68	0.1279198
37	0xbff52194	-1.9150872
38	0xbe05fa55	-0.13083775
39	0xbfc074f5	-1.5035692
40	0xbed3a3f0	-0.41336012
41	0xbfaefaec	-1.3670325
42	0xbfb36dcd	-1.4017884
43	0xbf1004e1	-0.56257445
44	0xbf6dd681	-0.9290543
45	0xbfb99d7c	-1.4501185
46	0xbf68bafa	-0.90910304
47	0xbf93c673	-1.1544937
48	0xbfb1ae60	-1.388134
49	0xbfe1541c	-1.7603793
50	0xbf66586b	-0.89978665
51	0xbed3c880	-0.41363907
52	0xbf839b9d	-1.0281864
53	0xbff923c0	-1.9464035
54	0x3f0fee22	0.56222737
55	0x3e35580c	0.17709368
56	0xbfaf0ce4	-1.3675809
57	0xbf19a415	-0.60015994
58	0xbf833a2d	-1.0252129
59	0xbfaac114	-1.3340173
60	0xbfd6eac2	-1.6790392
61	0xbfd21b1a	-1.6414521
62	0xbfe34997	-1.7756833
63	0xc0043ed5	-2.066335
64	0x3f4c907e	0.7990798
65	0xbfa9c42c	-1.3262992
66	0xbfa4a297	-1.2862118
67	0x3f95b83e	1.1696851
68	0xbfa8ff5c	-1.320293
69	0xbfbadd89	-1.4598857
70	0xc02095df	-2.5091474
71	0xbfa8210f	-1.3135089
72	0xbf8b15e5	-1.0866057
73	0xbfa856f7	-1.315154
74	0xbfce4ef4	-1.6117845
75	0xbe44c3e0	-0.19215345
76	0xbfd2610a	-1.6435864
77	0xbf8984ab	-1.0743612
78	0xbf139b26	-0.5765861
79	0xbffd0b1b	-1.9769014
80	0x3c946bb6	0.018117767
81	0xbf799aae	-0.9750165
82	0xbca6fe57	-0.02038495
83	0xbf892825	-1.0715376
84	0xbed3d273	-0.41371498
85	0xbfaa9fb8	-1.3329992
86	0xbfa156da	-1.260463
87	0xbf47413d	-0.7783392
88	0xbe05550f	-0.13020729
89	0xbfa8b648	-1.3180628
90	0xbf6f1ca7	-0.93403095
91	0x3f05a44d	0.5220383
92	0xbfb7f54c	-1.4371734
93	0xbf465451	-0.77472407
94	0xbefbe30d	-0.49196663
95	0xc03f3552	-2.9876294
96	0xbfb5bf1e	-1.4198949
97	0x3f6b172c	0.9183223
98	0xbf3f7509	-0.74787956
99	0x3f69ff5e	0.91405284
100	0xbfae3301	-1.3609315
101	0xbfbc6f02	-1.4721377
102	0xbe8bfc41	-0.27340892
103	0xbf979f77	-1.184554
104	0xbe960902	-0.29303747
105	0xbe270411	-0.16310145
106	0xbf6a2bb6	-0.9147295
107	0xbf7600c6	-0.9609493
108	0xbf441a98	-0.7660308
109	0xbf956b31	-1.1673337
110	0xbf206384	-0.6265185
111	0xbfad2cc9	-1.3529292
112	0xbfc58c3c	-1.5433421
113	0xbf611389	-0.87920433
114	0xbf49692e	-0.78676116
115	0xbf88c452	-1.0684912
116	0xbe1a60a4	-0.15075928
117	0xbff61e02	-1.9227908
118	0xbf8764c8	-1.0577631
119	0xbf442735	-0.76622325
120	0x3e120c33	0.14262466
121	0xbfd5e30a	-1.6709912
122	0xbf93cd98	-1.1547117
123	0xbed9fd43	-0.42576036
124	0xc00f88eb	-2.2427318
125	0xbfc4f956	-1.5388591
126	0x3f086965	0.5328582
127	0x3e2c3095	0.16815408
128	0x3f3d1cf7	0.7387232
129	0xbf323978	-0.6961894
130	0x3f0fa7d2	0.5611545
131	0xbf651806	-0.8948978
132	0xbfa9ead4	-1.3274789
133	0xbf716144	-0.9428904
134	0xbf8d172d	-1.1022698
135	0xbf92def5	-1.1474291
136	0xbfe558f8	-1.7917776
137	0xbeaddb66	-0.3395645
138	0xbff34f06	-1.9008491
139	0xbf067715	-0.52525455
140	0xbe876bce	-0.26449436
141	0x3f864ced	1.0492226
142	0xbfa0ef17	-1.2572964
143	0xbfc19332	-1.5123045
144	0xbfc7da2d	-1.5613457
145	0xbfd8ec80	-1.6947174
146	0xbfda504e	-1.7055757
147	0x3ce11161	0.027474107
148	0xbfd7171b	-1.6803926
149	0xc015f1f7	-2.3428934
150	0xbf9f651a	-1.2452729
151	0x3f87fce6	1.0624053
152	0xbf2e84d1	-0.6817141
153	0xbfbf7a68	-1.495923
154	0xbe859615	-0.26091066
155	0xbf1a2f97	-0.60228866
156	0xbfa768af	-1.3078822
157	0xbfe7654e	-1.8077791
158	0xc0116554	-2.2718096
159	0xbfd8a495	-1.6925226
160	0xbfdf7370	-1.7457104
161	0xbf1177b3	-0.5682327
162	0xbf9c097c	-1.2190394
163	0xbfbaab0f	-1.4583453
164	0xbf440543	-0.7657053
165	0xbff3a4c8	-1.9034662
166	0xc0004719	-2.0043395
167	0xbf448d03	-0.76777667
168	0xbf7706d1	-0.96494776
169	0x3e378fe6	0.17925987
170	0xbf1b87e5	-0.60754234
171	0xbf23ddc0	-0.6401024
172	0xbff9ca07	-1.9514779
173	0xbfad1c57	-1.3524274
174	0xbf7197f6	-0.943725
175	0xbf5c5f4a	-0.860829
176	0x3e0f3abb	0.13987248
177	0xbfd0e00c	-1.6318374
178	0xbf95ffd7	-1.1718701
179	0x40113810	2.2690468
180	0xbf158fc5	-0.584225
181	0xbe764dbf	-0.24053095
182	0xbfe50e6a	-1.7895024
183	0xbe5e6063	-0.21716456
184	0xbfc8bd17	-1.5682706
185	0xbf4795a1	-0.7796269
186	0xbfb00ea4	-1.3754468
187	0x3ee2eb9f	0.4432039
188	0xbf8a6027	-1.0810593
189	0xbf23b63e	-0.63949955
190	0xbf9ce4ce	-1.2257326
191	0xc010b5c2	-2.2610936
192	0x3e69af93	0.22820882
193	0xbf77bbf1	-0.9677115
194	0xbfa4cd7f	-1.2875212
195	0xbfbf9053	-1.4965919
196	0xbfd8441a	-1.6895783
197	0xbf4a10f6	-0.7893213
198	0xbf8221fd	-1.0166622
199	0xbff175a9	-1.8864032
200	0xbfea2b9b	-1.8294557
201	0xc010d4b4	-2.2629824
202	0xbf749060	-0.955328
203	0xbff9b315	-1.9507776
204	0xbecb5659	-0.39714316
205	0xbf9b7576	-1.2145221
206	0xbdbd5a8c	-0.09245786
207	0xbfe2821a	-1.7695954
208	0xbf216879	-0.6305004
209	0xbf265de0	-0.6498699
210	0xbfaceb9f	-1.3509406
211	0xbf9d0aca	-1.2268918
212	0xbf1435d6	-0.5789465
213	0xbfeed2b6	-1.8658054
214	0xbff68b3f	-1.9261245
215	0x3e911ba5	0.28341404
216	0xbfc79803	-1.5593265
217	0xbfd428d6	-1.6574962
218	0xbf9241f6	-1.142638
219	0xc018cec5	-2.3876202
220	0xbf43d654	-0.76498914
221	0xbec8fd85	-0.3925592
222	0xbfdc813f	-1.7226943
223	0xbf8b0270	-1.0860119
224	0xbc13e4ef	-0.00902675
225	0xbe01af9e	-0.12664649
226	0xbf98d6ad	-1.1940514
227	0xbf67c754	-0.90538526
228	0xbfb9bc1a	-1.4510529
229	0xbf7397a1	-0.9515324
230	0xbf1d62fa	-0.6147915
231	0xbfa320f8	-1.2744436
232	0xbee93845	-0.45550743
233	0x3f84b47d	1.0367581
234	0xbf93dce9	-1.1551791
235	0xbfaf33a1	-1.3687631
236	0x3ebe0f69	0.37121132
237	0xbffc3a0e	-1.9705217
238	0x3f2ba413	0.6704723
239	0xbfa823be	-1.3135908
240	0xbfec164d	-1.8444306
241	0xbfaf1363	-1.3677791
242	0x3fc4af83	1.5366062
243	0xbf921f76	-1.1415851
244	0xbf8de86a	-1.1086552
245	0x3f17f0ed	0.59352
246	0xbf3d716a	-0.7400118
247	0xbfbe96c3	-1.4889759
248	0xbf35cb80	-0.7101364
249	0xbfc2adab	-1.5209249
250	0xbfe00353	-1.7501014
251	0xbfe3502c	-1.7758842
252	0xc005cbde	-2.090568
253	0xbf8aee0d	-1.0853897
254	0xbf81a195	-1.0127436
255	0xbf6aeea3	-0.9177038

l2.weight f4 [300, 400]
0	0x3e9083be	0.2822551
1	0x3e78b5fb	0.2428817
2	0x3eb8cc3f	0.36093327
3	0xbd362490	-0.044468462
4	0xbf739003	-0.9514162
5	0xbf0a22ed	-0.5395954
6	0x3e925ad6	0.28584927
7	0xbd1be056	-0.03805574
8	0xbf5a3242	-0.8523294
9	0xbe219b87	-0.15781985
10	0x3f211076	0.6291574
11	0xbe995b06	-0.29952258
12	0x3f0cec34	0.5504792
13	0xbe03ad05	-0.1285897
14	0xbdcc23d1	-0.09967769
15	0xbeac973f	-0.33709142
16	0x3f59c671	0.8506842
17	0x3e47fe18	0.19530523
18	0x3e531dc2	0.2061682
19	0x3e94f795	0.2909514
20	0xbf08eb35	-0.534839
21	0x3ea0ebbe	0.31429857
22	0xbf1a23cd	-0.6021088
23	0x3e266f76	0.16253456
24	0xbe4182b9	-0.18897523
25	0x3eabedb6	0.33579797
26	0xbea31417	-0.31851265
27	0xbfd8dffa	-1.6943352
28	0xbd079695	-0.03310259
29	0xbf0d7e4c	-0.5527084
30	0x3f56ff82	0.83983624
31	0x3e4e2db0	0.20134616
32	0x3e69e052	0.22839478
33	0xbd19c226	-0.03753867
34	0x3e0dc6f4	0.13845426
35	0xbeb2bf08	-0.3491137
36	0xbf62689b	-0.88440865
37	0xbe485d69	-0.19566883
38	0x3e92122d	0.28529492
39	0x3fd00a42	1.625313
40	0x3e178645	0.14797314
41	0xbf52d83a	-0.82361186
42	0xbefe3e63	-0.49656972
43	0xbef62683	-0.48076257
44	0xbf4f2171	-0.809104
45	0x3f4da2a0	0.8032627
46	0x3f577899	0.8416839
47	0x3e347d1f	0.17625855
48	0x3e15a11d	0.14612241
49	0xbf99f67e	-1.2028348
50	0xbcef5532	-0.029215429
51	0xbf8ffe25	-1.1249434
52	0xbf696673	-0.9117195
53	0xbfcf32a1	-1.6187326
54	0xbfbcc3e0	-1.4747276
55	0xbfbcba7f	-1.4744414
56	0x3f14bc35	0.5809968
57	0xbe7388fc	-0.23782724
58	0x3e808f8f	0.25109527
59	0xbdcf6889	-0.101273604
60	0xbf332308	-0.6997533
61	0xbdf9fd54	-0.12206522
62	0xbe68b1fa	-0.22724143
63	0xbf3e8f40	-0.7443733
64	0xbf2e066f	-0.67978567
65	0x3e39060f	0.18068717
66	0xbcf581ac	-0.029969059
67	0xbf824735	-1.0177981
68	0xbece3bc1	-0.40279964
69	0x3d7ae623	0.06125463
70	0xbbcd8fe1	-0.006273255
71	0xbe446ff0	-0.19183326
72	0x3e495ce1	0.19664337
73	0xbfb327b7	-1.3996495
74	0x3eabffae	0.33593506
75	0x3f42de60	0.7612057
76	0xbf3e4440	-0.7432289
77	0xbe806177	-0.2507436
78	0xbdce02b9	-0.10059113
79	0x3f3d27df	0.73888963
80	0x3bd9f231	0.006651186
81	0xbfdde842	-1.7336504
82	0xbecb7a49	-0.39741734
83	0xbb923eb6	-0.004463042
84	0xbe43d861	-0.19125511
85	0xbbb04ed0	-0.005380489
86	0xbf17ee2e	-0.5934781
87	0xbf61ec63	-0.8825132
88	0xbf4a9f89	-0.7914968
89	0xbfaf6b76	-1.370467
90	0xbfcd9239	-1.6060249
91	0x3e8828ac	0.2659353
92	0xbcfe7383	-0.03106094
93	0xbd5d4431	-0.05402011
94	0xbe114ede	-0.14190242
95	0xbe2c798f	-0.16843246
96	0xbe2b4047	-0.16723739
97	0xbe4d9621	-0.20076801
98	0xbf5c72d2	-0.861127
99	0x3ea9dc06	0.33175677
100	0xbfc58229	-1.5430347
101	0xbe22130f	-0.15827583
102	0xbe932c36	-0.28744668
103	0xbd0580fd	-0.032593716
104	0xbe39b380	-0.1813488
105	0xbd03c85d	-0.032173503
106	0xbd482e88	-0.0488725
107	0x3e86d024	0.26330674
108	0x3d47ce70	0.04878086
109	0xbf78fea4	-0.9726355
110	0xbfd67152	-1.6753333
111	0xbdce82d9	-0.10083551
112	0x3eaf63a7	0.34255716
113	0xbdbd0af8	-0.09230608
114	0xbdf85db3	-0.12127247
115	0x3e2e7496	0.17036662
116	0x3eca5168	0.39515233
117	0x3ec895a8	0.3917668
118	0x3e9a4c6d	0.30136433
119	0x3dd48139	0.1037621
120	0xbf3922f8	-0.72318983
121	0xbf723e83	-0.94626635
122	0xbf0244dd	-0.5088633
123	0xbf3ee9e0	-0.74575615
124	0xbf13860e	-0.57626426
125	0xbeadad5f	-0.33921334
126	0xbe8f8f35	-0.28038946
127	0xbd9f6e7e	-0.077847466
128	0xc02010ff	-2.5010374
129	0x3ea93b16	0.33052891
130	0xbf9290be	-1.1450422
131	0xbf2c91c7	-0.6740994
132	0xbef97a14	-0.4872595
133	0xbf2e6d8f	-0.68135923
134	0xbe4ef741	-0.20211507
135	0x3cce7bd0	0.025205523
136	0x3f655cda	0.89594805
137	0x3eaadc46	0.3337118
138	0x3f0b0324	0.5430167
139	0xbe29084e	-0.16507074
140	0x3ec8a868	0.39190984
141	0xbfa6159f	-1.2975348
142	0x3e968d0d	0.29404488
143	0xbf102c3e	-0.5631751
144	0x3e011d8c	0.12608927
145	0xbf95ea8e	-1.1712205
146	0xbf848f95	-1.0356318
147	0x3f33287f	0.6998367
148	0xbf448379	-0.7676311
149	0xbea6ff37	-0.32616588
150	0xbf2b2fdf	-0.6686992
151	0xbf6c7f6b	-0.92381924
152	0xbf6d9eeb	-0.92820615
153	0xbf788d5b	-0.9709069
154	0x3e23fa8f	0.1601355
155	0xbdb56910	-0.0885793
156	0x3ed6c5b1	0.41947702
157	0x3d424928	0.04743305
158	0xbc3213f0	-0.010869011
159	0x3f8afe75	1.0858904
160	0xbfd53742	-1.6657488
161	0x3d73c204	0.0595112
162	0xbe0b4334	-0.13599855
163	0xbf298d1f	-0.6623096
164	0xbf51c53a	-0.8194157
165	0xbeafd427	-0.34341547
166	0xbf6a1d43	-0.914509
167	0xbf181dd6	-0.59420526
168	0xbb95787e	-0.004561483
169	0xbfbfd11f	-1.4985694
170	0xbf9ec9a5	-1.2405287
171	0xbfa6573f	-1.2995375
172	0xbe812a0d	-0.25227395
173	0x3f4f3c00	0.8095093
174	0xbf908b8e	-1.1292589
175	0x3f22130f	0.6331033
176	0x3f8abc0c	1.0838637
177	0xbf6f20db	-0.9340951
178	0xbf857c4d	-1.0428559
179	0xbedb3e3a	-0.42820913
180	0xbfc728d0	-1.555933
181	0x3e17b6b5	0.14815791
182	0xbebe9328	-0.37221646
183	0x3edca279	0.43092707
184	0xbe8b8e34	-0.2725693
185	0xbf4802c9	-0.7812925
186	0x3f2d38f6	0.6766504
187	0xbfceb731	-1.6149656
188	0x3e897004	0.26843274
189	0xbf3a3e90	-0.7275171
190	0x3efb7f44	0.49120533
191	0x3f464af0	0.77458096
192	0xbe7a57f4	-0.24447614
193	0xbf2a72ce	-0.6658143
194	0xbe2b393e	-0.16721055
195	0xbeafb807	-0.3432009
196	0xbd90bb36	-0.07066958
197	0xbf89b1a4	-1.0757337
198	0xbef5270c	-0.47881353
199	0xbececea0	-0.40392017
200	0xbea0529e	-0.31313032
201	0x3e07ed4d	0.13274117
202	0xbf79e774	-0.97618794
203	0xbf3dabe7	-0.7409043
204	0xbc3d953f	-0.011571228
205	0x3ee834fa	0.45352918
206	0xbd82b0ad	-0.063813545
207	0xbd3e5318	-0.046465963
208	0xbc0cc45d	-0.0085917385
209	0xbcc07dc9	-0.023497479
210	0xbf6e817a	-0.93166316
211	0xbf5215b2	-0.82064354
212	0x3e1870a5	0.1488672
213	0xbef2c1c4	-0.47413456
214	0xbcc428d9	-0.023945259
215	0xbf533212	-0.82498276
216	0xbf1a38e6	-0.6024307
217	0xbe353e18	-0.17699468
218	0xbfc875a1	-1.5660897
219	0xbf106096	-0.5639738
220	0xbee49d73	-0.44651374
221	0xbe9f237e	-0.31081766
222	0x3f965725	1.1745344
223	0xc0181f66	-2.3769164
224	0xbebbc9e0	-0.36677456
225	0xbe936795	-0.28789964
226	0xbf67d0fb	-0.90553254
227	0x3f19ede6	0.6012863
228	0x3eb5a3a7	0.3547642
229	0xbd755204	-0.05989267
230	0xbd3229d0	-0.043496907
231	0xbe3f38c7	-0.18674003
232	0x3f9d4ad5	1.2288462
233	0xbf966e96	-1.1752498
234	0x3e9140cd	0.28369752
235	0xbfe5870b	-1.7931837
236	0xbee08a7b	-0.43855652
237	0x3e71102b	0.23541324
238	0x3d21c99e	0.039498918
239	0xbcb318e0	-0.021862447
240	0xbf4ec541	-0.80769736
241	0x3f68110a	0.90651
242	0xbfd39d1a	-1.6532319
243	0xbe987f7d	-0.29784766
244	0xbf537222	-0.8259603
245	0xbf468589	-0.7754751
246	0x3cd158a2	0.025554959
247	0xbed8c952	-0.42341095
248	0x3d4211b0	0.04738015
249	0xbfae561f	-1.3620032
250	0xbdb0dc38	-0.086357534
251	0x3dcfce18	0.10146731
252	0xbf11fdde	-0.57027996
253	0xbf1889a6	-0.59585035
254	0x3e217b7e	0.15769765
255	0xbbe74b62	-0.007058547

l2.bias f4 [300]
0	0xbf87a3dd	-1.0596882
1	0xbfd0b331	-1.6304685
2	0xbd79c6a4	-0.060980454
3	0xbd94bb6e	-0.07262312
4	0x3f9b9c18	1.2157011
5	0xbdaee2bf	-0.08539342
6	0xbd9e3856	-0.07725589
7	0xbf169416	-0.5881971
8	0xbde52f8b	-0.11190709
9	0xbf89d0e5	-1.0766875
10	0xbec125c1	-0.37724116
11	0x3f667d50	0.9003496
12	0xbecff911	-0.4061971
13	0xbd9dc646	-0.07703833
14	0xbdf21cec	-0.11821923
15	0xbdc58549	-0.09644563
16	0xbed38032	-0.41308743
17	0xbd7baeec	-0.061446115
18	0x3b775563	0.0037740103
19	0xbd37c110	-0.044861853
20	0xbf5c8126	-0.86134565
21	0xbd034135	-0.03204461
22	0xbd84199d	-0.06450198
23	0xbd962c2e	-0.07332645
24	0xbd538bea	-0.051647104
25	0x3e3921ac	0.18079251
26	0xbd834455	-0.06409518
27	0x3ada7a21	0.0016668477
28	0xbeee6f83	-0.46569452
29	0xbd68f6bb	-0.056875926
30	0xbd891f8d	-0.06695471
31	0x3e3fb8d5	0.18722852
32	0xbe4e1191	-0.20123889
33	0xbd8a78dd	-0.06761334
34	0x3d25dc96	0.04049357
35	0xbe7c02b9	-0.24610414
36	0xbd71454c	-0.058903977
37	0xbf5575c2	-0.8338281
38	0x3f48adc1	0.7839013
39	0x3e96b905	0.29438034
40	0xbcf1ac6c	-0.029501162
41	0xbfabada7	-1.341237
42	0xbe2da3ff	-0.16957091
43	0xbd85873d	-0.06519935
44	0xbf81cd55	-1.0140787
45	0xbd3daf08	-0.0463095
46	0xbd563c32	-0.0523035
47	0xbd813ccd	-0.06310425
48	0x3f484e21	0.78244215
49	0xbeb6d40c	-0.35708654
50	0xbeb0e722	-0.3455134
51	0xbe095f9d	-0.1341538
52	0xbf8bda33	-1.0925964
53	0xbf8353f9	-1.0260001
54	0xbddb8232	-0.10718192
55	0xbc847b45	-0.01617206
56	0xbdeeabab	-0.11653837
57	0xbd453661	-0.048147563
58	0xbdfa14c4	-0.12210992
59	0xbf87cbd7	-1.0609082
60	0xbe35cea0	-0.17754602
61	0xbf53e04a	-0.8276411
62	0xbc7241a4	-0.014786158
63	0xbeb8ed10	-0.36118364
64	0xbf01543d	-0.5051916
65	0xbdde9422	-0.10868098
66	0xbe56cd33	-0.20976715
67	0xbef41389	-0.47671154
68	0xbdd8d50a	-0.10587509
69	0xbb315d20	-0.0027063563
70	0xbdbd6407	-0.09247594
71	0xbf149396	-0.580377
72	0xbdaaecaf	-0.08345925
73	0x3c9332d6	0.017968576
74	0xbd96a15e	-0.07354997
75	0xbad22232	-0.001603192
76	0xbd834e7d	-0.06411455
77	0xbcb33438	-0.021875486
78	0xbdb17c60	-0.08666301
79	0xbe67f99b	-0.2265381
80	0xbf9969de	-1.1985433
81	0xc0121351	-2.282429
82	0xbf09450d	-0.5362099
83	0xbd15a8ee	-0.036538057
84	0xbc733564	-0.014844272
85	0xbf3ca888	-0.7369466
86	0xbd3963d0	-0.045261204
87	0xbd85f0b5	-0.06540052
88	0xbf1d8bae	-0.6154126
89	0xbda90e8f	-0.0825473
90	0xbd8c1f84	-0.06841949
91	0xbf0199c4	-0.5062525
92	0xbe5b0082	-0.21386912
93	0xbc8d69fd	-0.017262453
94	0xbdb87bc8	-0.090079844
95	0xbd1711de	-0.036882274
96	0xbf776b84	-0.9664843
97	0xbde72c23	-0.11287715
98	0x3e53c381	0.20680048
99	0xbd59a0f2	-0.053132005
100	0xbd2f0e41	-0.042738203
101	0xbdb4b178	-0.08822912
102	0xbe14945e	-0.14509723
103	0xbfa42add	-1.2825581
104	0xbf787cf2	-0.9706565
105	0xbf6f3aa3	-0.9344885
106	0xbd6f2e23	-0.05839361
107	0xbe64533b	-0.22297375
108	0xbc8f099d	-0.017460639
109	0xbe18f31e	-0.14936492
110	0x3e73ae7c	0.2379703
111	0xbfdcaed8	-1.7240858
112	0x3fbe5105	1.4868475
113	0xbf1187e6	-0.5684799
114	0xbf67f99a	-0.90615237
115	0xbf972d5a	-1.1810715
116	0xbce96993	-0.028492725
117	0xbd0597a5	-0.032615323
118	0xbdc56159	-0.09637708
119	0xbd91218e	-0.07086478
120	0xbd2e7c67	-0.042599108
121	0xbd89c9dd	-0.067279555
122	0xbdc42cc1	-0.09578849
123	0xbd0f3f85	-0.034972686
124	0xbe385008	-0.1799928
125	0xbf52c002	-0.8232423
126	0xbcfe8004	-0.031066902
127	0xbf00c79d	-0.50304586
128	0xbf41e0b6	-0.75733507
129	0xbf64484b	-0.8917281
130	0xbed7243a	-0.42019826
131	0x3fb5c99f	1.4202155
132	0xbf950490	-1.1642017
133	0xbdd76daa	-0.10518964
134	0xbe228b5f	-0.15873478
135	0xbd9043ae	-0.07044159
136	0xbff35eb9	-1.9013282
137	0xbd934216	-0.07190339
138	0xbccd6679	-0.025073277
139	0xbea52fef	-0.32263133
140	0xbd7a5bdc	-0.06112276
141	0xbd847b45	-0.06468824
142	0xbd500ef2	-0.050795503
143	0x3cbfcadf	0.023412166
144	0x3f0ed60c	0.5579536
145	0xbf1e5796	-0.61852396
146	0xbd5f7e81	-0.054564003
147	0xbe01462d	-0.12624426
148	0xbd5ea552	-0.05435688
149	0xbc95dd46	-0.018293988
150	0x3f0ddca1	0.5541478
151	0xbdfa7fcc	-0.122314066
152	0xbc82ad8d	-0.015951896
153	0xbeb05017	-0.34436104
154	0xbd3634f8	-0.04448411
155	0xbd09b7e5	-0.03362264
156	0xbf571242	-0.84012234
157	0xbdaa5137	-0.08316272
158	0xbdbaf628	-0.09128982
159	0xbf8142cb	-1.0098509
160	0xbdc76f21	-0.09737993
161	0xbe997a22	-0.29975992
162	0xbfb10875	-1.3830706
163	0xbe9cdb1e	-0.30635923
164	0xbdae89af	-0.08522355
165	0xbeaedc7f	-0.341526
166	0xbdb5cd10	-0.08877003
167	0xbd2fd5b7	-0.042928424
168	0xbee3bae3	-0.4447852
169	0x3cae4426	0.02127273
170	0xbcac38b7	-0.021023137
171	0xbde130e3	-0.109956525
172	0xbe0dda7d	-0.13852878
173	0xbff1088d	-1.8830734
174	0xbd50547a	-0.050861813
175	0xbdcfed59	-0.10152692
176	0x3fb1ce10	1.389101
177	0xbde2d78b	-0.11076268
178	0xbc68575b	-0.014180983
179	0xbb3fb370	-0.002925124
180	0xbdb21bc0	-0.08696699
181	0xbdc474a1	-0.09592558
182	0xbf452dc9	-0.7702299
183	0xbd7b3a84	-0.0613351
184	0x3f855654	1.041697
185	0xbfbc1be8	-1.4696016
186	0xbc6e4eb3	-0.014545131
187	0xbd90f376	-0.070776865
188	0x3f510829	0.81653076
189	0xbdba52e0	-0.090978384
190	0xbdf373e4	-0.11887339
191	0xbf0ec02d	-0.55761987
192	0xbd5dce7a	-0.05415199
193	0xbc789784	-0.015172843
194	0xbf1a3d96	-0.6025022
195	0xbea371d7	-0.3192279
196	0xbdda01d2	-0.106448784
197	0xbd9da31e	-0.07697128
198	0xbf43a8b9	-0.76429325
199	0x3d43d928	0.04781452
200	0xbc0cd0dd	-0.008594719
201	0xbd48e239	-0.049043868
202	0xbd9a35c6	-0.07529788
203	0xbf245787	-0.64196056
204	0xbe6eb11b	-0.23309748
205	0xbe24d3bf	-0.160964
206	0xbc89130d	-0.016732717
207	0xbee0c063	-0.4389678
208	0xbdb274d0	-0.087136865
209	0xbe399cd8	-0.18126237
210	0xbd723dbc	-0.059140906
211	0xbde79d6b	-0.11309322
212	0xbde1ade3	-0.110194944
213	0xbdeea6fb	-0.11652943
214	0xbf29cebf	-0.66331095
215	0x3c11e98d	0.0089057805
216	0xbda3d2b7	-0.07999175
217	0xbea9dccf	-0.33176276
218	0xbe2ddc3f	-0.16978548
219	0xbdbe4f30	-0.092924476
220	0xbd186426	-0.037204884
221	0xbebb89b5	-0.366285
222	0x3abad0a7	0.0014252857
223	0xbdcd1791	-0.100142606
224	0xbda21887	-0.079148345
225	0xbd702c0c	-0.058635756
226	0xbf01b905	-0.5067294
227	0xbf3ec2d0	-0.7451601
228	0xbd1c276e	-0.03812354
229	0xbda42aff	-0.08016013
230	0xbd73957c	-0.05946873
231	0xbfa6d948	-1.3035059
232	0xbd3b1248	-0.04567173
233	0xbed6c990	-0.41950655
234	0xbde0186b	-0.10942157
235	0xbd362eb8	-0.04447815
236	0xbd988b36	-0.074484274
237	0xbf3464e8	-0.7046647
238	0xbe97569e	-0.2955827
239	0xbf001ac3	-0.50040835
240	0xbd40f169	-0.047105227
241	0xbe24025e	-0.16016528
242	0xbef8ae82	-0.4857064
243	0xbf034c5d	-0.51288396
244	0xbc1689ee	-0.009188158
245	0xbebac5b8	-0.36478972
246	0xbdda2b3a	-0.10652776
247	0xbda7095f	-0.08156084
248	0xbe4e0f39	-0.20122994
249	0xbd2530b7	-0.04032966
250	0xbdcc9771	-0.09989823
251	0xbeaf02c7	-0.34181806
252	0xbdd02efa	-0.1016521
253	0xbdc77b8b	-0.09740361
254	0xbed8e892	-0.42364937
255	0xbdbf6f78	-0.09347433

l3.weight f4 [4, 300]
0	0xc0035264	-2.0519037
1	0x3e7a6c36	0.24455342
2	0xbcfc7ad3	-0.030820286
3	0xbe0c475d	-0.13699098
4	0xbde4c054	-0.11169496
5	0xbce313b2	-0.027719352
6	0x3caead9f	0.021323023
7	0xbf59c419	-0.85064846
8	0xbd28bfa7	-0.0411984
9	0xbf22b71e	-0.63560665
10	0x3ede5029	0.43420532
11	0x40333f9b	2.8007572
12	0xbde9f6fa	-0.1142406
13	0xbd2ea377	-0.04263636
14	0x3cf5abdb	0.029989174
15	0xbca2fe37	-0.01989661
16	0x3defd6e2	0.117109075
17	0x3c4a3611	0.012341992
18	0xbd16b949	-0.036797795
19	0xbc4cad51	-0.012492494
20	0x3eaa87bf	0.3330669
21	0x3c943da5	0.0180958
22	0x3cd34ef9	0.025794493
23	0x3cf6b194	0.030113973
24	0xbd2fcd1f	-0.042920228
25	0x3f5f70e1	0.87281615
26	0xbce92b13	-0.028462922
27	0xbcde7b21	-0.027158322
28	0xbfae4a66	-1.3616455
29	0xbd0b778d	-0.03404956
30	0x3a9400b5	0.0011291715
31	0xbf1e5314	-0.6184552
32	0xbf296096	-0.66163003
33	0xbd388460	-0.045048118
34	0xc08ef935	-4.467921
35	0x3f7871db	0.9704873
36	0x3ceb5752	0.028728161
37	0xbf452080	-0.77002716
38	0x3a8fbbb3	0.0010965973
39	0xbbc2984b	-0.005938565
40	0x3d2a04a6	0.04150834
41	0x3e3d2587	0.18471347
42	0xbab303c8	-0.0013657743
43	0x3c2ad797	0.010427377
44	0x3ec65db0	0.38743353
45	0x3c86b01d	0.0164414
46	0x3ce7814b	0.028259894
47	0xbc9c8466	-0.019106101
48	0xba08adf3	-0.0005213909
49	0xbd65b165	-0.05607738
50	0x3f36d567	0.71419376
51	0xbd1a43d6	-0.03766235
52	0xbcb6da4e	-0.022320893
53	0x3d39138e	0.045184664
54	0x3c22dc9f	0.0099402955
55	0x3be871eb	0.007093658
56	0xbd778ac4	-0.06043507
57	0xbaeb7052	-0.0017962551
58	0x3da94156	0.08264415
59	0xbf499778	-0.7874675
60	0xbd055924	-0.032555714
61	0x3deaa082	0.11456396
62	0xbd6b3a6b	-0.05742876
63	0xbf2233de	-0.63360393
64	0xc000668a	-2.0062585
65	0xbdaa81a7	-0.083255105
66	0x3eaf1237	0.34193584
67	0x3f2d74ec	0.67756534
68	0xbd773e34	-0.060362056
69	0xbd04f075	-0.03245588
70	0x3cbd3cf8	0.023100361
71	0xbe30c8af	-0.17264055
72	0xbc9257b5	-0.017864088
73	0x3d978ac8	0.07399517
74	0x3d3d539f	0.046222325
75	0x3bb7b620	0.005606428
76	0x3c115905	0.008871322
77	0xbd1b45a5	-0.037908215
78	0xbdbd41a8	-0.092410386
79	0xc01abdb5	-2.4178288
80	0xbecab249	-0.39589146
81	0x3d396a1b	0.045267206
82	0xbe9a80c6	-0.3017637
83	0x3a4741d1	0.0007601055
84	0xbd073f14	-0.03301914
85	0x3f29809e	0.6621188
86	0xc028adae	-2.6356006
87	0xb7ba7dd8	-2.2231528e-05
88	0x3cef5d02	0.029219154
89	0xbd54cdca	-0.05195407
90	0xbc91fea5	-0.01782162
91	0xbf1a255d	-0.6021326
92	0x3d35050f	0.044194277
93	0xbd104b7d	-0.03522824
94	0xbc994e85	-0.018714199
95	0x3cea9c9a	0.028639127
96	0x3ea8ac1e	0.32943815
97	0xbca8c83e	-0.020603295
98	0xbe593331	-0.21210934
99	0xbce04cc2	-0.027380351
100	0x3efed2a6	0.49770087
101	0xbcc3d798	-0.023906514
102	0xbc9b4f06	-0.01895858
103	0xbed53224	-0.41639817
104	0xbf8e63fc	-1.1124263
105	0xbfc128e0	-1.5090599
106	0x3c5a1d29	0.013312616
107	0xbd6b5a72	-0.057459302
108	0x3d0c2435	0.034214217
109	0xbda09826	-0.0784152
110	0xbcc32fa1	-0.023826422
111	0xbd9a6479	-0.07538695
112	0x3df37877	0.11888211
113	0x3fb666f8	1.4250174
114	0x3f2015ae	0.6253308
115	0xbf8db754	-1.1071572
116	0xba86e6cc	-0.0010292172
117	0xbc1b8e4d	-0.009494376
118	0x3cfe14fb	0.031015864
119	0x3dc193e9	0.0945204
120	0xbc92d965	-0.017925927
121	0x3ca1177e	0.019664522
122	0xbd324e87	-0.04353192
123	0x3d8353f5	0.06412498
124	0xc0595849	-3.3960135
125	0x3edd89b9	0.43269137
126	0xbc8950c5	-0.016762147
127	0xbf1bcf26	-0.6086296
128	0xbeccc58a	-0.3999446
129	0xbe930a9d	-0.28719035
130	0xbfa9c3ce	-1.326288
131	0x3d5e6e03	0.054304134
132	0xbd71c9d9	-0.059030388
133	0x3c813c05	0.01577569
134	0x3c3beb77	0.011469713
135	0x3d079d9d	0.033109296
136	0x3d250d05	0.04029562
137	0x3c356078	0.011070363
138	0xbd18f18e	-0.03733974
139	0x3f407f58	0.7519431
140	0xbd562012	-0.05227668
141	0x3d08b7a4	0.03337826
142	0xbd54bbd1	-0.05193693
143	0xbe92109d	-0.285283
144	0xc0934aae	-4.602866
145	0xbf6859b3	-0.9076187
146	0xbd555bf9	-0.052089665
147	0xbc92e06e	-0.017929282
148	0xbd8c90cc	-0.06863555
149	0xbb906546	-0.004406604
150	0x3f875e95	1.0575739
151	0x3c96ff1d	0.018432194
152	0x3ccb69e0	0.024830759
153	0x3e1434b2	0.14473227
154	0x3d49a330	0.049227893
155	0xbaa9ec6e	-0.0012964138
156	0xbf475301	-0.7786103
157	0xbb9d55c6	-0.0048014848
158	0x3cfc1543	0.030771857
159	0x3cd82589	0.026385086
160	0x3d1d7f2d	0.038451362
161	0x3c07504f	0.008258893
162	0xbc8339fa	-0.016018856
163	0x3bec634b	0.007213985
164	0x3d2499ef	0.040185865
165	0x3f1455dd	0.57943517
166	0x3cd6b611	0.026209863
167	0x3ce9579b	0.028484156
168	0x3d90c55e	0.07068895
169	0xbd4a0348	-0.049319535
170	0xbcd94c91	-0.026525768
171	0xbd8e8ef5	-0.06960861
172	0xbe5e4d09	-0.21709074
173	0x3f2ce5a9	0.67537934
174	0xbc7443b3	-0.014908719
175	0x3d2cc6e6	0.04218187
176	0x3c8e9766	0.017406177
177	0xbcd01082	-0.025398497
178	0xbd3f91d7	-0.046769943
179	0x3ca97bee	0.020688977
180	0x3ca5844e	0.02020469
181	0x3e155c5e	0.14586017
182	0xbfe2017b	-1.7656702
183	0xbc024e3d	-0.007953224
184	0x3cb6256b	0.02223464
185	0x3d6ad283	0.057329666
186	0x3cbd2ee8	0.023093656
187	0x3d64eacb	0.05588798
188	0xbdb4c76f	-0.088271014
189	0xbcc956a0	-0.024577439
190	0x3b03bca4	0.0020101452
191	0x3fe88252	1.8164771
192	0xbd1f476e	-0.03888648
193	0xbd15160e	-0.036397986
194	0x3f02ea7c	0.51139045
195	0x3d6ec703	0.05829526
196	0xbd5a6b4a	-0.053324975
197	0x3c129955	0.00894769
198	0x3e8b313c	0.27186
199	0xc0498c89	-3.1492026
200	0xbd0afe74	-0.03393407
201	0x3cb5cf68	0.022193626
202	0x3cfba1a4	0.030716725
203	0x3ee0299b	0.43781742
204	0x40379c57	2.8689172
205	0xbded7c8a	-0.115960196
206	0x3ce587d2	0.028018866
207	0x3d26b9af	0.040704425
208	0xbbc89f09	-0.006122474
209	0x3e98eda6	0.2986881
210	0x3c06011d	0.008178976
211	0xbc6a70db	-0.014309133
212	0xbb1217a6	-0.0022291928
213	0xbb80f99c	-0.0039360058
214	0x3f7317b4	0.94958043
215	0x3cd56f82	0.026054148
216	0x3d000867	0.031258013
217	0x3e564fb8	0.20928848
218	0xbf6927f3	-0.9107658
219	0xbce252bb	-0.02762734
220	0xbc536731	-0.012903021
221	0xbc3417f5	-0.01099204
222	0xbcb040c0	-0.02151525
223	0xbb521bf2	-0.0032060114
224	0x3c92ac15	0.01790432
225	0x3d0dbb3d	0.034602392
226	0xbb5dbc82	-0.0033834283
227	0xbef757fb	-0.4830931
228	0xbc12ea96	-0.008967062
229	0xbced525b	-0.028969934
230	0xbb918016	-0.004440318
231	0x3c4d69a7	0.0125373965
232	0xbd0e47dd	-0.034736503
233	0x3e8df167	0.27723238
234	0xbbf762eb	-0.0075496337
235	0x3d05d944	0.032677904
236	0x3d698103	0.0570078
237	0xbb8cb265	-0.004293727
238	0xbda76b06	-0.0817471
239	0x3d12b706	0.035819076
240	0x3c89dbd5	0.016828457
241	0x3e2686e6	0.16262397
242	0xbdcc7172	-0.099825755
243	0x3d22c54f	0.03973895
244	0xbc9b146e	-0.01893064
245	0xbf7aade4	-0.97921586
246	0xbdaec1ef	-0.08533084
247	0xbc98874e	-0.018619206
248	0xbe023b7d	-0.12718005
249	0x3c0ac3dd	0.008469549
250	0xbc1cb7f6	-0.009565344
251	0x3e97569d	0.29558268
252	0xbd42b2a0	-0.04753363
253	0xbe0d4e62	-0.13799432
254	0xbedcb08a	-0.4310344
255	0xbd9b01ae	-0.0756868

l3.bias f4 [4]
0	0xbec103f3	-0.37698326
1	0x3e807dfe	0.25096124
2	0x3c75b13c	0.014995869
3	0xbc20ad1c	-0.0098068975
