TD3_control/dir_Walker2D_002/biped-v7-2d-8_actor.pth (torch, 527895 bytes, 6 tensors)

l1.weight f4 [400, 24]
00000000: 373c 4c40 b0f7 893f 3804 0fbf 9acc b23f
00000010: ddc7 c4bf fb3a bb3f 1aa9 0e3d 791d 5abd
00000020: b27b 723f f2ed 7ebd 373f 8dbd 967a 113f
00000030: 5a96 72c0 ba70 263e 3641 30be 2874 8ebd
00000040: 85b0 c83f 23ce 203e d0e2 79be 3b21 873e
00000050: 0a01 35be f25c d43c c02e 93bf 1eec 1abf
00000060: 2c2a 4140 5f04 4b3f e146 ca3d c444 12c0
00000070: beec 19c0 5596 863e 6783 01be 93cd 483e
00000080: a94a a23e 777e 263e 7fe8 ca3f 3e0b f0be
00000090: d383 80bf 6517 44be 8484 a9bd cf0d d93d
000000a0: 45af a93d 2f3c bdbd 3ee3 023e ad5e 20bf
000000b0: 1746 123d 20f1 0abe e551 813e 129a e4bf
000000c0: d634 5cbf e44b 5d3d bffe 78bf 369b 16bf
000000d0: 7bd7 2340 08de 943f c751 f23d 1dd4 453e
000000e0: d689 90be b5a6 b8bf 515f 55bf 3ded a5be
000000f0: e881 2e3e 3372 cabe c341 1a3e 3875 49be
00000100: d002 593e 846d ff3e ff0c 773d b695 d53e
00000110: d08b 023e 1a5e c93d 7274 9dbe bae4 84bf
00000120: 3f0b fa40 eda1 babf 6741 d23e 8c7d 12c0
00000130: 744c f3bf 2dda d93f 6b6c acbd a820 2d3e
00000140: 07e0 8d3e 0847 5cbe 4e16 b43e d063 31be
00000150: 0f71 a5c0 2e39 63be b65a 503d af79 0e3e
00000160: b529 f73f 2810 8dbe 2b07 88bf 7137 7abe
00000170: d2d4 4bbe e8ca e6bd e9a9 083f 4cc9 b03e
00000180: 2168 c040 87d2 03bf 54c1 bbbd 0510 e8bf
00000190: f774 4abf 33ef 063f 29fb cebd edd6 44be
000001a0: b4fa b6be a91c 19be ea06 1c3f e99d 073f
000001b0: 04d2 1ec0 473b 113e a416 1a3e bbbe ffbd
000001c0: 4167 2f40 9b7e 94be 09b1 a23e d3e2 363d
000001d0: 8961 0f3e 8f44 133e 27ee a0bc dc1a 14c0
000001e0: 33ef db3f 0258 24be 8c0a 8fbe f035 a13e
000001f0: 8bf2 6abf da25 1a40 8fe3 373e dccb a83c
00000200: 39ff d4bf 8b45 90be 213a 0740 c374 543f
00000210: 016a d9bf 0365 38bd 849c d1bc 7e39 623c
00000220: e71d d2bf 5061 c7bd 6be4 19be ce05 2b3c
00000230: 2afb 563d ca2c 333d 68a2 83bf f3a8 76bf
00000240: 1873 11c0 5bc3 a4be 706a 12bf df34 2940
00000250: 674d d8be 718c 4540 c0ba bbbd b55e 5d3d
00000260: 3bac 023e 2cd7 91bd b5e8 9b3e 86bd b2bd
00000270: a5c7 0b40 9aae 2a3c 46cb 493e 2c5e 16be
00000280: 1d73 04c0 c035 283f 0fd4 5e3f faf3 283e
00000290: a062 e13d ac7f 12be 9427 2fbf 634a f23e
000002a0: 616e 213e f16a 00be b289 41be 58a3 333e
000002b0: aee2 883e 950f a23e 07b6 eebc f3ac 6cbb
000002c0: df4f 2bbe 4bdd 33be 874d 0cbd 7981 9bbb
000002d0: e13f c43d 071d f33c 883d 173e 645b 49be
000002e0: afdf a73c e9e5 aabc 10fb 84be c716 ff3b
000002f0: a20e 203e 96d5 823d 5e42 e7be aaf7 d6be
00000300: 518d 413f 9b49 523f 29d8 83be d033 e1bf
00000310: 7ce4 8f3f 0dca 82bf ef6c 823d 3c4b 06be
00000320: 1647 0ec0 d982 69bf deb9 cbbf c5a6 f9bd
00000330: 19c9 8e3e b7bb 00be 3348 163c b278 59bd
00000340: 4a69 7d3f fc45 ef3e aceb b9be 4aa7 b2bc
00000350: 0f53 b5bc ffd8 17bb 0062 493f a712 233f
00000360: 2ce2 d03f d816 46bf 0852 28bf 84e8 873f
00000370: 1108 fabe 03d4 2640 5a5b 9e3d d927 00be
00000380: 6747 3d3f 4562 a2bf c922 f53b da3a 33bd
00000390: 78d3 bcbf ce9e 013f 01d8 483e c259 2f3d
000003a0: 436e 5b3f 4337 ae3e 6e86 3fbe 9491 bb3e
000003b0: 2c0f 083e 2cda fa3d 1878 5fbf c977 e0be
000003c0: d434 dbbe 3eec 843d 51ec 443e 4761 79c0
000003d0: b2ac 783f d22f 013d 11d7 f33d 4e35 5a3d
000003e0: cb38 8cbf 5163 8abb b17c 3a3f 42e0 973e
000003f0: 4d00 62c0 702b 623e b136 0e3e c532 a73d
3.1911752 1.0778713 -0.5586581 1.396869 -1.5373493 1.4627374 0.034829237 -0.053250764
0.94719994 -0.06223864 -0.06896823 0.56827676 -3.7904267 0.1625394 -0.17212376 -0.06955749
1.567887 0.15703635 -0.24402928 0.2639254 -0.17676178 0.025923226 -1.1498642 -0.60516536
3.018199 0.79303545 0.098768 -2.2854471 -2.4050746 0.2628657 -0.12647782 0.1960967
0.31697586 0.1625918 1.5852202 -0.46883577 -1.004023 -0.1914955 -0.082772285 0.10598337
0.08285383 -0.09239995 0.12781999 -0.62644464 0.035711374 -0.13568544 0.25257793 -1.7859519
-0.8601812 0.054027453 -0.9726371 -0.58830583 2.560027 1.1630259 0.11832004 0.19319196
-0.2823016 -1.4425875 -0.83348566 -0.3240756 0.17041743 -0.39540252 0.15064149 -0.19673622
0.21192479 0.4988824 0.06031513 0.41715783 0.12748647 0.098324016 -0.30752903 -1.0382302
7.813873 -1.4580666 0.41065523 -2.2889128 -1.9007707 1.7019707 -0.084191166 0.16906989
0.27709982 -0.21511471 0.35173267 -0.17323232 -5.170051 -0.22189781 0.05086776 0.13913606
1.9309603 -0.2755139 -1.0627187 -0.24435212 -0.19905403 -0.1126917 0.5338426 0.34528577
6.012711 -0.51493114 -0.09167734 -1.8129889 -0.79084724 0.5270874 -0.10106499 -0.19222613
-0.35738146 -0.14952339 0.6094805 0.52975327 -2.4815683 0.14182769 0.15047699 -0.12487551
2.740677 -0.29002842 0.31775692 0.04464991 0.1400205 0.14381622 -0.01964481 -2.3141394
1.7182373 -0.16049197 -0.27937734 0.31486464 -0.9177634 2.4085603 0.179579 0.02060502
-1.6640388 -0.28178057 2.112923 0.82990664 -1.6985475 -0.045018207 -0.025587328 0.0138076525
-1.6415375 -0.09735358 -0.15028541 0.010438396 0.052485622 0.043743886 -1.0283937 -0.96351546
-2.2726498 -0.32180294 -0.5719366 2.643852 -0.42246553 3.0866969 -0.09166479 0.054045398
0.12761013 -0.07121119 0.3045098 -0.08727555 2.1840603 0.010417605 0.19706449 -0.14684361
-2.069526 0.65707016 0.87042326 0.1649932 0.11005139 -0.14306515 -0.68419766 0.47322378
0.15764762 -0.12540795 -0.18900183 0.1754278 0.26735443 0.31652513 -0.029139532 -0.0036113828
-0.16729687 -0.17564885 -0.034253623 -0.004745659 0.095824964 0.029676927 0.14769566 -0.19663769
0.020492403 -0.020861583 -0.25972795 0.0077846977 0.15630582 0.063883945 -0.45167822 -0.41985828
0.75606257 0.82143563 -0.25750855 -1.7593937 1.1241603 -1.0217911 0.06368434 -0.13114637
-2.2230887 -0.9121528 -1.5916097 -0.12190012 0.278878 -0.12571608 0.009172487 -0.05309362
0.98988783 0.4673308 -0.36312616 -0.021808285 -0.022134332 -0.0023170111 0.7866516 0.63700336
1.6319022 -0.77378607 -0.6575017 1.0617833 -0.4883428 2.6066902 0.07732268 -0.125152
0.73937076 -1.268624 0.0074809534 -0.043757297 -1.4752035 0.5063294 0.19613649 0.04281021
0.8571512 0.34026536 -0.18703625 0.36634505 0.13287038 0.12248644 -0.87292624 -0.4384139
-0.42813742 0.06490372 0.19230773 -3.8965623 0.9713851 0.031539746 0.11906255 0.05327349
-1.0954832 -0.004223265 0.72846514 0.29663283 -3.5312684 0.22086883 0.1388805 0.081639804

l1.bias f4 [400]
00000000: c3d8 08bf e06a 13bf 1f26 52bf b0ef ff3f
00000010: df72 1dbf 2100 95bf 4964 78bf 54d4 8cbe
00000020: a4e6 70bf 1d53 9dbf 0db7 7a3e 5dbe 16bf
00000030: de33 fcbe f9c5 f7be 0aa8 1dbf 221c 623e
00000040: 8947 abbf fae3 3fbf e2e3 ccbf d61a 72bf
00000050: 54d3 4bbf 782d 15bd e624 05bf 3835 46be
00000060: 589d 6bbf 9351 26bf 0087 41bf b73d f9bd
00000070: 9654 553e 47cf 49bf 1993 90be 2b9c 8cbf
00000080: becd 9dbf 50fd 853e 4d38 c8bf efe3 8abf
00000090: 5e15 98bf 3d79 6ebf beef 0cbf 84b2 e23e
000000a0: 839a 50bf 76be 3dbf 7313 8fbf 21a0 c9be
000000b0: cb13 64bf 0e63 bfbf b385 05bf 2a64 81bf
000000c0: 06c6 bebf 1cbe f63d f52b 09bf 2315 9dbf
000000d0: 960e d0bf c246 0bbf 7ee6 253e aa2f 813d
000000e0: 6e15 85bc b00c 38bf b96a 93bf 9f4b 80bf
000000f0: 4617 98bf a8e9 a83e a59b 01bf d922 2f3d
00000100: 5ce3 8b3e 965a 5dbe c88f 1d3f 7891 92bf
00000110: 7745 fcbe 0c66 55bf 97c5 6cbf 13c5 81bf
00000120: 8e4a 90bf 35d9 97bf 24c3 72bf 42f5 cfbf
00000130: 0fec f3be 9c75 213e 1b9e 59bf 97dc 92bf
00000140: 1f26 5fbf cd41 8bbe 873c dabe 9685 5fbf
00000150: 47e0 69bf badf 98bf 4bea 6ebf 6fd7 03be
00000160: 7113 1bbf c487 62bf e193 3ebf 817c b9be
00000170: cf6c 37be 5adc 61bf d31d 02bf 801d f5bd
00000180: 4178 823e 084b 08bf 876f a8bf bc2c 90bf
00000190: 995d 073d a5cf 1fbd 0c9f 71be b892 6fbf
000001a0: 786e 9bbe d7a9 9ebf cce1 16bf c87a 98bf
000001b0: 134c ae3e 66e9 70bf ce73 9cbf 2ea8 8fbf
000001c0: 4886 a8bf f085 20bf bcf3 f4be 48d9 70be
000001d0: 7301 5f3f 5092 a3bf 7a8b 74be b0ed d0bd
000001e0: 1b41 9f3e e417 20bf 3495 253f 0cdd 75bf
000001f0: d9c0 8bbf 6c1e 8ebf 9299 363f 5c37 8fbf
00000200: 46d2 a1bf 0edc dd3e ef65 d73c 6bff 033e
00000210: cfdd 33bf f055 88be 0068 1abf 6426 9c3d
00000220: 2275 efbe 8bf5 f8be 9222 6cbf a0a9 05bf
00000230: a536 62bf da28 94bf f8b7 92bf 1c6d a9be
00000240: 7431 94bf 2136 8fbf 00df ebbf 00da b8be
00000250: 6c11 3abf 747d 41bf 1739 77bf d859 9bbf
00000260: 93c8 833e 6fd7 0bbf 6a69 e1bf 5cf0 01bf
00000270: 930e a4bd b993 c7be 4986 7ebf 75cd 243e
00000280: 591c f9be 811e 5ebf f77c 26bf 6768 80bf
00000290: 0f6d 6dbf 2f7d 84bf 1031 34bf b2ca 35bf
000002a0: 4503 bbbf 7c2c cabe d1b5 acbf d93e 9bbf
000002b0: 172e c23d 1ce4 843e f2b3 d2be d5d7 8abf
000002c0: 2e83 81bf d1c3 19bf aeb8 e3bd d7a7 aebf
000002d0: 2e6d 9ebf 4f60 2bbf 12f8 c8bf 9451 f03e
000002e0: af0f e1bf ed54 0bbe 43e6 69bf de18 7abf
000002f0: ef94 0dbf b37f a0bf 4403 08bf 9ccd a33e
00000300: 8b86 9cbe 7807 7abf c93c 883e 11f9 01bf
00000310: b203 5abf 4acf f4bf 348f b9be 8064 b3bf
00000320: e6d5 f6be acfb acbf 4f54 c23e 2515 43bf
00000330: 201b 93bf ab98 52bf e74b c6be 2f83 ffbe
00000340: a49c 53bf 6159 81bf 6b8e abbf 7b58 9dbe
00000350: 3f34 2f3e 9416 f6be 529e e7be f7c7 79bf
00000360: b5c2 a4bf 7cda b1bf acf4 b2bd 5d2e 36bf
00000370: 40db 48bf 058c e9be 672e 1b3f c1d1 15bf
00000380: e0ae 8dbf fbd5 38be 37a9 e2bf 18ad 6abf
00000390: e65d 20be f4f6 0dbd fa09 78bf 5072 453e
000003a0: 6962 a7bf 5626 cdbe 1e1c 84be 89f4 1b3e
000003b0: 59c3 a9bf 837c 99bf 327d 6bbf fcf9 35bf
000003c0: d73d 82bf 6387 403e 5f83 92be f5e8 00bf
000003d0: f7d4 5cbe d4c9 01bf 4322 bcbf e205 8abe
000003e0: 6d8f ccbe cc77 d3be 2e0f 6ebf f8c8 69bf
000003f0: 661d cfbf a51b afbe 12dd 53bf 8ba3 483f
-0.5345575 -0.57584953 -0.8208942 1.9995022 -0.61503404 -1.1640664 -0.97028023 -0.27505744
-0.9410193 -1.2290989 0.24483891 -0.5888422 -0.49258322 -0.4839323 -0.6158453 0.22081044
-1.3381206 -0.7495724 -1.6007044 -0.945722 -0.79619336 -0.036420316 -0.5200943 -0.19356239
-0.9203696 -0.6496822 -0.7559662 -0.12169974 0.20833048 -0.78831905 -0.28237227 -1.0985159
-1.2328413 0.26169825 -1.5642182 -1.085081 -1.1881521 -0.93153745 -0.5505332 0.44276822
-0.81485766 -0.74118745 -1.117781 -0.3937998 -0.890927 -1.4952104 -0.52157134 -1.0108693
-1.4904182 0.12047979 -0.535827 -1.2272075 -1.6254451 -0.5440484 0.16201207 0.06307919
-0.01624557 -0.7189436 -1.1516944 -1.0023078 -1.1882102 0.32990766 -0.5062812 0.042757843
0.273219 -0.21616587 0.6154752 -1.1450644 -0.49271747 -0.83358836 -0.92489 -1.0138267
-1.1272752 -1.1863161 -0.9482901 -1.6246722 -0.47641036 0.1576752 -0.85006875 -1.1473569
-0.87167543 -0.2719864 -0.42624304 -0.8731321 -0.91357845 -1.1943276 -0.9332625 -0.1287515
-0.6057654 -0.8848841 -0.74444395 -0.362278 -0.17912601 -0.88226855 -0.5082676 -0.11968517
0.2548237 -0.5323949 -1.3159035 -1.1263652 0.033048246 -0.039016385 -0.23595828 -0.9358325
-0.30357718 -1.2395581 -0.5893829 -1.191247 0.34042415 -0.9410614 -1.2222841 -1.1223199
-1.3165979 -0.6270437 -0.47842205 -0.23520386 0.87111586 -1.2779026 -0.23881331 -0.10201585
0.3110436 -0.62536454 0.6468079 -0.96040416 -1.0918227 -1.1103034 0.7132808 -1.1188769
-1.2642295 0.4333195 0.026293723 0.12890403 -0.7026033 -0.26628065 -0.6031494 0.0762451
-0.46769053 -0.48624834 -0.9224025 -0.5221195 -0.8836463 -1.1574967 -1.1462393 -0.33091056
-1.1577592 -1.1188394 -1.8427429 -0.3610382 -0.72682834 -0.7558205 -0.9657149 -1.2136793
0.25738963 -0.546256 -1.7610295 -0.50757384 -0.08010592 -0.3897989 -0.9942365 0.16094
-0.4865444 -0.86765295 -0.6503443 -1.0031861 -0.92744535 -1.0350703 -0.70387363 -0.71012414
-1.4610373 -0.39487064 -1.3492986 -1.2128555 0.09481447 0.25955284 -0.41152912 -1.0847117
-1.0118158 -0.6006442 -0.11119209 -1.3644971 -1.2377069 -0.6694383 -1.5700705 0.4693724
-1.7582911 -0.13606615 -0.91366976 -0.97694194 -0.5530538 -1.2538971 -0.5312998 0.31992805
-0.30571398 -0.97667646 0.26608875 -0.5077067 -0.8516189 -1.912576 -0.36242068 -1.4015045
-0.48210067 -1.3514304 0.37954947 -0.7620414 -1.1492653 -0.822642 -0.38729784 -0.49904773
-0.8266089 -1.0105401 -1.3402838 -0.30731568 0.17109774 -0.480641 -0.45237976 -0.9757075
-1.287192 -1.3894801 -0.08738074 -0.71164495 -0.7845955 -0.4561464 0.6061768 -0.58523184
-1.1068993 -0.18050377 -1.770789 -0.9167037 -0.1566082 -0.03465934 -0.96890223 0.19281888
-1.3076907 -0.4006831 -0.25802702 0.15230002 -1.326274 -1.1991123 -0.9198791 -0.7108457
-1.0175122 0.18801646 -0.28615853 -0.50355464 -0.21565615 -0.5069859 -1.4697956 -0.26957613
-0.39953175 -0.41302335 -0.9299191 -0.9132228 -1.6180847 -0.3420078 -0.827592 0.78374547

l2.weight f4 [300, 400]
00000000: 8a5e 43bc 117a 6abd ab8d 8ebd 019d 20bd
00000010: 3d43 4bbd 687e 01be 02e2 8cbd f296 d3bb
00000020: 631a 9abd 7e63 7dbc 549e 80bd bdc5 c9bc
00000030: 0503 923c 0a8a 9a3d 2c6d 81bd f046 3dbd
00000040: 3692 163d c765 a2bd 82b2 70bd dd9a 9c3d
00000050: dcac d2bd 21c4 05bb 5b81 3d3c bb75 8dbc
00000060: ab3a b1bc 5d91 9abd d381 033c 3e8a e43c
00000070: cec4 a0bd 7ac4 13bd d663 5dbd a7f6 5bbd
00000080: 6da1 303d 4236 e5bd 6e20 03bb 385a f73c
00000090: 020a 7c3c 7cdc 2d3d ea99 b13b 229c 85bb
000000a0: 3d0f 0ebd f1a4 e5bb b300 b23c 93b2 15bc
000000b0: 04e0 a93c 796d aa3c df0e a0bd b103 1ebd
000000c0: 572b 34bc ed80 0c3d fe4e 1a3d f49e 02be
000000d0: 481e e03c 09af bf3b 6c73 87bd c1f1 18bd
000000e0: 875b 8a3d 72b0 c1bc 78ad f4bb 9553 3f3d
000000f0: 39c7 9ebd 469c 1bbd 06bf 0f3d 5df0 e4bc
00000100: f1b4 89bd 15a4 a6bc 1924 a0bc 55c8 743d
00000110: 0f1a 653c e6b0 0a3d bbb6 28bd 914e 3a3d
00000120: 99e5 41bd bdd8 7cbb 91bd 7e3b 1105 a4bb
00000130: adad c43b 65d0 253c 4658 91bc 55c0 e4bb
00000140: 74ab 63bc af5d 43bd 3405 7ebd e86b 74bd
00000150: adeb 7ebd 5cb4 2dbc 3760 debc fc5b 45bd
00000160: 6d0d 4b3c 50d4 253c 73a9 cabc eccf 33bd
00000170: bb35 63bd 13bc afbd f855 c5bd 5c56 c83c
00000180: 5080 adbd bc3b 5bbd 4953 00bc 6510 e1bc
00000190: b165 5d3c a2ab 9cbd c50d 83bd 938d 53bd
000001a0: 37a0 063b 2dc4 9cbd d091 7e3c 529c 71bd
000001b0: 01d8 c4bc deaf c83c 4ff5 92bd b9be c1bc
000001c0: 42f2 1a3b 901e 1abc afe5 4bbd d9af 2ebd
000001d0: f641 babd 493d 12bd 7f0a 04bd 8736 95bd
000001e0: 22cb 4bbd 07f9 a8bc 7e14 ddbd df0e a6bd
000001f0: 654e 99bd cf70 f83c f990 10bc 6878 283d
00000200: 2747 c8bd 849a 053c 0f68 78ba 66b8 a03c
00000210: 9a90 973d 0248 0c3c ec4f 32bd 1c8d 6bbd
00000220: 6d72 b13c 0224 07bd 9fae 32bd fce1 32bc
00000230: c4c9 f5bc 7f30 edbb 950f c3bd 3eb7 09ba
00000240: 0c83 b8bd b681 97bc bfcf 93bb 79b3 40bb
00000250: 7b1d 433c 2354 023b 58e1 5bbd c314 12be
00000260: 7874 163c 255e 35bc 05e8 80bd 6398 82bd
00000270: 278d 04be 131a 7dbd 63a4 e7bc 064b 6a3c
00000280: ffac 96bd 48de f2bd 6712 dfbc d20d 933b
00000290: 9a9a c5bc 0543 1cbd f048 f5bb 3b52 06bd
000002a0: 6b9d 9fbd c06c 153c 0077 94bd 3397 51bd
000002b0: cdb7 51bd 8dbb b8bd 9cd8 f1bb 34f3 bbbc
000002c0: 8ce7 43bd 635b b5bc 7e32 cbbd db96 a5bd
000002d0: a67c b4bd 3375 a4bc cebe b3bd 11fe 99bd
000002e0: cf4e 91bd 96fd b9bc cf2a 62bd c804 aa3b
000002f0: 7b83 6dbc 9a0c f5bc c9dd 2e3d 828f b2bc
00000300: 1700 6abd 3b99 41bc c038 8ebd 601b dbbd
00000310: 9395 49bd eaa5 cdbc c7ae 4abd 0496 43bd
00000320: 34f2 953c 08ca 82bd 5a38 96bd 05d3 1bbb
00000330: c2f3 c0bd 9da7 96bd 82f1 29bd d93a d7bd
00000340: 5e35 0ebd d1c8 8c3c 1f63 62bd 3681 1abd
00000350: 9724 50bd 22af 92bc 5f9f 6fbc 2ef9 77bc
00000360: b2df 133c 92f0 5bbd a688 40bc 74fe b1bc
00000370: fbe9 36bc 238a 56bc 748b 853c 8cf5 303d
00000380: 9149 60bc 350c 50bb 6d62 56bd 9e94 39bd
00000390: 60c6 4abd e8ea 83bd 1d13 0bbd e6fe 98bc
000003a0: 6f77 8ebd 0e63 10bd 5f00 00bc 7ea4 abbd
000003b0: fd9c c6bd 21d8 4dbb d59b 95bd cbff 18bd
000003c0: 8409 a3bc 17ec 453d cbcd 02bd 8773 b3bc
000003d0: fbe4 14bd 0a8a d63c 911f c9bc a196 843a
000003e0: 8c56 77bd dec1 d6bc c8de 7b3c 8a5e 9abd
000003f0: 9ccd abbd b546 4bbd 1644 47bd 9d50 c6bd
-0.011924395 -0.057245318 -0.06960615 -0.03921223 -0.04962467 -0.12645876 -0.06879045 -0.006457203
-0.07524564 -0.015465615 -0.06280199 -0.024630422 0.017823705 0.0754586 -0.06319651 -0.04621023
0.03676053 -0.07929569 -0.05876399 0.07646725 -0.102868766 -0.0020411091 0.011566485 -0.017268052
-0.02163442 -0.07547257 0.008026558 0.02789795 -0.078500375 -0.036076047 -0.05405029 -0.053702023
0.043122698 -0.111919895 -0.0020008343 0.030194387 0.015383245 0.0424466 0.0054199593 -0.0040774504
-0.0346825 -0.007008188 0.021728849 -0.009136814 0.020736702 0.020804154 -0.078153364 -0.03857774
-0.010996661 0.03430264 0.03767299 -0.12755948 0.02735819 0.0058497232 -0.06613812 -0.03733993
0.06755739 -0.023643706 -0.007466968 0.04671057 -0.077528425 -0.03799083 0.035094284 -0.027946645
-0.06723965 -0.020341912 -0.019548463 0.059761364 0.013983264 0.03386011 -0.04118989 0.045485083
-0.047338102 -0.0038581335 0.0038870315 -0.005005487 0.006002149 0.010120486 -0.017742287 -0.0069809356
-0.013895858 -0.047696766 -0.06201668 -0.05967322 -0.062236477 -0.010602083 -0.027145488 -0.048183426
0.012393338 0.01012142 -0.024739003 -0.04389946 -0.055471163 -0.08580794 -0.09635538 0.024455242
-0.08471739 -0.053523764 -0.007832357 -0.027473638 0.013513015 -0.07649924 -0.06399111 -0.051648688
0.0020542273 -0.07654605 0.015537694 -0.05898697 -0.02402878 0.024497923 -0.07175695 -0.023650514
0.0023642932 -0.009406701 -0.04977959 -0.04264817 -0.09094612 -0.035702977 -0.032236572 -0.07285791
-0.04975427 -0.020626558 -0.10794924 -0.08108305 -0.07485656 0.030327229 -0.008823627 0.041130453
-0.09779196 0.008154515 -0.0009475955 0.019619178 0.074006274 0.00856209 -0.04353325 -0.05750762
0.021661008 -0.032993324 -0.043623563 -0.010918137 -0.030003436 -0.007238447 -0.095244564 -0.00052534405
-0.0900937 -0.018494468 -0.0045108492 -0.002940385 0.011908884 0.0019886575 -0.0536817 -0.14265732
0.009183042 -0.011069809 -0.06294254 -0.06376722 -0.1294447 -0.061792444 -0.028276628 0.014300114
-0.07357215 -0.11858803 -0.027230455 0.0044877315 -0.024121571 -0.038149852 -0.0074855015 -0.032793265
-0.07793697 0.009120166 -0.0724926 -0.051169585 -0.051200677 -0.090201475 -0.007380558 -0.022943117
-0.047828242 -0.022138303 -0.0992174 -0.08085414 -0.08812837 -0.020075416 -0.087766275 -0.075191624
-0.0709511 -0.022703927 -0.055216607 0.0051885583 -0.014496679 -0.029913235 0.04269198 -0.021796945
-0.057128992 -0.011816318 -0.06944418 -0.10698581 -0.04921491 -0.025103528 -0.049483087 -0.047750488
0.018303968 -0.06386191 -0.07334967 -0.00237769 -0.09421493 -0.073561884 -0.041490085 -0.10509271
-0.034718864 0.0171856 -0.05527031 -0.03772088 -0.050816145 -0.017905775 -0.014625399 -0.015135093
0.009025501 -0.053696223 -0.0117513295 -0.021727778 -0.011164184 -0.013094458 0.016301848 0.04320292
-0.013689415 -0.0031745557 -0.05233996 -0.045307748 -0.04950559 -0.06441289 -0.033953775 -0.018676233
-0.06956374 -0.035250716 -0.0078125885 -0.08380984 -0.09697912 -0.003140934 -0.07305113 -0.03735332
-0.019901998 0.048320856 -0.03193454 -0.021905674 -0.036351185 0.026188869 -0.024551185 0.0010115692
-0.060385272 -0.02621549 0.015372939 -0.07537563 -0.08388826 -0.04962798 -0.048648916 -0.096833445

l2.bias f4 [300]
00000000: c7c6 aebd 6486 a8bd 0165 37bb 34f3 9cbc
00000010: a477 4bbd 6a95 edbd bb63 80bd ff6c 79bf
00000020: b26c 81be 055e ddbc 5f17 aebd 5e2c c5bd
00000030: 98eb a8bd 473f 8abe 74a4 92bd 6089 40bf
00000040: 8930 99bd d613 87bd ed4a e2bc f9bb 9cbd
00000050: b8fc 4ebd 1f45 d7bc 3414 60bd cc00 87be
00000060: c9e1 9abd 9b5b 9e3c 04fe 453c 00f3 90bd
00000070: 98cb 48bd 42fb 30bf aaf0 b3bd 76a6 9abc
00000080: ef88 4abe 0559 94be a509 2dbd fca5 33be
00000090: 9969 9a39 49ea 44bc 99ae 37be 234e 45be
000000a0: a23c 33bc d8f6 a6be 42ba aabe 6370 d8bd
000000b0: 1703 37bc b20b 67bd b1b7 79bd 4aed 6ebd
000000c0: c07f a1bd b3ec 47be f987 12be 3a31 d6bc
000000d0: e742 fbbc be2d 3cbb 7a0a 98bd 26bf 90bd
000000e0: a966 7b3d 1005 76bd 04b7 97bc c34c b0be
000000f0: 34ca a2bd e846 a8bd c443 56bd 028f a0bf
00000100: 3ee9 13bf 9079 1a3d ad55 b1be 2491 813e
00000110: efd0 c33c 6ae5 0abd 28d9 87bd 7012 08bd
00000120: a6cc d9bd 0150 b6bd 24c6 213f 45e5 89be
00000130: 6615 14bd 0c72 c9bd 3b73 4fbf f3d6 e9be
00000140: 7f52 3cbd 5117 d7bd 3f6d 9cbd 8dfc 38bc
00000150: 6d11 f13b a339 03bd 7f97 d9bd cba4 03be
00000160: bb51 cebd dd15 eebc 2571 9f3d 3dc2 72bd
00000170: 1ffe ccbc 5896 8c39 0d18 babd bc7d 6abd
00000180: a796 d63c 0442 6ebd 63b6 a8bd ab59 acbd
00000190: fb3b 433d 142b 703e b546 6abd 8841 7abd
000001a0: 6162 e53c 2a86 c4bd e7a6 89bd 1803 02bf
000001b0: 199f bcbd 8364 b7bd 22b8 8bbd 8252 ffbc
000001c0: 78a5 21bf 6e90 6dbd f85a 09bc 99e0 84bd
000001d0: 8897 a1bd 6fe7 3f3f d683 7ebb 9d33 26bd
000001e0: f05c 6a3b e137 f9be 39ec 02be 354f 92bc
000001f0: 8930 a6bd b86c 97bd a84c b4bd f699 72bd
00000200: 16e0 8ebd d4bd 523f 6c61 5abd 034d babe
00000210: 5b41 81bd 25ea a83c 4899 f9be cafe 7cbd
00000220: a52c 85bc 79fc 47bd 9663 1abf 4acc bebe
00000230: 9f7a 2bbe 3925 97bd ab2e a2bd dd08 fdbc
00000240: d238 79bd d211 443f aacb 90bd 6d4d 9fbd
00000250: 447d 89bd f32c 26bd 908d a3bd 1b2f 53bd
00000260: e2f6 a2bd 88ea e7bd b803 c5bd aa08 d2bd
00000270: 5400 8dbd fe51 f2bc 869e 253e b44c 30bd
00000280: 079a 2bbf 9a08 acbc 8c45 8cbd c665 3ebd
00000290: 48e3 adbd 6425 8dbd c8d6 bebe 76b9 68bf
000002a0: 27eb 22bb a82d 07be 92f2 9abe d1a9 17be
000002b0: f04b f0bc d4dd b9bc 9d4f 9ebb d511 a8be
000002c0: 71ec d4bd b0c2 65bd 95a6 9bbc 99bb dfba
000002d0: e0d1 2abd 863b 68bf 922f e5bd 958b ddbe
000002e0: 1fe2 2cbe 712b 3fbd 5565 44be 5799 e63d
000002f0: e12c d7bd 682b 19bd a4b1 c6be 6b3b 53bd
00000300: 5807 c8be c559 0abe d93e 6cbd b28e 42be
00000310: 2bd9 c6bc 122d 43bc c7a8 3bbd cbcb 42bc
00000320: 3f39 6abd a2b4 dabc ff79 a1bd 54cd 8bbd
00000330: b708 aebd 1158 68bd 4797 7dbf 3d7b 3fbd
00000340: 6269 e8bd dbc8 2dbf 585b 68bd 45b0 26bf
00000350: 710f 11bd dcea b9bd 55d0 17bb 583d 3bbe
00000360: 67ff cfbd 5e70 30bd a014 57bd 95d2 cfbe
00000370: 65a2 b3bd 717c 03bd 4219 b0bd 2161 87bd
00000380: 2088 33bd 4b37 1e3e 97b1 a9bd 946f 95be
00000390: 26dd 9dbd 32b5 2bbf 7734 98bf 0b4d 8ebd
000003a0: 29ee c3bc b84d 173f 49d6 cfbd d8b2 3dbd
000003b0: 1173 9bbd 95c6 a1bd f9fc 5b3e ef34 37bc
000003c0: 2583 6abd 5758 a4be 4394 18be 48ee 7abd
000003d0: c14c 403e ae50 84bd 0854 23bd 357e b8bd
000003e0: ce6a 86bd f6ef f2bd cf8c f13d 0959 b0bc
000003f0: bdbe 9fbe 9be7 3ebd d129 e0bb 43d0 4dbd
-0.085340075 -0.08228758 -0.0027983787 -0.019158937 -0.049674645 -0.11600764 -0.06269022 -0.9743194
-0.2527824 -0.027022371 -0.085005514 -0.09627603 -0.08248061 -0.27001402 -0.07160273 -0.7520962
-0.074799605 -0.0659558 -0.027623618 -0.076530404 -0.05053398 -0.026278077 -0.054706767 -0.26367795
-0.07562596 0.01933079 0.012084488 -0.070775986 -0.049022287 -0.6913339 -0.087861374 -0.018878203
-0.19778799 -0.28974167 -0.042245526 -0.17543787 0.00029451845 -0.012018749 -0.17937697 -0.19268088
-0.010939749 -0.32610202 -0.33345228 -0.10568311 -0.01117017 -0.056407638 -0.060966197 -0.058331765
-0.078856945 -0.19523887 -0.14309682 -0.02614652 -0.03067155 -0.0028713788 -0.07423873 -0.07067709
0.0613772 -0.06006342 -0.018519886 -0.34433565 -0.079487234 -0.08216649 -0.05231072 -1.2543643
-0.57777774 0.037713587 -0.34635678 0.25306046 0.023903338 -0.033910193 -0.06633216 -0.03322071
-0.10634737 -0.08901978 0.63192964 -0.2693273 -0.03615322 -0.09836206 -0.810352 -0.45671806
-0.045977112 -0.10502494 -0.076380245 -0.011290682 0.0073568136 -0.03203739 -0.10624599 -0.12855832
-0.100741826 -0.02906316 0.077852525 -0.05926727 -0.025023518 0.00026814896 -0.090866186 -0.057248816
0.026194884 -0.058168426 -0.082379125 -0.0841554 0.047664624 0.23453933 -0.057196338 -0.06109765
0.028001012 -0.09595902 -0.06721287 -0.5078597 -0.09210033 -0.08954718 -0.0682223 -0.031167272
-0.6314311 -0.057999067 -0.008383505 -0.06488151 -0.078902304 0.74962515 -0.0038835905 -0.040576566
0.0035760961 -0.48675445 -0.12785424 -0.017860034 -0.08114726 -0.07393783 -0.088036835 -0.05922886
-0.06976335 0.82320905 -0.053315565 -0.3638688 -0.06311294 0.020619461 -0.48749757 -0.061766423
-0.01625664 -0.04882476 -0.60308206 -0.37265235 -0.16745995 -0.073801465 -0.079190575 -0.030888015
-0.060845204 0.7658969 -0.07070096 -0.0777844 -0.06713346 -0.04057021 -0.07985985 -0.051558595
-0.079572454 -0.1132403 -0.0961985 -0.10255559 -0.06884828 -0.029580113 0.16173753 -0.0430419
-0.670319 -0.021000195 -0.068492025 -0.046483777 -0.08490616 -0.06891897 -0.3727324 -0.9090799
-0.00248594 -0.1320101 -0.3026319 -0.14810874 -0.029333085 -0.022688784 -0.004831268 -0.32826105
-0.1039666 -0.05609387 -0.019000331 -0.0017069458 -0.04170406 -0.90715826 -0.11190714 -0.43270555
-0.16883133 -0.04667229 -0.1917928 0.11259716 -0.10506607 -0.03739491 -0.38807404 -0.051570337
-0.39068103 -0.13510807 -0.057677124 -0.18999746 -0.024273476 -0.011912601 -0.045815255 -0.011889408
-0.0571835 -0.02669746 -0.07884597 -0.068262726 -0.08497756 -0.05672461 -0.99058956 -0.04674839
-0.11348225 -0.67884606 -0.056727737 -0.65112716 -0.035415117 -0.09077999 -0.0023164947 -0.1828512
-0.10156136 -0.04307591 -0.052509904 -0.4059035 -0.08771209 -0.0321011 -0.085985675 -0.06610323
-0.04383099 0.1545078 -0.08285826 -0.2918669 -0.07708196 -0.6707336 -1.1891011 -0.069482885
-0.023917275 0.59102964 -0.101482935 -0.046313137 -0.075903066 -0.07899205 0.2148322 -0.011182054
-0.057253975 -0.32098648 -0.14900307 -0.0612624 0.1877928 -0.06460701 -0.03987506 -0.09008447
-0.0656334 -0.11862175 0.11794435 -0.02152683 -0.3120021 -0.046607595 -0.0068409224 -0.050247442

l3.weight f4 [4, 300]
00000000: 98cf 553d 7ece d93b cbe0 cb3e d9e5 553d
00000010: 0270 67bd cbd8 713c 73df 45bd 3ed4 14bf
00000020: 41ea 9a3e 3444 87bc c43b dd3d cadf 53bd
00000030: 096c 58bb 4a15 3cbf 752b 94bd 9e09 71be
00000040: 257b 1e3c 0b5d c83c 6741 41bc c916 353d
00000050: 28b8 303d e372 923d 1599 b53c 50d6 bbbe
00000060: 1608 043d 1999 cebe e711 44ba 4990 f33d
00000070: 3da3 f33c e3a6 cabe 447d 3ebd 8ff5 2cbc
00000080: c28d 093e 61d0 0c3e f843 bfbb a48b 733e
00000090: 1c50 85be 5639 133d 3753 80be 2811 093d
000000a0: 598c 16bd 84ac c8be 3abd 723e 2faa 04bd
000000b0: 1298 bb3e 15b1 dc3c 9bee 78bb 3975 8fbd
000000c0: c624 af3b 7044 b93c 68fb 1c3e e196 f83b
000000d0: 4921 3ebd 3415 213d c7dd 84bd f273 943c
000000e0: 8f41 40be 4f4e 2bbd 609e d63c 7425 e2be
000000f0: 0a35 15bd d2fc b03c 86d0 63bd 9b3d 02bf
00000100: ebbd 173d 01c1 ecbc 26dd 03bf f16d 24be
00000110: 412f 10bf 76ab d4bd ff04 173d d063 9d3c
00000120: 290e 9e3e 8f36 f33b caae 683e f5de 583e
00000130: dba1 2cbb b930 053f b4a5 adbd 2378 63be
00000140: 3629 86bb 6890 5f3d 2af4 9abe 662a 35bd
00000150: afdd 8e3d 5752 dcba 0216 ccbc 4f78 a63c
00000160: 3969 a9ba e94f abbc 5126 99be 3983 cbbc
00000170: ec4b 183f 7462 41bc ea76 133c f0d3 1b3d
00000180: 35b1 07be f826 58bc c074 103c 06e7 91bd
00000190: 510e 1e3f d461 bcbc 8cb1 d5bd c8b3 f83c
000001a0: 415d 5f3c 8f5f 843d 0c93 7abb 64c4 89bd
000001b0: 8162 f93b 0f87 d6ba 45e3 98bc 6482 22bd
000001c0: 9f2b ee3e 4821 f23b e3e1 323d a44e 91bd
000001d0: 4b20 62bd ac42 2440 2657 493d 2c1a 3b3c
000001e0: 9129 2d3d 8884 7bbe 1dc8 9eb9 68be 763c
000001f0: d7b9 45ba f8b9 bbbd 5e69 1d3d f24e 50bb
00000200: e5b1 6cbb 8f26 913d 4b31 013c 7640 a6bc
00000210: f3ce 863d a283 55bd 7e66 b5be 2c29 033e
00000220: 7e67 e6bc 6e41 85ba 5392 85bd b4f1 60bc
00000230: cece 883e a1ce e03b 82cb d33c c9d3 bf3d
00000240: 55e5 5abd 4ab7 173f 34eb f33b 5a3c 013b
00000250: f4df 22bd 5ddc d93c 00bc 8e3d 40ab e2bc
00000260: 7cf2 a3bc 8f0c ac3f 6a80 5bbf 9bbd e93b
00000270: 893d 8ebc dc66 e0b9 2638 a83f 8659 933c
00000280: f04f 413f f0ad 353c acb6 19bd 05cc 4cbd
00000290: 247f 09bd 4863 1ebc 2dba 8ebe 662a 293e
000002a0: 0611 87bc 4d87 d33f a87c fabe 4377 dc3f
000002b0: 9c65 cbbc 868f 5f3d d67d 40bc 74c4 8c3d
000002c0: a19f 77bc ae4e 153c 1d05 893c 3437 6dbc
000002d0: da95 67bb 99be 483c 4642 f23c f98c 12bf
000002e0: 2e22 b7bc a1c9 32bb e2e3 11bf f52b 4b3f
000002f0: 74df 5bbc 82ed 21bd 35e2 c0bd 2305 b1bb
00000300: b248 c6be 1d7b 0b3e 32a9 4abe 34b0 673d
00000310: 0e5e 5cbd 7d30 233f 43a5 2f3d a92b 2f3d
00000320: 845b 8fbc b2ec b73d 8dad c2bb e217 f3bb
00000330: ab7f 993d 5da6 42bc 2c02 973e dbd7 433b
00000340: 9579 2e3d fbae bcbc 41c7 88bc 7e46 a6bd
00000350: cadc 14bc fcdb 303b ba01 90bd 8316 8dbe
00000360: 1a0a e73b 299f a33c 6b8e 223d 1d99 0f3f
00000370: 0557 693c f03b d2bd 99ac 5cbd b20f 3cbc
00000380: 85db 18bd ec16 52be 42b2 9b3c 6ac1 d5bd
00000390: e62a d63e 98f4 563d d97b 323f 2f3d 023d
000003a0: dea3 473b 0ea3 293f 96fa 31bf 0f12 393d
000003b0: 8163 3b3d 51bf b9bd ac35 abbc e45e 223d
000003c0: 39eb 193d eb8b 16bd c7f4 48bc 6290 253d
000003d0: 726c 033e 94c2 813d 18d5 bfbc 5ed8 3d3d
000003e0: e804 413d e02d 963c 3690 69bd d8c6 063d
000003f0: 9b3d 9d3d 51da 19bd daec 5d3e ed58 cb3b
0.05219993 0.0066469302 0.3981994 0.052221153 -0.056503303 0.01476116 -0.0483088 -0.58136356
0.30256847 -0.016512014 0.10802415 -0.051727094 -0.0033023378 -0.73469985 -0.07234851 -0.23538825
0.009672915 0.024458429 -0.011795378 0.044211183 0.043144375 0.07150819 0.022167722 -0.36686945
0.032234274 -0.4035118 -0.00074794743 0.118927546 0.029740924 -0.3958045 -0.04650618 -0.010556593
0.13432983 0.13751365 -0.00583696 0.23783737 -0.2603768 0.03594335 -0.25063488 0.033463627
-0.03675494 -0.3919412 0.23704997 -0.032388862 0.36639458 0.026939908 -0.0037984017 -0.0700478
0.00534496 0.022615641 0.15330279 0.0075863455 -0.046418462 0.03932686 -0.06487613 0.018121693
-0.18775009 -0.041822728 0.026198566 -0.441692 -0.036427535 0.02160493 -0.055618785 -0.5087525
0.037046354 -0.028900625 -0.5150932 -0.16057564 -0.56322104 -0.10384266 0.03687 0.019212633
0.30870178 0.0074222754 0.22722927 0.21178801 -0.002634159 0.5202747 -0.08478871 -0.22213797
-0.004094268 0.054581076 -0.30264407 -0.044229887 0.069758765 -0.0016809207 -0.024912838 0.02032104
-0.0012925036 -0.020912128 -0.29912046 -0.024842845 0.5949085 -0.011803258 0.009000519 0.038043916
-0.13251193 -0.013192885 0.008816898 -0.07124142 0.61740595 -0.022995867 -0.10434255 0.030359164
0.013633073 0.06463539 -0.003823462 -0.06726912 0.0076106195 -0.0016367155 -0.018663058 -0.03967513
0.46517655 0.0073892213 0.043672454 -0.07095078 -0.05520658 2.5665693 0.049155377 0.011419814
0.04227597 -0.24562275 -0.00030285204 0.015060045 -0.0007542646 -0.0916633 0.038430564 -0.0031785336
-0.0036116776 0.070874326 0.0078852875 -0.02029441 0.06582441 -0.052127488 -0.35429758 0.12808675
-0.02812552 -0.0010166594 -0.0652205 -0.0137295015 0.2672028 0.0068605696 0.025853876 0.09366567
-0.053441364 0.5926405 0.00744381 0.001971981 -0.03976436 0.026594335 0.06969452 -0.027669549
-0.020013086 1.3441333 -0.8574282 0.0071331984 -0.017363327 -0.00042801246 1.3142135 0.017987024
0.755126 0.011088833 -0.037527725 -0.049999256 -0.033568516 -0.009667225 -0.27876416 0.1652008
-0.01648761 1.6525666 -0.4892323 1.7223896 -0.024828725 0.054580234 -0.011748752 0.06873408
-0.015113742 0.009112997 0.016726071 -0.0144784935 -0.0035337121 0.012252473 0.029572617 -0.5724636
-0.022355165 -0.0027280825 -0.56988347 0.7936395 -0.013419975 -0.039533146 -0.094181456 -0.0054022237
-0.38727337 0.13621183 -0.19791105 0.056564525 -0.053800635 0.6374586 0.042882215 0.042766247
-0.017499693 0.08980693 -0.005941099 -0.0074186185 0.07495054 -0.011880484 0.29493845 0.0029883299
0.04259642 -0.023032656 -0.016696574 -0.08118914 -0.009085843 0.002698659 -0.07031579 -0.27556238
0.0070507647 0.019973354 0.0396866 0.5609301 0.0142419385 -0.102653384 -0.05387554 -0.011478351
-0.037318725 -0.20516557 0.019005898 -0.104372814 0.41829604 0.052479357 0.69720227 0.03179663
0.0030462663 0.66264427 -0.6952299 0.045183238 0.04574919 -0.09069694 -0.020899616 0.039641276
0.03757784 -0.03675453 -0.012265391 0.040420897 0.12834337 0.06335941 -0.02341704 0.046348922
0.04712382 0.018332422 -0.057022296 0.032904476 0.07677766 -0.03756172 0.21672383 0.006205669

l3.bias f4 [4]
00000000: bbc6 de3e cd0a b53e f20a aa3e b376 ef3e
0.43510994 0.35359803 0.33211476 0.46770248
