TD3_control/dir_Walker2D_002/biped-v6-2d-16_actor_t.pth (torch, 527895 bytes, 6 tensors)

l1.weight f4 [400, 24]
-0.72832394 3.1821995 -0.07426344 -0.61172724 0.12188556 -2.8221335 -0.054120857 0.027617885
-0.060948595 0.2884086 1.6193036 -0.06581798 -0.12802908 -0.010357731 -2.131945 0.36865738
0.17387234 0.17527641 -1.1772593 -0.07737654 -1.881374 -0.28738397 -0.0011937196 -0.8216793
4.8249035 0.11543553 0.2576563 -0.54098916 1.0873424 3.691878 -0.18727888 0.01475678
-0.82204473 0.33704752 0.43469238 -0.36778748 -1.539045 0.3019841 0.27859756 0.2668049
-0.72345793 0.47402793 -1.4930848 0.41115323 1.9495406 -0.2925138 -1.5640701 0.8842996
1.1967312 0.74980927 -0.28738108 0.54612803 -1.4031305 0.714118 -0.08994957 0.091357015
-0.4367028 -0.7752009 0.12893838 0.09599114 -0.26718703 0.04934934 0.5641287 -0.085403845
-1.0113846 -0.030344196 -0.58978254 -0.054788273 -0.07670752 -0.06008489 -0.6994433 -0.14982983
3.1218512 -0.28402057 -0.4910738 -2.6284573 0.1432013 4.220291 -0.026069421 -0.080645196
-0.710894 0.8304174 -0.7377159 -0.22129802 -0.7172607 -0.47380054 1.4809006 -0.40982002
-0.8933817 -0.06319755 -1.102788 -0.69529825 1.8001263 -0.2241284 -0.63204587 0.3828805
-0.849649 0.22397833 0.09781405 -1.7861124 -0.88319 -1.9120195 0.18045014 -0.05354218
0.2478733 0.023444496 2.583576 0.3551868 -0.4662433 0.102724 -2.0299659 -0.2429664
0.50153494 0.525281 1.5974275 0.6205383 2.5999825 0.06321208 -0.26796535 -0.6593994
1.9777918 -0.69993037 -1.3492465 0.5489647 -1.5986427 1.3976048 -0.17088582 -0.11013019
-1.3439871 0.19497684 5.3231554 0.34733704 -2.6497097 0.06848623 -0.009208963 0.30121416
-0.63275546 0.08274019 0.21005683 0.7654906 -0.27512184 -0.4143863 -0.43411568 -0.8396431
-0.16918881 0.09477109 1.0189414 -3.0403218 1.1153136 0.93362015 0.107461385 -0.1915078
0.5352474 0.0636018 2.4589436 -0.4803546 1.2077298 -0.079206936 0.6703336 -0.027483622
-2.3688128 0.6284475 -2.2776155 0.09876963 2.760862 -0.1976399 0.5872196 0.23698092
1.2200947 -3.1115022 -0.81250906 -0.38668913 -1.3602456 -4.3753257 0.005227224 -0.16048765
-0.34132653 0.4929766 -0.36304924 -0.81564975 0.37460464 -0.15019304 -0.7638083 -0.21843049
-1.8933047 -0.5869317 -0.6408831 0.31483522 -0.60682714 0.12064573 -1.0430437 -0.88291043
0.257505 -0.4642568 0.3520203 0.6321237 2.4922569 2.5232449 0.17763677 -0.07923974
0.6655141 -0.10220077 1.0423231 0.6183663 -1.1350024 0.8520027 -0.26288816 0.4717082
0.45042157 0.59692144 -3.0357156 0.017754314 -0.13892157 -0.45215127 -0.6294447 -0.50684613
4.1273766 -1.4719353 -0.31787735 2.149933 1.2247877 0.51324487 0.048465434 0.11898473
-0.95266384 0.19029972 -0.0590288 0.07254941 -0.54504365 -0.06614105 -1.8900994 -0.35857955
0.17151794 0.43210316 -4.9962497 0.27813056 2.1288161 0.28665185 -0.46748504 -0.5450531
-1.2709365 0.027595177 -0.2877928 -2.3133068 1.1226618 1.5868695 -0.088947564 0.11788274
0.7412734 -1.5199691 1.2680073 -0.17966042 -0.96536785 0.1324994 1.4463887 -0.0002688457
00000000: 7073 3abf 28a9 4b40 6e17 98bd 289a 1cbf
00000010: 239f f93d d69d 34c0 d5ad 5dbd e73e e23c
00000020: 3ca5 79bd 4baa 933e 5745 cf3f 94cb 86bd
00000030: 0e1a 03be 79b3 29bc c971 08c0 a9c0 bc3e
00000040: 970b 323e a97b 333e 6fb0 96bf 9777 9ebd
00000050: ddd0 f0bf fe23 93be 9576 9cba 9359 52bf
00000060: 9c65 9a40 7769 ec3d 87eb 833e 447e 0abf
00000070: 092e 8b3f bb47 6c40 09c6 3fbe 6cc6 713c
00000080: 8671 52bf 7e91 ac3e 0090 de3e a44e bcbe
00000090: 6dff c4bf a99d 9a3e 57a4 8e3e a79a 883e
000000a0: 8a34 39bf cab3 f23e 671d bfbf ad82 d23e
000000b0: 8c8a f93f 5ec4 95be 7333 c8bf 7561 623f
000000c0: 7d2e 993f 80f3 3f3f 9d23 93be 0ccf 0b3f
000000d0: c899 b3bf 70d0 363f 7b37 b8bd 6319 bb3d
000000e0: 8297 dfbe 9173 46bf 6c08 043e 0197 c43d
000000f0: bdcc 88be 8922 4a3d bd6a 103f 36e8 aebd
00000100: 0d75 81bf 6494 f8bc fdfb 16bf ab69 60bd
00000110: d518 9dbd 931b 76bd b70e 33bf fe6c 19be
00000120: 69cc 4740 256b 91be 066e fbbe a538 28c0
00000130: 5da3 123e a00c 8740 8a8f d5bc 4f29 a5bd
00000140: 26fd 35bf 3c96 543f f3da 3cbf f39b 62be
00000150: 669e 37bf fc95 f2be 278e bd3f eed3 d1be
00000160: aab4 64bf b86d 81bd 2828 8dbf 11ff 31bf
00000170: 8a6a e63f ea81 65be c2cd 21bf ea08 c43e
00000180: 9982 59bf 935a 653e bc52 c83d 559f e4bf
00000190: bd18 62bf 0ebd f4bf ecc7 383e 0c4f 5bbd
000001a0: 80d2 7d3e ac0e c03c 4f59 2540 0bdb b53e
000001b0: 71b7 eebe f660 d23d f6ea 01c0 2fcc 78be
000001c0: 9864 003f d178 063f 8178 cc3f 99db 1e3f
000001d0: 1d66 2640 5675 813d c132 89be 66ce 28bf
000001e0: 4828 fd3f a32e 33bf 1cb4 acbf f388 0c3f
000001f0: 53a0 ccbf b7e4 b23f b1fc 2ebe f08b e1bd
00000200: c507 acbf 02a8 473e 4a57 aa40 29d6 b13e
00000210: d894 29c0 8242 8c3d 31e1 16bc be38 9a3e
00000220: 43fc 21bf b073 a93d 2319 573e 31f7 433f
00000230: c5dc 8cbe 712a d4be 6944 debe daf2 56bf
00000240: d53f 2dbe 5817 c23d ac6c 823f a294 42c0
00000250: 99c2 8e3f bb01 6f3f b714 dc3d 9f1a 44be
00000260: f905 093f a941 823d 555f 1d40 0af1 f5be
00000270: e496 9a3f 3f37 a2bd fc9a 2b3f 5525 e1bc
00000280: a19a 17c0 efe1 203f 74c4 11c0 bb47 ca3d
00000290: f7b1 3040 1d62 4abe 0654 163f 20ab 723e
000002a0: 102c 9c3f da22 47c0 9800 50bf 1efc c5be
000002b0: 871c aebf ab02 8cc0 2249 ab3b e056 24be
000002c0: 5ac2 aebe 6e67 fc3e 97e1 b9be 6cce 50bf
000002d0: 2ecc bf3e 34cc 19be f188 43bf 3eac 5fbe
000002e0: cf57 f2bf 2841 16bf ea10 24bf 1532 a13e
000002f0: 0659 1bbf 1c15 f73d 7582 85bf 6b06 62bf
00000300: b2d7 833e 11b3 edbe 013c b43e dcd2 213f
00000310: 2381 1f40 d87c 2140 6ae6 353e 7248 a2bd
00000320: 225f 2a3f a34e d1bd d86a 853f 414d 1e3f
00000330: c247 91bf d91c 5a3f 4799 86be bd83 f13e
00000340: a89d e63e d8cf 183f 2a49 42c0 7f71 913c
00000350: 7541 0ebe 5f80 e7be 4a23 21bf abc0 01bf
00000360: 7813 8440 6068 bcbf d2c0 a2be 8198 0940
00000370: d8c5 9c3f 0464 033f b183 463d 44ae f33d
00000380: c7e1 73bf eedd 423e 2fc8 71bd c994 943d
00000390: fb87 0bbf f574 87bd c7ee f1bf bd97 b7be
000003a0: 66a2 2f3e a03c dd3e 47e1 9fc0 2167 8e3e
000003b0: 863e 0840 08c4 923e 335a efbe 9a88 0bbf
000003c0: 0cae a2bf 480f e23c 9459 93be 380d 14c0
000003d0: 62b3 8f3f 8a1e cb3f 242a b6bd 826c f13d
000003e0: 18c4 3d3f 598e c2bf 104e a23f e7f8 37be
000003f0: 5922 77bf ecad 073e 4423 b93f dcf3 8cb9

l1.bias f4 [400]
-1.0647466 0.16017918 -0.6903477 -0.6829461 -0.66196537 -0.5866666 0.94434154 -0.58747697
-0.3429614 -0.22054757 -0.89083695 1.1627555 -0.87668395 -1.153191 -0.047088675 0.11652388
0.3535511 -0.66126275 -0.064613156 0.030348582 -0.97102386 -1.6349821 1.436176 -0.9355256
-1.2890912 -1.1200966 -0.7879713 1.336293 -0.77831656 -1.4017054 0.70868087 -1.5761322
-0.6945619 -0.36906436 0.057813335 -1.1814091 -1.0851159 -0.6360749 -1.1567907 0.9283131
-1.8695492 -0.73760337 -1.0696334 1.3389442 -0.42811045 -0.8753045 -1.1425992 -1.1482847
1.2779949 -1.1848018 -0.95465875 -1.8674374 -0.24306017 -0.061168265 -0.4249446 -1.2273645
-0.5929192 -0.20778203 -1.0154897 -0.9904623 0.8068732 -0.4261434 -0.58747625 -0.0441995
0.46503463 -1.6832671 -0.443669 -0.7088219 -0.39434004 -0.29862377 -0.12483969 -0.6442295
-0.10280012 -0.8485057 -1.0906003 -0.8961891 -1.3835015 -0.5091553 0.001981893 -0.52143896
-0.25598797 -1.1740758 -0.22976676 1.0588208 -0.35295412 -0.8746783 -0.6040543 0.11897133
-0.59801656 -1.8924998 1.6377101 -1.2981864 0.259048 0.7422294 -0.1416192 -0.62312806
-0.20468427 0.6902064 -1.1483994 -0.8765439 -0.42996287 -1.0682304 -0.1393846 -0.5344284
-0.79044616 0.90944105 -0.22591814 -1.5335695 -1.0804602 -0.050066803 -0.64205736 -0.8628912
-1.3180442 -1.1280794 -0.5116758 -0.80757445 -0.9509685 -0.7141358 -0.63854706 0.05811123
-1.2916487 -0.59250987 -0.11242186 -1.8602659 -1.0523558 -1.1491624 -0.45631412 -1.2266152
-1.4274849 0.8762398 0.7624153 -1.1986877 0.045948546 0.48889402 -0.173513 -1.1402335
-0.2965503 -0.6173432 -1.0587271 -0.5494292 -0.46308023 -0.8606431 -1.3447894 -0.8525148
-0.47616908 -1.1898929 -0.0905974 -1.1700523 -0.4193158 1.1010523 -1.1850578 -0.5636368
-1.2256248 0.4970433 -0.15842775 -0.59315854 -0.14482088 -1.0967246 0.47346646 -0.104976706
0.5022187 -1.2942961 0.5958277 1.0505444 -1.0524147 -0.4533202 -1.1665502 -1.5468355
-0.69951284 -0.82010055 -0.6337159 -1.0397893 -0.482813 -0.85974264 -0.520973 -1.4699813
-0.76750225 -0.77785075 -0.3119111 -0.93060195 -0.58284724 -1.3213779 -0.081469566 -0.24296823
-0.8186445 -0.49437347 0.3966108 -1.136987 1.7742041 0.13499834 -0.5980472 -0.20642161
-0.6548016 -0.88889307 -0.90942985 -1.2800539 -0.9942688 -0.56663316 -0.62738353 -1.1188706
1.2852368 -1.4058436 -1.3688473 -1.1059676 -0.9060353 -0.49713317 -1.489976 -0.8796834
-1.4084234 -0.77406627 0.9716958 -1.3064437 -0.6514793 0.010664918 -0.74155307 0.84021807
0.21380515 -0.9692351 0.03597052 -0.78058815 -0.8227561 -0.42434955 -0.90063554 -1.4080197
0.30845395 -0.33834395 -0.5327211 -0.062774085 -0.5909636 -0.7909444 -0.6576835 -0.68765754
-1.3058195 0.03909588 -1.7517108 0.01615247 -0.5353508 -0.7042913 0.3747174 -0.6658778
-0.58589965 -0.7549503 -0.7031088 -0.6933061 -0.70546454 -0.7895416 0.25059068 -1.4787569
-1.0670743 -0.5825585 0.11736733 -0.16077001 0.004878992 -1.3697284 0.6953016 -0.7954705
00000000: 9e49 88bf 0306 243e a0ba 30bf 8ed5 2ebf
00000010: 9076 29bf c82f 16bf 5ec0 713f e464 16bf
00000020: a398 afbe 39d7 61be e40d 64bf 2cd5 943f
00000030: 5c6e 60bf c39b 93bf 0ee0 40bd 12a4 ee3d
00000040: a604 b53e 8448 29bf e753 84bd 979d f83c
00000050: 0595 78bf 1847 d1bf 9dd4 b73f 9b7e 6fbf
00000060: f100 a5bf 535f 8fbf 7db8 49bf a60b ab3f
00000070: c13f 47bf 156b b3bf 1c6c 353f b3be c9bf
00000080: cfce 31bf 01f6 bcbe adcd 6c3d 6a38 97bf
00000090: 14e5 8abf ced5 22bf b811 94bf eda5 6d3f
000000a0: 634d efbf 93d3 3cbf bfe9 88bf 8662 ab3f
000000b0: 4b31 dbbe f513 60bf b140 92bf fefa 92bf
000000c0: 5695 a33f 96a7 97bf 8464 74bf 3008 efbf
000000d0: c4e4 78be 938b 7abd 5792 d9be 481a 9dbf
000000e0: 8dc9 17bf d0c4 54be 91fb 81bf f08e 7dbf
000000f0: 3e8f 4e3f 782f dabe d864 16bf 890a 35bd
00000100: 0519 ee3e 4c75 d7bf 9528 e3be 5a75 35bf
00000110: f0e6 c9be 37e5 98be f4ab ffbd 39ec 24bf
00000120: df88 d2bd ab37 59bf ca98 8bbf a66c 65bf
00000130: 9416 b1bf 0058 02bf a6e2 013b 067d 05bf
00000140: db10 83be 1e48 96bf fa47 6bbe 7187 873f
00000150: 67b6 b4be ebea 5fbf 4da3 1abf 3ea7 f33d
00000160: 9d17 19bf 6f3d f2bf 7ca0 d13f f92a a6bf
00000170: f1a1 843e bf02 3e3f a004 11be 5285 1fbf
00000180: c198 51be 5eb1 303f c0fe 92bf 2e65 60bf
00000190: 1824 dcbe c6bb 88bf d6ba 0ebe 4dd0 08bf
000001a0: ae5a 4abf 21d1 683f 1657 67be 014c c4bf
000001b0: 854c 8abf d912 4dbd df5d 24bf 70e6 5cbf
000001c0: acb5 a8bf e864 90bf 2ffd 02bf 33bd 4ebf
000001d0: ac72 73bf 9bd1 36bf d277 23bf 0b06 6e3d
000001e0: bf54 a5bf baae 17bf 6f3d e6bd 311d eebf
000001f0: 98b3 86bf c117 93bf 01a2 e9be ba01 9dbf
00000200: d3b7 b6bf 4051 603f a62d 433f 996e 99bf
00000210: 8b34 3c3d 5150 fa3e 64ad 31be 2cf3 91bf
00000220: 71d5 97be 340a 1ebf 5f84 87bf 64a7 0cbf
00000230: da18 edbe 1b53 5cbf 0f22 acbf 693e 5abf
00000240: 6fcc f3be 694e 98bf 218b b9bd 46c4 95bf
00000250: 8fb0 d6be 48ef 8c3f f9af 97bf 804a 10bf
00000260: 46e1 9cbf 767c fe3e e23a 22be 3dd9 17bf
00000270: ed4b 14be 7961 8cbf 326a f23e 07fe d6bd
00000280: 6891 003f 7fab a5bf 2a88 183f 3d78 863f
00000290: 86b5 86bf 9619 e8be 8451 95bf b5fe c5bf
000002a0: 4613 33bf 1cf2 51bf 353b 22bf d117 85bf
000002b0: 4433 f7be 1818 5cbf 7d5e 05bf 5928 bcbf
000002c0: 077b 44bf 3a21 47bf d0b2 9fbe ee3b 6ebf
000002d0: 7a35 15bf e922 a9bf 84d9 a6bd aacc 78be
000002e0: b092 51bf 851e fdbe 9210 cb3e ca88 91bf
000002f0: 1f19 e33f 013d 0a3e 9f19 19bf 3060 53be
00000300: 14a1 27bf 7f8e 63bf 65d0 68bf ced8 a3bf
00000310: 6688 7ebf df0e 11bf 359c 20bf 2737 8fbf
00000320: a482 a43f aff2 b3bf 6336 afbf 5990 8dbf
00000330: eef1 67bf 3d88 febe 89b7 bebf ee32 61bf
00000340: 3847 b4bf 3529 46bf 0ec1 783f 8c39 a7bf
00000350: 59c7 26bf e9bb 2e3c 6cd6 3dbf 8818 573f
00000360: bdef 5a3e cb1f 78bf d355 133d a0d4 47bf
00000370: 25a0 52bf 5844 d9be 0d90 66bf fd39 b4bf
00000380: aded 9d3e 6b3b adbe 6960 08bf b38f 80bd
00000390: 6449 17bf 557b 4abf f25d 28bf 530a 30bf
000003a0: 1825 a7bf 0023 203d 0f38 e0bf 2f52 843c
000003b0: c00c 09bf 6f4c 34bf f6da bf3e f876 2abf
000003c0: 85fd 15bf 6c44 41bf f0fe 33bf 827c 31bf
000003d0: 5399 34bf 661f 4abf 6c4d 803e e847 bdbf
000003e0: e495 88bf 8e22 15bf 485e f03d e5a0 24be
000003f0: f4df 9f3b 4353 afbf 49ff 313f f4a3 4bbf

l2.weight f4 [300, 400]
-0.12380269 -0.18197165 0.21482578 -0.18904378 0.12439426 0.062223952 0.317398 0.046542704
-0.45165166 -0.60035646 0.0021671196 -0.08797282 -0.68587726 0.42388776 -1.1522663 -0.25091645
0.097394824 -0.031453777 -0.10227348 -0.032010335 -0.09883726 -0.082104735 -0.08974159 0.31371444
-0.36702487 -0.14451608 -0.1488404 -0.7737227 0.048765212 -0.9507487 -0.66387117 -0.74642366
-0.3127131 -0.004293634 -0.36521885 -0.03591817 -0.02340509 -0.09709085 -0.51932985 0.015860625
-0.3346357 0.27695024 -0.010351754 -0.402895 0.07973992 0.17594862 0.088249974 -1.0462891
0.36561224 0.11762913 0.18854906 -0.4006062 -0.7785626 -0.2001958 0.5501692 0.016988643
-0.1726495 0.37014815 -0.4826461 -0.74308586 -0.0910216 -0.75307566 -0.68711704 -0.3585789
0.20459165 -0.29966563 0.6979651 -0.5378192 -1.1185776 -0.5529111 0.24645203 -0.7384844
-0.11593636 -0.59186876 -0.33943388 -0.11143173 0.3853116 -0.21762422 -0.943906 0.30986395
-0.28149813 0.017839873 0.75317097 -0.03400113 -0.9106943 1.1927735 -0.1318173 -0.35891867
-0.115294114 -0.106439844 -0.808961 0.933499 -0.07517569 -0.92148274 -0.8198687 -0.7027097
-0.4499291 -0.40102938 -0.061926674 -1.1059653 0.9697506 -0.2800199 -0.7644363 -1.026548
-0.49293387 0.16560718 -1.1697423 -0.2565893 -1.0780226 -0.30283064 -1.503338 -0.75085837
-0.10471875 -0.5052512 -0.29415816 0.034046575 0.50517964 0.20817389 -0.638575 -0.32026502
-1.3351334 -0.27472702 -0.2825293 -0.55932456 -0.549311 -0.53853446 -0.704474 -0.25830594
0.30491677 -0.8867094 0.18906164 0.3981743 -0.136687 1.2329708 -0.83254063 0.30198422
0.2563926 -0.32073587 0.49417958 -0.064320184 -1.3782396 -0.789661 0.07198386 -0.40967208
0.027787898 -0.591833 0.1184934 -0.47893274 -0.30593604 0.5492513 -0.38205126 -0.34562087
-0.14028116 -0.19120444 0.3146264 0.90740407 0.6013339 -0.43605906 -0.29278126 -0.27183023
-0.10165955 -0.027523777 0.88676894 -1.1647356 -0.5515044 -0.31469795 0.10132725 -0.37607887
-0.18438864 0.28008544 0.038668923 -1.289977 0.030428758 -0.0033409132 -0.18533039 -0.26037422
-0.39270857 -0.8317181 -0.116361044 0.00995799 0.1252332 -0.3934596 -0.57067335 -0.54900104
-0.3104779 0.6699509 -0.66540897 -0.14346108 -0.20225514 -1.1491668 -0.1622127 0.14013809
-0.1937406 -1.3209475 0.032405213 0.06830475 -0.911791 -0.6216115 -1.4124527 -0.06952962
0.19316542 -0.67480266 -0.62280357 -1.3369931 0.261608 -0.5712455 1.2668025 -1.1124502
-0.0029380696 -0.9431908 0.0147042 -1.1821163 -0.76382834 -0.78004074 -0.27997223 -0.2795669
-0.8375832 -0.31323764 0.42155725 -0.2557489 -1.3642443 -0.7133312 -0.07682674 -0.11053767
-0.6129807 -0.7732697 0.35747623 -0.3725741 0.7710882 -1.3190162 -0.7729121 0.019987507
0.39852 -0.06492815 -0.05543647 -0.47202456 -0.27270642 -0.15042886 -0.8424231 -0.14179811
0.07274828 -0.6000346 -0.89936936 0.019732695 0.35142633 -0.41451198 -0.34724212 -0.37764052
-0.38283208 0.54312396 -0.50696784 -0.31605098 0.42363146 -0.43621996 -0.11552211 -0.71751547
00000000: 448c fdbd c756 3abe 4afb 5b3e b194 41be
00000010: 6bc2 fe3d 8bde 7e3d fe81 a23e 90a3 3e3d
00000020: e33e e7be f6b0 19bf 3c06 0e3b 182b b4bd
00000030: a795 2fbf d107 d93e 767d 93bf 1f78 80be
00000040: f076 c73d add5 00bd c274 d1bd 451d 03bd
00000050: 306b cabd 8726 a8bd 70ca b7bd 2e9f a03e
00000060: afea bbbe 06fc 13be 9e69 18be b112 46bf
00000070: 08be 473d 4464 73bf 76f3 29bf 9f15 3fbf
00000080: ee1b a0be 9db1 8cbb f7fd babe ee1e 13bd
00000090: 08bc bfbc 91d7 c6bd cdf2 04bf 24ee 813c
000000a0: 5f55 abbe 6ccc 8d3e 679a 29bc 4148 cebe
000000b0: af4e a33d e02b 343e 67bc b43d cdec 85bf
000000c0: 8731 bb3e 8be7 f03d 0113 413e 411c cdbe
000000d0: e14f 47bf 2100 4dbe e4d7 0c3f c42b 8b3c
000000e0: 08cb 30be 0f84 bd3e 641d f7be e03a 3ebf
000000f0: 8869 babd 91c9 40bf e7e6 2fbf a797 b7be
00000100: 7980 513e c66d 99be d7ad 323f 85ae 09bf
00000110: 8d2d 8fbf 958b 0dbf ec5d 7c3e 500d 3dbf
00000120: 0b70 edbd b684 17bf 47ca adbe 5236 e4bd
00000130: 9047 c53e e2d8 5ebe d3a3 71bf 7da6 9e3e
00000140: 8620 90be ed24 923c d0cf 403f c544 0bbd
00000150: 4323 69bf cdac 983f 1dfb 06be 30c4 b7be
00000160: 521f ecbd 22fd d9bd 1118 4fbf caf9 6e3f
00000170: b6f5 99bd 4be6 6bbf eae2 51bf c8e4 33bf
00000180: 1b5d e6be b953 cdbe d3a6 7dbd 4590 8dbf
00000190: 9341 783f c55e 8fbe 19b2 43bf ed65 83bf
000001a0: d461 fcbe ee94 293e 1eba 95bf ac5f 83be
000001b0: a5fc 89bf 9e0c 9bbe 616d c0bf 4138 40bf
000001c0: c976 d6bd 2558 01bf e69b 96be 6c74 0b3d
000001d0: 7453 013f 892b 553e a779 23bf c7f9 a3be
000001e0: a7e5 aabf 05a9 8cbe aea7 90be e52f 0fbf
000001f0: a59f 0cbf 65dd 09bf 6858 34bf ad40 84be
00000200: 0d1e 9c3e 63ff 62bf 6099 413e 80dd cb3e
00000210: adf7 0bbe fdd1 9d3f 6221 55bf ad9d 9a3e
00000220: e445 833e 7e37 a4be 1b05 fd3e 4dba 83bd
00000230: 286a b0bf 3927 4abf 466c 933d 8ac0 d1be
00000240: 72a3 e33c 5e82 17bf abac f23d ac36 f5be
00000250: a6a3 9cbe bc9b 0c3f 399c c3be 38f5 b0be
00000260: dda5 0fbe 19cb 43be b616 a13e a24b 683f
00000270: 05f1 193f 2243 dfbe 6de7 95be 552d 8bbe
00000280: e232 d0bd 8b79 e1bc 4a03 633f 0e16 95bf
00000290: 642f 0dbf 1720 a1be a984 cf3d 698d c0be
000002a0: 60d0 3cbe 5c67 8f3e 4e63 1e3d f71d a5bf
000002b0: bb45 f93c 39f3 5abb 40c7 3dbe c54f 85be
000002c0: 1911 c9be 7aeb 54bf b34e eebd d626 233c
000002d0: 223d 003e 8973 c9be a617 12bf 558b 0cbf
000002e0: f6f6 9ebe e781 2b3f 3e58 2abf 76e7 12be
000002f0: f91b 4fbe e617 93bf 161b 26be 5c80 0f3e
00000300: f063 46be cf14 a9bf 54bb 043d 5ce3 8b3d
00000310: 236b 69bf ee21 1fbf 40cb b4bf 8c65 8ebd
00000320: 28cd 453e debf 2cbf 0e70 1fbf 9722 abbf
00000330: 7cf1 853e 253d 12bf 9626 a23f c564 8ebf
00000340: a18c 40bb f474 71bf e3e9 703c 964f 97bf
00000350: 418a 43bf c0b0 47bf 8558 8fbe 6523 8fbe
00000360: da6b 56bf af60 a0be 5ad6 d73e 85f1 82be
00000370: 8f9f aebf e09c 36bf 5657 9dbd 9361 e2bd
00000380: 4eec 1cbf 01f5 45bf 2007 b73e 08c2 bebe
00000390: 0966 453f 86d5 a8bf 91dd 45bf d7bc a33c
000003a0: d00a cc3e 0df9 84bd 5a11 63bd 34ad f1be
000003b0: 2da0 8bbe 060a 1abe 0aa9 57bf 8633 11be
000003c0: 0dfd 943d de9b 19bf 123d 66bf 76a6 a13c
000003d0: 27ee b33e ea3a d4be b8c9 b1be 195a c1be
000003e0: 9102 c4be 2c0a 0b3f a5c8 01bf 6fd1 a1be
000003f0: 39e6 d83e 3958 dfbe db96 ecbd 18af 37bf

l2.bias f4 [300]
-1.4680519 -0.22886236 -0.27199498 -0.65596706 0.11513775 -0.07596694 -0.81641483 -0.13723536
-1.0598918 -0.026234824 -0.024195971 -0.0053509655 0.13303003 -0.12630089 -0.026053775 -0.11288311
-0.48265803 -0.10320927 -0.03320541 -0.06595037 0.12609524 -0.20853153 -1.1450899 -0.16903149
-0.09580041 -0.06312511 -0.052898057 -0.027439212 -0.006474887 -0.11966166 -0.047230396 0.4082728
-0.09300643 -0.08226269 -0.5183417 -0.07491641 0.6286179 -0.050666604 -0.83814347 -0.12177315
-0.28838927 -0.05766371 -0.10767068 -0.93894696 -0.17633307 -0.16282018 -1.112641 -0.099667065
-0.10316159 -0.11205908 -0.08212347 -0.07701002 -0.21201228 -0.44181234 0.9081698 -1.4855995
-0.06040229 -0.06028308 -0.06882034 -0.09345794 -0.95518327 -0.014915798 0.01253701 -0.084402494
-0.08974904 -0.57425666 -0.04728553 -0.033116 -0.3019306 -0.44642228 -0.04811031 0.99741244
-0.055040848 -0.26356903 -1.1993439 -0.023680763 -0.8775303 -0.17846394 -0.06723187 -0.0161851
-0.08150124 -0.07673882 -0.4014049 -0.04076403 -0.07717272 -0.9387443 0.009518591 -0.06850592
-0.48353422 -0.06320111 -0.06616048 -0.06828538 0.43196815 -0.7614071 -0.021133032 -0.054987203
-0.44617912 0.31195012 -0.08703554 -0.29545155 -0.09751851 -0.11866626 -0.077713355 -0.12765987
-0.09620721 -0.41202122 -0.07405214 -0.42806926 -0.0043271617 -0.0906446 -0.08316421 -1.2343069
-0.051171012 -0.03863316 -0.10878827 -0.96572137 -0.015642604 -0.78821856 -0.47680277 -0.6903238
0.08417808 -0.6424487 -0.07820063 -0.35927033 0.053385843 -0.35105085 -0.050700877 -1.0759007
-0.06654939 -0.09167874 -0.7636045 -0.55471456 -0.11758444 -0.06671181 -0.124608845 -1.0329883
-0.71863073 -0.014513838 -0.25702444 -1.197375 -0.07478528 -0.8189031 -0.06667457 -0.24146909
-0.3842745 -0.108388916 -0.104778364 -0.031529028 -0.14129743 -0.026731405 -0.15175506 -0.3510169
-1.262225 0.025962504 -0.058893546 -0.115204714 -0.11659648 -0.07921987 -0.05441127 -0.46828732
-0.10549958 -0.1118147 -0.03207441 -0.35891303 -0.043379188 -0.16447471 -0.6102533 1.1438613
-0.65179944 -0.019193273 -0.09739185 -0.07234 -0.25613037 -0.052079238 -0.10882999 -0.46625888
-0.08483314 -0.06256818 -0.25838938 -0.59098107 -0.21175018 0.17976868 -0.98811716 -0.7873214
-0.023585023 -0.054139324 -0.08621448 -0.0038800566 0.10734621 -0.05879818 -0.06942085 -0.06789199
-0.014296095 -0.1121917 -0.056117456 -0.08483314 0.008798373 -0.8615681 -0.5766338 -0.109142914
-0.07804118 -0.03962856 -1.3515366 -0.050591353 -0.07917517 -0.26681748 -0.19138326 -0.8149665
-1.2427698 0.006841828 -0.0730329 -0.08124941 0.09016009 -0.04972336 -0.02710915 -0.08358144
-0.20185581 -0.06294183 -0.11804637 -0.06055726 -0.348691 -0.43440205 1.4005638 -0.04662764
0.47110456 -0.08445614 -0.12200114 0.8751649 -0.008797416 -0.8836457 -0.37647617 -0.0253374
-0.09370912 -0.09247505 -0.08715922 -0.32496184 -0.08891159 -0.123960644 -0.10339703 -0.05770741
-0.10046596 -0.4617839 -0.057677608 -0.14387831 -0.059798792 -0.032553483 -0.06582967 -0.014869418
-0.11772451 -0.081201725 -0.04187193 -0.08359187 0.011644175 -0.08883709 -0.43418747 -0.0636243
00000000: 20e9 bbbf e55a 6abe ed42 8bbe 75ed 27bf
00000010: 57cd eb3d 8e94 9bbd 9000 51bf 6d87 0cbe
00000020: 89aa 87bf 6aea d6bc a136 c6bc 2757 afbb
00000030: 0639 083e 0555 01be ba6e d5bc 432f e7bd
00000040: f41e f7be 625f d3bd 6502 08bd fd10 87bd
00000050: 1c1f 013e 4a89 55be 4e92 92bf 9716 2dbe
00000060: 0133 c4bd bd47 81bd a2ab 58bd 33c8 e0bc
00000070: 4a2b d4bb 2c11 f5bd a974 41bd 2209 d13e
00000080: 287a bebd 5779 a8bd 0bb2 04bf c66d 99bd
00000090: 1aed 203f c987 4fbd 9290 56bf 3464 f9bd
000000a0: c2a7 93be c830 6cbd 7282 dcbd d45e 70bf
000000b0: a890 34be 55ba 26be 056b 8ebf 3f1e ccbd
000000c0: 6246 d3bd 3b7f e5bd 5a30 a8bd 6eb7 9dbd
000000d0: bf19 59be 3a35 e2be d17d 683f 2028 bebf
000000e0: 6468 77bd 64eb 76bd aef1 8cbd e066 bfbd
000000f0: e486 74bf 6461 74bc 0868 4d3c 37db acbd
00000100: 58ce b7bd 7c02 13bf 79ae 41bd a5a4 07bd
00000110: a696 9abe 7691 e4be 510f 45bd 6c56 7f3f
00000120: 8372 61bd 85f2 86be 1a84 99bf 29fe c1bc
00000130: d3a5 60bf 40bf 36be ddb0 89bd 9d96 84bc
00000140: 1fea a6bd 3e29 9dbd f184 cdbe 2ff8 26bd
00000150: bb0c 9ebd 8c51 70bf ddf3 1b3c d54c 8cbd
00000160: cc91 f7be 956f 81bd 257f 87bd 35d9 8bbd
00000170: ee2a dd3e 93eb 42bf 2e1f adbc 433a 61bd
00000180: 9771 e4be edb7 9f3e b03f b2bd 6d45 97be
00000190: c9b7 c7bd 4c07 f3bd 2e28 9fbd 45b9 02be
000001a0: 4908 c5bd 72f4 d2be a6a8 97bd e52b dbbe
000001b0: ddca 8dbb e0a3 b9bd ff51 aabd c5fd 9dbf
000001c0: b298 51bd ce3d 1ebd 62cc debd 8439 77bf
000001d0: eb24 80bc b1c8 49bf 7e1f f4be 10b9 30bf
000001e0: 8f65 ac3d 8577 24bf a727 a0bd 48f2 b7be
000001f0: 1dab 5a3d f0bc b3be b9ab 4fbd 1db7 89bf
00000200: 0c4b 88bd 10c2 bbbd 967b 43bf c601 0ebf
00000210: 1cd0 f0bd 34a0 88bd ec32 ffbd f638 84bf
00000220: 2ff8 37bf 73cb 6dbc b598 83be 9643 99bf
00000230: 0629 99bd a2a3 51bf ad8c 88bd ac43 77be
00000240: a1bf c4be 02fb ddbd 0a96 d6bd 9524 01bd
00000250: 46b0 10be d2fb dabc ae65 1bbe 7db8 b3be
00000260: 9790 a1bf 51af d43c 5c3a 71bd 73f0 ebbd
00000270: 23ca eebd 073e a2bd 5ade 5ebd 5bc3 efbe
00000280: 2a10 d8bd 1bff e4bd 7560 03bd 73c3 b7be
00000290: 60ae 31bd 0f6c 28be 8f39 1cbf 0c6a 923f
000002a0: 54dc 26bf 363b 9dbc 6175 c7bd fe26 94bd
000002b0: 8523 83be 0a51 55bd 42e2 debd 7cb9 eebe
000002c0: ffbc adbd bf23 80bd 9d4b 84be 894a 17bf
000002d0: 0ad5 58be 4815 383e 3ff5 7cbf e58d 49bf
000002e0: 6135 c1bc 32c1 5dbd 3891 b0bd 8c48 7ebb
000002f0: 54d8 db3d 5cd6 70bd 852c 8ebd f50a 8bbd
00000300: 2b3a 6abc c3c4 e5bd 6bdb 65bd ffbc adbd
00000310: 0d27 103c ba8f 5cbf 469e 13bf 5286 dfbd
00000320: 0ed4 9fbd 8f51 22bd 27ff acbf e138 4fbd
00000330: 9726 a2bd 4d9c 88be f9f9 43be a5a1 50bf
00000340: 1513 9fbf 6a31 e03b 4692 95bd 1766 a6bd
00000350: daa5 b83d b9aa 4bbd 0214 debc bf2c abbd
00000360: 4ab3 4ebe a5e7 80bd 4cc2 f1bd e40a 78bd
00000370: a087 b2be f269 debe ad45 b33f a0fc 3ebd
00000380: 9e34 f13e 57f7 acbd bcdb f9bd cf0a 603f
00000390: 0a23 10bc 9b36 62bf 7cc1 c0be 6190 cfbc
000003a0: 91ea bfbd 8f63 bdbd 8880 b2bd 6661 a6be
000003b0: 4817 b6bd 14df fdbd d2c1 d3bd 9b5e 6cbd
000003c0: 19c1 cdbd f06e ecbe 5b3f 6cbd d654 13be
000003d0: 94ef 74bd cd56 05bd b5d1 86bd dc9e 73bc
000003e0: 8c19 f1bd 174d a6bd e781 2bbd 3732 abbd
000003f0: 36c7 3e3c 38f0 b5bd d24d debe 754d 82bd

l3.weight f4 [4, 300]
0.5237644 -0.057860035 0.88185287 1.585596 0.9273885 -0.013954113 -1.6035995 0.014181728
0.4944754 0.07728867 -0.02708419 -0.016742775 -3.5529244 0.015975364 0.01837855 -0.0029653106
-0.2500939 0.0055265203 -0.11871394 -0.035177577 -2.5394225 0.08252197 -0.6365246 0.0682228
-0.07927947 0.052833237 0.010989338 0.024083465 -0.06269781 -0.07302694 -0.02912975 -0.0097336145
-0.0030881523 0.06821535 2.7143285 0.07672242 0.9750454 0.01720322 0.81006956 -0.06556144
-0.100213476 0.67344487 -0.003924062 1.424302 0.22008292 0.10732018 0.85315186 -0.43010375
0.031027414 -0.09011412 -0.122314595 -0.016186962 1.0262532 -0.06775751 -1.0464141 -0.20680596
0.08554839 -0.005116086 0.053896435 -0.08678669 -1.3294829 -0.034556944 -0.043926056 0.0081121065
0.046270754 -0.2913223 0.027344216 -0.023756387 -0.247209 -0.087445416 0.019549413 -0.32694426
0.07250838 -0.081039295 -0.7598022 0.011681125 -1.402463 -0.07407637 0.018022042 -0.018428843
-0.012177148 0.07647954 0.3860686 -0.01371886 -0.040644404 0.0656583 -0.03779497 0.043058813
0.08396291 -0.0001572205 -0.009873985 -0.045456406 -0.51576567 -0.3665682 -1.0508189 0.014326642
0.47933206 0.016538627 0.0045138923 -0.8125135 0.17191339 -0.10542656 0.034121826 -0.08758389
0.031801715 -0.26817602 0.055594426 0.35947892 0.009402549 -0.0076745246 -0.037204884 -0.18910456
0.19312072 -0.018013472 -0.051858697 -0.024096133 0.021666123 -0.046032336 -0.03389459 0.5492394
0.16442013 -1.3267888 0.048005998 -0.08705341 1.7788815 -0.62769115 0.0020515425 0.43307284
0.122430295 -0.010297365 -0.4056479 0.035044428 0.59246475 -0.047309373 -1.6517535 0.5029234
-1.5624812 -0.02019128 0.006464363 1.4030589 -0.002705844 0.35941932 -0.032746453 0.04214462
-0.27083483 0.045202345 0.042049997 -0.06284646 0.03798943 -0.012999134 -1.3416898 0.08278613
-0.4646944 -0.050078005 0.13466044 -0.036931448 0.06824515 -0.038932674 -0.059653502 0.5387013
-0.15533729 0.08547538 -0.008442167 1.1021329 -0.043925315 0.3015491 1.7838852 0.3126969
-0.1240389 -0.0865289 0.01275345 -0.029427774 0.69943136 -0.04355055 0.022927506 -0.0075602713
-0.8627482 -0.028481547 0.004119849 0.2582489 -2.5957847 0.06317255 -1.0180126 0.17142083
0.0008079289 -0.06463758 -0.002859652 -0.022529645 -2.6636922 -0.018621068 -0.039104786 0.021513758
-0.09799385 0.017672235 -0.041904714 0.027738351 -0.5554954 -0.024040254 -0.49460876 0.0050631864
0.027527874 0.018446352 -0.46262485 0.0009895895 0.010889872 0.30213922 0.072269954 -0.052661553
-0.47733533 -0.11547591 0.0007293951 -0.015398409 -0.39415285 -0.06770722 -0.0071854866 -0.035977025
-0.03388937 0.0058848 -0.0004791397 -0.024308847 0.040603105 0.35218927 0.038758058 -0.03590385
-0.50287056 -0.038078833 0.05420489 1.3015745 1.0143592 -1.2294422 0.31416264 0.08089028
-1.0592119 1.5408926 -0.059139416 0.101902544 -0.026306348 0.024026843 0.006165501 0.032450665
-0.0359964 -0.0046546776 0.019904805 -0.16644762 0.019842591 -0.029094731 -0.00087130547 -0.0047921715
0.012889797 0.041097816 -0.018501487 -0.029110005 -0.14912957 0.03961291 1.7851967 0.012409605
00000000: 6c15 063f a5fe 6cbd 1cc1 613f cff4 ca3f
00000010: 5569 6d3f cb9f 64bc c042 cdbf 7a5a 683c
00000020: e12b fd3e 8649 9e3d aadf ddbc 2528 89bc
00000030: 1d63 63c0 c4de 823c 9d8e 963c a855 42bb
00000040: 4f0c 80be d017 b53b 4b20 f3bd 5d16 10bd
00000050: e685 22c0 4701 a93d 47f3 22bf 65b8 8b3d
00000060: 465d a2bd aa67 583d a00c 343c b04a c53c
00000070: b667 80bd 268f 95bd 83a1 eebc bd79 1fbc
00000080: 9962 4abb 7db4 8b3d 8fb7 2d40 a520 9d3d
00000090: 939c 793f c4ed 8c3c b860 4f3f 1445 86bd
000000a0: b93c cdbd e266 2c3f 6b95 80bb 874f b63f
000000b0: 6b5d 613e afca db3d 2968 5a3f 8f36 dcbe
000000c0: 342d fe3c c08d b8bd 1380 fabd 859a 84bc
000000d0: 445c 833f 73c4 8abd e6f0 85bf f1c4 53be
000000e0: ff33 af3d d7a4 a7bb 82c2 5c3d 38bd b1bd
000000f0: 7f2c aabf 958b 0dbd cfeb 33bd a4e8 043c
00000100: 6786 3d3d 3228 95be fa00 e03c c19c c2bc
00000110: 5b24 7dbe 9516 b3bd 1726 a03c 3d65 a7be
00000120: 467f 943d eef7 a5bd 6682 42bf 3062 3f3c
00000130: e883 b3bf 5ab5 97bd f6a2 933c 16f8 96bc
00000140: a982 47bc 4ea1 9c3d c9aa c53e 12c5 60bc
00000150: bf7a 26bd dc77 863d e6ce 1abd 705e 303d
00000160: bff4 ab3d 8edb 24b9 7fc6 21bc 7f30 3abd
00000170: 3809 04bf d4ae bbbe 3c81 86bf 4bba 6a3c
00000180: 036b f53e 047c 873c 46e9 933b e200 50bf
00000190: 100a 303e e1e9 d7bd 54c3 0b3d 2f5f b3bd
000001a0: 8442 023d 5e4e 89be fbb6 633d 9f0d b83e
000001b0: 260d 1a3c 947a fbbb 2664 18bd a0a4 41be
000001c0: 70c1 453e fd90 93bc c969 54bd 4165 c5bc
000001d0: 277d b13c 678c 3cbd 0ed5 0abd f49a 0c3f
000001e0: c05d 283e 37d4 a9bf f0a1 443d 0f49 b2bd
000001f0: 64b2 e33f 5eb0 20bf 2c73 063b b9bb dd3e
00000200: bcbc fa3d 47b6 28bc 15b1 cfbe bf8a 0f3d
00000210: c5ab 173f 79c7 41bd a96c d3bf 97bf 003f
00000220: 62ff c7bf 2f68 a5bc 02d3 d33b 6f97 b33f
00000230: 8754 31bb cf05 b83e 2521 06bd d69f 2c3d
00000240: ddaa 8abe 1826 393d 9e3c 2c3d a5b5 80bd
00000250: ce9a 1b3d 52fa 54bc 7ebc abbf c68b a93d
00000260: 6dec edbe 981e 4dbd 6de4 093e 6e45 17bd
00000270: 1dc4 8b3d de77 1fbd 3b57 74bd 54e8 093f
00000280: bd10 1fbe b70d af3d 0451 0abc b112 8d3f
00000290: 08eb 33bd a564 9a3e 5a56 e43f cf19 a03e
000002a0: 1b08 febd 1036 b1bd d9f3 503c 8412 f1bc
000002b0: ef0d 333f 1062 32bd 77d2 bb3c 27bc f7bb
000002c0: 11dd 5cbf 2252 e9bc ccff 863b 3339 843e
000002d0: 5621 26c0 9c60 813d 3d4e 82bf f188 2f3e
000002e0: 31cb 533a b560 84bd 0069 3bbb 1790 b8bc
000002f0: ef79 2ac0 368b 98bc 572c 20bd 9f3d b03c
00000300: 00b1 c8bd 5dc5 903c 47a4 2bbd 8a3b e33c
00000310: f234 0ebf 11f0 c4bc 5c3d fdbe 16e9 a53b
00000320: 2382 e13c ce1c 973c 2add ecbe 1db5 813a
00000330: 6f6b 323c feb1 9a3e 4502 943d a4b3 57bd
00000340: 4c65 f4be a27e ecbd e034 3f3a 9c49 7cbc
00000350: 67ce c9be 15aa 8abd 3b74 ebbb a55c 13bd
00000360: 94cf 0abd 48d5 c03b 0b35 fbb9 5923 c7bc
00000370: 714f 263d 2752 b43e c5c0 1e3d ea0f 13bd
00000380: 20bc 00bf 8df8 1bbd f205 5e3d fe99 a63f
00000390: 86d6 813f 5d5e 9dbf edd9 a03e cea9 a53d
000003a0: 4194 87bf f83b c53f 2c3c 72bd 48b2 d03d
000003b0: 6980 d7bc f1d3 c43c f907 ca3b fdea 043d
000003c0: f670 13bd 4486 98bb 670f a33c 3f71 2abe
000003d0: ee8c a23c 1358 eebc 5268 64ba a607 9dbb
000003e0: ba2f 533c 2f56 283d 6e90 97bc 1b78 eebc
000003f0: 6cb5 18be 2641 223d 5381 e43f a851 4b3c

l3.bias f4 [4]
-0.82344353 0.3654562 0.093125485 -0.21218789
00000000: 32cd 52bf 131d bb3e 93b8 be3d c847 59be
