TD3_control/dir_Walker2D_002/biped-v8-2d-8_actor_t.pth (torch, 527895 bytes, 6 tensors)

l1.weight f4 [400, 24]
000000 b9 d8 6a bd f2 b6 9f 3e 09 8e 05 3f 8d a5 21 c1
       -0.05733559 0.31194264 0.52169853 -10.102918
000010 ba b2 c6 bf 1e 20 6b bf 50 0e 00 bd a8 d9 11 be
       -1.5523293 -0.9184588 -0.03126365 -0.14243186
000020 26 cb 2d bf 9e af 03 c0 d3 05 29 3e 55 1d 0a 3f
       -0.67888105 -2.0575938 0.16506128 0.5395101
000030 33 d8 82 3e 36 f8 67 be 07 7f 13 40 95 3d 8f 3e
       0.25555572 -0.22653279 2.3046281 0.2797667
000040 8e b4 64 40 76 d3 1e bf 6d 48 40 c0 32 f0 45 3e
       3.5735202 -0.62041414 -3.0044205 0.19329908
000050 46 4f 24 3e 13 cb a7 3e 9d a8 2b bf 87 6a 0d c0
       0.16045865 0.3277212 -0.6705416 -2.209627
000060 98 a4 06 40 20 8c 89 3f c9 5f ee bc c4 31 ad c0
       2.103796 1.0745888 -0.029098408 -5.412325
000070 23 91 8c bf 68 88 2f 41 4d 07 cc 3d 41 5c 4f be
       -1.0981792 10.970802 0.0996233 -0.20250036
000080 83 a0 62 bf 5c 72 04 bf 84 ea 4d be 36 2a 13 bf
       -0.8852617 -0.51737 -0.20108992 -0.57486284
000090 f4 a1 17 bf 0f fb 06 bf 02 c4 09 3f 69 bf 26 be
       -0.59231496 -0.52726835 0.5381471 -0.16283955
0000a0 1c 54 ca be 02 ee 81 3f c6 b1 2b c0 e4 41 9e 3c
       -0.39517295 1.0150759 -2.6827254 0.019318528
0000b0 b8 c6 89 bf 41 9b 0e 3e 06 ce 50 3f 69 42 2b 3f
       -1.0763769 0.13926412 0.81564367 0.6689821
0000c0 39 78 0a 40 1f 89 07 3f 98 e0 39 bf a1 81 38 c0
       2.1635878 0.52943605 -0.7260833 -2.882912
0000d0 5e b4 4b 3f ab 00 eb 3f 22 bf 6f 3d 9b 84 09 3e
       0.79572093 1.8359579 0.058531888 0.13429491
0000e0 df d0 3d bf 83 93 01 be 5f e6 5e bf 1c 2b b0 3d
       -0.74146837 -0.12653928 -0.8707027 0.086019725
0000f0 e9 b6 e2 be 02 37 bf be 78 a4 c4 be a7 f8 18 3f
       -0.44280174 -0.37346655 -0.3840673 0.59754413
000100 93 4a c4 bb d7 2c 6c 3f b3 eb 8b c0 ef 5e 91 3d
       -0.0059903353 0.9225592 -4.372522 0.07098185
000110 6c 64 82 3f 8b e1 87 3e 0e 89 d7 bf c7 4c 1c 3f
       1.0186896 0.26539263 -1.6838701 0.6105465
000120 a2 3e a2 3e bb da 75 bf ed 6c 83 3e 89 59 85 c0
       0.3168841 -0.9603688 0.2566904 -4.1671796
000130 0e 8d 39 40 b5 20 95 40 fc 27 c3 bd 49 5d e4 3d
       2.8992343 4.6602426 -0.09529111 0.11150605
000140 b3 fc 00 c0 4a 98 2c bd f0 47 d8 3f 30 3b 7f bf
       -2.0154235 -0.04213742 1.6896954 -0.9969969
000150 5e f4 f4 bf b1 ba 99 bd 5c 25 98 c0 2d 5f cd be
       -1.9137075 -0.07506312 -4.7545605 -0.40111676
000160 59 ad 17 bf ea a1 a8 3e a4 91 e6 bf da 63 32 3e
       -0.5924888 0.3293603 -1.8013196 0.17420903
000170 88 94 01 3f 94 53 1a bd 7b 3a 89 bf a2 f5 4b 3f
       0.50617266 -0.037677363 -1.0720972 0.7967168
000180 c7 56 86 3f ad f5 00 3f f6 2e 4e 3f 7a 0a 1e c0
       1.0495232 0.5037487 0.80540407 -2.4693894
000190 7a 22 0c 40 81 b8 74 40 06 19 12 be 35 7e c2 bd
       2.1896043 3.8237612 -0.14267358 -0.09496728
0001a0 bd c3 67 c0 f2 41 fd be dd f3 b5 3f 64 66 23 3d
       -3.621322 -0.49464375 1.4215046 0.03989257
0001b0 63 5c 55 be f1 18 17 3e 34 45 83 3e 6d 89 00 bf
       -0.20836024 0.14755608 0.25638735 -0.50209695
0001c0 3e cb 47 bf e8 85 98 be dc d4 90 bd c1 4d 27 3e
       -0.780445 -0.29789662 -0.0707185 0.16338255
0001d0 0f 82 6e 40 a2 06 88 3d 1e 40 bb bf 3a e7 99 be
       3.7266881 0.0664189 -1.4628942 -0.30059224
0001e0 0d 8e 87 40 ff 3c 8e bf c4 b1 4e be a2 61 80 3e
       4.23609 -1.1112365 -0.20185 0.25074488
0001f0 81 dd 6c c0 4d c2 86 40 69 53 ed bd 2a 22 db bd
       -3.7010195 4.2112184 -0.11588175 -0.10699876
000200 1c f6 79 c0 d2 27 2a 3d b7 71 49 bc 12 ab f3 3d
       -3.9056463 0.04154188 -0.012295178 0.118978634
000210 ca 31 50 bf a2 46 a0 be 13 ce 5c bf 88 3d 8d be
       -0.8132597 -0.3130389 -0.86251944 -0.27586007
000220 d9 8e 56 40 64 b7 24 3f 21 6d 72 c0 28 62 c8 3e
       3.3524687 0.6434233 -3.7879107 0.39137387
000230 ab 13 5e bf ad c0 53 3f f7 93 ea 3d 74 23 84 3d
       -0.8674876 0.82715875 0.11454003 0.06452075
000240 43 bb b1 40 50 44 a3 3f 43 5e a2 3c d1 17 9b 3f
       5.554109 1.2755222 0.019820338 1.2116643
000250 3f d0 19 40 ae f5 e3 40 be 91 3a be 1e 79 31 3e
       2.4033353 7.12374 -0.18219659 0.17331359
000260 fc e6 df 3f 0e ee 57 bb 27 fc db bf c1 6d c5 3e
       1.7492366 -0.0032948288 -1.7186326 0.38560298
000270 15 58 9d c0 82 96 44 3d 36 d0 f9 be 83 8f a7 bd
       -4.917002 0.047995098 -0.48791665 -0.081816696
000280 02 07 4b c0 ab b5 93 be da 8b 45 3f 91 55 31 3e
       -3.1723027 -0.2884954 0.7716652 0.17317797
000290 5e 59 3c bf ad c5 85 be 9e df 99 3f c0 23 a9 3e
       -0.73573864 -0.26127377 1.2021368 0.33035088
0002a0 3b d9 fe c0 e8 64 e3 3f 0a 6e b3 bf 5a 09 68 c0
       -7.9640174 1.7765169 -1.4017956 -3.6255708
0002b0 ee d0 e4 3e 92 57 6a c0 47 b4 b3 3b 39 02 cc bd
       0.4469065 -3.6615949 0.005484137 -0.099613614
0002c0 16 7d fb bf ea cc 1b be 40 a9 76 c0 7f 72 88 be
       -1.9647548 -0.15214887 -3.8540802 -0.26649854
0002d0 81 47 4c c0 3c 70 7b bc 83 3d 9a bf 35 e6 e9 3c
       -3.1918643 -0.015346583 -1.2050022 0.028552154
0002e0 8b 56 08 40 23 ef d0 3d 55 4d c2 bf fb 9f cd 3e
       2.1302822 0.10201862 -1.517985 0.40161118
0002f0 b2 d2 31 3f 39 cf b1 3e e4 8b 8f bf b0 01 c7 3e
       0.6946212 0.3472841 -1.1214566 0.38868475
000300 9b fd 8e 40 48 22 83 3f 3a 85 8b 3d f1 07 43 3c
       4.4684577 1.0244837 0.0681252 0.011903749
000310 70 9c a4 3f 11 20 b2 40 52 8c 7b 3d 05 52 d7 bd
       1.2860241 5.5664144 0.061413117 -0.10513691
000320 35 3a 04 3e 10 73 0f be 55 4e 12 3f a5 f4 0c 3f
       0.12912829 -0.14008737 0.57150775 0.550608
000330 71 f6 e2 3f a7 a5 1e 3f 6b 98 3e bf 90 4c ab 3d
       1.7731458 0.61971515 -0.7445132 0.083642125
000340 dc 1c 32 c0 ce 4d 79 bb bd a8 10 bf e9 3c c4 bd
       -2.7830114 -0.003804076 -0.56507474 -0.0958193
000350 18 af 8a 3f ab 8b 99 bd 94 f0 ba 3d 7f 92 05 3e
       1.0834684 -0.07497343 0.09127918 0.13044165
000360 2a 10 26 c0 8f 95 59 3f c0 c8 dc 3d 46 a0 cf bf
       -2.5947366 0.84993833 0.107804775 -1.6220787
000370 60 c1 ea bd de c3 62 c0 4f 89 d8 bd 8f a5 29 be
       -0.114626646 -3.5432048 -0.105730645 -0.16567062
000380 52 5f cc bf 39 bc 19 3d 70 e4 b7 bf 76 ca 46 3d
       -1.596659 0.03753302 -1.4366589 0.048532926
000390 c7 be 20 bf c0 e7 98 bb 00 9b 3b 3f a2 1c 50 bd
       -0.62791103 -0.0046662986 0.73283386 -0.050808556
0003a0 d2 b9 25 c0 c1 60 82 bf 00 62 15 c0 9a df c9 3d
       -2.5894666 -1.0185777 -2.3341064 0.09857102
0003b0 9d 3f 8e 40 ae 03 a5 bd fb 4f 07 c0 2c ac ad c0
       4.4452653 -0.080573425 -2.1142566 -5.427267
0003c0 ea c2 fe bf cf ff 2b c0 27 9f b4 3e eb 16 81 c0
       -1.9903233 -2.6874883 0.35277674 -4.0340476
0003d0 62 7e 4c 3f 70 34 c0 bf 9a 0e a2 3b a2 d6 3c be
       0.79880345 -1.5016003 0.0049455883 -0.18441251
0003e0 b4 f1 32 bf 74 be a3 be 35 71 35 3f 05 88 74 3f
       -0.6990006 -0.31981242 0.70875865 0.9552005
0003f0 89 85 27 3f 1e 68 5d be d0 33 b8 3f a1 47 6a 3e
       0.65438133 -0.21621749 1.4390812 0.22878887

l1.bias f4 [400]
000000 02 f2 b4 bf 0e 23 72 3e ac ae a6 bf 50 47 0d 3e
       -1.4136355 0.23646185 -1.3022056 0.13796735
000010 4c d5 1a c0 02 1e 91 bf 5f 4b 24 40 cd 1b 25 bf
       -2.4192686 -1.1337283 2.5671003 -0.64495546
000020 5f a8 27 bf 4a 54 3b c0 c9 e8 6a bf 79 18 d6 bf
       -0.6549129 -2.9270196 -0.9176145 -1.6726218
000030 48 4f b3 bf c5 b5 08 c0 29 40 ff be b4 fd b4 bf
       -1.400857 -2.1360943 -0.49853638 -1.4139924
000040 25 53 f4 bf 3d 67 31 c0 ac 4c 8f bf 70 e5 05 c0
       -1.9087874 -2.7719262 -1.1195273 -2.0921288
000050 4c c4 3d bf b5 eb cf 3f b1 cd 29 bf 2a 4c fb bf
       -0.7412765 1.6243807 -0.66329485 -1.9632618
000060 e8 9d 13 c0 db d1 01 c0 d3 e2 85 bf 3a 3e 98 3e
       -2.3065128 -2.0284336 -1.0459846 0.29734975
000070 1c d4 ab bf db dd ab bf 5f ca 24 bf 98 d6 2a 40
       -1.3424106 -1.342708 -0.64371294 2.6693478
000080 65 87 43 bf d1 f7 94 bf 95 60 81 3f 28 25 c8 bf
       -0.7637847 -1.1638128 1.01076 -1.5636339
000090 f0 23 9a bf c3 3d ef bf 06 4b 3f 3f 29 3f 84 bf
       -1.2042217 -1.8690723 0.7472385 -1.0331775
0000a0 8b 4c 6f bf 31 1b cf bf a1 e5 d5 bf f6 ee eb bf
       -0.9347617 -1.6180173 -1.6710702 -1.84323
0000b0 63 9d df bf 59 02 fa be 25 a7 93 bf 44 66 9b be
       -1.7469906 -0.48829916 -1.1535383 -0.3035146
0000c0 41 41 cb bf 77 b3 07 c0 71 ed 19 c0 a6 1e 15 c0
       -1.5879289 -2.1203287 -2.4051173 -2.3299956
0000d0 4f 99 08 c0 2c cb 8d bf 39 fb 93 bf 4d 2b 06 c0
       -2.1343572 -1.1077628 -1.1561042 -2.0963929
0000e0 87 9b 21 c0 88 09 c8 bf 3c 3b d2 bf c0 92 f9 be
       -2.5251176 -1.5627909 -1.6424327 -0.48744774
0000f0 7d 5b 2a c0 b7 4f a4 bf b4 69 34 be 14 1c a3 bf
       -2.661834 -1.2836827 -0.17618448 -1.2742944
000100 b0 55 cd bf 26 f8 80 bd e4 3c 1c c0 e8 99 66 bf
       -1.6041775 -0.062973306 -2.4412165 -0.9007859
000110 db 8e c2 bf 1a 8e 15 c0 fd 7b 0a c0 52 8b a5 bf
       -1.5199846 -2.3367982 -2.1638176 -1.2933142
000120 40 06 07 c0 a4 5b 55 bf 82 10 7f bf 00 2e db bf
       -2.1097565 -0.8334296 -0.99634564 -1.7123413
000130 e1 55 40 be 58 87 c4 bf cb 79 4f be af 6b 16 bf
       -0.1878276 -1.5353804 -0.20261304 -0.5875806
000140 21 7f e3 bf 46 46 0b c0 d6 30 cf bf 7d be 81 bf
       -1.7773172 -2.1761642 -1.6186779 -1.0136257
000150 7a 8f ff bf 89 5f 01 c0 2d 71 72 bf 1d 88 63 3f
       -1.996566 -2.021456 -0.9470394 0.8887957
000160 9d f2 ca be 6c 28 5a bf 2b 57 d9 bf 25 58 41 bf
       -0.39638224 -0.8521793 -1.6979727 -0.7552512
000170 5c bb b4 bf 55 cb 81 3f 0b 19 0a c0 b5 3e 14 bf
       -1.4119678 1.0140177 -2.1577785 -0.57908183
000180 13 4b 1d c0 e0 7c 21 c0 af 52 13 c0 e4 a2 13 c0
       -2.4577072 -2.5232468 -2.3019216 -2.306817
000190 04 c4 a9 bf b2 bb c6 bf fb 92 b0 3f 8b c0 95 3f
       -1.3262944 -1.552603 1.3794855 1.1699384
0001a0 c7 bf 84 bf 77 9d 4f 3f 74 b4 2a c0 9d d2 75 3e
       -1.0371026 0.8109965 -2.667264 0.24006124
0001b0 ca a8 ea be e4 3f aa bf 06 2f 08 c0 17 a4 05 bf
       -0.458319 -1.3300748 -2.12787 -0.52203506
0001c0 28 fd 0a c0 1e f7 b7 bf 81 1d 0d c0 6b d5 43 bf
       -2.1717014 -1.4372289 -2.2049258 -0.76497525
0001d0 43 56 6d bf f6 2a 47 bf 05 9b be be 9e 89 45 3e
       -0.9270975 -0.7779993 -0.37227646 0.19290778
0001e0 c6 29 e6 bf 67 bd b8 bf 23 18 ab bf 8a fe da bf
       -1.7981498 -1.4432801 -1.3366741 -1.7108929
0001f0 0e 2c bb bf 80 57 fe be 03 63 50 bf 2a cc 90 bf
       -1.462282 -0.49676132 -0.8140108 -1.1312306
000200 66 18 7b bf 3e 25 dd bf c2 40 b6 bf db 6e 5f bf
       -0.98084104 -1.727699 -1.4238513 -0.8727853
000210 ab 10 3d 3f 1d 08 d6 bf cf a8 e2 bf b9 b8 08 c0
       0.7385356 -1.6721226 -1.7707766 -2.1362746
000220 a7 a1 d2 be 68 6b 9e be 90 e4 21 c0 fa e6 5b bf
       -0.41138956 -0.3094132 -2.5295753 -0.8589932
000230 4a f7 a7 bf 57 a9 ef bf 47 9d e4 bf 0c a2 e2 bf
       -1.3122342 -1.8723553 -1.7860497 -1.7705703
000240 0b f0 e0 bf 66 c0 92 bf 4c 5d a9 bf 51 f8 cc bf
       -1.7573255 -1.1464965 -1.3231597 -1.601328
000250 7b 21 3a 3e d2 08 17 c0 45 ae af bf 77 99 24 c0
       0.18176834 -2.3599133 -1.3725058 -2.5718668
000260 52 9c ec bf c6 81 89 bf 57 ce 7d bf 0b 08 f2 bf
       -1.8485205 -1.0742729 -0.99142975 -1.8908705
000270 97 bb 3f c0 26 95 d2 bf 39 fd ae bf d7 08 d9 bf
       -2.9958246 -1.6451766 -1.3671027 -1.6955823
000280 80 40 ca bf 29 bd 27 bf ef e4 e2 bf 4b ea 01 c0
       -1.5800934 -0.6552301 -1.7726115 -2.029925
000290 0d 25 ff bf fe 84 b9 bf f8 2b c2 bf 46 36 81 bf
       -1.9933182 -1.4493711 -1.5169668 -1.0094688
0002a0 cf 43 b0 bf 7a 80 0a c0 50 2c 5a bf c6 7d 15 c0
       -1.3770694 -2.1640916 -0.85223866 -2.3358016
0002b0 be 07 14 c0 5f 61 49 3f 8d 33 8d bf 81 f4 3b bf
       -2.3129725 0.786642 -1.1031357 -0.7341996
0002c0 0d 6a a0 bf 24 a8 e9 bf 8a 08 dc bf f3 c1 1b c0
       -1.2532364 -1.8254437 -1.7190106 -2.4337127
0002d0 72 4e 1d c0 cb 0b b2 bf 04 14 e1 bf c9 a5 de bf
       -2.457913 -1.3909849 -1.7584233 -1.7394344
0002e0 63 48 ff bf 51 87 46 bf ec 05 f8 bf a7 5f fc be
       -1.9943966 -0.77550226 -1.9376807 -0.49291727
0002f0 99 79 3a bf cb 8c da be a9 8d e2 be 3f d3 d6 bf
       -0.72841793 -0.42685542 -0.44248703 -1.6783217
000300 00 4b f0 bf ad dc b7 bf 7d cf c4 bf d1 70 ef bf
       -1.8772888 -1.436422 -1.537582 -1.8706304
000310 25 a5 84 be ed 64 90 3e cf d9 d5 bf f3 31 bc bf
       -0.25907245 0.28202 -1.6707095 -1.4702743
000320 4a be 6d bf c1 ee f2 bf 95 3a 0e bf 54 15 d5 bf
       -0.92868483 -1.8979112 -0.5555814 -1.6647134
000330 6d ed 5e bf 31 48 50 3e b9 54 12 c0 68 4e 3c bf
       -0.87081033 0.20340039 -2.286421 -0.7355714
000340 0c 36 c9 bf f8 bf 82 bf 24 05 fa bf ae a1 d3 bf
       -1.5719619 -1.0214834 -1.9532819 -1.6533716
000350 22 14 c6 bf 82 ce a4 be 1e 5a ac bf 9d 00 01 3f
       -1.5474894 -0.32188803 -1.3465002 0.5039156
000360 ec 5b fd bf e9 b5 94 bf e3 f4 2e bd d2 da 02 c0
       -1.9793677 -1.1618015 -0.04271401 -2.0446057
000370 87 a2 e9 bf 5c 88 b2 bf e1 d5 14 c0 e1 94 c8 bf
       -1.8252724 -1.3947864 -2.3255541 -1.5670434
000380 ea cb 38 bf d6 96 1d bf 7e 9c cd bf d8 b6 16 c0
       -0.7218615 -0.6155828 -1.6063383 -2.35491
000390 25 2e 56 bf ce 69 1b c0 12 a8 55 bf ec 90 f4 bf
       -0.8366416 -2.4283328 -0.8345958 -1.9106727
0003a0 10 77 50 bf a3 b5 16 c0 4c 4e e7 bf b2 39 f3 3e
       -0.81431675 -2.3548362 -1.8070769 0.47504956
0003b0 73 5b 3d 3e fe c9 93 bf 91 0b f2 bf 96 43 1b c0
       0.18491916 -1.1546018 -1.890978 -2.426
0003c0 50 09 17 bf 8b 67 fe 3f 0f a7 fe bf 76 94 2c c0
       -0.58998585 1.9875349 -1.9894732 -2.6965613
0003d0 d3 4f 66 bf 06 ba b9 bf d1 4e 2e 3e 50 ae c8 bd
       -0.8996555 -1.4509895 0.17022254 -0.097988725
0003e0 8c 9c f0 bf 12 8b 76 3f dc 01 03 c0 e8 58 b6 bf
       -1.8797774 0.96305954 -2.0469885 -1.4245882
0003f0 5b 94 8d bf 4b 88 d5 bf 54 30 ab bf 56 1e 9a bf
       -1.10609 -1.6682218 -1.3374124 -1.2040508

l2.weight f4 [300, 400]
000000 1e 3c 11 bc 1c 38 01 3d 69 10 d9 3c c8 54 b2 3c
       -0.008864431 0.03154765 0.026497083 0.021768942
000010 78 60 35 bd 06 b7 12 3d 77 1d a3 bd ae 00 97 bc
       -0.044281453 0.035819076 -0.07964604 -0.018432941
000020 52 a5 5e 3d 7c cf fa 3c 3b 21 64 bd 7e 35 1c bd
       0.05435688 0.030616514 -0.055695754 -0.03813695
000030 bf b7 31 bd e7 02 23 bd f9 e7 46 bc 45 86 97 39
       -0.043388125 -0.03979769 -0.0121402675 0.00028901003
000040 d8 6b bd bc 15 95 81 bc 16 3a 25 3c 2e 70 13 bd
       -0.023122713 -0.015818158 0.01008465 -0.035995655
000050 ef 66 80 bd d0 7a 31 bd f5 24 8f bc f0 49 42 3d
       -0.06269633 -0.043330014 -0.017473677 0.047433794
000060 98 30 ca 3c 01 f0 ca bd c2 56 d6 bd b8 d9 3f bd
       0.024681374 -0.09909058 -0.104657665 -0.046838492
000070 1f cb a7 bd a0 e1 36 bd 59 2f 45 bd 9d 64 84 bd
       -0.08193039 -0.044648767 -0.048140857 -0.06464503
000080 7c 9c 8f bb 74 56 f4 bb 0d b7 8f bd 72 c8 61 3b
       -0.004382668 -0.007456595 -0.07017336 0.003445175
000090 79 be 4f bd 1a 8e e2 3c 90 04 b3 bd 2f 5d 2b bd
       -0.05071876 0.02765565 -0.087411046 -0.041836914
0000a0 3b 39 e0 bd 50 18 37 bc e4 73 f3 bd 72 4f 58 bc
       -0.10948416 -0.01117523 -0.11887339 -0.013202535
0000b0 80 eb b8 bb ff f2 3d bc ff 14 b0 3a 9f 98 3e bc
       -0.005643308 -0.011593579 0.0013433992 -0.011633067
0000c0 f0 06 b0 bd 4b f7 e4 bc c0 36 ba bc b8 27 b3 3d
       -0.08595073 -0.02794995 -0.022731185 0.0874781
0000d0 3b 9a 6d bd 04 e8 75 3d 26 a3 9a 3c e8 e9 3b bd
       -0.058008414 0.06003572 0.018876623 -0.045877367
0000e0 1f 2d 20 3d 43 fc 7b bc 2e 3d 28 bd 17 47 a7 bd
       0.03910553 -0.015379968 -0.04107397 -0.08167856
0000f0 f5 22 07 bd 6e 90 17 bd ee 43 11 bd aa 0c e3 ba
       -0.032992322 -0.037002973 -0.035465173 -0.00173225
000100 e9 71 cf bc d7 60 2a bc 95 45 08 bb 8e 6c 11 bd
       -0.025322871 -0.010399065 -0.0020793427 -0.035503916
000110 5e 4d 24 3d fc f8 8a 3a 01 ae d5 bb c2 69 57 bd
       0.040112846 0.0010602768 -0.006520987 -0.052591093
000120 fd ab 82 3c 5d 12 99 bc 17 fb 3b 3c 9b 72 71 3a
       0.015951151 -0.018685514 0.011473439 0.0009210498
000130 51 df 4c bd 14 6f 7f 3c 7e c7 25 bc 3f 05 3c 3b
       -0.05001766 0.015590448 -0.010118363 0.002868965
000140 67 5d 2f bd f1 b0 ce bd 7b 81 ee bc 6d 7a 8a bd
       -0.042813685 -0.10092343 -0.029114475 -0.06761632
000150 b2 de 6f bb 26 df 90 bd 18 ef bd bc 55 be 90 3c
       -0.0036601243 -0.07073812 -0.023185298 0.017668882
000160 ee db 99 3c f2 61 57 bc bb 21 7f 3b a3 30 60 bd
       0.018781628 -0.013145911 0.0038930017 -0.054733884
000170 34 2b 76 3c bb b2 6b bd b5 91 19 3c a1 2a c8 3b
       0.015024949 -0.057543498 0.009373118 0.0061085974
000180 c7 ed a5 bc 50 30 b3 bc 90 d5 3e bd 9f 4f ad 3c
       -0.020254983 -0.021873623 -0.046590388 0.02115613
000190 55 6c 8d 3d dd 63 81 bd 52 ef 5a bc aa ab ee bc
       0.06905428 -0.063178755 -0.0133627225 -0.02913459
0001a0 50 19 bb bd 14 55 fb bc 80 61 36 bd 46 03 98 bd
       -0.09135687 -0.030680217 -0.044526577 -0.07422499
0001b0 8e ea ae bb 4d 64 89 bd d5 fb 8c bd 32 cc 57 bd
       -0.0053380197 -0.06708584 -0.06883971 -0.05268497
0001c0 34 a6 07 bc af c7 ac bd 37 65 af bc 4e 08 90 3a
       -0.008279372 -0.08436524 -0.021410568 0.0010988803
0001d0 7e 4d 98 bd 15 97 89 bb 56 03 2b bd 71 a8 c5 3c
       -0.074366555 -0.0041989186 -0.04175123 0.02412817
0001e0 2f ce ad bd 48 c5 32 3d 00 05 3b bd a4 d1 0c 3d
       -0.08486592 0.043645173 -0.045659065 0.034379616
0001f0 97 9a b0 bb 85 a1 87 bd 95 4c 0b 3b 7e ba a3 3b
       -0.0053895223 -0.06622604 0.0021255363 0.004996597
000200 cd 7f 93 ba c9 9f cb bd aa b1 ed bc 2c a7 0e 3b
       -0.0011253298 -0.09942586 -0.02901538 0.0021767123
000210 4f 26 bd 3c c6 1c 9a 3c f4 94 f4 bd e1 d7 c1 ba
       0.023089556 0.018812548 -0.11942473 -0.0014789068
000220 05 29 99 3b d5 9b 03 be 81 78 47 bd 64 a8 fd bd
       0.0046740794 -0.12852414 -0.048698906 -0.123856336
000230 29 f2 43 bd 85 a8 0a be 41 4b c1 bc 02 df d1 bd
       -0.047838364 -0.13540848 -0.023595454 -0.102476135
000240 3d 9b 0a bc 7c 36 87 bc 1d 8a 04 bd c6 10 9c bd
       -0.008459863 -0.016505472 -0.032358278 -0.07620387
000250 2c f6 05 bd 0d 31 1d bd 3c 4b 76 bd c5 60 97 3c
       -0.03270547 -0.038376857 -0.060130343 0.01847876
000260 be 83 10 bd 59 bb cf bc 00 12 bd bc b4 82 0f 3d
       -0.03528189 -0.025357889 -0.023079872 0.035036758
000270 9e 4a 99 3d 9f c5 2a bd dd 0f 8f bc 2c bc fe bd
       0.07484935 -0.041692372 -0.017463619 -0.12438235
000280 b9 b3 d6 bc 4b 05 eb bd ec fe 76 bd 9d 00 84 bd
       -0.026208745 -0.11475619 -0.060301706 -0.064454295
000290 4d c3 0e bc 46 a8 a2 bb dd de 12 3c b0 70 c7 3c
       -0.0087135555 -0.0049639074 0.008964268 0.024345726
0002a0 31 e6 42 bd 6a 50 5f bd 75 35 86 3d 89 db 40 bd
       -0.04758281 -0.05452005 0.06553165 -0.047084365
0002b0 c5 a1 88 bd ed c4 88 bd ec fa 7f bd 5b 0a 60 bd
       -0.0667148 -0.066781856 -0.062495157 -0.054697376
0002c0 70 32 48 3c 72 de ee 3a 71 87 57 bd 9f ef 3c bc
       0.0122190565 0.0018224253 -0.0526194 -0.0115317395
0002d0 86 d6 93 bd 3c 7b 07 bc 65 8d 8e bd 06 f1 99 bc
       -0.072186515 -0.008269127 -0.069605626 -0.018791687
0002e0 87 12 a3 bb 90 25 3a bc 64 16 0d bc a1 70 cd 3c
       -0.004976574 -0.011361495 -0.008611295 0.02507812
0002f0 5a c5 5e 3c 19 09 42 bd f0 42 bf bd 2c ac f0 3c
       0.013596857 -0.047371957 -0.09338939 0.029378973
000300 2f 66 36 3c 2a 85 51 bd d2 dc db bc 0a fc de bc
       0.011132761 -0.051152386 -0.026838694 -0.027219791
000310 23 fd f2 3b 25 3f 01 bb 99 5b c7 bd 33 b6 e3 bd
       0.00741543 -0.0019721475 -0.09734268 -0.11118736
000320 ff 44 28 3c de 04 95 bd c8 0e c6 3a 3e aa 94 bd
       0.010270356 -0.07276319 0.0015110606 -0.072590336
000330 94 38 06 3c 8b b9 67 3d f6 da 92 bc 90 9a b3 bc
       0.0081922 0.056573432 -0.017926674 -0.021924287
000340 7a 54 d0 3c 8b 5a e2 bc 4f 98 2a bd d6 ca 90 bc
       0.025430907 -0.027631065 -0.04164916 -0.017674845
000350 70 0d 31 3c b6 6a 93 bd ff 43 24 bd 4b 57 6e 3d
       0.010806426 -0.07198088 -0.04010391 0.058188718
000360 30 bc b0 bc 90 39 bf bc 16 2f 92 bc 95 ee 89 3a
       -0.02157411 -0.023342878 -0.017844718 0.0010523373
000370 1e a6 90 bd 16 03 11 bd 0e 5a 92 bc 10 1a 3e bd
       -0.07062934 -0.035403334 -0.017865207 -0.046411574
000380 46 66 14 bd 5b 63 e6 3c 99 73 43 bd 1c 9f 0d 3d
       -0.036230348 0.028123548 -0.047717664 0.034575567
000390 18 26 39 bc 04 bd 78 bd 55 6c 0d bd 00 52 c3 3b
       -0.011300586 -0.060727134 -0.03452714 0.005960703
0003a0 6b 3f 66 bc 58 6f 32 bd 43 7a 67 bc 87 d8 34 bc
       -0.014053206 -0.043563217 -0.014128271 -0.011037952
0003b0 63 26 69 bc 4d 57 07 bd 66 b4 14 bd 29 2d 4f bd
       -0.0142303435 -0.03304224 -0.036304854 -0.050580177
0003c0 70 4c b3 bc e2 63 65 ba 00 d9 39 bd 85 87 1c 3c
       -0.021887034 -0.00087505404 -0.045372963 0.009553795
0003d0 c6 5d 24 3d 9d 4e 10 3c 1f ab a4 bc 1a dd 59 3d
       0.04012849 0.008807805 -0.020101128 0.053189375
0003e0 97 b7 27 bd b6 bb 92 bd 05 eb 01 bd 7e 7e 94 3d
       -0.04094657 -0.07164709 -0.031718273 0.07250689
0003f0 de f5 23 bc bc ef 7e bd 40 cb b4 bd 2d cf 98 ba
       -0.01000735 -0.062240347 -0.08827829 -0.0011658423

l2.bias f4 [300]
000000 d0 88 b7 bd 85 57 8b bf 86 54 1f 3f 64 b3 f7 ba
       -0.08961642 -1.0886084 0.6223835 -0.0018898067
000010 3e 5b 9d bd 72 93 d5 bd 75 d3 8d bd df 2e 27 be
       -0.07683419 -0.104285136 -0.06925098 -0.16326474
000020 62 58 50 bd 76 28 9a 3e 7e c2 91 be b0 09 bb bd
       -0.05086554 0.30108994 -0.28468698 -0.09132707
000030 0f 6a 00 bd b4 41 14 3f 08 a8 3a bf 6f b3 a6 bf
       -0.031351145 0.57912755 -0.72912645 -1.3023509
000040 5e 7a 90 be 95 1e 82 be 40 e3 b0 bd 31 af c7 bd
       -0.2821836 -0.25413957 -0.086370945 -0.09750212
000050 29 ae c6 bf 87 39 07 bf 49 ea c9 bf 93 8e e7 be
       -1.55219 -0.52822155 -1.5774623 -0.45225963
000060 5c 35 76 be d1 1b c5 be 76 3a 9a bd e8 64 b4 be
       -0.24043792 -0.38497785 -0.07530682 -0.35233235
000070 9e d3 97 bd 5a 6a 4c bf 95 f4 88 be 61 09 c0 bd
       -0.0741341 -0.7984978 -0.267491 -0.09376789
000080 6f 7c 6d bf fe 5d d8 3e 38 8d b9 be 9e 6e 13 be
       -0.92767996 0.4225921 -0.36240554 -0.14397666
000090 c7 fd b3 3c 1f 0a 2a bb a2 04 5f bf b2 08 50 bd
       0.021971596 -0.0025945974 -0.87116444 -0.050789542
0000a0 cc dc 77 bd 9d c1 01 be 4e d8 97 be ed 40 05 bf
       -0.060513303 -0.12671514 -0.29657215 -0.52052194
0000b0 9a 57 d0 bd 17 bf ac bd 6c 4e f0 bf eb 90 e7 bd
       -0.10172959 -0.08434885 -1.8773932 -0.11306938
0000c0 45 8a 56 3e f0 85 38 be 6b 89 e2 bf 28 7c a4 bf
       0.20951183 -0.18019843 -1.7698187 -1.285039
0000d0 a6 82 95 bc ff 37 26 bf 11 3a c1 bd 24 00 7f bf
       -0.018250775 -0.64929193 -0.094349034 -0.9960959
0000e0 40 30 39 be 48 c5 b2 bd b5 6d 86 bf 33 78 e5 bd
       -0.18084812 -0.08729035 -1.050223 -0.11204567
0000f0 48 b4 b9 bd 4a 9f 62 bf fd 31 0e be d7 f4 aa 3d
       -0.09067589 -0.88524306 -0.13886257 0.08347481
000100 df 04 2e be c7 70 a5 bf e9 78 d2 be 60 f0 3f be
       -0.16994046 -1.2925042 -0.41107872 -0.1874404
000110 86 b7 94 bc ed 07 82 bd 93 2a e7 bd fc 64 79 be
       -0.018153917 -0.06349168 -0.11287417 -0.24354929
000120 a0 0c b4 bd a6 9d 9d be 1f ef 3a 3b ed 0e 85 be
       -0.087914705 -0.3078434 0.0028523875 -0.2598795
000130 c4 f5 fa bd e1 9f c2 be 51 a5 c5 be e4 f7 0f bf
       -0.12253907 -0.38012603 -0.3860269 -0.56237626
000140 68 2b 08 c0 9e 35 49 bf cf aa a9 bd 28 5f b6 bd
       -2.1276493 -0.7859744 -0.08284532 -0.08904868
000150 2c 32 91 bf 18 f0 91 3e f2 86 20 bf 02 3d 6c 3f
       -1.1343436 0.2850349 -0.6270591 0.9228059
000160 0e 86 93 bf 40 10 4e bf 9b da 05 bf 2e 8f 12 be
       -1.1525285 -0.80493546 -0.5228669 -0.14312431
000170 c1 e9 4a be b6 ce 2c 3b 79 b5 44 bf d5 5d 91 3f
       -0.19815733 0.0026368327 -0.76839405 1.135676
000180 e4 44 7f bd c6 c9 42 bf 61 74 43 be a9 39 90 bf
       -0.06232156 -0.7608913 -0.19087364 -1.1267596
000190 c3 41 66 be 06 aa 90 bd 2b 8c 6d bd 67 a7 ab bd
       -0.22486024 -0.070636794 -0.057995003 -0.08381539
0001a0 82 11 d1 3f 18 e9 e2 be f5 36 d6 be 7d fe 87 bf
       1.6333468 -0.4431846 -0.41838804 -1.0624539
0001b0 1f d2 aa ba fa 5a 51 be 68 a4 38 be 70 2f 3c bd
       -0.0013032592 -0.20444861 -0.18031466 -0.045943677
0001c0 96 e5 17 bf b2 c3 c9 3f 4c 87 7f bd 3d 47 98 3e
       -0.59334695 1.5762846 -0.06238489 0.2974185
0001d0 57 0f 29 bf 66 52 9c be be 65 05 bf 37 68 22 bf
       -0.6603903 -0.30531615 -0.5210837 -0.6344027
0001e0 ce 82 cb be 47 9b a0 bf c8 cc b7 bd f9 f2 7c 3f
       -0.39748234 -1.2547387 -0.08974606 0.98808247
0001f0 8b 69 ec be 2a ef 50 be 10 1f b9 bd 39 2a 56 bf
       -0.46174273 -0.20403734 -0.09039128 -0.83658177
000200 b5 ba 0e be 87 40 ac bd 48 c7 ba bd 93 11 e7 bd
       -0.1393841 -0.08410745 -0.09120041 -0.11282649
000210 88 b6 97 bf 6d 33 01 be 5a 41 ee 3f 31 c5 9a be
       -1.1852579 -0.12617274 1.8613694 -0.3022857
000220 cc 2a 41 bf 12 bb d1 bd 84 5a fe bd 7c 9e 7e be
       -0.7545593 -0.10240759 -0.12419608 -0.24865144
000230 86 6c 94 bd 28 d7 bb bd 9f 8c a7 bd 76 2d 98 bd
       -0.07247262 -0.09171897 -0.08181118 -0.07430546
000240 d6 ab 11 bd 3c 56 f0 bc cf 7c a0 bd 65 b7 07 bf
       -0.035564266 -0.029337995 -0.07836305 -0.5301421
000250 ea 4f dd be 0d 82 03 bf a8 65 b7 bd ed e5 8f bd
       -0.43225032 -0.51370317 -0.08954936 -0.07026277
000260 56 19 9f bd d1 ef 43 be 03 f6 e2 bc 28 2e 3a bd
       -0.07768504 -0.19134451 -0.027705198 -0.045454174
000270 c8 1f 3f be f8 a5 b8 be f0 f4 32 bd 2a 93 99 bf
       -0.18664467 -0.36064124 -0.04369062 -1.1998036
000280 66 8f 16 be f0 2c 32 bd 3f 88 8f be a6 33 9e bf
       -0.1470314 -0.043499887 -0.28033635 -1.2359512
000290 2c ee 7e bd 3a 5b 52 be 8c 2f fe bc 70 0c 88 bf
       -0.062238857 -0.20542613 -0.031028531 -1.0628796
0002a0 30 79 37 bd 7d 81 07 be 04 b2 fe bd 18 53 be bc
       -0.044793308 -0.1323299 -0.124362975 -0.023232982
0002b0 64 b5 7f bf df d1 29 bd 6f d2 a5 bd 9d 0e 8a bd
       -0.99886155 -0.041459914 -0.08096778 -0.067410685
0002c0 5e f7 10 bf cc d1 1f 3e ed a6 8d bd 1c 53 09 3f
       -0.5662745 0.15607375 -0.06916604 0.5364244
0002d0 80 a4 3b bf 92 e0 d1 bf e7 77 73 40 09 fd 75 bf
       -0.7329788 -1.6396658 3.8041933 -0.96089226
0002e0 c5 87 84 be 95 6c 0e be 09 33 41 be 75 d8 88 be
       -0.25884834 -0.13908608 -0.18867125 -0.26727644
0002f0 ca 64 59 bd 35 33 16 3f fb 8c 6a be f4 eb f2 be
       -0.053074636 0.58671886 -0.22905342 -0.47445643
000300 78 85 b3 bc dd 3e 83 bd 1e b6 9e bd 80 7a b6 bc
       -0.021914229 -0.064084746 -0.0774958 -0.02227521
000310 56 ad 17 bd ef 86 23 be 43 86 65 bd e5 08 89 bd
       -0.03703054 -0.15969442 -0.056036245 -0.066911496
000320 f7 d8 bd 3c c6 5f 13 be 8d 90 0b be 83 72 80 bf
       0.023174746 -0.14392003 -0.1362936 -1.0034946
000330 b3 d0 b9 3e a5 1b 09 bc 52 47 dd be 71 83 47 bd
       0.36292037 -0.008368407 -0.43218476 -0.048709337
000340 39 bb 42 bf fa 15 50 be 16 b2 91 bc 65 1b 88 bc
       -0.7606693 -0.20320883 -0.017785113 -0.016614625
000350 8f 5d 20 bd 5e 7a 90 bf fe 66 24 bf 1b a8 6b be
       -0.039151724 -1.1287344 -0.64219654 -0.23013346
000360 b8 f4 cc be 76 e3 9b bd a7 35 a6 bd 4e ca 11 bf
       -0.40030456 -0.07611744 -0.08115702 -0.5694932
000370 16 54 90 bd ad 03 0a be e4 ca f1 bd 3e 10 1d bd
       -0.07047288 -0.13477965 -0.118062764 -0.038345568
000380 c0 3f c5 3b 2a d2 59 be 4f 02 aa be d8 59 40 bf
       0.0060195625 -0.21271577 -0.33204886 -0.7513709
000390 cb 51 1c 3f 10 c3 3f bd 29 88 c4 bd 66 38 18 be
       0.61062306 -0.046816885 -0.09596283 -0.14865264
0003a0 6a 93 4c be 2e 27 9b bd 20 79 bd bb 01 80 cc bd
       -0.19978109 -0.07575832 -0.0057822615 -0.09985352
0003b0 c7 90 28 bf 0e b7 56 be d1 df 4e bf f6 9d 18 bd
       -0.6584591 -0.20968267 -0.80810267 -0.03726002
0003c0 31 ce c6 bd 06 7a 98 bd 17 73 28 bd 1e d3 15 be
       -0.09707297 -0.07445149 -0.041125383 -0.14631316
0003d0 92 13 d6 be 6e f4 17 bf 8d 82 85 bd 09 b3 4d bf
       -0.41811806 -0.59357345 -0.06519041 -0.8035131
0003e0 16 ce 1d bf 7c b4 72 bd 66 4f 10 bf 7d 17 08 bf
       -0.6164259 -0.059254155 -0.5637115 -0.5316084
0003f0 8f d5 25 bf 0a 6b d9 bd d5 0c 06 bd 58 63 07 bd
       -0.6477899 -0.10616119 -0.03272708 -0.033053726

l3.weight f4 [4, 300]
000000 f5 3b 87 bc ec f1 8d be 82 df ad 3c d8 a1 cd bc
       -0.016508082 -0.27723634 0.02122474 -0.025101587
000010 ad 2d 03 bd 8a 39 db bc b6 24 a7 3c e7 f7 a8 bc
       -0.03202598 -0.026760835 0.020403247 -0.020626022
000020 ed db 80 bb e6 2c 1c c0 d5 8f 9e bd e5 38 81 bc
       -0.003932467 -2.4402404 -0.077422775 -0.0157742
000030 74 f0 84 3c ba 44 e2 3e d8 3a 41 3e 3d d2 1e 3f
       0.016227938 0.4419306 0.18870103 0.6203955
000040 91 8e ce 3d d5 70 9f bd 1c f3 7f bc a7 0f 3d bc
       0.10085786 -0.07785193 -0.015621927 -0.011539376
000050 97 8f b6 bf a5 14 23 40 8b 62 69 bd ee 9c 33 3e
       -1.426257 2.548135 -0.056978744 0.17540333
000060 ef 33 b5 bd cc 9d 0e bf 8d c9 8e bb 2c a3 fe 3d
       -0.08847796 -0.5570953 -0.004357523 0.12433466
000070 82 b1 e3 bc 0d bf a1 bc b7 9a 3d be e4 7b fa 3b
       -0.027794603 -0.01974442 -0.1851605 0.0076441634
000080 91 ea b7 be 04 61 0d bf dc f6 0e be 2f a7 27 bd
       -0.35921147 -0.5522616 -0.13961357 -0.040930923
000090 30 9c 46 3d 0d f3 05 3d d9 a5 dd be c5 61 9b 3c
       0.048488796 0.032702494 -0.43290594 0.018967519
0000a0 b5 11 8d 3c 84 81 04 3e 8c 64 0a 40 89 25 d6 3e
       0.017220357 0.12940031 2.162387 0.41825512
0000b0 4f b5 ba bd 16 f5 23 3c 9d 25 82 bf eb 22 71 3c
       -0.09116613 0.0100071635 -1.0167729 0.014717798
0000c0 10 2e c3 bf ac 3c 8d be de d6 24 bf 65 8f 35 bf
       -1.5248432 -0.2758535 -0.6439036 -0.7092193
0000d0 26 18 94 bc 47 97 a9 3f c5 30 86 3c 77 7d 2c bf
       -0.018077921 1.3249291 0.016380677 -0.67378944
0000e0 96 c1 9d bd 56 d4 1d 3d 63 36 f7 be f9 ee 49 3c
       -0.07702939 0.038532577 -0.4828368 0.012325042
0000f0 1d bf 90 bf 68 c9 b6 be 0f 83 80 3d 20 e4 d9 be
       -1.1308323 -0.35700536 0.062749974 -0.42556858
000100 71 ff c3 bd 34 13 fa 3f 04 f9 07 bf 89 65 dc bd
       -0.09570206 1.953711 -0.5311434 -0.10761554
000110 63 89 7e ba bd c6 09 bd 33 8b e6 bb d0 d7 c7 bd
       -0.0009709803 -0.033636797 -0.007035637 -0.0975796
000120 7c 7a 04 bc 56 53 a6 3e 25 cb 8b 3d 03 fd 7e 3f
       -0.008085843 0.32485455 0.06825856 0.99604815
000130 86 72 2c 3b 9d c3 09 3e 08 d0 44 3f a6 81 11 c0
       0.0026313378 0.13453527 0.7687993 -2.273538
000140 3a 5b 96 bf 62 b6 d5 3c c9 c9 dd 3c 69 bb 49 3d
       -1.174659 0.026087943 0.027073758 0.049250994
000150 31 ce b0 3f 93 70 93 bb ad 82 75 bc 58 a7 31 40
       1.3812925 -0.004499504 -0.014984769 2.7758389
000160 30 d6 4d 3e 5c f7 77 bf 2a 48 16 bd 53 a0 fc ba
       0.20101237 -0.96861815 -0.036689915 -0.0019273855
000170 10 ea c5 3c 16 0b 98 3c 1c 97 06 bf 6d d5 c2 3d
       0.024159461 0.018559974 -0.52574325 0.09513364
000180 34 17 8a 3b 0d 7b e0 be 3a 4c e1 3b f3 bd 82 bd
       0.004214192 -0.4384388 0.006875542 -0.06383886
000190 e6 43 14 ba 4a 94 68 bd be 12 27 bc 17 f2 30 bc
       -0.00056558696 -0.056782044 -0.01019734 -0.010799906
0001a0 c4 03 01 3f f3 ed e1 bd ba d0 f4 bf 90 48 49 bf
       0.5039637 -0.11031713 -1.9126198 -0.78626347
0001b0 cc bd 78 bc 01 aa 5e bf 08 bd c3 bd ab 38 64 bc
       -0.01518197 -0.86978155 -0.09557539 -0.013929526
0001c0 78 33 b0 3f 6a 8c f5 3f 4d 88 1c bd 9e 4d 25 3f
       1.3765707 1.9183476 -0.038215924 0.6457156
0001d0 fc d8 87 3e 10 75 b3 bc 5c a0 7c 3d 3b db f7 bd
       0.26532733 -0.021906406 0.061676368 -0.12102362
0001e0 4c 09 fb 3f 8e 0f 2d 3e 78 75 3e 3d 74 0e 9e bf
       1.9612212 0.16900465 0.046498746 -1.2348161
0001f0 d0 7f c5 3e ef 29 bf be f9 06 5f 3c 48 f7 b2 bf
       0.38574076 -0.3733668 0.013612502 -1.3981714
000200 2e a9 96 bd a0 13 37 3c 42 ab 63 3c 65 14 05 be
       -0.07356487 0.011174113 0.0138958115 -0.12996061
000210 9b 7e c2 3f 76 8f 10 3d 99 0a 97 3d 36 dc b4 3d
       1.5194887 0.035293065 0.07375068 0.088310644
000220 c0 38 1e bf 84 95 89 bd 14 e9 0c 3d 78 ca 4d 3e
       -0.61805344 -0.06717971 0.034401968 0.20096767
000230 2f de a2 bc 63 21 6e bf c4 b1 7d 3d fc c9 7d 3d
       -0.019881336 -0.93019694 0.06193711 0.061960205
000240 55 0d 08 bd 64 62 78 3c 9c 7f 0c bd 85 fe 1d 3d
       -0.03321584 0.015160177 -0.034301385 0.038572807
000250 44 9d 0f 3e 45 aa 91 3d 1d 5e 03 3d 54 ae 82 ba
       0.14024836 0.071125545 0.032072175 -0.0009970167
000260 d5 69 1c bc 4c f2 82 be f0 8a 33 3d bb 2a f1 3a
       -0.009546717 -0.25575483 0.043833673 0.0018399575
000270 d6 0e a7 bd 5b 50 7e be 1e c6 93 3c 52 a7 38 3c
       -0.081571266 -0.2483534 0.018038806 0.011270361
000280 ca 4e e5 38 da 29 e1 3c b5 33 71 3d c4 51 8d 3f
       0.000109342465 0.027485777 0.058887202 1.1040578
000290 37 29 80 3a e4 f0 0c be fc f1 87 bd 5b 25 8a bc
       0.0009777908 -0.13763767 -0.06637952 -0.016863516
0002a0 26 24 ab 3c 62 90 e8 3d 75 d7 84 3c 2b 81 73 3f
       0.02089126 0.11355664 0.01621602 0.9511897
0002b0 d1 c8 56 bf ad c4 07 3d 4a df 68 bd 15 f4 86 3c
       -0.8390017 0.03314655 -0.05685357 0.01647381
0002c0 c5 2f f4 be b5 27 25 3f f3 19 e3 3b 48 b9 34 be
       -0.47692695 0.64513713 0.0069305836 -0.17648804
0002d0 6a 37 9a bd bd f6 a5 bf b7 54 3a bc b7 62 ee 3e
       -0.07530101 -1.2965924 -0.011372737 0.46559688
0002e0 fb 14 fe bf 40 78 46 bd c1 74 d1 bc 2b 3d f6 3d
       -1.9850153 -0.048454523 -0.025568368 0.120233856
0002f0 53 26 ef bb bd 29 9f 3f f5 2e 1e bd d3 c5 63 3f
       -0.00729827 1.2434613 -0.038619 0.8897373
000300 ce 76 21 3d 7d 79 19 3c ae aa 9c bb cd f0 15 bc
       0.03941994 0.009367344 -0.004781089 -0.00915165
000310 15 e1 05 bd c8 72 c6 be a5 79 0a 3d f9 ba c1 bd
       -0.032685358 -0.38759446 0.033807416 -0.0945949
000320 0b f7 de bc b6 70 92 3d 2d 0d 97 3c 9d 75 88 bc
       -0.027217409 0.07150404 0.0184389 -0.016657645
000330 03 34 41 bd 8b 44 ee bb 96 2a 19 3e f2 34 d2 bc
       -0.047168743 -0.0072713546 0.14957651 -0.025660012
000340 bf 6e a0 bf ea ec e0 3d 85 de 1a 3d e4 9f f4 3c
       -1.2533797 0.10982688 0.037809867 0.029861398
000350 d6 01 a5 3b 06 2c 25 be be a8 65 3f 04 0e e0 bf
       0.0050356193 -0.16130075 0.89710605 -1.7504277
000360 ce e8 16 bf d6 86 2c bc a6 af 9a bb db 8e e5 be
       -0.5894898 -0.010530194 -0.004720646 -0.44835553
000370 ad 23 8d 3c df 5f bc bf a4 fa 81 3d 4c b9 ff bb
       0.017228926 -1.4716758 0.06346634 -0.0078040715
000380 fc 2f 06 bf 5e f9 98 bd 9c 72 0a 3f 44 7d 8c bd
       -0.5241697 -0.07469438 0.5408113 -0.0685983
000390 19 47 a7 3f 45 d4 0a bc a3 47 71 bd b3 c6 73 bf
       1.3068572 -0.008473461 -0.05890621 -0.95225066
0003a0 9d c2 05 40 49 de 4b ba 36 d6 18 bd 22 80 59 bd
       2.0900033 -0.00077769585 -0.037313662 -0.053100713
0003b0 4e 6a a1 3e 6b 49 24 bc 20 a1 c7 3e 2d e8 18 bd
       0.31526417 -0.01002727 0.38990116 -0.037330795
0003c0 f8 70 c5 bb 66 53 a0 3c e5 f0 8c 3d 1a d5 eb bc
       -0.00602543 0.019571017 0.068818845 -0.028788138
0003d0 f2 73 d4 3c 0d ce 87 3e 86 eb 1c 3d 01 2d de 3d
       0.025934193 0.26524392 0.03831055 0.108484276
0003e0 2d da 12 bf 23 3b f1 bb 56 b7 a6 3f 65 f3 16 3e
       -0.5736416 -0.007361786 1.30247 0.14741285
0003f0 16 ee 20 be a3 17 e0 3c 7c 13 f8 3c 49 f7 32 3c
       -0.15715823 0.02735502 0.030282728 0.010923215

l3.bias f4 [4]
000000 81 dc 09 3e 77 0f 4a 3e a9 c6 5f 3e d9 7a a2 3e
       0.13463022 0.19732462 0.21853127 0.3173435
