TD3_control/dir_Walker2D_002/biped-v7-2d-12_actor_t.pth (torch, 527895 bytes, 6 tensors)

l1.weight f4 [400, 24]
5.5860095 -0.017217377 -0.26815262 0.34940574 -1.4652622 4.490141 -0.054120857 0.027617885
-0.5831069 -1.561989 -1.2484919 0.108722694 -0.31525227 -0.061323177 -0.11702983 -0.009402901
-0.9893606 0.02806506 1.2774599 -0.011027521 -0.034705013 -0.024497356 -2.165725 -0.5760735
-0.0020807958 0.94443667 -0.51577157 -2.0807476 2.0053568 1.7650064 -0.18727888 0.01475678
-2.7457287 0.6584162 -0.5537625 0.19292904 -2.564069 -0.3687246 -0.09657164 0.17347161
-1.3142989 -0.40099564 0.8578469 -0.34615204 0.083831884 -0.12591445 0.5551001 -0.060484998
-1.597909 0.95203793 0.2020571 1.3321598 1.5848384 -2.3945527 -0.08994957 0.091357015
-1.6857109 -0.011148763 0.4005836 0.39358783 2.937848 -0.34631032 0.161169 0.12703577
-2.07853 0.1832197 -0.85439086 -0.35022005 0.1581201 0.19033426 -0.30584916 0.4563006
-1.5764152 0.9055196 -0.13328964 -1.2289808 -0.6451586 -1.1301045 -0.026069421 -0.080645196
-1.3896115 -0.07434006 -0.34569848 0.25039774 0.62843317 -0.019229462 0.027737679 -0.1445266
-2.5250943 -0.42624196 -3.657471 0.37025622 0.13679281 -0.049708877 -0.9507408 -0.8860445
-0.49600285 -0.9006053 -0.18831846 -4.3382707 1.2135559 2.0654886 0.18045014 -0.05354218
2.5590136 0.6151962 0.025000935 0.4831514 0.14900568 -0.1313582 -0.021647198 -0.19812225
-2.3231874 0.56090814 0.6500276 0.6384656 -0.105343446 -0.09313641 -0.69808865 -0.11281467
4.455542 0.9466469 -0.13448285 2.0670378 -3.1046915 1.403553 -0.17088582 -0.11013019
-0.5785656 0.0093024485 0.5065727 0.11432896 -1.3201582 -0.101391286 0.1328276 0.08440674
-1.4451216 0.32536763 4.069401 0.11719151 -0.026143786 0.1910271 -0.41456786 0.02586634
-4.416843 1.1897985 0.086976156 -3.7637331 1.9006195 -0.5190238 0.107461385 -0.1915078
0.62954617 -0.6927162 -1.7246388 0.03429827 1.3249513 -0.14654088 -0.09635519 -0.11089582
-4.4466147 -0.20537297 -1.120665 -0.13318472 0.056380976 0.14316541 0.5804649 0.5293655
-1.0469977 1.4111621 -0.15032034 -2.044691 2.0546792 2.6019933 0.005227224 -0.16048765
-0.59608537 0.5426906 -1.2558668 0.100469895 -0.834126 -0.48852143 -0.14276518 -0.10970868
-1.5266818 0.42293674 -3.5764232 -0.08760279 -0.010342879 -0.15525088 -0.62563896 -1.2563012
1.2889773 0.6821352 0.094439656 -0.049075995 1.6304438 1.7103385 0.17763677 -0.07923974
-0.5465061 0.17295025 -0.2228031 0.048413258 0.6368358 -0.03442018 -0.17427477 -0.08396643
0.5630378 0.21413904 -7.491834 0.3014931 -0.011683971 -0.07823547 -0.20293273 -0.27810955
0.7558983 -0.7724199 0.40172818 -1.9144773 2.2061474 -0.07565675 0.048465434 0.11898473
-0.5458068 -1.6408725 -1.3352758 0.56903106 1.6012431 -0.18728107 0.07071589 0.16337219
-0.84722596 -0.013388365 -0.14944974 0.31914937 0.074805304 -0.062757544 -0.19976497 -0.19259754
-2.7681732 0.30627474 0.50613135 -2.2345884 2.6096537 -2.6809177 -0.088947564 0.11788274
0.99040294 -0.2645191 -4.7700167 -0.033904944 -0.35210064 -0.058704365 0.0802753 -0.018703721
00000000: 97c0 b240 750b 8dbc 4d4b 89be 4fe5 b23e
00000010: b68d bbbf 3caf 8f40 d5ad 5dbd e73e e23c
00000020: 7e46 15bf 41ef c7bf 95ce 9fbf 01aa de3d
00000030: bf68 a1be 032e 7bbd 56ad efbd a00e 1abc
00000040: bc46 7dbf b2e8 e53c ce83 a33f c7ac 34bc
00000050: d826 0ebd aeae c8bc 3d9b 0ac0 8e79 13bf
00000060: f65d 08bb 9ac6 713f 9b09 04bf f82a 05c0
00000070: c457 0040 bbeb e13f 09c6 3fbe 6cc6 713c
00000080: 05ba 2fc0 f78d 283f 61c3 0dbf 318f 453e
00000090: b519 24c0 79c9 bcbe 5ac7 c5bd 8ba2 313e
000000a0: f23a a8bf 4d4f cdbe db9b 5b3f d73a b1be
000000b0: 0db0 ab3d b8ef 00be 0a1b 0e3f 1ebf 77bd
000000c0: 4888 ccbf c2b8 733f 0ee8 4e3e 3684 aa3f
000000d0: fcdb ca3f 5a40 19c0 7b37 b8bd 6319 bb3d
000000e0: 60c5 d7bf 4da9 36bc 4b19 cd3e 5884 c93e
000000f0: b405 3c40 964f b1be 7d09 253e aa15 023e
00000100: a306 05c0 f29d 3b3e 5cb9 5abf 0b50 b3be
00000110: 3cea 213e fce6 423e 4398 9cbe 3ba0 e93e
00000120: f9c7 c9bf 22d0 673f 147d 08be 3e4f 9dbf
00000130: 1d29 25bf 44a7 90bf 8a8f d5bc 4f29 a5bd
00000140: cade b1bf 9a3f 98bd 64ff b0be 2234 803e
00000150: ffe0 203f 1b87 9dbc 213a e33c c8fe 13be
00000160: 259b 21c0 633c dabe 0114 6ac0 3992 bd3e
00000170: 6a13 0c3e 899b 4bbd c063 73bf d0d3 62bf
00000180: 16f4 fdbe 128e 66bf 8ed6 40be 1dd3 8ac0
00000190: cd55 9b3f f730 0440 ecc7 383e 0c4f 5bbd
000001a0: e1c6 2340 807d 1d3f c3ce cc3c 9f5f f73e
000001b0: f294 183e c482 06be 7755 b1bc 8fe0 4abe
000001c0: 1aaf 14c0 ad97 0f3f 3568 263f 7b72 233f
000001d0: 4ebe d7bd 4dbe bebd f0b5 32bf 610b e7bd
000001e0: cd93 8e40 7457 723f dfb5 09be 594a 0440
000001f0: 44b3 46c0 a0a7 b33f b1fc 2ebe f08b e1bd
00000200: e01c 14bf 4c69 183c c0ae 013f 4d25 ea3d
00000210: f2fa a8bf 3ca6 cfbd f503 083e 71dd ac3d
00000220: bff9 b8bf 9696 a63e 8838 8240 1a02 f03d
00000230: 7e2b d6bc 9c9c 433e 3d42 d4be a6e5 d33c
00000240: c756 8dc0 514b 983f 8e20 b23d 01e1 70c0
00000250: 8047 f33f bede 04bf b714 dc3d 9f1a 44be
00000260: f029 213f d955 31bf f7c0 dcbf 587c 0c3d
00000270: 0198 a93f d00e 16be df55 c5bd 591d e3bd
00000280: ab4a 8ec0 4b4d 52be f371 8fbf 9361 08be
00000290: bdef 663d f499 123e 5999 143f 7f84 073f
000002a0: 0504 86bf f6a0 b43f 93ed 19be 38dc 02c0
000002b0: dd7f 0340 0f87 2640 2249 ab3b e056 24be
000002c0: 0d99 18bf c5ed 0a3f 3ec0 a0bf 29c3 cd3d
000002d0: 4889 55bf 7b1f fabe 0931 12be f2ae e0bd
000002e0: 4f6a c3bf 2a8b d83e 1ee4 64c0 1769 b3bd
000002f0: 2e75 29bc 16fa 1ebe e029 20bf 7ace a0bf
00000300: 35fd a43f 6aa0 2e3f 9469 c13d e903 49bd
00000310: 62b2 d03f 5fec da3f 6ae6 353e 7248 a2bd
00000320: d3e7 0bbf df19 313e 7f26 64be fb4c 463d
00000330: ac07 233f 2dfc 0cbd 1675 32be 97f6 abbd
00000340: 3f23 103f 4447 5b3e 1bbd efc0 4e5d 9a3e
00000350: 206e 3fbc eb39 a0bd 99cd 4fbe 6064 8ebe
00000360: 8d82 413f 50bd 45bf 51af cd3e 980d f5bf
00000370: 8531 0d40 edf1 9abd b183 463d 44ae f33d
00000380: ffb9 0bbf 1c08 d2bf 51ea aabf 05ac 113f
00000390: 89f5 cc3f 9cc6 3fbe 7ed3 903d 0a4b 273e
000003a0: cde3 58bf df5a 5bbc 5a09 19be 8c67 a33e
000003b0: 8633 993d 0787 80bd 308f 4cbe 4a38 45be
000003c0: c029 31c0 0bd0 9c3e d391 013f 7f03 0fc0
000003d0: 9104 2740 2894 2bc0 242a b6bd 826c f13d
000003e0: 0c8b 7d3f 0c6f 87be faa3 98c0 e9df 0abd
000003f0: 8946 b4be fd73 70bd 6067 a43d 8c38 99bc

l1.bias f4 [400]
-1.0604273 0.5512581 -0.6775618 -0.7190026 -0.46936336 0.26125073 1.2353816 -0.4618256
0.93268126 -0.95149314 0.46443433 0.21560234 -0.9037492 -1.449835 -1.8166679 -0.3533337
-1.3608912 -0.12092265 -1.736273 0.16840802 -1.7476693 -0.7514061 0.78352493 -1.7437309
-2.1761107 -1.770966 0.12631221 -0.35961917 -0.5642584 -1.3813655 -1.4791876 -0.3828152
-0.2594346 0.50817883 -1.3393214 -0.73731524 -1.8608673 -0.7363488 -1.5201305 -0.9995172
-0.41963995 -1.4520128 -1.4247721 1.0082617 0.1101281 -1.1451848 -0.9246081 1.8961821
0.22269177 -0.62076116 -0.77847654 -1.6440939 -1.0580367 -1.7224553 -0.28797844 -1.3627099
-1.3306512 0.21931621 -0.07649178 -0.86813635 -1.8937726 -1.9876572 -0.5953276 -1.2159952
-1.5947582 0.2615553 -1.2054824 -0.4302205 -0.8456109 -0.9061909 -1.7795315 -1.830401
-1.3775234 -1.020441 -1.7668618 0.6418484 -1.3608671 0.3427556 -1.324817 -1.2551165
-1.4558687 -0.8649659 -0.92835337 -1.5188031 -1.6265633 -2.2647164 -1.6778389 -1.628861
-1.7362217 -0.154507 -0.7650085 0.12198323 -1.5834731 -1.2829635 0.5807706 -1.4720669
-1.7731088 -0.22350672 -0.13403247 0.25211668 -0.57521194 -1.0106715 -1.4661686 -1.8293405
-0.6024188 -0.26396698 -1.7152714 -1.0712515 -0.7184367 -0.1840107 0.8681371 -1.3597234
-0.25191057 -1.6423974 0.20193738 -0.60362005 0.15448275 -0.79709214 -0.3361677 -0.8656673
-1.9385384 -1.2747706 -1.8681902 -1.5621167 0.33965966 -0.97521955 -1.8233675 -0.22768696
-0.8468577 -1.4615431 -0.4615638 -0.99030715 -0.59505486 0.595811 -0.92317957 -1.0974276
-1.3879429 -0.2721381 -0.7556974 -2.1071217 -1.5543038 -1.4655818 -1.6256137 -2.0108004
0.05203206 -1.9612511 -0.18867591 -1.5284616 -0.60343206 -0.6960697 -0.59216064 -0.9085636
-1.408781 -0.60736674 -0.19079782 -1.5463964 -0.7444943 -1.9417901 -1.8158573 -1.051193
-0.433018 -0.8519966 0.50691473 -0.5626128 -0.5016262 0.10864695 -0.49839237 -1.6007189
-1.206554 -1.2563063 -1.0195146 0.65331244 -0.30010077 2.1389694 -1.4583011 -1.6262774
-0.9819631 -2.3927543 -1.7790442 -1.3465753 -1.5749496 -1.222937 -0.19193265 -0.48460776
-1.6452763 -0.53937507 -1.1703029 -0.63144904 -0.14572515 -1.4894485 -0.86172295 0.94298345
-2.024903 0.3678077 -1.9223113 -0.67248446 -0.88214403 -1.0336559 -1.725401 -0.75635964
-1.9085274 -1.2741827 -1.8108743 -1.4225259 -1.2318496 -0.97808117 -1.1375619 -1.3358496
-0.982816 -1.3251654 -1.3078026 -1.4993892 0.10319308 -0.39138362 -1.9610814 -1.70862
-1.23735 -1.46602 -0.9347203 -1.0849308 -0.92172176 -0.877038 -0.70289737 -1.7190354
-1.8176426 -0.7330395 -0.0075687855 -0.8466371 -1.2775848 -0.69510764 -0.12244312 -1.7667936
-1.4548721 -1.2661495 -0.44267127 -1.7192247 0.115491435 -1.3510901 -0.14774102 -0.6741588
-0.87148714 -1.8037132 -0.96098936 -1.0414253 -1.1681182 -1.0343157 -0.93691283 -1.8822681
-0.79004276 -0.762298 -1.3214799 0.23176433 -0.45830607 0.17365646 -1.0763534 -1.4036384
00000000: 15bc 87bf 401f 0d3f b174 2dbf 8e10 38bf
00000010: 6550 f0be a8c2 853e fc20 9e3f 6874 ecbe
00000020: 33c4 6e3f 0e95 73bf 56ca ed3e dcc6 5c3e
00000030: 1c5c 67bf 3194 b9bf 9388 e8bf 28e8 b4be
00000040: af31 aebf 4ba6 f7bd 323e debf 2773 2c3e
00000050: a1b3 dfbf 265c 40bf 1795 483f 9332 dfbf
00000060: 6645 0bc0 04af e2bf fd57 013e 0120 b8be
00000070: 3d73 10bf 96d0 b0bf 0556 bdbf 5b00 c4be
00000080: 9dd4 84be 0218 023f e26e abbf b1c0 3cbf
00000090: e630 eebf 5b81 3cbf a393 c2bf 5ce0 7fbf
000000a0: 0cdb d6be 8edb b9bf ef5e b6bf b80e 813f
000000b0: d78a e13d 6a95 92bf 1eb3 6cbf 18b6 f23f
000000c0: 5009 643e 34ea 1ebf 3d4a 47bf ab71 d2bf
000000d0: bf6d 87bf 6a79 dcbf e971 93be 476d aebf
000000e0: c752 aabf 6e94 603e b9a7 9cbd 2f3e 5ebf
000000f0: 2467 f2bf 8d6b febf 6467 18bf bba5 9bbf
00000100: 0921 ccbf 94ea 853e 3f4d 9abf dd45 dcbe
00000110: f579 58bf 20fc 67bf b0c7 e3bf 944a eabf
00000120: b052 b0bf d09d 82bf 8728 e2bf 2d50 243f
00000130: e530 aebf a97d af3e 9a93 a9bf a8a7 a0bf
00000140: e859 babf 686e 5dbf 91a8 6dbf 2468 c2bf
00000150: 3a33 d0bf 1df1 10c0 6dc3 d6bf 847e d0bf
00000160: 833c debf 1537 1ebe 99d7 43bf 58d2 f93d
00000170: 3faf cabf 2638 a4bf 62ad 143f b06c bcbf
00000180: 3bf5 e2bf f2de 64be cf3f 09be 7015 813e
00000190: 1741 13bf af5d 81bf 6aab bbbf d427 eabf
000001a0: 1e38 1abf ae26 87be 038e dbbf c51e 89bf
000001b0: 78eb 37bf 4d6d 3cbe 3c3e 5e3f 6b0b aebf
000001c0: 6cfa 80be 143a d2bf acc8 4e3e d886 1abf
000001d0: ba30 1e3e 3b0e 4cbf 2c1e acbe 5f9c 5dbf
000001e0: 0722 f8bf af2b a3bf db20 efbf 71f3 c7bf
000001f0: dfe7 ad3e fda7 79bf 1b64 e9bf c526 69be
00000200: abcb 58bf d813 bbbf 1752 ecbe c584 7dbf
00000210: 8455 18bf 1287 183f 7f55 6cbf 8278 8cbf
00000220: 1da8 b1bf af55 8bbe 6375 41bf 15db 06c0
00000230: 6df3 c6bf 2f98 bbbf 1c14 d0bf f4b0 00c0
00000240: 921f 553d 470a fbbf 4234 41be a1a4 c3bf
00000250: 867a 1abf a031 32bf d797 17bf a097 68bf
00000260: f052 b4bf 637c 1bbf 8160 43be 51f0 c5bf
00000270: 2e97 3ebf 948c f8bf 036e e8bf 7e8d 86bf
00000280: 89b4 ddbe 731c 5abf 2ac5 013f 6407 10bf
00000290: 936a 00bf 4b82 de3d 492d ffbe 5be4 ccbf
000002a0: 5d70 9abf a5ce a0bf 747f 82bf 7c3f 273f
000002b0: cfa6 99be e0e4 0840 9ca9 babf dc29 d0bf
000002c0: ef61 7bbf e322 19c0 b8b7 e3bf 945c acbf
000002d0: f397 c9bf 3389 9cbf fe89 44be 821e f8be
000002e0: 6a98 d2bf 7c14 0abf 7ccc 95bf a5a6 21bf
000002f0: f938 15be 40a6 bebf e099 5cbf 5d67 713f
00000300: 0398 01c0 4a51 bc3e 4c0e f6bf f127 2cbf
00000310: 31d4 61bf d64e 84bf f1d9 dcbf c9a0 41bf
00000320: a04a f4bf 6b18 a3bf bbca e7bf 5415 b6bf
00000330: 3fad 9dbf 8763 7abf a19b 91bf 1ffd aabf
00000340: d499 7bbf 059f a9bf 1366 a7bf fceb bfbf
00000350: e556 d33d 6f63 c8be b704 fbbf 0fb4 dabf
00000360: 7c61 9ebf 8ba6 bbbf d449 6fbf 03df 8abf
00000370: f5f5 6bbf 9085 60bf 15f1 33bf 5a09 dcbf
00000380: 83a8 e8bf 7aa8 3bbf 9303 f8bb 36bd 58bf
00000390: e687 a3bf 93f2 31bf 75c3 fabd 4b26 e2bf
000003a0: 4039 babf 3011 a2bf cfa5 e2be 8e0f dcbf
000003b0: c686 ec3d 85f0 acbf 6c49 17be ac95 2cbf
000003c0: c819 5fbf 13e0 e6bf 6603 76bf 6d4d 85bf
000003d0: e684 95bf 7564 84bf 85d9 6fbf 29ee f0bf
000003e0: 3e40 4abf f625 43bf 4126 a9bf a153 6d3e
000003f0: 18a7 eabe 00d3 313e f3c5 89bf 6caa b3bf

l2.weight f4 [300, 400]
0.009866161 0.0062531387 -0.010457366 0.017015092 -0.0042692334 -0.09965087 -0.016366893 0.021404607
-0.058255028 -0.05908428 -0.06389103 -0.06660006 -0.047869656 -0.038489364 -0.016694346 -0.084552996
-0.03773015 0.0032155106 -0.0042377547 -0.06788305 -0.01015301 -0.07973545 -0.03081507 -0.036215447
-0.045791686 -0.06911538 -0.072332546 0.023455009 -0.04134294 -0.026174847 -0.05177749 -0.06648383
-0.04429188 0.0025045848 -0.026239295 -0.013605052 -0.07172756 -0.05720077 -0.089829504 0.024589732
0.010126 -0.000110153014 0.04611355 -0.04795981 -0.025377633 0.025133625 -0.07394634 -0.041423406
-0.07005117 0.011995539 -0.03988486 -0.005581934 -0.011396885 -0.062029496 0.0466038 -0.0899204
-0.06194903 -0.045105487 -0.06815872 -0.065554 0.002269379 -0.04333821 0.023986237 -0.07075898
-0.025714774 0.0048691914 -0.08857185 -0.040437695 -0.047613356 -0.03999364 -0.09165788 -0.028577661
-0.045367748 -0.035711784 -0.09969557 -0.020042641 -0.02028851 -0.06377033 -0.016695092 -0.05483819
0.0018000503 -0.03077372 -0.040666427 -0.012722904 -0.068826295 0.005639303 -0.04655388 0.027750274
-0.07420264 -0.053931452 0.06877861 -0.041529205 -0.028317636 0.0058595613 -0.0053895228 -0.047589518
-0.026162181 -0.007650217 -0.030937262 -0.04797024 -0.04516807 -0.06891123 -0.09818012 0.044016957
0.009283152 0.019157508 -0.042209443 -0.019110199 -0.03463294 -0.033583153 -0.070505664 -0.121162206
-0.011502869 0.0017799338 -0.022584781 -0.020230768 0.029881513 -0.046623915 -0.019953232 -0.010069563
-0.069319524 -0.055710655 -0.078768365 -0.042272773 -0.026498202 -0.04978669 -0.05977793 -0.0543919
0.0063103214 -0.022276698 -0.04037064 -0.028063944 -0.007724257 -0.06264194 -0.0053921305 -0.07936441
0.011404893 0.03392513 -0.063823976 0.0050696125 -0.049250994 -0.08346074 0.08059376 -0.05795775
-0.019694326 -0.10899688 -0.035294555 -0.0670471 0.021835623 -0.0016797932 0.039599504 -0.038624965
-0.06314001 0.014083566 -0.08041345 0.013480814 -0.070118226 0.012776175 -0.05669413 0.027064817
-0.039633777 -0.019666014 0.0012626301 -0.014826205 0.0026673803 -0.013098227 -0.05241079 -0.07272445
-0.062901594 -0.012339757 -0.06364963 -0.047057543 0.009244596 0.005853228 -0.048576716 -0.07840776
-0.01628568 0.015792824 0.0061802156 0.041263964 0.013814414 0.026370423 -0.022958055 -0.05089087
-0.024822937 -0.07582091 -0.011238188 0.022856727 -0.049420867 0.00026772928 0.034843042 -0.0033046384
0.018098783 0.0030447524 -0.010217457 -0.022620171 -0.059097692 -0.038211457 0.06902746 -0.08231335
-0.041612647 -0.021050332 -0.030765524 -0.065996565 -0.034161318 0.007741486 -0.05109576 -0.07767759
-0.029134592 -0.060001448 -0.009369021 -0.007350052 -0.029386796 -0.03231879 -0.07962965 -0.0696697
-0.1184189 -0.06440959 -0.079680316 -0.0054083355 0.016658582 -0.010745332 0.0077290065 -0.028749024
-0.099229164 -0.067289986 0.0073128915 0.008635696 -0.0004721024 -0.051533855 -0.014806647 0.00986076
-0.07633947 0.016502121 -0.0044126576 -0.067652084 -0.07175438 -0.044501245 -0.099247046 -0.05443064
-0.102204934 -0.03302957 -0.07869684 0.012997271 -0.1013347 0.042155053 -0.09394074 0.029615529
-0.12068537 -0.08974457 -0.04080799 -0.042011257 -0.04050475 -0.042274263 -0.059748873 -0.07159643
00000000: aea5 213c 21e7 cc3b 5f55 2bbc 3c63 8b3c
00000010: ede4 8bbb c115 ccbd dd13 86bc b758 af3c
00000020: d39c 6ebd 5c02 72bd 4dd9 82bd 9d65 88bd
00000030: f912 44bd 06a7 1dbd 95c2 88bc 1f2a adbd
00000040: ee8a 1abd 51bb 523b dddc 8abb 4506 8bbd
00000050: cf58 26bc 574c a3bd e36f fcbc a656 14bd
00000060: 1090 3bbd 5d8c 8dbd 1623 94bd b824 c03c
00000070: 3757 29bd a26c d6bc a214 54bd ad28 88bd
00000080: 676b 35bd f623 243b caf3 d6bc b9e7 5ebc
00000090: e6e5 92bd 5b4b 6abd 88f8 b7bd 6870 c93c
000000a0: 86e7 253c f301 e7b8 90e1 3c3d 8171 44bd
000000b0: c1e4 cfbc 08e5 cd3c 2e71 97bd 97ab 29bd
000000c0: fd76 8fbd f088 443c 4f5e 23bd a8e8 b6bb
000000d0: 00ba 3abc a412 7ebd a0e3 3e3d 3028 b8bd
000000e0: 44be 7dbd 88c0 38bd cd96 8bbd 2d41 86bd
000000f0: ddb9 143b 6883 31bd c97e c43c 16ea 90bd
00000100: caa7 d2bc bd8d 9f3b 2865 b5bd ffa1 25bd
00000110: 3906 43bd 5fd0 23bd 20b7 bbbd b31b eabc
00000120: 88d3 39bd 8546 12bd 312d ccbd 7730 a4bc
00000130: 1734 a6bc 059a 82bd 25c4 88bc 039e 60bd
00000140: aaef eb3a 2b19 fcbc d791 26bd ba73 50bc
00000150: cdf4 8cbd e7c9 b83b 48af 3ebd 8b54 e33c
00000160: 8ef7 97bd 3ae7 5cbd cddb 8c3d 871a 2abd
00000170: 63fa e7bc 9001 c03b 989a b0bb 3aed 42bd
00000180: 1252 d6bc acae fabb 2470 fdbc 717c 44bd
00000190: 2702 39bd 5521 8dbd a912 c9bd 204b 343d
000001a0: 5d18 183c 35f0 9c3c cfe3 2cbd fe8c 9cbc
000001b0: 45db 0dbd 7d8e 09bd 4665 90bd e423 f8bd
000001c0: 8876 3cbc ab4c e93a b803 b9bc ffba a5bc
000001d0: 13ca f43c b8f8 3ebd f674 a3bc cffa 24bc
000001e0: 65f7 8dbd db30 64bd 4f51 a1bd 3726 2dbd
000001f0: c212 d9bc 21ed 4bbd b4d9 74bd 0aca 5ebd
00000200: d0c6 ce3b 9f7d b6bc af5b 25bd 5be6 e5bc
00000210: c41b fdbb 6b4a 80bd 78b0 b0bb cf89 a2bd
00000220: 97db 3a3c 14f5 0a3d 25b6 82bd fe1e a63b
00000230: 69bb 49bd 77ed aabd 570e a53d 1b65 6dbd
00000240: ff55 a1bc c239 dfbd 0691 10bd fd4f 89bd
00000250: 9fe0 b23c 822c dcba 1733 223d 3635 1ebd
00000260: 8d4f 81bd c2be 663c cfaf a4bd a2de 5c3c
00000270: 259a 8fbd 2953 513c 1b38 68bd 09b7 dd3c
00000280: 0757 22bd 9f1a a1bc d67e a53a 9ce9 72bc
00000290: 37cf 2e3b f299 56bc b2ac 56bd 8ef0 94bd
000002a0: 8dd2 80bd b12c 4abc bd5a 82bd 69bf 40bd
000002b0: a576 173c 6fcc bf3b 61f8 46bd 3f94 a0bd
000002c0: 8c69 85bc f45f 813c 6883 ca3b 6704 293d
000002d0: da55 623c c906 d83c 8812 bcbc f272 50bd
000002e0: 7959 cbbc fe47 9bbd 6020 38bc 083e bb3c
000002f0: 896d 4abd 045e 8c39 94b7 0e3d a292 58bb
00000300: e643 943c 788a 473b 1f67 27bc f04d b9bc
00000310: 6c10 72bd 9e83 1cbd 455e 8d3d e793 a8bd
00000320: 0672 2abd bf71 acbc fb07 fcbc 3529 87bd
00000330: bdec 0bbd 4bac fd3b ca49 51bd 6e15 9fbd
00000340: abab eebc 14c4 75bd 8680 19bc b4d8 f0bb
00000350: 94bc f0bc b560 04bd df14 a3bd fdae 8ebd
00000360: 9c85 f2bd 2de9 83bd 6f2f a3bd 6838 b1bb
00000370: 9477 883c 300d 30bc 9b43 fd3b 1383 ebbc
00000380: a938 cbbd 55cf 89bd fba0 ef3b bc7c 0d3c
00000390: 8384 f7b9 2a15 53bd 9497 72bc 068f 213c
000003a0: de57 9cbd 752f 873c 0e98 90bb 2d8d 8abd
000003b0: f6f3 92bd f046 36bd 0942 cbbd aaf2 5ebd
000003c0: d250 d1bd 044a 07bd cf2b a1bd 81f2 543c
000003d0: 9188 cfbd c7aa 2c3d 0164 c0bd 449c f23c
000003e0: e429 f7bd 00cc b7bd 4726 27bd ff13 2cbd
000003f0: 4fe8 25bd c727 2dbd 3cbb 74bd 26a1 92bd

l2.bias f4 [300]
-0.047889773 0.013194897 -0.0731089 -0.07845693 -0.16906725 0.03531488 -0.31115705 -0.026353288
-0.37761483 0.011524661 0.012335472 -0.05163742 -0.03297146 -0.07131331 0.44302484 -1.382056
-0.07581687 -0.04038852 -0.038805265 -0.025108667 0.019562077 -0.06227313 -0.015273798 -0.10238673
-0.036903135 0.029624468 -0.026371542 0.0024053056 0.015327069 -0.06364516 -0.09888197 -0.03765192
-0.31935307 -0.5687541 -1.0486344 -0.07453792 -0.07085584 -0.07082902 1.2381439 -0.06691597
-0.007058454 -0.43959215 -0.061436426 -0.05819319 -0.012154424 -0.040000346 -0.15347168 -0.1382844
0.09628544 -0.08399867 0.038686056 -0.59006464 -0.03617149 -0.053120084 -0.10118867 -0.49293938
-0.021068959 -0.05841 -0.05135802 -0.6118148 -0.16901658 -0.04326743 -0.060353115 -0.07958942
-1.5614666 -0.042269047 -0.08234017 -0.026582766 -0.061394706 0.029474275 -0.016647035 -0.032399256
-0.049766574 -0.08399271 -0.10354306 0.16051053 -0.0933879 -0.10022307 -0.35167912 -0.0294803
-0.64771837 -0.09904737 -0.04147556 -0.01970364 -0.0894227 -0.08794004 0.024006724 -0.10313626
-0.085970104 -0.054839678 -0.051667966 -0.44495624 -0.07623665 -0.7831615 0.7218169 0.015097777
-0.07252626 -0.045536876 0.014150621 -0.071661994 -0.023208022 -0.033902105 -0.097308405 -0.049657796
-0.66652894 -0.016656721 -0.8219841 -0.030378096 -0.27496785 -0.0866943 -0.1633601 -0.074107274
-0.45580015 -0.0024564823 -0.21925144 -0.08317166 0.008410502 -0.037119202 -0.06746284 -0.15187427
-0.11215296 -0.056039225 -0.0993439 -0.33847424 -0.05044234 -0.13435645 -1.0377299 0.48814473
-0.044487834 -0.3083977 -0.366554 0.013384701 -0.04675877 0.3222072 -0.07012121 -0.7435508
-0.14553234 -0.06954006 -0.029875554 -0.054071523 -0.022670835 -0.20368044 -0.041523244 -0.058836922
0.027316647 -0.104271725 0.33898565 0.034407184 -0.18299985 -0.05024341 -0.061577246 -0.049204055
-0.033531 -0.017872658 0.011829764 -0.13416617 -0.97641444 -1.2904121 -0.053506024 0.006900315
-0.25047335 -0.08720988 0.015454474 -0.08291387 -0.07203899 -0.014687624 -0.03917184 -0.017148439
0.08802166 -0.07365875 -0.38082406 -0.047997806 -0.038087778 -0.6511044 -0.0890308 -0.090871096
-0.11062559 -0.030942105 -0.09404356 -0.06734661 -1.0937741 0.43909582 -0.12094167 -1.7818587
-0.0070165447 -0.06710968 -0.058158915 0.007590705 -0.18822123 -0.13780694 -0.1373337 -0.18956439
-0.41849348 -0.085193746 -0.048616204 -0.042207208 -0.057697725 -0.08601183 -0.8512408 -0.1147547
-0.05317224 0.04844992 -0.09190971 -0.019571392 -0.059473947 -0.0072080246 -0.07221632 -0.99681747
0.16966751 -0.28899905 -0.051936932 -0.032061 -0.07305376 -0.38641354 -0.020103736 -0.75336176
0.08945775 -0.04925472 -0.07022998 0.50861496 -0.047486696 0.18490227 -0.017942693 -0.66342986
-0.14414057 -0.009663878 -0.09148353 -1.138843 -0.04863632 -0.14412868 -0.056518298 -0.88510007
-0.030702196 -0.06847761 -0.07535748 -0.019201469 -0.031730194 -0.0652068 -0.08593135 -0.05623291
-0.045358807 0.24439365 -0.017588045 -0.013082767 -0.015920976 -0.044451624 -0.16726421 0.010187654
-0.095243104 -0.2386042 -0.046932947 -0.10147477 0.49980295 0.10919589 -0.05531205 0.117879204
00000000: 1128 44bd 692f 583c 1eba 95bd 07ae a0bd
00000010: f71f 2dbe 56a6 103d fa4f 9fbe dae2 d7bc
00000020: bb56 c1be efd1 3c3c b81a 4a3c c281 53bd
00000030: 150d 07bd b60c 92bd 27d4 e23e 36e7 b0bf
00000040: e045 9bbd 6f6e 25bd 45f2 1ebd b1b0 cdbc
00000050: a640 a03c 1c12 7fbd f43e 7abc 22b0 d1bd
00000060: be27 17bd 03af f23c 2209 d8bc 55a2 1d3b
00000070: 631e 7b3c 6558 82bd a182 cabd e638 1abd
00000080: 3f82 a3be de99 11bf a739 86bf 56a7 98bd
00000090: de1c 91bd ce0e 91bd 807b 9e3f 3d0b 89bd
000000a0: 9b4a e7bb 3912 e1be c3a4 7bbd fb5b 6ebd
000000b0: 5923 47bc 67d7 23bd ae27 1dbe 6d9a 0dbe
000000c0: 4d31 c53d 7f07 acbd 4575 1e3d 7a0e 17bf
000000d0: 8e28 14bd 7294 59bd 013c cfbd 8d62 fcbe
000000e0: cf98 acbc 533f 6fbd ca5c 52bd e59f 1cbf
000000f0: af12 2dbe 3039 31bd d434 77bd c7ff a2bd
00000100: 23de c7bf 4f22 2dbd f7a1 a8bd 1ac4 d9bc
00000110: 0479 7bbd 0974 f13c 5d5f 88bc 15b5 04bd
00000120: 09d8 4bbd 5f04 acbd 620e d4bd df5c 243e
00000130: 2842 bfbd c141 cdbd 490f b4be ac80 f1bc
00000140: dfd0 25bf 59d9 cabd 47e2 29bd 8769 a1bc
00000150: 4023 b7bd e819 b4bd c0a9 c43c 1a39 d3bd
00000160: 1811 b0bd 929f 60bd caa1 53bd 4ed1 e3be
00000170: f621 9cbd 467d 48bf fec8 383f ab5c 773c
00000180: a688 94bd e084 3abd 02d8 673c 86c3 92bd
00000190: c01e bebc efdc 0abd a149 c7bd f965 4bbd
000001a0: a4a1 2abf ad73 88bc 8d6d 52bf 7cdb f8bc
000001b0: 96c8 8cbe c88c b1bd df47 27be 8ec5 97bd
000001c0: a35e e9be effc 20bb 7383 60be e755 aabd
000001d0: 34cc 093c 4e0a 18bd f529 8abd ee84 1bbe
000001e0: 73b0 e5bd 6389 65bd d174 cbbd 7f4c adbe
000001f0: a19c 4ebd bd94 09be 55d4 84bf 1bee f93e
00000200: e038 36bd 4ee6 9dbe f7ac bbbe 814b 5b3c
00000210: 2086 3fbd 58f8 a43e b59b 8fbd 5859 3ebf
00000220: 6e06 15be 056b 8ebd 94bd f4bc 1a7a 5dbd
00000230: 30b8 b9bc 9b91 50be 4714 2abd fcfe 70bd
00000240: 29c7 df3c 6a8c d5bd 878f ad3e 8cee 0c3d
00000250: 5064 3bbe 09cc 4dbd 6c38 7cbd 318a 49bd
00000260: cd57 09bd ae69 92bc a0d1 413c db62 09be
00000270: 4cf6 79bf 392c a5bf 2229 5bbd 0a1c e23b
00000280: 0b3e 80be 189b b2bd c334 7d3c bfce a9bd
00000290: 2e89 93bd 5ca4 70bc a772 20bd e27a 8cbc
000002a0: b344 b43d 66da 96bd 5ffb c2be 5999 44bd
000002b0: ee01 1cbd c7ae 26bf c855 b6bd a01a babd
000002c0: ab8f e2bd 4c7a fdbc e999 c0bd 05ed 89bd
000002d0: ca00 8cbf 2bd1 e03e 44b0 f7bd f213 e4bf
000002e0: 0beb e5bb cd70 89bd 0b38 6ebd 73bb f83b
000002f0: 11bd 40be 431d 0dbe 35a1 0cbe 2b1d 42be
00000300: c744 d6be 0f7a aebd c921 47bd 77e1 2cbd
00000310: 7354 6cbd f826 b0bd ebea 59bf 8304 ebbd
00000320: 22cb 59bd 6c73 463d 283b bcbd 2f54 a0bc
00000330: f49a 73bd 4b31 ecbb 26e6 93bd 6e2f 7fbf
00000340: 52bd 2d3e aff7 93be d2bb 54bd 6552 03bd
00000350: 369d 95bd ffd7 c5be 97b0 a4bc 51dc 40bf
00000360: a035 b73d 51bf 49bd bcd4 8fbd 9734 023f
00000370: 6981 42bd 0557 3d3e 8efc 92bc 8ad6 29bf
00000380: 9699 13be 3e55 1ebc b85b bbbd 9cc5 91bf
00000390: e136 47bd 7896 13be bb7f 67bd eb95 62bf
000003a0: 2c83 fbbc fd3d 8cbd 0655 9abd 664c 9dbc
000003b0: 85f7 01bd 258b 85bd c7fc afbd 7b54 66bd
000003c0: 28ca 39bd 5442 7a3e ce14 90bc 1a59 56bc
000003d0: b56c 82bc e812 36bd 4f47 2bbe 1eea 263c
000003e0: d10e c3bd a954 74be c33c 40bd 01d2 cfbd
000003f0: 2ce6 ff3e 18a2 df3d e38e 62bd a76a f13d

l3.weight f4 [4, 300]
0.0049859798 0.0008955083 0.0047348947 -0.0022670974 -0.012006902 -0.24918398 1.6914198 -0.029229213
0.9567061 0.083784096 -0.01784248 -0.02363457 0.01753589 0.0739374 0.2926198 1.0693442
0.08672393 0.041287806 -0.05717469 -0.024790155 -0.0060494584 0.012133002 -0.059665423 -0.12852114
-0.03760945 0.03949445 -0.02544208 -0.038068406 -0.37700272 -0.0308296 0.07007203 -0.009902716
0.89463675 0.003384825 0.8753221 0.03244321 -0.01867471 0.018038804 1.2837169 -0.016557999
0.045096546 -0.56224513 -0.0045260927 -0.014969627 0.02096912 -0.11974361 0.036029924 0.19747782
-0.13160281 -0.03805052 -0.029266465 0.49434647 0.014690976 -0.0052756215 0.006176118 0.53141904
-0.013340371 0.034106925 0.022440985 -0.16046788 -0.02061857 0.03159832 -0.012912521 0.04650545
-0.88034964 -0.04004579 -0.020234866 -0.017280335 -0.11650707 -0.29278544 0.038911067 -0.000960177
0.03061465 0.053178944 -0.08984887 1.4021899 -0.03138355 -0.032531872 0.018896133 -0.013776976
0.2677175 -0.036673658 0.023742229 0.03428872 0.0434902 -0.021302534 -0.21129419 -0.012828516
-0.044495285 0.0040377066 0.007285417 -0.022926066 -0.17004178 -1.12185 0.1337624 -0.003043542
0.032385845 0.013208308 0.042481385 -0.034659017 0.0029872432 0.20876108 0.06383888 0.092146635
-0.2734865 0.0058879666 0.4058785 -0.04531485 0.032663174 -0.063281566 -0.15145704 0.04958552
1.7318385 0.047131304 0.116462365 -0.030116206 0.0127374325 0.0228232 0.14358027 0.1138785
-0.028491233 -0.14107688 0.04922119 -0.2824339 0.014068852 -0.045029487 -0.024564775 0.24759902
0.04264679 0.2218174 -0.38267112 -0.05542008 -0.0074240915 0.9832999 0.014172974 -1.1590134
0.038489364 0.0024989971 -0.0577618 0.020405112 0.010689637 0.44943708 0.02618267 0.114927545
-0.014960688 0.021431057 -0.12144303 -0.08860016 -0.23723416 0.023610726 0.007187256 0.025675284
0.029221764 0.06138204 0.015952269 -0.036511008 -1.4391793 -1.4085604 -0.016619466 -0.0045534736
1.4850456 0.012691051 -0.058642462 -0.09745443 0.018138643 0.1893567 0.002858255 -0.053313147
0.0014622211 -0.030055858 -0.0052377824 0.016953625 0.04411158 1.3555896 0.0077835824 -0.049886525
-0.05832804 -0.0009065794 0.037007444 -0.004890613 -1.6436465 -0.96470654 -0.042020198 -0.35282704
-0.029745542 -0.0535023 0.05576728 -0.01964925 -0.22807291 1.5379171 0.021218713 0.3177874
1.3223574 -0.018194523 0.051898185 0.01651106 -0.013863215 -0.0446361 -0.0249743 0.033118233
0.057073366 -0.03483426 -0.04089963 0.00095839583 0.041152947 0.052884646 0.042544715 -0.98156875
0.11173633 -0.6299289 0.030423544 0.018982047 0.013592573 0.15853247 0.055650305 1.5219346
0.04623065 -0.050167415 -0.024812877 -0.0711172 -0.055217423 0.47489828 -0.046857864 -0.18858446
0.07494919 -0.06949834 0.0019202376 0.092050076 -0.14084443 -0.014562983 0.02463183 -0.002107515
-0.03670793 -0.0037319295 -0.039812587 -0.045334216 0.042026903 0.029970922 -0.0014924343 1.329808
-0.015893036 0.12793642 0.0130606005 -0.13069373 0.030848972 0.17022575 -0.060827717 -0.02646989
0.00386441 0.07135598 -0.31939206 -0.003475583 -1.4118319 0.27771816 0.011059745 3.393778
00000000: 6e61 a33b 8bc0 6a3a 2d27 9b3b 9593 14bb
00000010: 99b8 44bc 162a 7fbe 7280 d83f 1a72 efbc
00000020: b1ea 743f ff96 ab3d 652a 92bc 499d c1bc
00000030: 6da7 8f3c 7e6c 973d 43d2 953e 45e0 883f
00000040: 519c b13d 671d 293d 0230 6abd b914 cbbc
00000050: 893a c6bb 80c9 463c bb63 74bd 0c9b 03be
00000060: 5e0c 1abd efc4 213d e96b d0bc 9eed 1bbd
00000070: 8006 c1be 5b8e fcbc ed81 8f3d 003f 22bc
00000080: ea06 653f f1d3 5d3b 1c15 603f 2ce3 043d
00000090: b5fb 98bc 1dc6 933c d650 a43f a4a4 87bc
000000a0: 28b7 383d 4cef 0fbf 9e4f 94bb 2b43 75bc
000000b0: 6fc7 ab3c 233c f5bd 1d94 133d a037 4a3e
000000c0: e3c2 06be ddda 1bbd 3ac0 efbc fb1a fd3e
000000d0: 6bb2 703c 1fdf acbb 0861 ca3b 140b 083f
000000e0: 9291 5abc b4b3 0b3d 28d6 b73c b151 24be
000000f0: 46e8 a8bc 3d6d 013d 0a8f 53bc 807c 3e3d
00000100: 985e 61bf 0e07 24bd 97c3 a5bc 7d8f 8dbc
00000110: 429b eebd f9e7 95be 3661 1f3d 63b4 7bba
00000120: 93cb fa3c 2ad2 593d af02 b8bd f57a b33f
00000130: 0a8c 00bd 2440 05bd 10cc 9a3c d3b8 61bc
00000140: 4512 893e 1e37 16bd 107f c23c 5472 0c3d
00000150: c822 323d a782 aebc 815d 58be b22e 52bc
00000160: b040 36bd bd4e 843b 82ba ee3b 72cf bbbc
00000170: 6f1f 2ebe c898 8fbf 03f9 083e 2976 47bb
00000180: 05a7 043d a967 583c f600 2e3d 9df6 0dbd
00000190: a0c5 433b 77c5 553e f5bd 823d 60b7 bc3d
000001a0: 6c06 8cbe d8ef c03b 4fcf cf3e 109c 39bd
000001b0: d2c9 053d c499 81bd 8e17 1bbe 301a 4b3d
000001c0: e2ac dd3f c10c 413d d283 ee3d 43b6 f6bc
000001d0: aab0 503c b8f7 ba3c b506 133e 2239 e93d
000001e0: 7266 e9bc 7576 10be 299c 493d 2d9b 90be
000001f0: 0b81 663c d770 38bd 113c c9bc 998a 7d3e
00000200: 67ae 2e3d 1a24 633e 78ed c3be 2a00 63bd
00000210: cb45 f3bb 8bb9 7b3f c335 683c 8d5a 94bf
00000220: 06a7 1d3d 37c6 233b a397 6cbd 9f28 a73c
00000230: 9623 2f3c 9e1c e63e 0a7d d63c 225f eb3d
00000240: ac1d 75bc 2f90 af3c 20b7 f8bd 0074 b5bd
00000250: 83ed 72be 486b c13c 1383 eb3b f954 d23c
00000260: 7b62 ef3c bc6b 7b3d 55ae 823c 918c 15bd
00000270: 0737 b8bf b54b b4bf 8c25 88bc 4e35 95bb
00000280: f915 be3f 20ee 4f3c 1433 70bd 3096 c7bd
00000290: 7e97 943c b9e6 413e 9051 3b3b e35e 5abd
000002a0: 00a8 bf3a b437 f6bc b4a1 abbb 54e2 8a3c
000002b0: 58ae 343d f683 ad3f 6c0d ff3b d055 4cbd
000002c0: 62e9 6ebd 83a7 6dba 1e95 173d 6f41 a0bb
000002d0: 0263 d2bf 02f7 76bf 5f1d 2cbd bfa5 b4be
000002e0: ecac f3bc 3a25 5bbd 3b6c 643d 77f7 a0bc
000002f0: f28b 69be 78da c43f ded2 ad3c 08b5 a23e
00000300: 0243 a93f ae0c 95bc 3193 543d 3442 873c
00000310: 8a22 63bc 58d4 36bd e796 ccbc fca6 073d
00000320: c3c5 693d 5eae 0ebd 5f86 27bd db3c 7b3a
00000330: fe8f 283d 929d 583d 5e43 2e3d 1748 7bbf
00000340: 04d6 e43d 0543 21bf cc3a f93c 3d80 9b3c
00000350: 62b3 5e3c 5656 223e 93f1 633d c1ce c23f
00000360: 5a5c 3d3d 597c 4dbd 6044 cbbc e5a5 91bd
00000370: aa2b 62bd de25 f33e 08ee 3fbd 491c 41be
00000380: f67e 993d 2555 8ebd 7bb0 fb3a c084 bc3d
00000390: 8639 10be 9499 6ebc b1c8 c93c 3c1e 0abb
000003a0: 0e5b 16bd 6393 74bb 8612 23bd 5fb0 39bd
000003b0: 6724 2c3d 9485 f53c c99d c3ba 2637 aa3f
000003c0: 1d32 82bc c401 033e 21fc 553c 94d4 05be
000003d0: fcb6 fc3c a94f 2e3e 7c26 79bd 62d7 d8bc
000003e0: 0b42 7d3b 1623 923d 5b87 a3be 9bc6 63bb
000003f0: e8b6 b4bf 1331 8e3e ef33 353c a933 5940

l3.bias f4 [4]
0.045072023 -0.121768564 0.11903252 -0.14964055
00000000: 719d 383d cc61 f9bd 52c7 f33d 5f3b 19be
