TD3_control/dir_Walker2D_002/biped-v9-2d-1_actor_t.pth (torch, 531543 bytes, 6 tensors)

l1.weight f4 [400, 24]
000000 cf b5 a3 3e d5 36 98 3e 8f d4 ba 3d 5c 73 f4 bd
       0.31974646 0.29729334 0.091225736 -0.119360656
000010 8a 51 57 be c5 28 18 be d5 ad 5d bd e7 3e e2 3c
       -0.21027198 -0.14859302 -0.054120857 0.027617885
000020 f0 e3 39 be 59 31 4d be 01 86 4b 3d b5 b7 9b bb
       -0.18153358 -0.20038356 0.049688343 -0.004752124
000030 0e d7 ab 3c c5 ca 96 3d 3b eb 6c 3d 55 ec 80 3b
       0.02097657 0.07362894 0.05784152 0.003934423
000040 d0 cb 30 3e 02 4c dd 3d ba ec 59 bd 09 21 5d 3e
       0.17265248 0.10805513 -0.053204276 0.21594633
000050 a9 3a d3 bd dc a6 fa 3d 15 32 85 be 82 05 6f 3d
       -0.10313923 0.12238857 -0.26014772 0.058354862
000060 27 60 21 3d 3f 02 30 3e f6 cf 98 be 45 b6 8f bd
       0.03939834 0.17188357 -0.29846162 -0.07017187
000070 72 f7 55 bb f5 f0 1f 3e 09 c6 3f be 6c c6 71 3c
       -0.003264871 0.15619262 -0.18727888 0.01475678
000080 f5 09 87 be 1d d2 11 be 9e c2 1e 3e cb 0d 74 3d
       -0.26374784 -0.14240308 0.15503928 0.059583467
000090 00 eb b6 bc 3e 9e af bd 3d 70 0d 3e 5f 51 b4 3d
       -0.022328854 -0.08575104 0.13812347 0.08804583
0000a0 24 f6 08 3d 21 b1 d5 3c 03 d7 e3 bd 3c 39 79 3d
       0.033437863 0.026085438 -0.111249946 0.0608456
0000b0 f7 fe 3e bb 41 51 d9 bd bb e6 73 be 6d 47 9f 3b
       -0.002914367 -0.10611201 -0.23818485 0.0048608095
0000c0 74 2d 7f bd 4d 78 8e be ae c3 9c 3e 1b e4 75 be
       -0.062299207 -0.27826157 0.30618042 -0.24012797
0000d0 e7 be a5 bc c7 3e 3e bd 7b 37 b8 bd 63 19 bb 3d
       -0.02023263 -0.046446588 -0.08994957 0.091357015
0000e0 7e 3a 17 3e 91 3d 4f 3e d7 8a 23 be 23 f2 f8 bd
       0.14768407 0.2023833 -0.15970932 -0.12155559
0000f0 c3 a1 6f 3e 2c dc 81 bd 88 5c 38 be c1 83 db 3d
       0.23401551 -0.063408226 -0.18004048 0.107184894
000100 68 6b 35 be 7e 00 a9 be 40 79 b1 3c 39 7c d9 3b
       -0.17716753 -0.33008188 0.021664262 0.006637123
000110 10 8d c8 3c 93 f2 67 3e fd 74 87 3e 18 ee b9 3e
       0.024481326 0.22651128 0.26456442 0.36314464
000120 09 72 43 3e e2 99 dc 3d 01 45 41 be 74 d7 04 3e
       0.1908647 0.10771538 -0.18873979 0.12972814
000130 51 57 d2 3b 72 86 53 3e 8a 8f d5 bc 4f 29 a5 bd
       0.0064191003 0.20656756 -0.026069421 -0.080645196
000140 c6 a3 10 be 14 f0 8f 3d 74 a7 0c be b7 10 22 bd
       -0.14124975 0.07028213 -0.13735753 -0.03956672
000150 2d 80 08 be bc 56 0b be 88 44 bc bd 74 42 08 be
       -0.13330145 -0.13607305 -0.09192759 -0.133066
000160 4a 1d e7 bd 24 33 83 be 50 24 35 be 55 c0 18 3e
       -0.11284883 -0.25624955 -0.17689633 0.14917119
000170 fe 08 19 3e 29 ae 5f 3d 77 04 a3 ba 2c c6 0d 3d
       0.14944836 0.05460945 -0.0012437244 0.03461282
000180 b6 40 1a be da 4a 68 ba 93 c8 6e 3e bf 58 ac 3e
       -0.15063748 -0.00088612514 0.233187 0.33661458
000190 52 1d 64 be 63 af 67 be ec c7 38 3e 0c 4f 5b bd
       -0.2227681 -0.22625498 0.18045014 -0.05354218
0001a0 36 d6 98 3e b4 aa 00 be 22 1d dd bc 1e 5b 90 3d
       0.2985093 -0.12565118 -0.02699143 0.07048629
0001b0 89 b3 4f 3d 95 76 04 3e f9 39 4a 3c 61 07 d1 3c
       0.050708327 0.1293586 0.012342923 0.025516214
0001c0 27 68 a8 be 38 27 b1 3e b4 fb 7f 3e 45 62 84 be
       -0.32891962 0.34600234 0.24998361 -0.25856224
0001d0 38 30 bc bd 6d dd 86 be d2 b5 d5 3d 29 83 49 3e
       -0.091888845 -0.2634081 0.1043507 0.1967894
0001e0 64 61 8d bd 48 95 3a 3e f0 e0 c6 3d 5e bc 9e bd
       -0.069033414 0.18221009 0.09710872 -0.07750772
0001f0 67 39 35 3d 61 eb c4 3e b1 fc 2e be f0 8b e1 bd
       0.044244196 0.3846083 -0.17088582 -0.11013019
000200 1b 2b e6 bd 76 81 23 3d 67 bb b0 be dd 8e 97 bb
       -0.112386905 0.039918385 -0.34517977 -0.004625185
000210 1c fa 82 3c 7a 27 e4 3d 24 3b 0a 3d 50 2d 40 3c
       0.015988402 0.11140342 0.033747807 0.011729553
000220 71 62 59 bb 58 a8 ce bd 87 62 37 3e c1 cf 46 3e
       -0.0033170248 -0.10090703 0.17908679 0.1941519
000230 00 39 43 be 42 16 67 3e 3f 0c bf 3d 91 71 57 3d
       -0.19064713 0.22567084 0.09328508 0.05259854
000240 7d b1 98 bd cd c6 83 3e a8 69 47 3d c0 f6 cc 3c
       -0.07455728 0.2573761 0.048684746 0.025020003
000250 d4 0f 79 be 87 f0 30 be b7 14 dc 3d 9f 1a 44 be
       -0.24322444 -0.17279254 0.107461385 -0.1915078
000260 02 8f 6f 3c 86 bb 24 3d 5b fe 61 3e 4d 34 11 3e
       0.014621498 0.0402179 0.22069685 0.14180107
000270 46 9f 17 bc 4f 56 b5 bc 78 5e 46 bd 40 8b 47 bc
       -0.009254282 -0.022135882 -0.048429936 -0.012179196
000280 d9 5f d8 bd 49 dc 5c be 80 fd 35 bd f6 eb 24 3e
       -0.105651565 -0.21568407 -0.04443121 0.16105637
000290 5b 49 fb 3c e3 53 f0 3d 8f 72 29 bd 5d b1 0b be
       0.030674627 0.1173475 -0.041369017 -0.13641877
0002a0 a0 69 ca bd 68 7b 43 be 03 4c f6 bb ef 8b b7 be
       -0.098834276 -0.19090044 -0.0075163855 -0.35848948
0002b0 0e 35 2d be 64 f5 85 3e 22 49 ab 3b e0 56 24 be
       -0.1691477 0.2616378 0.005227224 -0.16048765
0002c0 b3 25 60 3c 78 8e be 38 fd 61 86 be 89 fa 58 bd
       0.013680863 9.086443e-05 -0.26246634 -0.052973304
0002d0 35 6b 95 3c eb 51 fe 3d 64 06 ff bc 10 79 c3 3b
       0.018239597 0.12417968 -0.031130977 0.0059653595
0002e0 5d da 00 be 97 a4 26 be 8b 66 e0 bd ac 3b 70 3e
       -0.12583299 -0.16273724 -0.109570585 0.23460263
0002f0 08 6f 37 be 11 9b ce bd ac 52 81 be 51 59 41 be
       -0.17913449 -0.1008817 -0.25258386 -0.18881728
000300 05 5f 90 be e6 23 11 3e d4 fd fb 3d 6a 78 d0 3e
       -0.28197494 0.1417385 0.12304273 0.4071687
000310 33 6b fc 3d 6b 21 6b 3c 6a e6 35 3e 72 48 a2 bd
       0.12325134 0.014351229 0.17763677 -0.07923974
000320 0e f1 af bd cf 0c 22 3d dc 84 08 3b 99 09 c4 3d
       -0.085908994 0.039562996 0.0020831143 0.09572143
000330 0d f0 92 3d 2d 75 8e bd 41 5d 57 bd dc f6 8e 3d
       0.07174692 -0.06955943 -0.05257917 0.069806784
000340 1a 4d d8 bc ad e1 97 3e ce 8b 2a be c6 0e 2d be
       -0.026403952 0.29664364 -0.16654894 -0.16900167
000350 3e 6c 16 be 12 b6 d6 be 24 d0 86 bb 90 6f cf bd
       -0.14689729 -0.41935784 -0.0041141678 -0.10128701
000360 12 66 db 3d be af 2a be 39 1b 4c 3e eb 73 70 be
       0.10712828 -0.16668603 0.1993226 -0.23481719
000370 1a ab 59 be 68 bd 38 3e b1 83 46 3d 44 ae f3 3d
       -0.21256676 0.18041003 0.048465434 0.11898473
000380 47 f0 af 3c 35 b9 08 3e a5 b0 85 be 29 af ca bd
       0.021476878 0.13351901 -0.26111332 -0.098966904
000390 4c 39 8c bd 51 26 56 bd 0d 1c 14 bd 7e 44 a6 3d
       -0.06846866 -0.052282635 -0.036159564 0.081185326
0003a0 50 54 46 3e 99 be 5c be b4 ba 0e be f6 b5 14 3e
       0.193681 -0.21557082 -0.13938409 0.14522538
0003b0 dd ab 0e be ae 20 1a be 33 c3 fe bc 5c b0 07 3a
       -0.13932748 -0.15051529 -0.031098938 0.0005176121
0003c0 df ca 26 3d 0d b6 8b 3e ef a2 af be 4b f0 61 be
       0.040720817 0.2728733 -0.34303996 -0.2206432
0003d0 47 25 a3 bd df af 37 bc 24 2a b6 bd 82 6c f1 3d
       -0.079660945 -0.0112113645 -0.088947564 0.11788274
0003e0 9e ff 18 be 3f ec 22 be ce 39 27 bd 4b 92 80 3b
       -0.1494126 -0.15910433 -0.04082661 0.0039236895
0003f0 1b 62 61 be 5d fa 9c 3d 30 36 3e 3e 7f 47 b2 3b
       -0.2201008 0.076649405 0.18575358 0.005440652

l1.bias f4 [400]
000000 24 b9 f5 bd 9d 78 89 bd ec d1 71 3e 50 17 33 be
       -0.119982034 -0.06712458 0.23615235 -0.17489362
000010 6e a9 97 3d 6f 22 3a 3e 2d c9 80 be 19 f0 da bd
       0.07405363 0.18177198 -0.25153485 -0.10690326
000020 56 c5 93 3e e4 ed 00 be ee 00 98 bd 7a f4 df bc
       0.28861493 -0.12590748 -0.07422052 -0.027338255
000030 e3 59 6f bc 95 97 8b bd 02 2c 5a be d0 4a b9 bd
       -0.014608833 -0.06816021 -0.2130585 -0.090474725
000040 fd 2f 06 be 31 a4 4d bd 5e 2c 9d bd cf da a1 3e
       -0.13104244 -0.050205413 -0.07674478 0.3161225
000050 02 42 e7 3c db 9a 63 be 09 ef 5c 3d 98 8f b6 be
       0.028229717 -0.22227041 0.0539389 -0.35656428
000060 77 a2 aa be b0 db 31 be d1 ea 48 be 4d 01 8d be
       -0.33327076 -0.1736896 -0.19620825 -0.27540055
000070 ed 56 92 3c 99 fc 5a be 02 15 49 bd 76 ce ab be
       0.017863715 -0.21385421 -0.0490923 -0.33555955
000080 c0 2c c4 be 98 16 46 3d cb 14 f7 3d 6f 06 ae bc
       -0.38315392 0.04836139 0.12064513 -0.021243302
000090 08 e5 34 bd 32 f3 5d be 46 5a 16 be 25 be 09 be
       -0.044163734 -0.21674803 -0.14682874 -0.1345144
0000a0 96 c1 9d be 76 4f 23 be 8b 4e 7d be a3 13 69 3e
       -0.30811757 -0.1594828 -0.24736993 0.22761397
0000b0 ac 35 71 bd 3e d3 22 be 94 3c 7d bd 48 4a 3a bc
       -0.058889076 -0.15900895 -0.06182535 -0.011370249
0000c0 00 05 3b be 9c d7 75 be 4d 8a 0b be e2 ef 56 bd
       -0.18263626 -0.2400803 -0.13626976 -0.052474864
0000d0 27 ed af bd 49 08 45 be 58 e0 34 bd 74 da 77 bd
       -0.08590155 -0.19241442 -0.044159263 -0.060511068
0000e0 75 ea 85 be 46 36 1c be a1 de 43 bd e5 84 85 bd
       -0.2615544 -0.15255079 -0.047819737 -0.06519488
0000f0 a1 90 50 3d 0c d8 fd bd 28 e2 b5 bb bd 3c 87 bb
       0.05091918 -0.12394723 -0.0055506416 -0.0041271136
000100 60 f3 32 be 3d 05 8a be ad 53 85 be 8c 8b 77 be
       -0.17475653 -0.26957121 -0.26040402 -0.24174327
000110 39 7d 44 bd 56 56 99 bd fb 4b 80 be 4a d3 51 bd
       -0.047970984 -0.074871704 -0.25057968 -0.05122689
000120 7e 71 12 be b8 15 b6 bd ee a3 9a be bc 61 85 3d
       -0.14301106 -0.08890861 -0.30203193 0.06512782
000130 d4 35 7b be 54 27 f3 bd 21 8e 46 be d8 03 46 3e
       -0.24532253 -0.118727356 -0.19390155 0.19337404
000140 de bd a4 3d 8c 8e 83 3c a2 08 d6 3e 1f 4c b8 3e
       0.08044027 0.016059183 0.4180346 0.35995576
000150 aa 5a 56 be 65 8d 8e be ce 16 18 be 5d 26 1e bd
       -0.20933023 -0.2784225 -0.1485245 -0.038610805
000160 25 dc 04 bd 82 59 fa bd 48 62 b6 bd 56 e1 9f be
       -0.03243651 -0.122241035 -0.089054644 -0.31226605
000170 12 e9 5a bd 61 ac c2 bd 44 dc f8 bd 05 a2 89 3e
       -0.05344493 -0.09505535 -0.12151387 0.26881424
000180 97 f6 29 be 13 b4 67 bc 10 3c b0 bc 87 3d a0 bd
       -0.16597973 -0.014142054 -0.021513015 -0.078242354
000190 1c a8 ff bd 9f d1 a8 bd 19 25 4e be 42 58 dc bd
       -0.12483236 -0.08243107 -0.20131339 -0.10759021
0001a0 13 74 61 be 1f 3c 2a bd 70 68 bf bd 0c 63 84 3b
       -0.22016935 -0.041561242 -0.09346092 0.0040401276
0001b0 f6 3e 2c be 04 9b 06 3d 3e 17 20 3c 25 a9 99 3b
       -0.16820893 0.03286268 0.009771166 0.004689353
0001c0 a9 31 48 be 49 0d 40 be 89 c9 dc 3c 5e cd 97 bc
       -0.19550194 -0.18755068 0.026951568 -0.018530544
0001d0 af 31 2c be 92 45 56 be 60 27 3b 3e 8c b1 79 bd
       -0.16815828 -0.20924976 0.18276739 -0.060960338
0001e0 8e 60 93 be 2b e8 66 be 7e 20 13 3c 01 7b d1 bd
       -0.28784603 -0.22549503 0.008979915 -0.10228539
0001f0 fd 3e 90 3d b6 f7 a1 39 0f 67 2d be ca 68 e9 3c
       0.07043264 0.00030892872 -0.16933845 0.02849235
000200 e9 94 45 be c0 9a 3a 3d a4 f0 0b 3d c2 58 5e bd
       -0.19295086 0.045557737 0.03416504 -0.054283865
000210 25 ad 90 3d 65 eb 0f bc c6 be 18 be 29 d2 d9 bd
       0.07064275 -0.00878415 -0.14916524 -0.10635788
000220 87 95 a2 bd 2e c7 aa bd de 22 90 3e 55 e0 1b be
       -0.07938676 -0.08338772 0.28151602 -0.15222295
000230 b4 16 08 3e f5 b2 88 bc 24 f4 00 be 27 c0 aa bd
       0.1328991 -0.016686896 -0.12593132 -0.083374314
000240 b1 21 50 3e 08 07 c0 3c b9 76 43 be c4 8c 7f be
       0.20325352 0.023440853 -0.19088258 -0.24956042
000250 62 62 5f be d3 b2 7b 3e 7c c1 0d be 63 69 7b 3d
       -0.21814874 0.24579935 -0.1384334 0.0613798
000260 68 65 36 bd ab 69 f9 3c e3 01 ed 3d ed 5d 95 3b
       -0.044530302 0.030445894 0.115726255 0.004558316
000270 d4 27 8e be 48 9a 35 be f0 8f c7 3d c3 79 7e be
       -0.2776476 -0.17734635 0.09744251 -0.24851136
000280 90 75 ce 3d 95 1e 02 bd 71 ba 42 be 11 0e d9 bd
       0.10081017 -0.031767447 -0.19016434 -0.10598386
000290 27 11 aa 3c d0 42 32 bb 7e 5b 9e be 15 49 96 be
       0.020760132 -0.0027200468 -0.30929178 -0.29352632
0002a0 6c 5b 8b bd a4 60 0a 3d 68 84 35 3e 12 44 e9 3c
       -0.06804547 0.03378357 0.1772629 0.028474841
0002b0 af 11 29 bd 52 37 e8 bc 7e b2 9c bd e4 43 fb bd
       -0.04127663 -0.028346691 -0.07651232 -0.122688085
0002c0 96 e1 a0 bd d3 4a 6b bb 88 99 4b 3d 26 c2 19 3e
       -0.07855527 -0.0035902753 0.049706966 0.15015468
0002d0 b6 bd 1a 3e eb 45 67 be 0e 48 2e bd 3b 0e 63 bd
       0.15111431 -0.22585265 -0.042549185 -0.055433493
0002e0 02 ac e6 bd d8 9d 3d 3e ad f6 07 bd ad b0 02 be
       -0.11263277 0.18517244 -0.033194233 -0.12762709
0002f0 0e 33 25 3e 8b c7 6d be 10 c0 b3 bc 0b df e7 3d
       0.16132757 -0.23220651 -0.021942168 0.11321839
000300 dc 84 08 be 09 6a d5 3c d2 a7 68 bd 37 4a 27 bd
       -0.13331932 0.026051538 -0.05680067 -0.04084226
000310 b7 cd 28 bd 64 06 7f be 3e 17 07 3e 8f c9 a7 bd
       -0.04121181 -0.24904782 0.1319246 -0.08192741
000320 e4 18 fe bd 2b bc e5 bd 1f 72 a1 bc e1 0f 5a be
       -0.12407091 -0.11217531 -0.019707737 -0.2129512
000330 84 fe 84 be 7b a4 64 be 0f d5 23 bd 75 e6 0e be
       -0.2597543 -0.2232837 -0.03999811 -0.139551
000340 f4 ad 74 be 52 c3 d9 bc 5e c5 29 3e 74 63 8f bd
       -0.23894483 -0.026582394 0.16579196 -0.07001391
000350 3b 75 ef bc 0c ad 80 bd 74 a1 74 be ae dc 1c bd
       -0.029230705 -0.06283006 -0.23889714 -0.038296394
000360 80 e8 45 3a 9c 71 06 3d 3e 23 9e 3d 15 0f 0f 3e
       0.0007549599 0.03282319 0.07721566 0.13970597
000370 27 23 a7 bd f2 74 d8 3b 53 67 80 bb 36 29 20 3c
       -0.08161002 0.006605738 -0.003918567 0.00977545
000380 ca f2 52 be 80 d9 bb bb 71 06 47 be a3 49 e0 bc
       -0.20600429 -0.005732715 -0.19436051 -0.027378863
000390 11 df cb 3d 25 b2 0b 3e f6 32 15 bd 3e 9d 92 be
       0.09954656 0.13642175 -0.036425553 -0.2863559
0003a0 ac bd 84 3d f5 c8 15 be 94 d6 0d be e9 25 4b be
       0.064814895 -0.1462744 -0.13851386 -0.1983868
0003b0 eb 95 e2 bd 77 a8 29 3c 9c db 05 3e 36 6a aa 3e
       -0.11063751 0.010355107 0.13072056 0.33284158
0003c0 c2 d4 5a be 82 9b ef 3c 76 ea 9e bc 02 18 55 bd
       -0.21370223 0.029248957 -0.019398909 -0.05202485
0003d0 5e 74 91 be d2 7c 52 be 65 65 84 be 76 41 9d be
       -0.28409094 -0.20555428 -0.25858608 -0.30714005
0003e0 4c a5 7a be 04 96 72 3c e7 4e 27 be 6e 26 18 be
       -0.24477118 0.014806274 -0.16338693 -0.1485841
0003f0 fc 4b f9 bd aa 29 5a be 7c 32 77 bd e7 5f 80 be
       -0.12172696 -0.21304956 -0.06035088 -0.25073168

l2.weight f4 [300, 400]
000000 87 6f a0 3c 28 7e b5 bc 3d dc 94 3c 10 ff 35 3d
       0.01958443 -0.022154883 0.018171424 0.0444327
000010 78 b5 44 3c 42 5e 5b bd 2d 3e 93 3c 6e 45 97 bc
       0.012006156 -0.053556688 0.017973984 -0.018465724
000020 45 a7 05 bd 11 e5 4a bd 1e 1f 1a bd ec 6e f5 bc
       -0.032630224 -0.04953486 -0.037627332 -0.029960118
000030 63 37 7b bc 3e 3f 2a bc 76 bc 95 3c 97 ab 29 bd
       -0.015333029 -0.010391055 0.018278342 -0.041423406
000040 7e 80 1c bd 4e 71 24 3d 62 a4 ed 3c 97 ee 22 bd
       -0.038208477 0.04014712 0.029009048 -0.03977832
000050 9b 36 fb 3c 0b 35 62 bd 92 91 5a bd f6 9c 14 3c
       0.030665686 -0.055226367 -0.053361483 0.0090706255
000060 48 0c bc bb 5d 39 06 bd ea 03 59 bd 2d 77 16 3d
       -0.0057387687 -0.03276955 -0.05298225 0.03673475
000070 55 ee 88 bc 29 0b dd 3c 6e 38 95 bc 11 be 44 bd
       -0.016715208 0.02698286 -0.018215384 -0.048032824
000080 7a 8d 53 bd 4d 02 91 3c a2 30 80 bc a1 a7 48 bd
       -0.051648594 0.017701292 -0.01564819 -0.04898799
000090 7a 11 57 bd 17 f6 a7 bc d0 82 38 bd a9 22 57 3c
       -0.0525069 -0.020503087 -0.045046628 0.013130822
0000a0 d1 0e dc 3c 1e e1 1b 3d c4 d3 08 3d aa 88 df bc
       0.026862534 0.038056485 0.03340508 -0.027286846
0000b0 29 24 5d 3c 5d 1f 02 3d 99 4d 41 bd fe cf 15 bd
       0.013497391 0.03176819 -0.047193144 -0.03657531
0000c0 99 04 49 bd d7 39 24 3d da 30 e4 bc 83 8b fa 3c
       -0.04907665 0.040094223 -0.027855325 0.030584102
0000d0 7d e9 17 3c e9 61 41 bd 09 01 da 3c ff db 2c bd
       0.009271977 -0.047212515 0.026611822 -0.042201992
0000e0 4b c5 e4 bc aa 3c 5b bc df 4e 2a bd 45 f1 01 bd
       -0.027926108 -0.013381163 -0.041579124 -0.031724233
0000f0 1a 71 eb 3c 74 8a fc 3b ce 70 a2 3c 1c 28 73 bd
       0.028740454 0.0077069346 0.01982918 -0.059364423
000100 19 76 4d b9 81 0a d1 3b e2 e3 58 bd 56 ae 1b bc
       -0.00019594318 0.006379426 -0.0529517 -0.009502014
000110 87 d0 2d bd 41 4a 56 bc 5e 5c ae bc 4e 1e 1d 3b
       -0.042435195 -0.013079227 -0.021284278 0.0023974362
000120 7f 81 00 bd b3 9c 61 bd 46 d6 2b bd b0 fa 49 bb
       -0.031373497 -0.05508108 -0.041952394 -0.0030819587
000130 df 7b af 3c c3 62 6d bd 16 4b 1e 3d f4 13 7d bc
       0.021421371 -0.057955515 0.038645826 -0.015446652
000140 de 7b 2f 3c 0b c7 eb bc a8 2d b8 bc 42 a0 d0 bb
       0.010710685 -0.028781435 -0.022482708 -0.0063667605
000150 97 bf 2e bd 05 49 1c 3d 0f 10 af bc 4f bb 20 bb
       -0.042663183 0.038155574 -0.021369962 -0.0024525707
000160 3d c7 0b bd 3d b6 12 bd 54 53 0d 3d 3b c2 f7 bc
       -0.034125555 -0.035818327 0.034503296 -0.030243983
000170 20 51 b3 bb 04 6e 01 3d d1 4d c5 3c d1 a4 43 bd
       -0.0054723173 0.03159906 0.024084957 -0.047764603
000180 00 93 4d 39 c6 4b a7 3b bc 43 8a 3b 19 ce cf bc
       0.00019605085 0.0051054684 0.0042195003 -0.02536683
000190 31 e7 46 bd 71 32 48 bd d6 1d 18 bd 70 66 37 3d
       -0.048560325 -0.04887623 -0.03713783 0.044775426
0001a0 aa 92 d5 3c ea 58 e8 3c 74 b3 f1 3c a2 7a dc 3c
       0.026070911 0.02836271 0.029504515 0.026913945
0001b0 24 be 89 3b 2d 24 0f bc f7 f7 22 bd 1a 4c 54 bd
       0.0042035747 -0.008736652 -0.03978726 -0.05183039
0001c0 72 c5 6e 3b 9f 10 ab bc ea 93 5a 3c 6a 15 6d 3c
       0.0036433605 -0.020881949 0.0133409295 0.014470438
0001d0 5e 36 13 3d f6 83 94 bc 88 c3 c4 bc 6f cb 3b 3d
       0.03594052 -0.01812933 -0.024019018 0.045848306
0001e0 82 d8 e9 bc 26 08 1f bd 69 3e 49 bd ad 40 1d bc
       -0.028545622 -0.03882613 -0.049131785 -0.009597939
0001f0 9b f4 6c bb 39 f3 c1 ba 06 aa 90 bc c5 8f 8b bb
       -0.0036156538 -0.0014797217 -0.017659198 -0.004259082
000200 8f 32 bc 3c 6a 3a d2 bc ee 56 2b 3b 6c 8a ff bb
       0.022973327 -0.02566262 0.0026144343 -0.0077984836
000210 55 6d 11 3d 54 1a f1 bc 16 7d 37 3c d9 c5 47 bd
       0.035504658 -0.0294315 0.011199256 -0.048772667
000220 88 56 b9 3c ea ca ee 3c ba 41 50 bd b5 c4 04 3d
       0.02262427 0.029149491 -0.05084393 0.032414157
000230 1f a4 a1 bc e2 45 51 bd ac 55 0d 3d ef b9 a7 bc
       -0.01973158 -0.051092036 0.03450553 -0.020474402
000240 c2 34 e4 3c 16 fe 15 bd 04 96 72 bc 08 12 ba bc
       0.027857188 -0.03661927 -0.014806274 -0.022713676
000250 7a 27 e4 3c 5a 25 68 3a 6c 4f 0d 3d b8 5c bf ba
       0.027850855 0.00088556635 0.03449957 -0.0014599776
000260 64 d0 07 bd a6 11 2c 3d f9 a3 49 bd f2 cb 56 bc
       -0.03315772 0.04200902 -0.049228642 -0.013110148
000270 29 2b 47 bd 17 8a 20 3d 68 9e b9 bc 15 83 1d 3d
       -0.048625145 0.039194193 -0.022658542 0.038455088
000280 69 79 54 bc a5 88 94 bc fd 8c 9c 3c 66 75 2b 3c
       -0.0129684 -0.018131563 0.019110197 0.010465002
000290 54 4a 82 bc ec 0a 8e 3c a4 68 f8 bc 2e ad a6 bb
       -0.015904583 0.017339192 -0.030323334 -0.0050865626
0002a0 20 0a c3 bc ec 6b 02 3d 67 87 a8 bc 4b 32 70 bc
       -0.023808539 0.031841204 -0.020572377 -0.014660428
0002b0 d0 88 37 3d 29 60 d3 3c 7a c5 d2 bc 68 c0 c4 bc
       0.04480821 0.025802689 -0.02572893 -0.024017528
0002c0 fd 72 98 bc ec a8 fc 3c 9c 2b 01 3d 6e d1 21 3d
       -0.018609518 0.030842267 0.03153573 0.03950637
0002d0 a6 42 28 3d fe b5 2a 3d fe d8 a0 3c 75 f1 08 bd
       0.041079186 0.041677468 0.01963472 -0.033433396
0002e0 32 9d 63 3c b4 24 f5 bc f0 5e cb 3c cd f4 0c bd
       0.013892459 -0.029924728 0.024825543 -0.034413148
0002f0 97 5e a1 3c 1e 14 00 3d bf 49 22 3d 67 b6 35 3c
       0.019698424 0.031269185 0.03962111 0.011090851
000300 cf 15 ad bc de cc 95 3c dd fa 1e 3b df 21 be 3b
       -0.021128563 0.018286165 0.0024258413 0.0058023776
000310 1a 43 e2 bc 8b ae ed bc bc 3e f6 3c 39 73 4e bd
       -0.027619887 -0.029013893 0.030059211 -0.050402854
000320 be 14 2f bd 1c d6 08 3d 8e e2 27 bd 63 3b f2 3a
       -0.04274439 0.033407316 -0.040987544 0.0018480833
000330 fa 9c df 3c 6d 5e 17 3d 1e f8 93 bc c8 26 42 bd
       0.027296532 0.036955286 -0.018062647 -0.047400266
000340 dd 44 9b 3c 19 83 4f bd df a4 24 3c b6 4a 29 3c
       0.018953735 -0.050662134 0.010049074 0.010332754
000350 60 23 44 bc 78 33 30 bc ce 23 1a bd dc 87 fb bc
       -0.011971325 -0.010754459 -0.037631802 -0.030704431
000360 3c a1 70 bd d6 2b 1e bd 93 1d 65 bd 1f e7 33 3c
       -0.058747515 -0.038616024 -0.055936407 0.0109803965
000370 12 ff e7 3c 26 48 25 3c b0 58 cb 3c 3c 49 87 3c
       0.02831987 0.010088002 0.024822563 0.016514413
000380 f7 ca 36 bd 89 29 4d bd e7 0d b6 3a 8d 48 17 3d
       -0.044627156 -0.05008844 0.0013889641 0.036934424
000390 08 a0 b3 bc 12 38 d2 bc 36 c5 9f 3c 14 fc 0d 3d
       -0.021926895 -0.025661502 0.019503217 0.03466423
0003a0 1d d6 08 bd 3c ae 8b bb 61 85 d5 3c f4 04 f3 bc
       -0.03340732 -0.0042627137 0.026064577 -0.029665448
0003b0 b6 83 13 bd 22 46 d2 bc b1 84 4c bd 4f 2c 23 bd
       -0.03601428 -0.025668208 -0.049931232 -0.039837178
0003c0 9b 43 64 bd 31 ae 43 bd cf c5 31 bd 0f 44 b7 3c
       -0.055728536 -0.047773544 -0.043401536 0.02237132
0003d0 f4 e8 ff bc ee 4a 14 3d a5 46 06 bd ba 93 ec 3c
       -0.03123901 0.03620427 -0.032782216 0.028879035
0003e0 83 92 64 bd c1 85 4a bd 36 64 12 bd 3e 3f 91 bc
       -0.055803787 -0.049443964 -0.0357401 -0.017730352
0003f0 ef f9 ad bc e1 22 c2 bb df 5a a8 bc 66 2c 1a bd
       -0.021237342 -0.005924568 -0.020551143 -0.037639998

l2.bias f4 [300]
000000 83 4d e3 bc 4c 30 81 bd d1 c1 53 3d 65 8b 06 bc
       -0.027746921 -0.0630804 0.05169851 -0.008211945
000010 6f ba 29 bd f7 4e 21 bd 81 7f ca bd df d5 b9 3c
       -0.041437563 -0.039381947 -0.09887601 0.02268499
000020 52 2d 59 bd 4f a7 b4 3b 6f 35 22 3e c4 32 8e 3c
       -0.053021736 0.005513109 0.15840696 0.017358191
000030 41 97 45 3c 92 9d 58 bd 65 91 9e 3c 25 01 83 bd
       0.0120599875 -0.052884646 0.019356439 -0.06396703
000040 c7 b6 aa bc e8 ab bd bc 25 a5 89 bc 6e dd 9f 3c
       -0.020839108 -0.02315326 -0.01680238 0.019514766
000050 5f aa ba 3c 28 0d b3 bd 43 a0 e9 bb 8e 93 97 bc
       0.022786317 -0.08742744 -0.0071297004 -0.018502977
000060 b7 26 af 3d 7f ec 23 bd be cb 9d bc ec 79 88 3c
       0.08552306 -0.040020462 -0.01926219 0.0166597
000070 9a ef d8 bc 6d 80 89 bd db a0 e2 bc bd 2f 05 bc
       -0.026481438 -0.067139484 -0.027664592 -0.0081290575
000080 bf 87 80 3b d5 fb 8c bc 7b 07 61 bd e9 64 4d bd
       0.003922432 -0.017209927 -0.054938775 -0.050145064
000090 c8 8e 39 bd 3f e7 27 bd b8 75 bf bc 47 bd ab bd
       -0.045302182 -0.040992018 -0.023371562 -0.08385711
0000a0 f7 f1 23 ba 8d 50 85 3e cc f7 7f bc a7 e5 2a bd
       -0.0006254012 0.26038018 -0.015623044 -0.04172292
0000b0 00 b2 b3 3e 6e c5 23 3d 49 e3 df bd de 62 16 bd
       0.3509674 0.039983205 -0.10932023 -0.03671538
0000c0 55 8a 88 bd 66 15 a2 3b 3e 2c 10 3e a6 6a 19 bd
       -0.0666701 0.0049463985 0.14079377 -0.037455224
0000d0 7d fa 10 3c be 6b ad 3c fe 28 1c be 53 e4 60 3d
       0.008848784 0.02116954 -0.15250012 0.054905247
0000e0 3a df d5 bd 25 6b 02 bd c9 77 41 ba 28 96 31 bd
       -0.10442968 -0.031840462 -0.0007380215 -0.04335609
0000f0 86 34 95 bd a7 67 a6 3d ca 44 d6 bc 1c a0 78 bd
       -0.07285409 0.08125239 -0.026155848 -0.060699567
000100 26 ad 90 3e 46 60 15 bd 69 32 cb bc 1c 0f 8c 3a
       0.28257102 -0.036468767 -0.02480431 0.0010685655
000110 15 ca 8d bd 1c 22 8d 3c 26 25 96 bb b9 ae db 3b
       -0.0692331 0.017228179 -0.004582065 0.006704178
000120 67 43 ab bc 5f 54 27 be 6e 02 1e bd 34 7a 06 3d
       -0.020906163 -0.16340779 -0.038576536 0.032831386
000130 bb 9e 66 bd 8d b9 00 be 06 40 aa 3c ae a0 26 3d
       -0.05630372 -0.12570782 0.020782482 0.04068058
000140 47 69 20 bd dc 92 f5 bc bd 28 82 bc 65 32 19 3d
       -0.0391629 -0.029977255 -0.015888566 0.037401576
000150 a3 85 6f bd a4 ee 83 bd 58 5b c6 3c e5 d9 94 bc
       -0.058477055 -0.064420015 0.024213478 -0.018170306
000160 a6 47 23 bd e6 77 1c bd 7a 6f 58 bc da 71 55 bd
       -0.03986325 -0.03820028 -0.013210172 -0.05211053
000170 1d 5e 03 bd dc ea 77 bc 08 a6 32 3d 2c b3 8c 3d
       -0.032072175 -0.015131678 0.04361537 0.06870112
000180 2e 58 97 bc 0f 2c bb 3b 2d 13 16 3d 16 8d 93 bc
       -0.018474665 0.0057120393 0.03663938 -0.018011611
000190 90 fe 33 bd cf 95 39 3c 7b 35 6a bd 4f b5 ba 3d
       -0.04394394 0.011327221 -0.05717991 0.09116613
0001a0 f7 53 35 3c ce 2c 25 3b ae e0 13 bd 6d 03 09 3b
       0.011067382 0.0025203708 -0.036102943 0.0020906583
0001b0 a4 f6 0a 3d 20 76 31 bd f9 e7 5f 3d ef 99 24 bd
       0.03392662 -0.043325543 0.054664586 -0.040185865
0001c0 ac 7a 0b 3b 3b fa f6 3c 92 0f 5f bd d9 59 40 bd
       0.0021282835 0.030148616 -0.05445821 -0.046960685
0001d0 83 0d f6 3c c9 69 54 3d 46 9e 93 3d 23 0b 00 bd
       0.03003574 0.051858697 0.07207923 -0.03126062
0001e0 21 d3 47 bd 46 50 00 3e 29 c1 47 bd 31 19 47 bd
       -0.048785333 0.12530622 -0.048768196 -0.04860801
0001f0 cc 51 0a bb c8 28 b1 bd 78 97 b0 bc 92 43 67 3b
       -0.0021105884 -0.086503565 -0.0215566 0.0035288078
000200 40 c0 ba bd f0 14 4f bc c1 13 dd 3c d5 ae 1d 3d
       -0.091187 -0.012639269 0.026986958 0.03849681
000210 fa 4f 57 bc 9e 84 a0 39 e6 a2 19 bd 32 ea 52 bd
       -0.0131416265 0.00030616386 -0.037508868 -0.051492877
000220 1b d5 6b bd ff 8a ad 3d 7c 28 81 3c 9d d0 8b bd
       -0.05757628 0.08473777 0.015766375 -0.06826899
000230 5f e5 ac bb c3 6a f4 3b d4 0e 75 bd ad 84 81 3c
       -0.0052763666 0.007459016 -0.059828594 0.015810335
000240 d7 b0 3e 3c 71 c1 45 bd 6f 49 27 be 90 3e 3a bd
       0.011638842 -0.048280183 -0.16336606 -0.04546982
000250 2a 0b dd bc 6f 49 27 bd 29 01 4e bd d5 a6 96 bd
       -0.026982863 -0.040841516 -0.050294075 -0.073560394
000260 dd 52 08 bd 75 4b 13 3d 84 bd 7a bc 8d 6f 04 3e
       -0.03328215 0.035960633 -0.015303973 0.12933178
000270 8d 99 96 3c 67 fc ba 3c 57 a3 21 3d 6d 50 11 3d
       0.018383766 0.022825433 0.039462414 0.03547709
000280 82 12 58 bd 98 96 39 3e fe 6b ae 3c 1f a8 b1 bd
       -0.052752025 0.18123853 0.021291729 -0.08674645
000290 06 4a a0 bc 04 f9 87 3d 27 12 ae bc 7b 71 80 bd
       -0.019566547 0.06639293 -0.02124889 -0.06271645
0002a0 5b 0d 6c 3b ce 82 1f bd 4d 62 01 bd d7 15 aa bc
       0.0036018703 -0.038943104 -0.031587888 -0.020762367
0002b0 8c 67 7d bc 2d 22 87 bb a1 12 4c bd 54 4a 02 3c
       -0.015466582 -0.004123947 -0.049822453 0.0079522915
0002c0 e6 cc 92 bd ab c8 65 3c 8b 1c 64 bd 34 34 01 be
       -0.071679875 0.014024894 -0.055691283 -0.1261757
0002d0 33 06 78 3c ef c6 29 bd c2 8e d5 bc 4a 96 57 bd
       0.015138197 -0.041449483 -0.026069049 -0.05263356
0002e0 ff ec a5 bb 4b ba ea 3d 04 91 77 bd 4e de af 3c
       -0.0050636525 0.11461314 -0.060441032 0.021468308
0002f0 26 d9 11 bd 12 09 de bc 77 29 ba bb ce 92 14 bd
       -0.03560748 -0.027103934 -0.0056812125 -0.036272816
000300 72 79 d1 3d e3 7c 65 bd cd 83 8a bc c5 e4 01 bd
       0.10228242 -0.056027304 -0.01690855 -0.031712312
000310 a6 b3 2a 3c 70 16 3c bd f2 c9 67 bc c5 68 85 bd
       0.010418808 -0.045919836 -0.014147269 -0.06514124
000320 95 ba 1a bd 85 5e 8e 3e d2 1a 5a bd a8 00 33 3e
       -0.037775595 0.27806488 -0.053248234 0.17480719
000330 46 5a 96 bd b7 2d b2 3c 26 d0 1f bd 40 16 35 bd
       -0.07341437 0.021750314 -0.039016865 -0.044210672
000340 3f 86 b3 3b c6 6f a1 3c 6d 23 8c bd 0a 88 d0 bc
       0.00547865 0.019706618 -0.068426944 -0.025455493
000350 ff 82 26 bd 42 bc 75 3c 5f 53 bc 3d 75 c0 8c 3e
       -0.04065227 0.014998497 0.09195589 0.27490583
000360 c1 91 48 3e 42 69 55 bc f7 74 a3 3e e6 1d 12 bd
       0.1958685 -0.013025584 0.31925175 -0.035673045
000370 b1 81 d9 bd 87 fd b2 3c 93 39 f1 3d e3 fb ed 3d
       -0.1062044 0.021849407 0.117785595 0.11620309
000380 e6 9b af bd b5 4b 14 3c 77 16 20 bd c6 5b 9c 3e
       -0.08574657 0.009051253 -0.039083924 0.30538768
000390 70 1b 37 bd 31 e7 c6 bb 0c a1 02 3d f3 a4 e9 3d
       -0.0447039 -0.0060700406 0.031891868 0.11408415
0003a0 ec 0a 0e 3d 58 45 39 bd 3f ef 2e bd bc 07 7b 3c
       0.034678385 -0.045232147 -0.04270863 0.015321668
0003b0 bd c2 12 bc a8 a9 34 bd 90 42 b1 bd 67 35 a5 bc
       -0.008957562 -0.04410711 -0.08655274 -0.020167066
0003c0 0f 1c ad bc 75 0b 8d bd d7 7d ba 3c c5 87 9d 3c
       -0.021131543 -0.06886951 0.022765083 0.019229779
0003d0 32 94 58 bb 55 ef 0c bd 69 b4 46 bd 93 ec 68 3e
       -0.0033047316 -0.034407932 -0.048511896 0.22746496
0003e0 b6 5e ac bd 49 49 cf bc d6 dd aa 3c 0c 5f 8d bd
       -0.08416502 -0.0253035 0.020857733 -0.069028944
0003f0 97 a9 ba 3c 5c 63 7f 3c 33 73 6a bd a5 d5 03 bc
       0.022785945 0.015587654 -0.05723877 -0.008046542

l3.weight f4 [7, 300]
000000 02 45 5a 3d 83 d1 7f bc d8 c2 3b 3b 27 b0 b5 bc
       0.053288467 -0.015613916 0.0028650071 -0.022178723
000010 09 54 42 bd cf 5d ba bb 95 d1 12 bc 69 c9 cf bb
       -0.047443423 -0.0056874524 -0.008961101 -0.0063411486
000020 84 3f 0f 3d 7d b3 07 3e 54 f5 8b bb 45 cf 0f bc
       0.034972683 0.13252063 -0.0042711888 -0.008777444
000030 56 b1 a7 3d ce 4b 24 3d a4 f6 0a bc d7 f6 aa 3e
       0.08188121 0.040111355 -0.008481655 0.3339145
000040 83 76 f1 bc f6 0d 97 3d 25 aa 1d bc 0e 94 19 3d
       -0.029475456 0.0737571 -0.009623085 0.03749471
000050 cf 8f 21 3d 58 52 3b 3f 09 90 57 bd 8a df 50 bd
       0.039443787 0.7317252 -0.052627597 -0.050994433
000060 ac cb 0a bd 6f 87 be 3c 93 a5 78 ba b5 08 02 3d
       -0.033885643 0.02325794 -0.00094851217 0.031746585
000070 f7 04 be bc 76 cf 16 3d 96 54 12 bb 2e 8a 97 3d
       -0.023195727 0.036818944 -0.002232825 0.073994026
000080 86 2f 9a 3d dd a4 0b 3d db 0a fb 38 1c a5 73 3d
       0.075285956 0.034092773 0.00011970635 0.059483632
000090 a2 8f e5 bc d0 98 45 3d 1b f2 fb ba 07 38 a3 3c
       -0.028022591 0.048241436 -0.0019221933 0.019924177
0000a0 94 84 71 3b 03 df 6a 3e 5a ff 65 bd 03 54 64 3a
       0.0036852704 0.22936635 -0.056151725 0.00087100285
0000b0 6d fd 09 3d 8d de 17 bd d0 35 b0 3d 83 5f 60 3d
       0.03368895 -0.037077475 0.08604014 0.054778587
0000c0 07 52 a7 bb 26 f8 10 3d 65 4b 19 bd f0 46 36 3c
       -0.005106214 0.035392903 -0.037425417 0.011125311
0000d0 fa 74 55 3d b6 f6 1d 3d 74 e6 f5 3d 6f 9f a1 3d
       0.05211351 0.03856536 0.12006846 0.07891738
0000e0 87 98 2e 3e 6f 61 a3 3d b7 7a 21 ba 20 39 37 bd
       0.17050372 0.07977568 -0.00061599485 -0.044732213
0000f0 7a 29 53 3d 30 29 3c 3e 3f 0c a6 3b 6f 86 a1 3c
       0.051553227 0.18375087 0.005067378 0.019717423
000100 10 b6 3d 3d ac 20 01 bd 23 e1 7f bc 21 fe c4 bb
       0.046316206 -0.0315253 -0.015617642 -0.00601174
000110 5d 0d 85 3d 16 4e 2a bd 26 89 96 3d d4 e3 77 3c
       0.064966895 -0.041578375 0.07350378 0.015130002
000120 7c c5 84 3d 5e a6 11 3d 54 21 0d bd 35 5d 8f 3c
       0.0648298 0.03555905 -0.034455612 0.0175005
000130 76 3d bf bc 07 26 a6 3d e3 32 69 3c eb f5 eb 3b
       -0.023344737 0.08112722 0.014233324 0.0072009466
000140 c3 91 61 3d fe af 2b 3d 41 bb 58 3d 39 ca cc 3c
       0.05507065 0.041915886 0.052912954 0.024998771
000150 cf 3e 22 3c dc 31 81 bb 63 27 6d 3c 08 68 cd 3c
       0.00990267 -0.0039427113 0.014474723 0.02507402
000160 8c 2c 0b bd dd a3 07 3d e2 42 5e 3e 73 44 77 bc
       -0.03397803 0.033115257 0.21705201 -0.015092003
000170 9d 61 91 bb 4e 60 12 3d d4 2a 01 bc ac 6e 74 3d
       -0.0044366852 0.035736375 -0.007883746 0.059675857
000180 50 55 b1 3d a7 b5 32 3b 2d cf 18 3d ce f2 1d 3d
       0.0865885 0.0027268918 0.037306953 0.038561635
000190 ad 3c 0d 3e c7 f9 a3 3c 26 68 28 3d af 19 30 bd
       0.13792677 0.020016564 0.04111495 -0.042993244
0001a0 e9 de c1 3c 1e 38 1a 3d 50 d6 c1 3c b9 f2 d8 bb
       0.023665862 0.037651174 0.023661762 -0.0066207317
0001b0 24 d4 7d 3b ba 21 66 3c 6f b7 b6 bc 92 f4 56 3d
       0.0038731182 0.014046127 -0.022304265 0.052479334
0001c0 7d 2b 8d 3d 28 27 b7 3c 84 58 f6 bc 31 eb 56 bc
       0.0689306 0.022357538 -0.030071504 -0.013117597
0001d0 c7 a2 25 3c 8e dd 13 3d b8 9e 34 3d 12 dd 5c 3d
       0.01010961 0.036099963 0.04409668 0.053921767
0001e0 40 ba bb 3c 2c a1 0f bd b9 de 53 3d 8f a5 ad 3d
       0.02291596 -0.035065815 0.051726077 0.084788434
0001f0 a9 ed 4a 3e e4 d6 88 bc 5d bc 85 3d 23 0c e4 3d
       0.19817223 -0.01670403 0.06530068 0.111351274
000200 d3 e6 6a 3d cb c8 72 3b 95 ec 1a bb 20 9e 3b bd
       0.057349037 0.0037045951 -0.002363955 -0.045805097
000210 a5 52 9d bc b8 78 32 3d 31 27 cd 3c 7b 60 e7 3d
       -0.019204447 0.043572158 0.025043102 0.11297699
000220 c6 eb 9d 3d 75 73 04 3e bd 2e 9a bc 90 e8 3f 3d
       0.07710986 0.12934668 -0.018821115 0.04685265
000230 96 5b 2e 3d e8 e8 37 3d f2 56 5d 3d 9e 23 93 3c
       0.042567812 0.04489985 0.054037996 0.01796132
000240 30 46 4c 3d 0a e5 66 3d c7 6b aa 3d f3 1a 67 3d
       0.049871624 0.056370772 0.08321338 0.056422185
000250 5d cb 0f 3d a5 9e 08 3d 22 c1 e3 bc 42 c9 5e 3d
       0.03510605 0.03335442 -0.027802054 0.054391153
000260 a9 f8 c4 3c e4 03 0e bc 84 d6 fa 3c 27 8b b7 bc
       0.024044352 -0.00866792 0.030619867 -0.02240522
000270 c3 0e 7b bc 5b 36 fa 3a e3 fb 6d 3d 3b 7e 61 3d
       -0.015323344 0.0019089686 0.058101546 0.055052023
000280 71 e3 50 bc 97 b9 af 3d 65 8f 16 bd 04 d3 05 bd
       -0.012749539 0.0858032 -0.036757845 -0.032671943
000290 38 7f 33 3c 92 79 5e 3d f8 95 c3 bc 08 9c 3c 3d
       0.010955624 0.054315157 -0.023875222 0.04604724
0002a0 a4 8f fe bc 64 4d 88 ba d0 81 b4 3d 07 1e b8 3c
       -0.031074353 -0.0010399041 0.08813822 0.022475256
0002b0 b4 fe 8b 3b e1 6b d3 bc 36 a5 1c 3d 4d 71 8b 3d
       0.0042723063 -0.025808277 0.038243495 0.0680872
0002c0 44 9b 87 bc a8 28 3d 3d 24 9a 76 3d 00 6d b2 3c
       -0.016553529 0.04618135 0.060205594 0.02178049
0002d0 70 b4 c3 bc 92 1b 5d 3d aa fd d8 3c 68 f7 bf bc
       -0.02388975 0.05398137 0.026488144 -0.023433402
0002e0 41 00 41 3c 22 17 de 3b f8 63 43 3c 36 90 ac 3b
       0.011779846 0.00677766 0.01192569 0.0052662147
0002f0 eb e2 6a bd f6 5a 1f bc 98 bc 3b 3d a5 16 8e 3d
       -0.057345312 -0.009726277 0.045834154 0.06937913
000300 9f fc 3e bc 5c d9 7c 3d 64 d2 76 3c 7e ee 12 3d
       -0.011656909 0.061730728 0.0150648095 0.035871975
000310 1d ae 17 bd a4 a4 07 bd 6b d4 fb bc bb b4 f3 3c
       -0.03703128 -0.033115998 -0.030740937 0.029749265
000320 c8 69 3b 3e 96 1d 97 3d 53 c0 7f bd eb 62 f7 bc
       0.18302071 0.0737869 -0.062439274 -0.030198535
000330 17 4d a6 3d bc 29 86 bb e7 9e 3b 3d a9 7a 40 3e
       0.081201725 -0.0040943306 0.045805838 0.18796791
000340 e7 6c 3b bd 66 1c 25 bd 6d 85 04 3d 86 a9 27 3b
       -0.045758154 -0.040310286 0.032353807 0.0025583222
000350 fd d1 84 3d d6 a5 ab bb 30 30 bf 3d 0a 27 dc 3c
       0.064853646 -0.005238275 0.09335363 0.026874084
000360 8d c1 87 3d 46 27 ab 3b bd 73 82 3e cc be fc 3b
       0.06628714 0.0052231876 0.25478926 0.0077131744
000370 76 3a 9a 3c 21 a2 cb 3c 40 b9 37 3c d1 af d6 bc
       0.018826704 0.024857583 0.011213601 -0.026206883
000380 e5 59 88 bd b3 64 7b 3c 1b d1 74 3c 86 dd 96 3e
       -0.06657771 0.015343833 0.014942433 0.29465884
000390 70 20 4b bd fc f1 87 3d f3 78 e8 3c 5a fa d1 3c
       -0.04959148 0.06637952 0.028377986 0.025632072
0003a0 c7 e8 2a 3c 63 a6 f5 bb 84 bf 02 bd b1 4e 55 b9
       0.010431475 -0.0074966415 -0.031920925 -0.00020342578
0003b0 7c 5d 8d bb 05 72 11 3d c4 89 73 3c dc aa f1 3d
       -0.0043141227 0.035509128 0.014864389 0.11800167
0003c0 08 b0 c1 bc 8d 40 10 bd c5 4c 12 3c eb 0c 64 3c
       -0.023643509 -0.03521781 0.008929436 0.0139190955
0003d0 65 6d 8b 3c 60 e5 45 3d 16 1d 31 3d 1c ce 81 bc
       0.017019937 0.048314452 0.04324063 -0.01584535
0003e0 de 7b 16 3c 3c a2 8d 3c 06 51 a3 3c 98 07 bc 3b
       0.009184806 0.017289273 0.019936096 0.00573821
0003f0 70 4a c4 bc c5 26 90 3c 86 b6 29 bd 67 58 34 3d
       -0.023961276 0.017596612 -0.041433834 0.04402962

l3.bias f4 [7]
000000 92 61 e2 bc d0 f5 42 bd 6a c4 ed bc 59 54 c3 3c
       -0.027634416 -0.047597706 -0.029024322 0.023843931
000010 3d 76 8c 3d d0 cb b0 bd 70 df 40 3d
       0.0685849 -0.08632624 0.047088087
