TD3_control/dir_Walker2D_002/biped-v7-2d-18_actor_t.pth (torch, 527895 bytes, 6 tensors)

l1.weight f4 [400, 24]
000000 c9 f1 38 c1 05 94 a8 be 97 5f e1 3c 7c 09 e2 3e
       -11.55903 -0.3292543 0.027511401 0.4414786
000010 73 6b 44 c0 31 6a a4 c0 d5 ad 5d bd e7 3e e2 3c
       -3.0690582 -5.137963 -0.054120857 0.027617885
000020 8f 94 47 bf 91 0e c3 be f6 e3 db 3e 5f 68 4d 3e
       -0.7796106 -0.3809705 0.42947358 0.20059346
000030 80 eb 42 3f 1d 2f 95 3e 56 ad ef bd a0 0e 1a bc
       0.76140594 0.29137507 -0.11702983 -0.009402901
000040 c6 47 9d bf 37 aa 2b be 15 ce 90 bf 41 ef 18 3e
       -1.2287529 -0.1676415 -1.1312891 0.14935018
000050 d8 26 0e bd ae ae c8 bc 36 a2 2a bf 22 d3 07 c0
       -0.034705013 -0.024497356 -0.66653764 -2.1222615
000060 ec 60 88 3f 99 50 4d 3f 82 6b 5e bf 72 00 e1 bf
       1.0654578 0.8020111 -0.86882794 -1.7578261
000070 64 15 09 c0 7e a8 a6 40 09 c6 3f be 6c c6 71 3c
       -2.1419306 5.208068 -0.18727888 0.01475678
000080 0a 95 f0 be cb 8c 5c be d5 f4 6a 3f 5f a1 af bd
       -0.46988708 -0.21538083 0.91779834 -0.08575701
000090 4f 4c bf bf ba 41 e7 3c 5a c7 c5 bd 8b a2 31 3e
       -1.4945163 0.028229583 -0.09657164 0.17347161
0000a0 a5 2f 0e c0 45 c1 09 3f 62 cf ea bf 48 2b 3c be
       -2.221658 0.5381053 -1.8344538 -0.18375885
0000b0 0d b0 ab 3d b8 ef 00 be fc ca 92 3e f0 26 4c c0
       0.083831884 -0.12591445 0.2867049 -3.1898766
0000c0 a4 06 f0 3f 7b bf 77 3e 1b 3e c4 bf 5e 93 09 3e
       1.8752027 0.24194138 -1.5331453 0.13435122
0000d0 ce ec 10 c0 75 ba e6 bf 7b 37 b8 bd 63 19 bb 3d
       -2.2644534 -1.8025652 -0.08994957 0.091357015
0000e0 95 17 8a 3f 9c 6c 25 bf e8 47 cf 3f 7b ed a7 bd
       1.0788447 -0.6461885 1.6193819 -0.08199593
0000f0 c7 49 8e bf 10 69 a5 bd 7d 09 25 3e aa 15 02 3e
       -1.1116265 -0.0807668 0.161169 0.12703577
000100 95 cb 7d 40 eb 2c 55 3f c7 b4 f7 bf 6d d8 0a 3f
       3.9655507 0.83271664 -1.9352044 0.5423649
000110 3c ea 21 3e fc e6 42 3e 0b a5 6b c0 87 79 d6 3e
       0.1581201 0.19033426 -3.6819484 0.41889593
000120 3c 92 39 c0 a0 de 56 bf 8e ea 50 c0 2d 9f c0 bf
       -2.8995504 -0.8393345 -3.264316 -1.5048577
000130 29 49 4e 3f b2 52 98 c0 8a 8f d5 bc 4f 29 a5 bd
       0.80580384 -4.7600946 -0.026069421 -0.080645196
000140 58 60 df be 9e 2f 92 3d 2e 60 c8 3d 74 01 b0 bd
       -0.43628192 0.071379885 0.0978397 -0.08594027
000150 da d3 a7 3e e1 b1 20 3c 21 3a e3 3c c8 fe 13 be
       0.32778817 0.009808035 0.027737679 -0.1445266
000160 ca 9f b6 bf 6d 71 fb 3e 74 9b 57 c0 87 b0 a7 3e
       -1.4267514 0.49109975 -3.368863 0.32751867
000170 6a 13 0c 3e 89 9b 4b bd 16 b9 b7 be 42 51 b5 bf
       0.13679281 -0.049708877 -0.35883397 -1.4165423
000180 05 7a 8f be dc eb 75 3e b3 4b 84 3e 24 3e 80 3e
       -0.2802278 0.24015754 0.25839004 0.2504741
000190 8f b0 9e 3b 65 5a 44 c0 ec c7 38 3e 0c 4f 5b bd
       0.004842825 -3.0680172 0.18045014 -0.05354218
0001a0 1e 08 0a 3f 93 01 5e be 6b 63 35 c0 38 50 42 3f
       0.53918636 -0.21680288 -2.834193 0.75903654
0001b0 f0 93 a0 bf 8d db bf 3d 77 55 b1 bc 8f e0 4a be
       -1.2545147 0.09368048 -0.021647198 -0.19812225
0001c0 51 e6 d7 40 6f f2 45 3f 86 d1 9c bf 9c 32 1e bf
       6.746865 0.7732305 -1.2251441 -0.61795974
0001d0 4e be d7 bd 4d be be bd 61 4e 29 bf 57 0c aa 3f
       -0.105343446 -0.09313641 -0.6613522 1.3285016
0001e0 4f 72 38 40 d0 b8 41 c0 74 cb cc 3f e6 fb bf 3f
       2.8819768 -3.026905 1.5999589 1.4998748
0001f0 49 36 45 bf b6 9e 2f 41 b1 fc 2e be f0 8b e1 bd
       -0.7703596 10.976248 -0.17088582 -0.11013019
000200 80 b1 a9 bf f8 40 80 bd ff 7f ab bf ba 3d c6 be
       -1.3257294 -0.06262392 -1.3398436 -0.3871897
000210 53 59 aa bd 5b 4c 90 3d f5 03 08 3e 71 dd ac 3d
       -0.083178185 0.07045814 0.1328276 0.08440674
000220 64 13 3a bc 1b 0f 14 bf 1b 1c 0e c0 b7 70 f1 3e
       -0.011357162 -0.5783555 -2.2204654 0.47156307
000230 7e 2b d6 bc 9c 9c 43 3e 57 42 d8 3d 9b c4 11 3f
       -0.026143786 0.1910271 0.10559528 0.5694062
000240 b4 82 8a 40 25 68 73 3f 4b 03 54 be 6a 17 22 40
       4.328455 0.95080787 -0.20704381 2.532679
000250 8b 27 06 40 5c dd 1b 3f b7 14 dc 3d 9f 1a 44 be
       2.0961635 0.6088464 0.107461385 -0.1915078
000260 8c 0f 71 3f 26 8b bb be 65 5d 0c 40 c7 dc ac 3e
       0.9416435 -0.366296 2.1932003 0.3376219
000270 89 42 3f bf e3 8d 88 3d df 55 c5 bd 59 1d e3 bd
       -0.747109 0.06667688 -0.09635519 -0.11089582
000280 4a 14 ae c0 40 39 14 3f 49 6b 14 bf 72 3d 64 3e
       -5.4399767 0.57899857 -0.57976204 0.22289065
000290 bd ef 66 3d f4 99 12 3e ba c5 0d bf 75 ba 58 c0
       0.056380976 0.14316541 -0.5537983 -3.3863804
0002a0 8b 61 ec bf 6c 73 85 3f bd d5 ad be 9b ed ba bf
       -1.8467268 1.0425849 -0.33952132 -1.4603761
0002b0 6a 26 02 c0 60 ca ce 40 22 49 ab 3b e0 56 24 be
       -2.0335946 6.462204 0.005227224 -0.16048765
0002c0 28 07 84 bf 6c 54 e9 be c0 53 d7 c0 54 c0 2b 3f
       -1.0314684 -0.4557222 -6.7289734 0.67090344
0002d0 fa 98 4d bf e5 5e b4 be 09 31 12 be f2 ae e0 bd
       -0.8031155 -0.3522865 -0.14276518 -0.10970868
0002e0 1f 35 ec be cf 7b c9 be 47 93 c8 be ae e3 9e 3d
       -0.46134278 -0.3935227 -0.39174864 0.0775827
0002f0 2e 75 29 bc 16 fa 1e be 05 36 a2 3e 3e 18 74 be
       -0.010342879 -0.15525088 0.3168184 -0.23837373
000300 37 35 0f 40 a8 8a 5b 40 1b 54 7b bf 81 b8 ba bf
       2.237623 3.430338 -0.9817521 -1.4587556
000310 ef e5 97 c0 9b db 53 3f 6a e6 35 3e 72 48 a2 bd
       -4.746818 0.82756966 0.17763677 -0.07923974
000320 61 63 a2 bf e9 d3 4c be f8 12 7c c0 40 cc 42 be
       -1.2686578 -0.20002712 -3.9386578 -0.19023228
000330 5e 96 61 be dc 75 db 3e 16 75 32 be 97 f6 ab bd
       -0.22030017 0.42863357 -0.17427477 -0.08396643
000340 8a fd af bf 03 f4 25 3f 5c 59 66 bf 15 7a 06 3f
       -1.3749249 0.6482546 -0.899801 0.5253003
000350 20 6e 3f bc eb 39 a0 bd f3 36 af c0 8b 3e 2a be
       -0.011683971 -0.07823547 -5.4754577 -0.16625421
000360 60 cf dc 40 cc a2 9c 3f b8 bc 15 3f fa b9 9e bf
       6.9003143 1.2237182 0.58491087 -1.2400506
000370 9c b8 79 3f 3a 6f a2 bf b1 83 46 3d 44 ae f3 3d
       0.97547317 -1.2690194 0.048465434 0.11898473
000380 86 82 05 bf 3c ca 05 be d6 1a 25 40 68 fa ba 3e
       -0.5215229 -0.13065428 2.579763 0.3651917
000390 d5 62 88 c0 6f fd 34 bf 7e d3 90 3d 0a 4b 27 3e
       -4.2620645 -0.7069921 0.07071589 0.16337219
0003a0 bb b1 ca bd 3e c1 9b be 06 18 0f bf 60 f9 03 be
       -0.09897181 -0.3042087 -0.5589603 -0.12888098
0003b0 86 33 99 3d 07 87 80 bd ad 85 63 bf 8c ba d6 bf
       0.074805304 -0.062757544 -0.8887585 -1.677568
0003c0 0d 1d 62 40 14 f3 c7 3f 99 5a 24 bf 2f a7 50 c0
       3.533023 1.5621057 -0.6420074 -3.260204
0003d0 dd ba 4d 3f 55 b5 b2 40 24 2a b6 bd 82 6c f1 3d
       0.80363256 5.5846353 -0.088947564 0.11788274
0003e0 ad d5 f3 bf d4 aa fc bd aa 5b 6c c0 d6 43 97 bc
       -1.9049584 -0.123372704 -3.6930947 -0.018464964
0003f0 96 37 e1 bf 1d c4 2a 3e 60 67 a4 3d 8c 38 99 bc
       -1.7595088 0.16676374 0.0802753 -0.018703721

l1.bias f4 [400]
000000 bf 29 f4 be ad da 14 c0 7d ed a3 bf 3e 46 89 bf
       -0.476881 -2.325847 -1.2806851 -1.0724561
000010 36 21 71 bf 6e 83 b6 3f cd 77 62 bf ec 57 06 bf
       -0.941913 1.4258859 -0.8846405 -0.5247791
000020 1d d0 ea bf 1e 5d 49 bf 8a 62 45 bf 66 9e 2b bf
       -1.8344761 -0.7865771 -0.77103484 -0.6703857
000030 c4 a3 cb be 70 f2 cb bf 23 7e 3a 3d 53 ec e7 bf
       -0.3977338 -1.5933361 0.04553045 -1.8118995
000040 1a a6 88 bf 1d 06 7a bf 36 22 9d bf f4 14 a9 bf
       -1.067569 -0.9766558 -1.2276065 -1.3209519
000050 c0 8f 93 bf c7 40 01 bf 3b d5 02 bf 77 ed 2a c0
       -1.1528244 -0.5048947 -0.51106614 -2.6707437
000060 b2 fe a0 bf 9c 3a 72 bf 74 4b 22 c0 11 c9 04 c0
       -1.2577727 -0.9462068 -2.5358553 -2.0747721
000070 6d e4 89 bf 60 95 a3 bf 2e 6b c0 be 2e 27 9b bf
       -1.0772835 -1.2779961 -0.37581772 -1.2121332
000080 5b 57 1f c0 4b 0f e1 bf 85 50 31 c0 55 40 a9 bc
       -2.4897068 -1.7582792 -2.7705395 -0.020660559
000090 d7 04 a7 bf d2 bf 0e 3e b5 76 91 bf b9 20 0a bf
       -1.3048352 0.13940361 -1.1364352 -0.5395618
0000a0 9c 2b 22 3e 0a b8 48 3e 36 90 39 bf d9 1a fe 3e
       0.15836948 0.19601455 -0.72485673 0.49629858
0000b0 9e e5 94 bf e4 63 aa bf 21 8e 4b c0 b4 81 2a bf
       -1.1632574 -1.3311734 -3.1805499 -0.6660416
0000c0 94 97 df bf 28 c8 31 bf 83 60 f3 bf 86 4e a7 bf
       -1.7468133 -0.6944604 -1.9013828 -1.3070838
0000d0 0e be bf bf 52 46 e8 bf 12 e5 82 bf ac 8b 05 be
       -1.4979875 -1.814646 -1.0226157 -0.13041562
0000e0 c9 58 92 bf 09 28 5e bf ee 18 95 bf af f9 ad be
       -1.1433345 -0.8677984 -1.1648233 -0.33979556
0000f0 2b 1d 16 be 78 ac 03 c0 82 6d a3 bf 4f 99 8f 3e
       -0.14659564 -2.0574017 -1.2767794 0.28046653
000100 b6 51 93 bf 42 80 1d c0 af 53 26 c0 60 30 86 bf
       -1.1509311 -2.4609532 -2.5988576 -1.0483513
000110 91 1c 57 3e a7 46 b8 bd 27 f9 8e bf 03 19 21 bf
       0.21006991 -0.08997851 -1.1169785 -0.6292879
000120 49 94 6c bf cb 4e e5 bf 4a ee 37 bf fd a7 0b c0
       -0.92413765 -1.7914671 -0.71847975 -2.1821282
000130 9d 25 f7 bf dd fd 7d be c7 9e ae bf 9d 09 8b bf
       -1.9308354 -0.24803872 -1.3642205 -1.0862309
000140 4c b7 0f c0 43 07 06 c0 95 62 e1 be 07 39 99 3c
       -2.2455626 -2.0941932 -0.44020525 0.01870395
000150 f0 37 1a c0 5e 38 11 c0 3d f2 69 bf 6d 51 99 bf
       -2.4096642 -2.2690654 -0.9138525 -1.1977974
000160 c7 59 cf bd 6e d8 39 c0 e2 e7 8e bf d3 0f b9 bf
       -0.101245455 -2.9038348 -1.1164515 -1.4457954
000170 ea ef d4 bf 96 6b 03 bf 0d e5 ea bf 39 ee cd bf
       -1.6635716 -0.5133604 -1.8351151 -1.6088325
000180 9b 5e c3 be 24 89 7d bf 59 da ce bf 72 3a 05 c0
       -0.38158116 -0.99037385 -1.6160384 -2.0816922
000190 5c e0 a4 bf f4 82 20 3d b0 d1 16 3e 0e 74 16 bf
       -1.2880969 0.039187387 0.14728427 -0.58770835
0001a0 06 b4 8c bf d3 76 e6 bf 2f 98 ad bf 05 83 ef bf
       -1.0992439 -1.8005012 -1.3562068 -1.8711859
0001b0 cd 5f 9f bf bc c7 61 3e cd ed 08 bd 2d 91 05 bf
       -1.2451111 0.22048849 -0.03342991 -0.52174646
0001c0 eb ff 1f c0 5a 9f 17 c0 d4 a2 5d bf 18 83 8b bf
       -2.499995 -2.369101 -0.8657658 -1.0899382
0001d0 05 89 ce bf 97 93 d0 bf 2e 57 30 3c 6f c3 b4 bf
       -1.6135565 -1.6295041 0.010762973 -1.4122142
0001e0 44 e5 7a bf 6a 8e dd bf 23 5f 6b bf 56 1b 82 bf
       -0.9800608 -1.7309086 -0.9194204 -1.0164592
0001f0 1d 3a be bd df 6a 2b c0 a7 53 d6 bf 1e 4e d3 bf
       -0.09288428 -2.678398 -1.6744279 -1.6508214
000200 d1 82 9f bd 6f de b0 bf bf d5 9c bf ad d2 65 bf
       -0.07788623 -1.3817881 -1.225273 -0.8977459
000210 88 48 8f bf 1c bc 30 3d 8b 14 92 bf 0a 92 23 bf
       -1.119401 0.043148145 -1.1412519 -0.6389471
000220 ff ff a7 bf ce ea 02 c0 fa 41 d1 bf 43 37 fc 3e
       -1.3124999 -2.0455813 -1.634826 0.4926091
000230 4e ac 95 bf 09 34 f3 bf b0 2f f0 bf ef 9b a8 bf
       -1.1693208 -1.9000255 -1.8764553 -1.3172587
000240 30 17 50 bf 53 55 d9 be 09 74 cb bf c1 9b bf bf
       -0.8128538 -0.4244791 -1.5894786 -1.4969407
000250 83 c1 98 bf d3 d2 79 3e 34 2a 2e 3f 4a a1 81 3f
       -1.1934055 0.2439683 0.68033147 1.0127347
000260 bc 8b 9c bf 12 c9 fa bf 45 31 bf 3e 8e f0 bc be
       -1.2230144 -1.9592612 0.37342277 -0.3690228
000270 c5 5c 31 c0 f7 af a0 bf 52 6b 5d bf 09 07 cb be
       -2.7712872 -1.25537 -0.8649188 -0.39653805
000280 3c 39 82 be fe 0b 90 bf 17 ab 8e bf 9f e1 ad bf
       -0.2543429 -1.125366 -1.1145962 -1.3584479
000290 c5 c8 84 bf c3 62 ed bf c3 31 89 bf cc 42 15 c0
       -1.037377 -1.8545765 -1.0718311 -2.332202
0002a0 b6 25 dd 3d 21 87 c3 bf d7 a4 43 bf a3 76 7f 3e
       0.107982084 -1.5275613 -0.764234 0.249476
0002b0 c5 86 bb 3d 8f 12 dc bf 66 90 7a bf 24 9f d2 bf
       0.091565646 -1.7193164 -0.97876585 -1.6454816
0002c0 aa d3 cb bf f8 5d 0b 3f 60 08 82 be 33 4b ac bf
       -1.592397 0.5444026 -0.25397015 -1.3460449
0002d0 56 80 92 bf d8 ab 85 be c2 03 8c bf 6c 57 71 bf
       -1.1445415 -0.2610767 -1.0938647 -0.9427402
0002e0 8f 58 d0 bf df 64 9c 3f 45 06 89 bf 27 34 a0 bf
       -1.6277026 1.2218283 -1.0705038 -1.2515916
0002f0 4c a8 19 bf 52 e5 79 bf ac e9 27 bf 68 e5 4a be
       -0.60022426 -0.9761554 -0.6559093 -0.19814074
000300 50 83 2a bf 5a 9d d4 bf 8d bb 3c bf 74 d2 bd bf
       -0.66606617 -1.661052 -0.7372368 -1.482985
000310 1e e4 fd be f3 96 fa be 53 11 e6 bf 1d 2a 53 bf
       -0.49588102 -0.4894329 -1.7974037 -0.82486135
000320 f9 00 25 be 92 c5 c1 bf a8 13 20 3c c8 8a d6 bf
       -0.16113652 -1.5138419 0.009770311 -1.6761103
000330 4a 8b fe be c7 52 3e bf fb c5 62 bf 99 a8 cb 3f
       -0.49715644 -0.7434506 -0.88583344 1.5910827
000340 82 82 27 c0 5b 5d a9 bf 78 28 45 3f 8a 8e c3 bf
       -2.6173406 -1.3231615 0.77014875 -1.5277874
000350 73 e7 83 bf 8e de d7 3f fa 9c b9 bf b6 ea ca bf
       -1.0305008 1.6864793 -1.450103 -1.5852878
000360 55 ed a6 bf 02 cf 5c bf 96 2f 94 bf a3 7b a8 bf
       -1.3041178 -0.8625337 -1.1577022 -1.3162731
000370 50 a8 7a be db ad 9a 3f 88 48 cc be 17 6e 18 c0
       -0.24478269 1.2084306 -0.39899087 -2.3817194
000380 4f e7 39 c0 53 03 ec bf a9 2c a0 bf 97 c0 0b bf
       -2.904743 -1.8438514 -1.2513629 -0.54590744
000390 22 da 2e c0 cd 34 96 bf ab 19 f0 bf a3 71 52 be
       -2.7320638 -1.1734864 -1.8757833 -0.20551161
0003a0 bc db 79 bf 62 d6 08 c0 13 7d 83 3f 53 e3 f2 be
       -0.97600913 -2.138085 1.0272545 -0.4743906
0003b0 59 3c 06 bf 49 21 c5 bf 57 39 a4 bf 4c e7 41 bf
       -0.52435833 -1.5400783 -1.2829999 -0.75743556
0003c0 f1 4b ca bf 1c 70 fd be 04 ea dc bf d3 5e 47 3e
       -1.5804425 -0.49499595 -1.7258916 0.19469766
0003d0 b8 f1 3b c0 10 90 1a c0 79 d2 31 bf 2e 61 a2 bf
       -2.9366283 -2.4150429 -0.6946178 -1.2685907
0003e0 82 2a 5c bf bf 3f 82 bf fe 31 eb 3e c7 38 a6 bf
       -0.8600236 -1.0175704 0.4593658 -1.2986077
0003f0 87 1b 9e bf ae 25 95 bf f8 d4 e2 3e f9 12 fe bf
       -1.2352151 -1.1652124 0.44303107 -1.984954

l2.weight f4 [300, 400]
000000 19 6a cf bc db 24 e6 bc 45 23 9b 3c a3 bb 66 bb
       -0.025319146 -0.028093746 0.018937716 -0.0035207055
000010 90 b9 32 bb 93 1d 65 bd d4 ce 87 3c 6d 8e 8f bc
       -0.0027271248 -0.055936407 0.016578116 -0.017523969
000020 9f d8 2b bd 55 66 2b bd 90 2f 30 bd bf f5 af bd
       -0.041954633 -0.04184564 -0.04301411 -0.08591794
000030 ff c2 ac bc ec 2f 73 bc e5 78 87 bb 88 a5 30 bd
       -0.021089075 -0.014842968 -0.004134285 -0.043126613
000040 34 59 7f bd a6 5b a8 3c d9 5e d4 3c bd f3 fe bc
       -0.06234093 0.020551514 0.025924133 -0.031122083
000050 44 3d 06 3d 96 b9 96 bd 56 e8 22 bd 7e 96 a9 3b
       0.03277327 -0.073596165 -0.039772354 0.005175411
000060 1b 58 eb bb 15 33 89 bd 2b a2 e1 bd f2 67 d6 bc
       -0.007182134 -0.06699196 -0.11017259 -0.026172612
000070 63 d5 69 bc 98 35 c5 3c 3d 4a 0b bd f8 93 bb bd
       -0.014272067 0.024073407 -0.034006346 -0.09159082
000080 fa df 58 bd 40 37 bb 3c ad 6d 09 bc 27 9b 2c bd
       -0.052947976 0.022853494 -0.008387965 -0.042140152
000090 d3 11 68 bd df d4 35 bc e1 95 4c bd 7e d8 1e bc
       -0.056657623 -0.011098116 -0.049947623 -0.00969517
0000a0 1a 6a e8 3c f5 f9 11 3d 40 f1 cf 3b 29 db 4b bd
       0.028370906 0.03563877 0.006345898 -0.049769554
0000b0 42 32 da bb ee 80 a4 3c 65 65 84 bd 4f 1f 21 bd
       -0.006658823 0.02008101 -0.06464652 -0.0393365
0000c0 c6 92 97 bd e5 cf 85 bc 47 15 2e bd 22 6c ed 3c
       -0.07401042 -0.016334483 -0.04250076 0.028982226
0000d0 17 2d 3c 3c 49 42 4c bd d0 52 c0 3c 55 47 0f bd
       0.01148536 -0.049867902 0.023476988 -0.034980137
0000e0 26 0e 9e bc fd e5 89 bc f7 2c 2f bd 32 2f 54 bd
       -0.019293856 -0.0168333 -0.04276749 -0.05180282
0000f0 16 4f 95 bb c2 ec 6f 3b 16 b8 a9 3c dd 44 82 bd
       -0.004556547 0.0036609625 0.020717662 -0.06360791
000100 d8 c2 bb bc 83 0e fa 3b 3b 35 69 bd e6 65 9f bb
       -0.022920057 0.0076311245 -0.05693553 -0.004864442
000110 a5 0d 83 bd 6e 63 12 bc a5 b8 8c bd 04 b6 f5 bc
       -0.06399087 -0.008934839 -0.06871156 -0.029994018
000120 e6 07 1e bd fb 2d 65 bd c6 c6 9f bd 0d f5 8d bb
       -0.03858175 -0.055952054 -0.07801585 -0.004332191
000130 29 d1 55 3c 53 6e 63 bd 3b 6a 75 3b 90 ec 36 bd
       0.013050356 -0.055525135 0.0037447351 -0.044659197
000140 cc ec 05 3c 75 b3 0a bd 02 3d 53 bd 67 87 a7 ba
       0.008174133 -0.03386255 -0.051571853 -0.0012781442
000150 27 9f 17 bd 35 c3 17 3d 17 c9 22 bd 2f 24 a8 ba
       -0.037017014 0.0370514 -0.039742555 -0.0012828166
000160 bd 95 0d bd b6 3a 1b bd d4 35 14 3d 01 b2 4c bd
       -0.03456663 -0.037897788 0.036184147 -0.049974445
000170 33 a7 25 3a 22 ca ee 3b 06 a4 aa 3c b1 1f 48 bd
       0.0006319165 0.0072872797 0.020830166 -0.04885835
000180 cc 20 f5 bc ae 1e 12 bd 07 c8 3d 3a aa 9f d7 bc
       -0.029922865 -0.03567379 0.0007239584 -0.026321251
000190 45 56 1f bd 4a 71 59 bd f6 3a 1c bd 72 3a 68 3c
       -0.038900632 -0.053086556 -0.038142167 0.014174091
0001a0 e7 4d bc 3c 42 86 65 3b ce cc 9b bb b0 ce c8 3c
       0.022986365 0.003502265 -0.004754639 0.024512619
0001b0 ef 37 ac bc be 15 1a bd 00 87 36 bd 39 78 49 bd
       -0.021022765 -0.03761839 -0.04456234 -0.04918692
0001c0 09 9a 4d bd b7 61 21 bd 25 75 11 3c ca ec b3 3c
       -0.050195727 -0.03939983 0.008878027 0.021963496
0001d0 e5 94 28 3d be dd 9a bc 53 80 80 bd b6 cd 28 3d
       0.041157622 -0.018904563 -0.06274476 0.041211806
0001e0 70 78 b4 bd 39 4d cc bc 53 e1 6d bd e2 03 5c bc
       -0.08812034 -0.024939166 -0.058076214 -0.01342866
0001f0 4c ab f9 bc f3 44 00 bc 77 3e aa bc a6 06 19 bd
       -0.030477189 -0.007828939 -0.020781739 -0.037359856
000200 d1 cf c0 bc ec 28 f0 bc 13 82 67 bd db 3f 6e bd
       -0.023536595 -0.029316388 -0.056520533 -0.058166366
000210 3a 4b dd bc 4d 91 0e bd 77 7a a0 bc 77 71 2e bd
       -0.02701341 -0.03480654 -0.019589646 -0.042588677
000220 e2 d0 57 bc 88 d2 4e 3c c1 03 4f bd 20 36 44 3c
       -0.01317236 0.012623437 -0.05054069 0.011975795
000230 0d 0d 0a bd 7f 4c ad bd d5 da 40 3d c5 13 0f bd
       -0.033703852 -0.08461856 0.047083694 -0.034930963
000240 5a ae e6 3c f2 c6 db bc 68 0f 3c bd 09 1d 4d bd
       0.02815931 -0.026828263 -0.04591313 -0.05007652
000250 32 00 80 3b ad 70 07 3c 6a 0d e6 3b 11 44 50 3a
       0.0039062733 0.00826661 0.007020642 0.0007944713
000260 7e 5e 11 bd 2d d5 17 3d 7e fb 94 bd 9c e4 f7 bc
       -0.035490505 0.037068535 -0.07274531 -0.030260377
000270 4d c1 1a bd b4 bf 09 3d 9a cf d5 bc eb a8 fc 3c
       -0.037782002 0.033630088 -0.026099969 0.030842265
000280 3c 37 8a bb 60 9b b0 bc 4d c0 82 bb d1 13 57 3c
       -0.00421801 -0.021558464 -0.003990209 0.013127283
000290 51 dd 44 bd ea da 63 3c 16 54 90 bd d2 ff 51 bc
       -0.048062626 0.013907174 -0.07047288 -0.01281734
0002a0 51 9b 4f bd 59 08 d8 3c 60 19 35 bd e7 10 a9 bc
       -0.05068523 0.026371168 -0.044213653 -0.020637942
0002b0 9b 40 f1 3b 48 dc c3 3b a9 42 41 bd 0d 6b 0b bd
       0.007362438 0.0059771873 -0.047182713 -0.03403764
0002c0 5d c8 83 bc a8 af 33 3d 05 f7 18 3d 37 54 b6 3b
       -0.016086752 0.04386869 0.03734495 0.0055642384
0002d0 6d 79 1f 3d 19 c3 d5 3c c4 35 81 3a 5d 06 82 bd
       0.03893416 0.026094006 0.0009857942 -0.0634887
0002e0 dd 13 86 bc b5 d1 86 bd dd 42 93 3c 88 d6 45 bb
       -0.016366893 -0.06582967 0.017976219 -0.0030187685
0002f0 61 7b 46 bd f3 43 f5 3c 03 08 35 3d a8 89 4a 3c
       -0.048457507 0.029939627 0.044197094 0.012361921
000300 0f 54 ac bc 87 ae c1 3c 7c 5a 81 3b 7d 32 10 3c
       -0.021036176 0.023642791 0.003947554 0.0088011
000310 32 17 58 bd d6 25 9f bc 85 56 87 bb 5e 17 94 bd
       -0.052756496 -0.019427221 -0.004130187 -0.072310194
000320 2a 59 50 bd 91 10 4a 3d f9 e7 46 bd 20 10 42 39
       -0.050866283 0.049332205 -0.04856107 0.00018507289
000330 28 82 c5 3c ac 40 04 3a 32 f9 5c bd a9 29 41 bd
       0.024109915 0.0005045037 -0.05394859 -0.04715887
000340 d3 89 ed bb 37 94 a3 bd 0e 2c 22 3c f1 56 c4 bc
       -0.007249096 -0.07987254 0.009898199 -0.023967238
000350 76 28 9d bd 36 dd 1b bd 8e 37 9e bd ca 65 5d bd
       -0.07673733 -0.03805276 -0.0772544 -0.05405215
000360 63 90 68 bd 8e f9 1f bd b3 b6 65 bd 06 e7 23 3c
       -0.056778323 -0.039056353 -0.05608244 0.010003811
000370 c1 72 c9 ba e3 62 fa 3b 57 f0 a9 bc f9 8c 51 3c
       -0.0015369282 0.0076411827 -0.020744486 0.012789958
000380 f1 87 40 bd 56 e1 9f bd e7 f6 24 3c 91 be df 3c
       -0.047004644 -0.07806651 0.010068632 0.027312549
000390 f1 8f c7 bc c4 33 f9 bc df f8 af bc 4c d4 07 3d
       -0.024360629 -0.030420192 -0.021480976 0.033161446
0003a0 05 49 03 bd 31 07 ca bc 67 73 bc 3c 0d 33 0c bd
       -0.03205206 -0.024661632 0.023004247 -0.034228373
0003b0 16 ff 19 bd ea d8 db bc 2e cc 25 bd 7f 7c 25 bd
       -0.037596785 -0.026836831 -0.040477924 -0.04040193
0003c0 0b f0 60 bd d5 f0 12 bd 8e 66 92 bd 20 e3 02 3d
       -0.054916423 -0.035874207 -0.07148467 0.031954885
0003d0 d0 a6 32 bd 44 bb 0a 3d e3 db ca bc 96 46 a5 3b
       -0.043616116 0.033869997 -0.024763053 0.005043815
0003e0 e3 51 68 bd 1e b0 9f bd 8d 23 f9 bc 57 c9 a3 bc
       -0.05671872 -0.077972636 -0.03041246 -0.019993467
0003f0 b1 99 55 bc 08 ed bb bc 2e 2b 12 bd 47 ce 24 bd
       -0.013037131 -0.022940174 -0.03568571 -0.040235784

l2.bias f4 [300]
000000 78 78 b1 bd 30 bf 3c be 02 9f 75 bf c3 6e 6b bd
       -0.08665556 -0.18432307 -0.9594575 -0.057478677
000010 60 97 39 be 2b 2d fe 3d 61 c6 c6 bc c8 28 ca 38
       -0.18124151 0.12410959 -0.024264516 9.639707e-05
000020 42 73 7d bd 52 b0 58 be fc 96 f9 bb ed fb 83 bd
       -0.061877497 -0.21161011 -0.0076168757 -0.064445354
000030 79 76 c2 ba c4 fc fd bd 98 69 b4 be 14 86 65 bf
       -0.0014836333 -0.12401727 -0.35236812 -0.8965771
000040 e4 80 0e 3d ad 66 86 bd cd 4a 07 bd 93 3e ec be
       0.03479089 -0.065625526 -0.03303032 -0.4614149
000050 d9 d3 4d bf 97 7d 80 bd 29 1e c5 bd 6c 68 f4 bc
       -0.8040138 -0.06273954 -0.09624893 -0.029834948
000060 c9 c5 4d bd 2d 3b 07 bf 94 17 ff bc 31 05 42 bd
       -0.05023745 -0.5282467 -0.031139173 -0.047368232
000070 d5 2a 81 bc 92 47 84 be 48 e7 3d bd 13 e8 ef bc
       -0.015767494 -0.25835854 -0.046363145 -0.029285466
000080 10 d3 b4 bd 2a 49 5b bd da 0d d5 bd 29 fa ca bd
       -0.088293195 -0.05353657 -0.104030326 -0.099109955
000090 7a 2a 57 bd ed 58 81 bd 20 0c b2 bd 21 62 45 be
       -0.052530743 -0.06315789 -0.08693719 -0.19275714
0000a0 b1 24 be be f0 3a 38 bc 9b a9 ec bd 01 1b c8 bd
       -0.37137368 -0.011244521 -0.11555787 -0.097707756
0000b0 06 8d f7 bd be dd 1a bd a5 e2 85 bf 78 a1 3f bf
       -0.12087445 -0.037809126 -1.0459791 -0.74855757
0000c0 09 9d c0 bd 8d da 07 bf c5 4a 8a bc 48 4f 35 bd
       -0.09404952 -0.5306786 -0.016881356 -0.04426506
0000d0 23 56 00 bd 16 55 94 bd 68 51 31 bf 5b 3f ec be
       -0.031332146 -0.07242791 -0.6926484 -0.46142086
0000e0 08 d9 36 bd 72 f2 da bd e9 89 4b bd cd 58 0d be
       -0.04464057 -0.10690774 -0.04969207 -0.13803406
0000f0 57 46 a4 bf a2 d2 5e bb 1f 61 37 3d 8a 65 5c bd
       -1.2833966 -0.0034000059 0.044770356 -0.053807773
000100 a3 1f e7 bd e8 51 b3 bd dc 25 03 3d 42 4f d1 bd
       -0.11285331 -0.08755857 0.032018527 -0.10220195
000110 9e 1e 98 bd 6f 55 be bc bf 36 21 bc 7a 62 d6 bc
       -0.07427715 -0.023234097 -0.009839713 -0.026170004
000120 12 20 56 bd 82 5e dc bd fd a1 8c bd 27 21 38 3c
       -0.05227668 -0.107602134 -0.06866834 0.011238373
000130 ff 00 ab bd 6e 7c 12 bf 3c c4 7f bc 21 67 35 bf
       -0.08349799 -0.57221115 -0.015610751 -0.7086049
000140 fe 08 99 bd 21 89 cb bd 75 a0 89 bd ad cc 29 bf
       -0.07472418 -0.09938265 -0.06720058 -0.66327935
000150 47 0c a3 bd 68 65 b6 bd c5 e1 0e bc 2b 25 61 bd
       -0.07961326 -0.089060605 -0.00872082 -0.054967087
000160 11 1c c6 bd fd 09 04 bd 40 ab b1 bd 12 2d 58 be
       -0.09673322 -0.032236088 -0.086752415 -0.21110943
000170 8e fd 96 bd 4b 04 e7 bc d0 07 1e be 06 8c 15 bc
       -0.073725805 -0.02820029 -0.15432668 -0.0091276225
000180 18 bd bd bd 42 08 2d bd 2b 06 e2 bc 1f 60 a4 bd
       -0.092645824 -0.042244203 -0.027590832 -0.08026146
000190 75 16 07 bd fe 75 c0 3e fd b1 81 bd d0 8a bf bf
       -0.0329804 0.3759002 -0.06332777 -1.4964237
0001a0 2e 9a bd 3f 51 4f 4b bd 26 77 99 bd 33 2f bc bd
       1.4812677 -0.04963619 -0.07493429 -0.0918869
0001b0 62 dd 57 be 0b 22 61 be 46 d3 1f be 2f 9f 80 bd
       -0.21080545 -0.21985643 -0.15607938 -0.06280362
0001c0 4a ef 5d bd 99 b4 94 3e 40 a3 c3 3e 3a 3a 4a 3e
       -0.054183282 0.29044035 0.38210487 0.19748774
0001d0 aa 49 a9 3f 8d ba 77 be 09 cc cd be 67 47 22 bd
       1.3225605 -0.24192257 -0.4019473 -0.039618876
0001e0 f7 ec a8 bd ab 7f a6 bf 2f 24 28 bf 8f 8a 25 bd
       -0.082483225 -1.3007711 -0.6568021 -0.040415343
0001f0 10 aa bf bd f2 53 d1 bd de 54 a9 be 9a 93 df bc
       -0.09358609 -0.102210894 -0.3307256 -0.027292062
000200 52 20 57 bd 21 77 13 c0 84 19 13 bc 36 9a 22 3c
       -0.052521057 -2.304146 -0.008978251 0.009924462
000210 bd 09 03 be dd 8f 02 bf f2 5f 34 3d cb f3 ef bc
       -0.12796684 -0.5100077 0.044036813 -0.029291054
000220 6e 97 1a bd 76 f5 98 bb c1 9d 5f 3c 13 4a 68 bd
       -0.03774207 -0.004667933 0.013648451 -0.056711268
000230 3a ac 51 bc d3 63 6b bd c2 a7 21 bf 60 18 31 bd
       -0.01279741 -0.057468247 -0.63146603 -0.043236136
000240 5f eb 2b be 87 7f ae bd 7f 3d a3 bd 43 d8 68 bf
       -0.16789006 -0.08520418 -0.07970714 -0.9095499
000250 20 2d b9 bd 25 67 8b bd 1f 88 ad be 4f 6b a5 bd
       -0.0904181 -0.06806783 -0.33892915 -0.08077108
000260 fc 2b 76 bd 06 ad 9c bd 63 46 86 3f 09 9d c0 bc
       -0.06010054 -0.07650189 1.049023 -0.02351238
000270 3c a8 f3 be 3c ca 7e bd b4 df 73 bd 54 e9 74 bc
       -0.4758929 -0.062204584 -0.05953951 -0.014948208
000280 28 ee cc bd 07 54 af bd 36 48 21 bf f8 7f 36 be
       -0.10006362 -0.08560949 -0.6300081 -0.17822254
000290 4d 65 8d bd 5a a5 5b bc 32 cd db bf 81 db c3 bd
       -0.06904087 -0.013406122 -1.7171996 -0.095633514
0002a0 8e 56 1d bf f2 ac d7 bd 9f e7 b5 be c1 35 4f bd
       -0.61460197 -0.105310336 -0.35528275 -0.050588373
0002b0 94 79 77 bd 6e 60 33 3e 3b 4d e5 bd 0b 10 e4 bd
       -0.06041868 0.17517254 -0.11196371 -0.111358725
0002c0 b5 f1 09 be 41 bc c3 bd 4f b0 a6 bd c7 d4 25 bd
       -0.1347111 -0.09557391 -0.08139097 -0.040486123
0002d0 e2 41 5a bb 4d c9 8d bd 6a 5d e1 be 5a 98 59 be
       -0.003330343 -0.06923161 -0.44016582 -0.21249524
0002e0 7a ac 52 bb 3e 93 9c bd af a7 29 bf cd 6e 01 bf
       -0.003214626 -0.07645272 -0.6627149 -0.50559694
0002f0 98 61 18 40 c4 31 71 bd 1b f4 6a be 06 ac 98 bd
       2.3809566 -0.05888535 -0.22944681 -0.07454686
000300 2e 49 a6 3c 11 f0 c4 be 97 6b 23 bf c6 ea 99 bd
       0.020298567 -0.38464406 -0.63836044 -0.075154826
000310 2d 3c 0b bf 69 64 4b bd 85 e4 00 bd 3a e0 d9 bd
       -0.54388696 -0.049656305 -0.031467933 -0.10638471
000320 55 53 8d bd 62 c3 51 3e 00 0b ba bd 4d 24 1c 3d
       -0.0690066 0.20484689 -0.09084129 0.038120557
000330 2c de 70 bf 93 af ee bc e7 a0 aa bd 3e cb 9b bd
       -0.9408901 -0.029136455 -0.08331471 -0.07607125
000340 09 c9 41 bf a0 49 a6 bf 92 6c 5c bd 0a 51 14 40
       -0.7569738 -1.2991219 -0.05381448 2.3174462
000350 f8 93 bb bd a3 81 87 bf 7b 4c e2 bc b8 7b be bd
       -0.09159082 -1.0586437 -0.02762436 -0.09300941
000360 e6 89 19 bf 8d a9 0b bd 42 70 d8 bd f9 44 a1 3e
       -0.5997604 -0.034097243 -0.105682865 0.31497934
000370 26 76 95 be 85 54 00 3f 49 7e c2 bd 64 44 7d bd
       -0.29191703 0.50128967 -0.09496743 -0.0618328
000380 cf f6 2d bd 63 e6 62 bd d1 d9 cf bd 8f c8 a3 bc
       -0.042471703 -0.055395495 -0.10148967 -0.019993095
000390 1c aa 54 bf 3d c6 1c bf c7 d6 ad bc 39 84 6a bf
       -0.83072066 -0.6123999 -0.021220578 -0.91608006
0003a0 e2 9f 5b bc 81 e7 41 bd c7 32 27 bf 26 bc 9a bb
       -0.013404818 -0.04733992 -0.65311855 -0.004722136
0003b0 d1 01 c1 bd 92 27 db bd 3b ca 65 bd 6d ac 0a bf
       -0.094241746 -0.10700907 -0.056101065 -0.5416935
0003c0 27 70 2f be fd 43 0b be b2 f3 5f bf 2b c9 67 bc
       -0.17132626 -0.13600154 -0.87481225 -0.014147083
0003d0 92 b4 50 bd 5e 62 94 bd 51 96 a3 bf 47 e0 a1 bb
       -0.050953455 -0.072453246 -1.2780248 -0.004940066
0003e0 a3 0e ee bd db 4b 6c bd e7 44 b1 39 86 aa 2b 3c
       -0.116238855 -0.05768953 0.00033811407 0.010477668
0003f0 d2 a1 d0 3d 09 b7 c4 bd c6 03 9a bd 8d fb 8e bd
       0.10187115 -0.09605224 -0.07520251 -0.06981573

l3.weight f4 [4, 300]
000000 87 23 b5 3c ef d1 3c bf b0 b1 20 3e ac 42 73 bd
       0.022111667 -0.73757833 0.15692782 -0.059389755
000010 0d 5b 16 be c0 eb 39 3f 57 11 b1 bc c2 c2 dd bc
       -0.1468317 0.7262535 -0.021614714 -0.027070407
000020 ce f7 98 bb 6e 28 00 3f 45 29 01 3d 47 11 37 bd
       -0.0046682125 0.5006169 0.0315335 -0.04469421
000030 93 60 77 3c ed fa 98 bd 9e 34 25 3f d9 9d d6 bf
       0.015098709 -0.07469735 0.6453341 -1.6766921
000040 17 ca bf 3f a0 79 3f 3c 68 09 3d bc 0c bc 8a bd
       1.4983548 0.0116867125 -0.011537887 -0.06774148
000050 0b 8f 6c bf 75 b2 1f bc 82 21 62 be 25 25 96 bc
       -0.92405766 -0.009747137 -0.22083095 -0.018328259
000060 fb 44 f6 be b4 a6 89 be 7c 96 f7 bb 4d e6 04 3c
       -0.48099503 -0.26884997 -0.007555781 0.008111549
000070 8d 21 91 bd 38 f4 a7 3e 03 ae 6e ba f2 e4 d6 3c
       -0.070864774 0.32803512 -0.0009104909 0.026232217
000080 4a 79 00 3d 69 d9 c4 3c db 4c 70 bc 66 d5 9b 3b
       0.03136567 0.02402945 -0.014666761 0.0047556637
000090 3c 3e 74 bd f2 40 d0 3c 66 ae 15 bd 99 be dc bc
       -0.059629664 0.025421593 -0.036543272 -0.026946353
0000a0 1b 97 10 3e 3c 4f 86 3b 9f b1 a5 bc 2d fb 80 bd
       0.14120142 0.004098801 -0.020226298 -0.06297908
0000b0 a3 49 60 3f 36 fb 2f bd 2e 42 23 bf a8 69 47 bf
       0.8761236 -0.042964183 -0.6377286 -0.77895594
0000c0 a5 1b 09 bd e7 b7 bb 3e 24 02 87 bd 9d 06 9c b9
       -0.03347363 0.36663744 -0.06592205 -0.00029759566
0000d0 82 f8 53 bc 78 4f bc bb 92 c2 d6 3f e8 56 47 bf
       -0.012937667 -0.005746778 1.6778128 -0.77866983
0000e0 ad 42 0c 3c 25 ce 97 3c 82 b2 67 b9 4f 6a a1 3d
       0.008560819 0.018530915 -0.00022096376 0.07881605
0000f0 2a 85 6a bb 7e 02 18 3d 34 e7 78 bd 3d c1 0c bd
       -0.0035784938 0.03711175 -0.060767367 -0.034363974
000100 b3 2c e3 3e 7f 22 34 bd 4e a3 a4 3f 3f 03 34 40
       0.4437004 -0.04397821 1.2862337 2.8126981
000110 8d d3 84 bc 5e 94 2d bf 63 75 79 3c 7d ec 0a bd
       -0.016214157 -0.67804515 0.015225741 -0.03391694
000120 ab 82 79 3c 3d 6d 81 3d de f5 23 ba d4 c4 78 bc
       0.015228908 0.06319664 -0.00062545936 -0.015183646
000130 1f 66 a3 3b 33 82 f4 bd df 3f 00 3d 5c 56 f5 bb
       0.004986539 -0.11938896 0.031310912 -0.0074871015
000140 68 4b b2 bb 52 71 56 3d 37 2b a8 bb 7f 7a 99 3d
       -0.005441118 0.052354164 -0.0051321047 0.074940674
000150 da b7 5a bd 55 b8 11 bb cd 07 0e bd a9 e7 cb bb
       -0.05339799 -0.0022235115 -0.03467541 -0.0062226844
000160 3e 64 28 bd 33 e8 63 bc 68 bd 38 3d c7 ad 38 bf
       -0.041111223 -0.013910341 0.045102507 -0.72140163
000170 cc f4 8c bd cb 0e f8 3b 82 f1 20 3b 24 84 82 bc
       -0.06882629 0.007570123 0.0024558012 -0.01593215
000180 e4 02 f1 bb 5f 72 d6 bd ab 84 e8 bc 6f 74 24 3d
       -0.007355081 -0.10471033 -0.028383574 0.040150102
000190 df 31 33 3d fe 4e 9e 3f 49 2d c3 3c 27 19 31 bf
       0.043748733 1.2367857 0.023825305 -0.69179004
0001a0 0a 1c d3 3f fc e9 80 3d a0 ad c7 3f 08 ae 11 be
       1.6492932 0.06294629 1.5599861 -0.14226544
0001b0 3d 62 07 3f 56 d8 14 3e 6c fb 81 bf 8d 27 10 3d
       0.52884275 0.1453565 -1.0154853 0.03519397
0001c0 96 96 80 3b 8f ee 25 c0 34 16 86 40 04 9f 03 bb
       0.0039242012 -2.5926855 4.1902103 -0.0020083794
0001d0 e5 c1 62 3f f9 d4 6d be e7 e4 a7 bf 2c 73 86 3c
       0.8857711 -0.23225774 -1.311673 0.01641234
0001e0 6f 7c 2b 3c ae a4 ce bf 89 0e de 3e 21 7e 51 bc
       0.010466679 -1.6144006 0.43370464 -0.012786419
0001f0 bb 00 78 3c bf b8 b5 bc 28 d9 c3 bd cd b2 97 3c
       0.015136893 -0.02218282 -0.09562904 0.018517876
000200 89 94 d0 3c 1b 60 42 3f 8f 16 a3 bf 5c c8 03 bd
       0.025461452 0.75927895 -1.2741259 -0.0321735
000210 e2 aa 55 3f c8 b8 32 be 68 54 bd 3f 18 15 40 3c
       0.8346387 -0.17453301 1.4791384 0.011723779
000220 17 91 a3 bc e8 fe 44 bf 8e 41 14 bd 73 1f e0 3c
       -0.019966645 -0.76951456 -0.03619533 0.027358746
000230 74 2a 8c 3c d9 29 48 3c 9c 59 3d be 99 36 49 3c
       0.017110087 0.0122170085 -0.18491215 0.0122810835
000240 23 44 fc bd 74 7e 7e bc a9 7c 48 3d b7 94 be bf
       -0.123176835 -0.015533078 0.04894701 -1.4889134
000250 89 24 d2 bb 0d d9 01 bd 3f a1 a4 3f 0e 54 93 bc
       -0.0064130467 -0.031701136 1.2861708 -0.017984416
000260 b2 56 dc 3a 80 0c c0 be f5 49 2a 3f 8a f8 50 bd
       0.0016810505 -0.37509537 0.665191 -0.051018275
000270 99 2d 57 3f c8 ea b2 3c bc 28 82 ba 71 8e da 3d
       0.8405395 0.021840468 -0.0009930353 0.106717
000280 9d 5e 05 3e 10 ec 34 3d 4f 30 49 3f 8c ed 08 bf
       0.13024373 0.04417044 0.7858934 -0.5348747
000290 48 aa 43 bc a5 fc 09 bc 20 8f ca 3e 3e f2 21 bd
       -0.011942454 -0.008422052 0.3956232 -0.03953766
0002a0 b3 9d e5 3e 9a 19 d2 3d 95 8d 15 3f 52 50 e8 bc
       0.44846877 0.10258789 0.5841916 -0.028358612
0002b0 6f 75 28 3c 36 cb 90 be 05 9a 82 bb ad 9d 81 bd
       0.010281905 -0.28280038 -0.0039856457 -0.063289024
0002c0 32 ce 5f bc fc 52 fc bd 11 94 4b 3d ff 68 22 3c
       -0.013660001 -0.123205155 0.049701754 0.009912728
0002d0 6d 2e 9f bc 48 7e 42 3d 27 a8 2e bf e4 22 0d be
       -0.019431317 0.047483712 -0.6822533 -0.13782841
0002e0 e6 5b 10 3d 3c f6 7f 3d 91 d0 43 be 40 60 ca bc
       0.03524389 0.062490687 -0.1912253 -0.024704099
0002f0 1d 38 48 40 bc 2d 7d 3c 85 e5 1d 3d c8 5c b9 bc
       3.128425 0.015452798 0.038548965 -0.02262725
000300 4f 6e b1 bc 8e b7 11 bf 2c 2e 85 be d5 19 88 bc
       -0.021659045 -0.5692071 -0.2601179 -0.01661388
000310 58 5e b9 bc f8 15 37 bd 15 52 88 3b eb 6f e0 3c
       -0.022627994 -0.044698685 0.0041601756 0.027397117
000320 1f 18 b0 3b 3d f0 f8 3f 55 fd 92 bc d0 54 c8 3e
       0.005373969 1.9448315 -0.017943064 0.39127207
000330 3a fd d0 3f 6a c7 60 3c c7 01 2b 3d b5 6d 06 bd
       1.6327279 0.013719419 0.041749742 -0.03281947
000340 ce 16 18 bf 95 e6 9b 3f 7e 79 99 3c dc ab 98 3d
       -0.594098 1.2179743 0.01873469 0.074546546
000350 6b db 65 3d f1 c8 ce bc 36 a4 98 3c c2 41 e6 bd
       0.056117456 -0.0252423 0.01863299 -0.11243011
000360 4d 13 0a 3b 7d 06 0f bc c5 9f 19 ba f7 e8 b1 3e
       0.0021068633 -0.008729574 -0.00058602943 0.3474805
000370 80 85 30 3e c8 b1 0b c0 b8 bd 4c bd 89 10 4d bd
       0.17238426 -2.182726 -0.049985617 -0.050064597
000380 50 85 c2 bd 4e f8 9a bc 20 9c b3 bc aa 15 d5 bc
       -0.094980836 -0.018917229 -0.021925032 -0.026011307
000390 aa d4 63 3f 0c 46 2d bd 8c 28 7b bb c7 d9 b5 3e
       0.88996375 -0.04230313 -0.0038323728 0.35517713
0003a0 79 cb d1 bc a5 a4 87 3c e5 ee 9d 3e 08 80 c9 bc
       -0.025609719 0.016558 0.30846325 -0.024597183
0003b0 ae 51 af be 3b 65 61 bc 28 06 30 bd 80 e4 ce be
       -0.34242004 -0.013757045 -0.04297462 -0.40408707
0003c0 ff 4e b7 3f 78 43 3e bc e0 eb 46 bf 16 28 28 bc
       1.4320983 -0.0116127655 -0.77703667 -0.0102634635
0003d0 17 50 32 3c 2a 8f e0 3c fd ed e7 bf cd 42 19 bd
       0.010883353 0.027412016 -1.8119503 -0.03741722
0003e0 f0 84 cd bb 8a 6f 52 bc 18 f0 41 bc 60 2a c7 bb
       -0.006271951 -0.012843976 -0.011837028 -0.0060780495
0003f0 ba 05 da 3f 8d c6 82 3d 4d c3 0e bd ad 68 0e 3b
       1.7032998 0.06385527 -0.034854222 0.0021729872

l3.bias f4 [4]
000000 76 47 0f bf 40 d2 8b be 52 ac 1a c0 82 c7 c3 3e
       -0.55968416 -0.27308846 -2.4167676 0.3823815
