TD3_control/dir_Walker2D_002/biped-v8-2d-8_actor.pth (torch, 527895 bytes, 6 tensors)

l1.weight f4 [400, 24]
-0.057448152 0.31295386 0.5242865 -10.102199 -1.5535659 -0.92128056 -0.03126365 -0.14243186
-0.67809325 -2.0555668 0.16553012 0.54307467 0.25567353 -0.23043105 2.3043792 0.28157443
3.5739875 -0.62487096 -3.0023048 0.19567099 0.1629896 0.3305549 -0.6674057 -2.2090456
2.1037917 1.0744983 -0.036769055 -5.4120526 -1.0983552 10.972259 0.0996233 -0.20250036
-0.8842063 -0.5188352 -0.19978397 -0.5720608 -0.5940045 -0.52173865 0.5445369 -0.15179193
-0.39563543 1.0172395 -2.6814349 0.008291815 -1.0769438 0.1360243 0.821938 0.6666365
2.156345 0.5352714 -0.7343242 -2.87505 0.79160434 1.8461069 0.058531888 0.13429491
-0.73385024 -0.120539136 -0.8765991 0.07799403 -0.4320499 -0.3748306 -0.37797657 0.60367346
-0.0020048672 0.93235046 -4.3633857 0.059409816 1.0102235 0.2674977 -1.6861795 0.6197153
0.31058434 -0.9437611 0.25564522 -4.1610565 2.911708 4.6556067 -0.09529111 0.11150605
-2.0129325 -0.051049486 1.6927018 -1.0037808 -1.9083184 -0.070072584 -4.7629886 -0.40780526
-0.60325664 0.32657212 -1.7969499 0.18953949 0.51221853 -0.043557495 -1.0690452 0.8013722
1.0344316 0.52138317 0.8142212 -2.4593158 2.1942225 3.8122287 -0.14267358 -0.09496728
-3.6050665 -0.48588207 1.4302723 0.060438678 -0.19585718 0.13224237 0.25255805 -0.50995404
-0.7707216 -0.304776 -0.056865595 0.16173267 3.7391198 0.056878917 -1.4494324 -0.28849167
4.237057 -1.1037672 -0.20160553 0.25014773 -3.699376 4.2104774 -0.11588175 -0.10699876
-3.907436 0.03401515 -0.011277394 0.11666157 -0.81379014 -0.31198537 -0.8667079 -0.28124455
3.351638 0.63993335 -3.7868872 0.39665404 -0.865844 0.8298699 0.11340663 0.06505585
5.5569158 1.2795609 0.0035766996 1.213169 2.4036155 7.134209 -0.18219659 0.17331359
1.7526187 0.004331476 -1.7211324 0.3700758 -4.9209104 0.059378468 -0.48483202 -0.07298083
-3.1555798 -0.2886551 0.7743093 0.18182196 -0.7309714 -0.26161915 1.2033969 0.33135647
-7.9640403 1.7840881 -1.4061271 -3.6189785 0.45298874 -3.6562147 0.005484137 -0.099613614
-1.9605421 -0.13549651 -3.861528 -0.25359085 -3.1929896 -0.007452603 -1.2201062 0.020566707
2.1290977 0.097420365 -1.5133245 0.40160027 0.70734924 0.3441652 -1.11629 0.39237732
4.4692125 1.0195416 0.051825024 0.013841493 1.2837265 5.57724 0.061413117 -0.10513691
0.13266206 -0.12485274 0.5608877 0.5438066 1.7694513 0.63294876 -0.7422456 0.08497817
-2.7783203 -0.008524786 -0.5618857 -0.09758175 1.08463 -0.079397604 0.094797 0.12870896
-2.591911 0.8436679 0.12394814 -1.6281776 -0.1023264 -3.5451272 -0.105730645 -0.16567062
-1.605162 0.032320894 -1.4399226 0.04853108 -0.63212115 -0.0074787694 0.7206449 -0.043811627
-2.5834491 -1.0144988 -2.3387685 0.11098013 4.442274 -0.07910498 -2.1183617 -5.427719
-1.9926878 -2.6933224 0.35415402 -4.041589 0.8100209 -1.497327 0.0049455883 -0.18441251
-0.71426374 -0.31664374 0.71749717 0.9493687 0.6565296 -0.21169768 1.4401878 0.22646724
00000000: c14e 6bbd 7d3b a03e a437 063f 9ba2 21c1
00000010: 3fdb c6bf 0bd9 6bbf 500e 00bd a8d9 11be
00000020: 8597 2dbf 688e 03c0 ba80 293e f106 0b3f
00000030: a4e7 823e 1ef6 6bbe f37a 1340 862a 903e
00000040: 36bc 6440 8bf7 1fbf c325 40c0 fa5d 483e
00000050: bfe6 263e 7e3e a93e 1adb 2abf 0161 0dc0
00000060: 86a4 0640 2989 893f 269b 16bd 892f adc0
00000070: e796 8cbf 5f8e 2f41 4d07 cc3d 415c 4fbe
00000080: 585b 62bf 62d2 04bf 2b94 4cbe 9472 12bf
00000090: ae10 18bf aa90 05bf c566 0b3f 586f 1bbe
000000a0: ba90 cabe e734 823f a19c 2bc0 65da 073c
000000b0: 4bd9 89bf f449 0b3e 876a 523f b1a8 2a3f
000000c0: 8e01 0a40 8c07 093f acfc 3bbf d200 38c0
000000d0: 95a6 4a3f 3b4d ec3f 22bf 6f3d 9b84 093e
000000e0: 9cdd 3bbf 39dd f6bd cc68 60bf 56bb 9f3d
000000f0: a535 ddbe cce9 bfbe 2586 c1be 588a 1a3f
00000100: 1764 03bb 85ae 6e3f dba0 8bc0 b557 733d
00000110: 014f 813f 75f5 883e bbd4 d7bf a9a5 1e3f
00000120: e904 9f3e 549a 71bf eee3 823e 6027 85c0
00000130: 6d59 3a40 bbfa 9440 fc27 c3bd 495d e43d
00000140: e3d3 00c0 4419 51bd 74aa d83f e47b 80bf
00000150: c743 f4bf 3782 8fbd 676a 98c0 dacb d0be
00000160: 076f 1abf 7634 a73e 7402 e6bf a416 423e
00000170: c120 033f 5869 32bd 79d6 88bf ba26 4d3f
00000180: 4168 843f 5e79 053f cd70 503f 6e65 1dc0
00000190: 246e 0c40 8efb 7340 0619 12be 357e c2bd
000001a0: 69b9 66c0 89c5 f8be 2a13 b73f 8c8e 773d
000001b0: c98e 48be 8b6a 073e 4a4f 813e 598c 02bf
000001c0: 034e 45bf 9a0b 9cbe e6eb 68bd 409d 253e
000001d0: bd4d 6f40 def9 683d 0087 b9bf 2eb5 93be
000001e0: f995 8740 3e48 8dbf ae71 4ebe 5d13 803e
000001f0: 94c2 6cc0 3bbc 8640 6953 edbd 2a22 dbbd
00000200: 6e13 7ac0 7853 0b3d d2c4 38bc 43ec ee3d
00000210: 8d54 50bf 8cbc 9fbe 92e0 5dbf 49ff 8fbe
00000220: 3d81 5640 acd2 233f 5c5c 72c0 3d16 cb3e
00000230: f4a7 5dbf 5b72 543f bc41 e83d 003c 853d
00000240: 41d2 b140 a7c8 a33f 1067 6a3b 1f49 9b3f
00000250: d6d4 1940 714b e440 be91 3abe 1e79 313e
00000260: cf55 e03f 0eef 8d3b 114e dcbf 937a bd3e
00000270: 1978 9dc0 d636 733d e73b f8be f976 95bd
00000280: 05f5 49c0 9aca 93be 2239 463f 892f 3a3e
00000290: f120 3bbf f2f2 85be e908 9a3f 8ea7 a93e
000002a0: 6bd9 fec0 005d e43f f9fb b3bf 589d 67c0
000002b0: 24ee e73e 6cff 69c0 47b4 b33b 3902 ccbd
000002c0: 0bf3 fabf 99bf 0abe 4623 77c0 a9d6 81be
000002d0: f159 4cc0 f734 f4bb 712c 9cbf 837b a83c
000002e0: 2343 0840 5484 c73d 9eb4 c1bf 8d9e cd3e
000002f0: d714 353f 6c36 b03e 97e2 8ebf aee5 c83e
00000300: ca03 8f40 5780 823f 7a46 543d 6ec7 623c
00000310: 2651 a43f c078 b240 528c 7b3d 0552 d7bd
00000320: 90d8 073e cbb2 ffbd 5696 0f3f e936 0b3f
00000330: 617d e23f ee08 223f cf03 3ebf 0909 ae3d
00000340: 00d0 31c0 8bab 0bbc bed7 0fbf f1d8 c7bd
00000350: 28d5 8a3f 369b a2bd ee24 c23d 48cc 033e
00000360: dfe1 25c0 9ffa 573f 86d8 fd3d 2068 d0bf
00000370: 8190 d1bd 5de3 62c0 4f89 d8bd 8fa5 29be
00000380: f375 cdbf ea62 043d 624f b8bf 87c8 463d
00000390: b1d2 21bf 7710 f5bb 2f7c 383f d273 33bd
000003a0: 3b57 25c0 19db 81bf 62ae 15c0 8d49 e33d
000003b0: 1c27 8e40 cb01 a2bd 3d93 07c0 e0af adc0
000003c0: 6510 ffbf 655f 2cc0 ad53 b53e b254 81c0
000003d0: 885d 4f3f 69a8 bfbf 9a0e a23b a2d6 3cbe
000003e0: fdd9 36bf 211f a2be e5ad 373f d409 733f
000003f0: 5312 283f 47c7 58be 1358 b83f 07e7 673e

l1.bias f4 [400]
-1.4104812 0.23392098 -1.2941064 0.14296612 -2.4061708 -1.1338358 2.568458 -0.6387437
-0.6530577 -2.931125 -0.9192081 -1.6583039 -1.3993858 -2.1371195 -0.49050644 -1.3757147
-1.9094683 -2.7734568 -1.1112311 -2.0935457 -0.7395633 1.6254208 -0.6533017 -1.9586971
-2.309079 -2.0381966 -1.0495518 0.28309426 -1.3573369 -1.3469744 -0.64372075 2.664897
-0.7608626 -1.1589074 1.0087936 -1.5636109 -1.2029463 -1.8690766 0.75269395 -1.0416526
-0.9356286 -1.6180289 -1.6765348 -1.853536 -1.742577 -0.48084134 -1.1540455 -0.30122688
-1.5879511 -2.1251915 -2.3994188 -2.3300068 -2.1316116 -1.1188211 -1.1622499 -2.0963976
-2.5251267 -1.5635483 -1.638935 -0.48243985 -2.6588163 -1.2836868 -0.17844291 -1.270432
-1.5943897 -0.058409907 -2.4313803 -0.88613826 -1.5229733 -2.3384316 -2.1638274 -1.2848964
-2.1147838 -0.81788224 -0.9710185 -1.7008309 -0.19357572 -1.5427396 -0.20311272 -0.59120643
-1.7715015 -2.189288 -1.6166692 -1.0136425 -1.9954897 -2.0105238 -0.9668924 0.8892876
-0.38983738 -0.8548581 -1.6979673 -0.7616857 -1.407527 1.0105194 -2.1602106 -0.57920456
-2.46125 -2.5146894 -2.3011498 -2.3077896 -1.3263345 -1.5693084 1.3817462 1.1661087
-1.030962 0.81750554 -2.6672168 0.23358443 -0.4595889 -1.3199358 -2.129531 -0.5159211
-2.180049 -1.4428681 -2.204629 -0.7652811 -0.92710006 -0.7860005 -0.37936142 0.18622832
-1.8025253 -1.4408308 -1.3313434 -1.712041 -1.4673711 -0.48704576 -0.82051605 -1.1356046
-0.9925919 -1.7274897 -1.4165537 -0.8698195 0.73636353 -1.6692867 -1.7645303 -2.1327755
-0.4193133 -0.3110357 -2.5226927 -0.85900015 -1.310047 -1.8798878 -1.7937727 -1.7603804
-1.7573264 -1.1465155 -1.3267587 -1.6013352 0.18219407 -2.3677194 -1.3786588 -2.5689142
-1.8424726 -1.0768954 -0.99021834 -1.8759956 -2.9870086 -1.65804 -1.358203 -1.6964464
-1.5730177 -0.6462853 -1.7792283 -2.0343323 -1.9643716 -1.4449598 -1.5135914 -1.005066
-1.3770714 -2.1651433 -0.8510348 -2.3423645 -2.3129733 0.7889055 -1.0925348 -0.7393559
-1.253217 -1.8248273 -1.7179557 -2.4338877 -2.4405215 -1.3870443 -1.7584946 -1.7431599
-1.9997973 -0.7715841 -1.9370579 -0.48668548 -0.73393995 -0.43371668 -0.4388465 -1.6811513
-1.8770738 -1.4345286 -1.5484493 -1.8751106 -0.26545218 0.27351132 -1.6764661 -1.4744556
-0.9482218 -1.8983749 -0.5555907 -1.6692238 -0.8780132 0.1917009 -2.2916198 -0.7475007
-1.5643196 -1.0227914 -1.953281 -1.6501341 -1.5537219 -0.31426713 -1.3445624 0.49686885
-1.9776261 -1.1625404 -0.047064405 -2.0463774 -1.8354838 -1.397372 -2.327014 -1.5670549
-0.7363692 -0.6110722 -1.6114475 -2.3450038 -0.8383176 -2.4150577 -0.8351193 -1.9096063
-0.8214425 -2.3545966 -1.8135176 0.47452244 0.18932822 -1.146194 -1.8806772 -2.4369874
-0.5839185 1.9679035 -1.9889826 -2.6877818 -0.8996633 -1.4520808 0.16455294 -0.09249541
-1.8797779 0.9693437 -2.048057 -1.4246091 -1.0913973 -1.6631055 -1.355487 -1.2040617
00000000: a68a b4bf fb88 6f3e 47a5 a5bf b665 123e
00000010: b4fe 19c0 8821 91bf 9e61 2440 b584 23bf
00000020: ca2e 27bf 8d97 3bc0 3951 6bbf 4d43 d4bf
00000030: 131f b3bf 91c6 08c0 a923 fbbe 6b17 b0bf
00000040: 7569 f4bf 5180 31c0 d23c 8ebf a7fc 05c0
00000050: 0554 3dbf ca0d d03f c83e 27bf 96b6 fabf
00000060: f3c7 13c0 d071 02c0 b757 86bf bbf1 903e
00000070: 37bd adbf a869 acbf e2ca 24bf ac8d 2a40
00000080: e4c7 42bf 1457 94bf 2620 813f 6724 c8bf
00000090: 25fa 99bf e73d efbf 8db0 403f df54 85bf
000000a0: 5b85 6fbf 921b cfbf b198 d6bf ab40 edbf
000000b0: c30c dfbf d630 f6be c3b7 93bf 693a 9abe
000000c0: fb41 cbbf 2303 08c0 1490 19c0 d51e 15c0
000000d0: 536c 08c0 8835 8fbf 9bc4 94bf 612b 06c0
000000e0: ad9b 21c0 5a22 c8bf 9fc8 d1bf 5b02 f7be
000000f0: 0c2a 2ac0 d94f a4bf bdb9 36be 849d a2bf
00000100: f614 ccbf 3a3f 6fbd bc9b 1bc0 f5d9 62bf
00000110: caf0 c2bf dda8 15c0 267c 0ac0 7c77 a4bf
00000120: 9e58 07c0 bb60 51bf ab94 78bf d4b4 d9bf
00000130: b738 46be 7e78 c5bf c8fc 4fbe 4e59 17bf
00000140: 90c0 e2bf 4b1d 0cc0 04ef cebf 0abf 81bf
00000150: 356c ffbf 6cac 00c0 4386 77bf 5aa8 633f
00000160: c498 c7be fbd7 5abf fe56 d9bf d6fd 42bf
00000170: d829 b4bf b358 813f e440 0ac0 c046 14bf
00000180: 1f85 1dc0 acf0 20c0 0a46 13c0 d3b2 13c0
00000190: 54c5 a9bf 19df c8bf 0fdd b03f 0d43 953f
000001a0: 90f6 83bf 0b48 513f aeb3 2ac0 c230 6f3e
000001b0: 3c4f ebbe a8f3 a8bf 3c4a 08c0 6813 04bf
000001c0: ec85 0bc0 e7af b8bf a418 0dc0 76e9 43bf
000001d0: 6e56 6dbf 5437 49bf a93b c2be a3b2 3e3e
000001e0: 26b9 e6bf 256d b8bf 7669 aabf 2924 dbbf
000001f0: d1d2 bbbf 105e f9be 570d 52bf 7e5b 91bf
00000200: 811a 7ebf 621e ddbf a251 b5bf 7eac 5ebf
00000210: 5282 3c3f 30ab d5bf 21dc e1bf 657f 08c0
00000220: 3cb0 d6be 1240 9fbe cc73 21c0 6fe7 5bbf
00000230: 9faf a7bf 2aa0 f0bf 589a e5bf 2554 e1bf
00000240: 12f0 e0bf 05c1 92bf 3bd3 a9bf 8df8 ccbf
00000250: 1591 3a3e b788 17c0 e477 b0bf 1769 24c0
00000260: 24d6 ebbf b5d7 89bf f37e 7dbf a020 f0bf
00000270: 262b 3fc0 a83a d4bf 99d9 adbf 2825 d9bf
00000280: a558 c9bf f472 25bf c1bd e3bf 8032 02c0
00000290: 8770 fbbf 71f4 b8bf 5dbd c1bf 01a6 80bf
000002a0: e043 b0bf b591 0ac0 6bdd 59bf 4de9 15c0
000002b0: c107 14c0 b6f5 493f 2ed8 8bbf 6e46 3dbf
000002c0: 6a69 a0bf f193 e9bf f9e5 dbbf d1c4 1bc0
000002d0: 8131 1cc0 ab8a b1bf 5a16 e1bf dd1f dfbf
000002e0: 5cf9 ffbf 8986 45bf 83f1 f7bf d72e f9be
000002f0: 7de3 3bbf 1d10 debe 7db0 e0be f72f d7bf
00000300: f443 f0bf a29e b7bf 9633 c6bf a003 f0bf
00000310: 59e9 87be ad09 8c3e 7196 d6bf f6ba bcbf
00000320: aabe 72bf f3fd f2bf 313b 0ebf 20a9 d5bf
00000330: 79c5 60bf 3e4d 443e e6a9 12c0 355c 3fbf
00000340: a03b c8bf d4ea 82bf 1d05 fabf 9837 d3bf
00000350: 5ce0 c6bf 9fe7 a0be 9f1a acbf 9865 fe3e
00000360: da22 fdbf 20ce 94bf 9bc6 40bd d9f7 02c0
00000370: 22f1 eabf 16dd b2bf cced 14c0 4195 c8bf
00000380: b182 3cbf 3a6f 1cbf e943 cebf 8b14 16c0
00000390: fb9b 56bf 4e90 1ac0 61ca 55bf fb6d f4bf
000003a0: 0e4a 52bf b6b1 16c0 5821 e8bf 9bf4 f23e
000003b0: 42df 413e 7cb6 92bf 08ba f0bf 9af7 1bc0
000003c0: af7b 15bf 43e4 fb3f fb96 febf 9e04 2cc0
000003d0: 5650 66bf c9dd b9bf 9180 283e 3c6e bdbd
000003e0: 909c f0bf e926 783f 5e13 03c0 9759 b6bf
000003f0: e8b2 8bbf a4e0 d4bf 9980 adbf b21e 9abf

l2.weight f4 [300, 400]
-0.0088644475 0.031547125 0.026496883 0.021769028 -0.04428157 0.035819292 -0.07964733 -0.018432945
0.054357305 0.030616613 -0.055696234 -0.038137484 -0.043387786 -0.03979808 -0.012140307 0.0002890052
-0.023122959 -0.015818197 0.0100845685 -0.035996336 -0.06269717 -0.04333017 -0.017473785 0.047433242
0.024680981 -0.09909156 -0.10465859 -0.04683854 -0.08193166 -0.04464875 -0.048140906 -0.06464521
-0.0043825815 -0.0074566095 -0.07017443 0.00344515 -0.05071945 0.0276553 -0.087411486 -0.041837234
-0.10948513 -0.011175399 -0.11887401 -0.01320254 -0.0056433226 -0.011593437 0.0013433835 -0.01163293
-0.08595174 -0.027950143 -0.022731286 0.087478206 -0.058008634 0.060035944 0.018876687 -0.045877364
0.039106164 -0.015379806 -0.041073225 -0.081679195 -0.032992292 -0.03700332 -0.0354653 -0.0017322395
-0.025323069 -0.010399121 -0.0020793483 -0.035504535 0.04011256 0.0010602605 -0.006520955 -0.052591298
0.015951484 -0.018685201 0.011473427 0.0009210439 -0.050017644 0.015590552 -0.010118217 0.002868942
-0.0428138 -0.100924455 -0.0291145 -0.06761676 -0.003660084 -0.07073911 -0.023185637 0.0176687
0.018781781 -0.013145983 0.0038929894 -0.054734293 0.015025082 -0.057543587 0.009373089 0.006108659
-0.020255098 -0.021873893 -0.046590634 0.021156346 0.06905524 -0.06317995 -0.013362758 -0.02913426
-0.09135709 -0.030680444 -0.044526942 -0.07422593 -0.0053379424 -0.06708693 -0.06884036 -0.05268501
-0.008279225 -0.084366575 -0.021410696 0.0010988797 -0.074366674 -0.004198965 -0.0417505 0.024128232
-0.08486665 0.043645296 -0.045659047 0.034379356 -0.0053895167 -0.066227116 0.0021255354 0.0049965824
-0.0011253216 -0.099426694 -0.029015169 0.0021767097 0.023089422 0.018812869 -0.11942534 -0.0014789104
0.0046740007 -0.1285244 -0.04869954 -0.12385731 -0.047838587 -0.13541019 -0.023595605 -0.10247675
-0.008459924 -0.016505294 -0.03235885 -0.07620525 -0.032705426 -0.038376525 -0.060130436 0.018478611
-0.035282433 -0.025358021 -0.023079911 0.035036363 0.07485008 -0.04169264 -0.01746367 -0.12438235
-0.026208675 -0.114757456 -0.060302317 -0.06445522 -0.008713693 -0.0049639023 0.008964137 0.024345528
-0.047582917 -0.054520458 0.065531775 -0.04708505 -0.06671533 -0.066782735 -0.062495384 -0.05469747
0.012218878 0.0018224055 -0.052619 -0.01153163 -0.07218753 -0.00826904 -0.06960605 -0.018791914
-0.0049765906 -0.011361504 -0.008611275 0.025078462 0.013596958 -0.04737209 -0.09339053 0.029379116
0.011132749 -0.0511529 -0.026838833 -0.02722013 0.0074153966 -0.0019721722 -0.097342834 -0.11118812
0.01027039 -0.07276449 0.0015110455 -0.072590336 0.008192149 0.05657379 -0.017926976 -0.021924365
0.025430901 -0.027631242 -0.041649297 -0.017675191 0.010806436 -0.07198115 -0.04010456 0.0581892
-0.021574365 -0.0233431 -0.01784477 0.0010523587 -0.07063005 -0.035403524 -0.017865269 -0.04641213
-0.03623064 0.028123664 -0.04771828 0.034574818 -0.011300595 -0.06072751 -0.034527555 0.005960689
-0.014053211 -0.043563902 -0.014128342 -0.011037909 -0.0142304925 -0.03304282 -0.03630555 -0.05058031
-0.021887071 -0.00087504176 -0.04537296 0.0095537305 0.040127825 0.008807641 -0.020101355 0.05318991
-0.040947195 -0.07164769 -0.031718478 0.072506875 -0.010007283 -0.062240317 -0.08827937 -0.0011658225
00000000: 303c 11bc 8f37 013d fe0f d93c f654 b23c
00000010: 9760 35bd 40b7 123d 241e a3bd b000 97bc
00000020: c4a5 5e3d b1cf fa3c bc21 64bd 0d36 1cbd
00000030: 64b7 31bd 5003 23bd 23e8 46bc 9f85 9739
00000040: 5c6c bdbc 2a95 81bc bf39 253c e570 13bd
00000050: 6067 80bd fa7a 31bd 2f25 8fbc 5c49 423d
00000060: c52f ca3c 84f0 cabd 3e57 d6bd c5d9 3fbd
00000070: c9cb a7bd 9ce1 36bd 662f 45bd b564 84bd
00000080: c29b 8fbb 9356 f4bb 9db7 8fbd 07c8 613b
00000090: 33bf 4fbd 5e8d e23c cb04 b3bd 855d 2bbd
000000a0: bd39 e0bd 0519 37bc 3874 f3bd 774f 58bc
000000b0: 9feb b8bb 66f2 3dbc 7814 b03a 0b98 3ebc
000000c0: 7707 b0bd b3f7 e4bc f636 babc c627 b33d
000000d0: 769a 6dbd 40e8 753d 48a3 9a3c e7e9 3bbd
000000e0: c92d 203d 95fb 7bbc 663c 28bd 6c47 a7bd
000000f0: ed22 07bd cb90 17bd 1044 11bd 500c e3ba
00000100: 5372 cfbc 1361 2abc ad45 08bb 346d 11bd
00000110: 114d 243d 70f8 8a3a bcad d5bb f969 57bd
00000120: b0ac 823c b511 99bc 0afb 3b3c 3672 713a
00000130: 4ddf 4cbd 846f 7f3c e1c6 25bc dc04 3c3b
00000140: 865d 2fbd 7bb1 cebd 8881 eebc a87a 8abd
00000150: 05de 6fbb abdf 90bd ceef bdbc f3bd 903c
00000160: 40dc 993c 4062 57bc 8621 7f3b 1131 60bd
00000170: c32b 763c d3b2 6bbd 9691 193c 252b c83b
00000180: 05ee a5bc e130 b3bc d2d5 3ebd 1350 ad3c
00000190: d56c 8d3d 7d64 81bd 78ef 5abc f9aa eebc
000001a0: 6d19 bbbd 8e55 fbbc e261 36bd c403 98bd
000001b0: e8e9 aebb df64 89bd 2dfc 8cbd 3dcc 57bd
000001c0: 96a5 07bc 62c8 acbd 7c65 afbc 4908 903a
000001d0: 8e4d 98bd 7997 89bb 9302 2bbd 92a8 c53c
000001e0: 91ce adbd 69c5 323d fb04 3bbd 5ed1 0c3d
000001f0: 8b9a b0bb 15a2 87bd 914c 0b3b 5fba a33b
00000200: 877f 93ba 39a0 cbbd 38b1 edbc 21a7 0e3b
00000210: 0726 bd3c 721d 9a3c 4695 f4bd 00d8 c1ba
00000220: 5c28 993b e69b 03be 2b79 47bd e7a8 fdbd
00000230: 65f2 43bd f8a8 0abe 924b c1bc 55df d1bd
00000240: 7e9b 0abc 1c36 87bc b78a 04bd 8011 9cbd
00000250: 20f6 05bd b430 1dbd 554b 76bd 7560 973c
00000260: 5084 10bd a0bb cfbc 1512 bdbc 4a82 0f3d
00000270: 004b 993d e7c5 2abd f80f 8fbc 2cbc febd
00000280: 93b3 d6bc f505 ebbd 90ff 76bd 1901 84bd
00000290: e1c3 0ebc 3ba8 a2bb 51de 123c 4670 c73c
000002a0: 4ee6 42bd d850 5fbd 8635 863d 41dc 40bd
000002b0: 0ca2 88bd 63c5 88bd 29fb 7fbd 740a 60bd
000002c0: b031 483c c8dd ee3a 0587 57bd 29ef 3cbc
000002d0: 0ed7 93bd de7a 07bc 9e8d 8ebd 80f1 99bc
000002e0: ab12 a3bb 9a25 3abc 4e16 0dbc 5971 cd3c
000002f0: c6c5 5e3c 3d09 42bd 8943 bfbd 79ac f03c
00000300: 2266 363c b485 51bd 1ddd dbbc c0fc debc
00000310: dbfc f23b 8f3f 01bb ae5b c7bd 99b6 e3bd
00000320: 2345 283c 8d05 95bd 460e c63a 3eaa 94bd
00000330: 5d38 063c ebb9 673d 98db 92bc ba9a b3bc
00000340: 7754 d03c ea5a e2bc 7498 2abd 90cb 90bc
00000350: 7a0d 313c da6a 93bd ae44 24bd cc57 6e3d
00000360: b9bc b0bc 073a bfbc 322f 92bc 4cef 893a
00000370: 7da6 90bd 4903 11bd 2f5a 92bc a51a 3ebd
00000380: 9466 14bd 9963 e63c 3e74 43bd 539e 0d3d
00000390: 2126 39bc 69bd 78bd c46c 0dbd e251 c33b
000003a0: 703f 66bc 1070 32bd 907a 67bc 59d8 34bc
000003b0: 0327 69bc e857 07bd 21b5 14bd 4d2d 4fbd
000003c0: 844c b3bc 0f63 65ba ffd8 39bd 4087 1c3c
000003d0: 135d 243d ed4d 103c 99ab a4bc aadd 593d
000003e0: 3fb8 27bd 06bc 92bd 3ceb 01bd 7c7e 943d
000003f0: 96f5 23bc b4ef 7ebd d0cb b4bd 83ce 98ba

l2.bias f4 [300]
-0.08961778 -1.0886083 0.6210309 -0.0018898174 -0.07683453 -0.10428632 -0.06925223 -0.16326481
-0.050866008 0.30020872 -0.2846908 -0.09132782 -0.03135155 0.5777335 -0.72913325 -1.3023515
-0.2821856 -0.2541417 -0.086371295 -0.09750231 -1.5521898 -0.52835995 -1.5774771 -0.451232
-0.24043895 -0.3849776 -0.07530795 -0.3523378 -0.07413521 -0.7992462 -0.2674919 -0.09376862
-0.9260383 0.42481425 -0.36240813 -0.1439783 0.021971399 -0.0025946328 -0.87117183 -0.050789505
-0.060513634 -0.12671727 -0.29657683 -0.5205328 -0.10172974 -0.08434991 -1.877394 -0.11307041
0.21075675 -0.18019897 -1.7698363 -1.2852374 -0.018250855 -0.64929754 -0.09434912 -0.99610436
-0.1808494 -0.087290786 -1.050229 -0.11204692 -0.09067581 -0.8852376 -0.13886534 0.08348113
-0.16994289 -1.2925085 -0.4110752 -0.18744303 -0.018154263 -0.06349211 -0.11287497 -0.24355112
-0.0879154 -0.30784842 0.0028523796 -0.25988317 -0.1225396 -0.3801314 -0.38602936 -0.56236494
-2.13458 -0.7891231 -0.08284569 -0.089049295 -1.129502 0.27998996 -0.6278704 0.922802
-1.1525449 -0.804778 -0.53287405 -0.14312671 -0.19815922 0.0026367973 -0.7683936 1.1271796
-0.062321715 -0.75268817 -0.19087481 -1.1261184 -0.224862 -0.0706381 -0.057995625 -0.08381597
1.6446072 -0.4442354 -0.4189616 -1.0624546 -0.0013032593 -0.2044504 -0.18031745 -0.04594399
-0.5933511 1.5854912 -0.062385533 0.2974134 -0.66040075 -0.30532026 -0.52442163 -0.6344062
-0.3956431 -1.2547603 -0.08974605 0.98506624 -0.46174747 -0.20403849 -0.09039261 -0.8365789
-0.13938573 -0.08410812 -0.091201715 -0.112827696 -1.1844343 -0.12617505 1.8631098 -0.31165677
-0.7654295 -0.10240781 -0.12419657 -0.2486526 -0.07247365 -0.09171987 -0.08181157 -0.0743064
-0.035564914 -0.029338168 -0.07836316 -0.53014755 -0.43225092 -0.51371264 -0.0895497 -0.07026412
-0.077685714 -0.191346 -0.027705345 -0.04545478 -0.18664584 -0.36064562 -0.04369065 -1.1922817
-0.14703198 -0.0435005 -0.27701956 -1.2359694 -0.06223932 -0.20542608 -0.031028576 -1.067142
-0.044793792 -0.13233033 -0.12436389 -0.023233023 -0.99887043 -0.041460283 -0.08096776 -0.06741204
-0.5662834 0.15820709 -0.06916669 0.53641737 -0.73776144 -1.637722 3.8088737 -0.9477726
-0.258854 -0.13908748 -0.18867227 -0.26727718 -0.053075247 0.58670956 -0.22905439 -0.47446
-0.021914536 -0.06408529 -0.07749665 -0.022275504 -0.037030987 -0.15969539 -0.05603692 -0.066912845
0.018277021 -0.14392006 -0.1362955 -1.0166247 0.36134034 -0.008368574 -0.4321885 -0.048709426
-0.7606798 -0.20320947 -0.017785154 -0.016614618 -0.039152026 -1.128743 -0.64590347 -0.2228966
-0.39886865 -0.07611857 -0.081157595 -0.56950164 -0.070474185 -0.13478078 -0.11806353 -0.038345974
0.0060194796 -0.21271726 -0.3320497 -0.75136024 0.61439097 -0.046817124 -0.095963426 -0.148655
-0.19914237 -0.07575835 -0.0057822713 -0.09985457 -0.6584689 -0.22097456 -0.8081069 -0.037260376
-0.09707342 -0.07445285 -0.041125763 -0.1463144 -0.41811925 -0.5935822 -0.06519176 -0.8035129
-0.61642873 -0.059254687 -0.5637158 -0.5316097 -0.64779776 -0.10616139 -0.0327273 -0.03086229
00000000: 8789 b7bd 8457 8bbf e2fb 1e3f c0b3 f7ba
00000010: 6c5b 9dbd 1194 d5bd 1dd4 8dbd e42e 27be
00000020: e058 50bd f5b4 993e fec2 91be 150a bbbd
00000030: 7c6a 00bd 58e6 133f 7aa8 3abf 74b3 a6bf
00000040: a27a 90be dc1e 82be 6fe3 b0bd 4baf c7bd
00000050: 28ae c6bf 9942 07bf c5ea c9bf e107 e7be
00000060: a135 76be c91b c5be 0e3b 9abd 9f65 b4be
00000070: 33d4 97bd 669b 4cbf b3f4 88be c309 c0bd
00000080: d910 6dbf 4181 d93e 8f8d b9be 0c6f 13be
00000090: 5dfd b33c b70a 2abb 1e05 5fbf a808 50bd
000000a0: 25dd 77bd 2cc2 01be ebd8 97be a341 05bf
000000b0: af57 d0bd a5bf acbd 724e f0bf 7691 e7bd
000000c0: 9ed0 573e 1486 38be ff89 e2bf a982 a4bf
000000d0: d182 95bc 5d38 26bf 1d3a c1bd b200 7fbf
000000e0: 9630 39be 83c5 b2bd e76d 86bf db78 e5bd
000000f0: 3db4 b9bd ee9e 62bf b732 0ebe 28f8 aa3d
00000100: 8205 2ebe eb70 a5bf 7378 d2be 11f1 3fbe
00000110: 40b8 94bc 2708 82bd fe2a e7bd 7765 79be
00000120: fd0c b4bd 4f9e 9dbe fdee 3a3b 680f 85be
00000130: 0bf6 fabd 95a0 c2be a4a5 c5be 26f7 0fbf
00000140: f59c 08c0 f903 4abf 00ab a9bd 7a5f b6bd
00000150: 8693 90bf d85a 8f3e 1dbc 20bf c03c 6c3f
00000160: 9786 93bf ee05 4ebf 6f6a 08bf cf8f 12be
00000170: 40ea 4abe 1ece 2c3b 71b5 44bf 6c47 903f
00000180: 0e45 7fbd 2cb0 40bf b074 43be a624 90bf
00000190: 3942 66be b5aa 90bd d28c 6dbd b5a7 abbd
000001a0: 7d82 d23f d372 e3be 2382 d6be 83fe 87bf
000001b0: 20d2 aaba 725b 51be 23a5 38be c42f 3cbd
000001c0: dce5 17bf 60f1 ca3f f987 7fbd 9246 983e
000001d0: 0610 29bf f052 9cbe 7f40 06bf 7268 22bf
000001e0: bb91 cabe fc9b a0bf c7cc b7bd 4d2d 7c3f
000001f0: 2a6a ecbe 77ef 50be c31f b9bd 092a 56bf
00000200: 22bb 0ebe e140 acbd f7c7 babd 3512 e7bd
00000210: 8b9b 97bf 0834 01be 627a ee3f 7a91 9fbe
00000220: 30f3 43bf 30bb d1bd c55a febd ca9e 7ebe
00000230: 116d 94bd a1d7 bbbd d38c a7bd f42d 98bd
00000240: 84ac 11bd 9956 f0bc dd7c a0bd c0b7 07bf
00000250: fe4f ddbe ac82 03bf d565 b7bd a3e6 8fbd
00000260: b019 9fbd 35f0 43be 52f6 e2bc cb2e 3abd
00000270: 1620 3fbe 8ba6 b8be f8f4 32bd b09c 98bf
00000280: 8d8f 16be 952d 32bd 82d5 8dbe 3f34 9ebf
00000290: a8ee 7ebd 375b 52be a42f febc 1c98 88bf
000002a0: b279 37bd 9a81 07be 7fb2 febd 2e53 bebc
000002b0: f9b5 7fbf 42d2 29bd 6dd2 a5bd 530f 8abd
000002c0: f3f7 10bf 0a01 223e 44a7 8dbd a652 093f
000002d0: efdd 3cbf e0a0 d1bf 96c4 7340 3aa1 72bf
000002e0: 8388 84be f36c 0ebe 4e33 41be 8ed8 88be
000002f0: 6e65 59bd 9932 163f 3c8d 6abe 6cec f2be
00000300: 1d86 b3bc 263f 83bd 90b6 9ebd 1e7b b6bc
00000310: cead 17bd 3087 23be f886 65bd 9a09 89bd
00000320: b1b9 953c c85f 13be 0c91 0bbe c220 82bf
00000330: 9a01 b93e 581c 09bc d047 ddbe 8983 47bd
00000340: e9bb 42bf 2516 50be 2cb2 91bc 611b 88bc
00000350: e05d 20bd a77a 90bf ee59 25bf 023f 64be
00000360: 8338 ccbe 0ee4 9bbd f435 a6bd dcca 11bf
00000370: c554 90bd f903 0abe 4bcb f1bd ab10 1dbd
00000380: 0e3f c53b 8ed2 59be 6b02 aabe 2559 40bf
00000390: ba48 1d3f 50c3 3fbd 7988 c4bd 0439 18be
000003a0: faeb 4bbe 3227 9bbd 3579 bdbb 8e80 ccbd
000003b0: 6b91 28bf 2847 62be 18e0 4ebf 569e 18bd
000003c0: 6ece c6bd bc7a 98bd 7d73 28bd 71d3 15be
000003d0: ba13 d6be 01f5 17bf 4283 85bd 05b3 4dbf
000003e0: 46ce 1dbf 0bb5 72bd ae4f 10bf 9317 08bf
000003f0: 13d6 25bf 256b d9bd 100d 06bd ead2 fcbc

l3.weight f4 [4, 300]
-0.016508223 -0.2772309 0.020698138 -0.025101248 -0.032026276 -0.026761126 0.020403063 -0.020626007
-0.0039324984 -2.44025 -0.07742195 -0.015774244 0.016227765 0.45120296 0.1887 0.6203946
0.10085795 -0.07785179 -0.0156220775 -0.01153927 -1.4262414 2.5482202 -0.05697934 0.17807612
-0.08847696 -0.5570912 -0.004357559 0.1243354 -0.027794482 0.0021972798 -0.18515806 0.007644247
-0.3592043 -0.5470386 -0.13961074 -0.04093098 0.048488434 0.03270303 -0.4329044 0.01896731
0.017220393 0.12939778 2.1623425 0.41825464 -0.09116516 0.010007101 -1.0167729 0.01471777
-1.5248251 -0.27585062 -0.64390016 -0.70917004 -0.018078268 1.3249305 0.016380895 -0.67380047
-0.077030614 0.038533155 -0.48283523 0.012325212 -1.1308128 -0.35700798 0.062750824 -0.42555785
-0.09570263 1.9537331 -0.5311347 -0.107613996 -0.000970978 -0.033637363 -0.007035664 -0.097578906
-0.008085734 0.3248533 0.06825917 0.9960409 0.0026313004 0.13453746 0.7687913 -2.273552
-1.159342 0.024649965 0.027073719 0.049251664 1.3852507 -0.009019257 -0.01641412 2.7758384
0.20101161 -0.9686266 -0.024900403 -0.0019273831 0.02415937 0.018559996 -0.52574176 0.11705392
0.00421415 -0.4377545 0.0068754614 -0.059012786 -0.0005655918 -0.056781568 -0.010197304 -0.01079977
0.50395465 -0.110318266 -1.9122634 -0.78625697 -0.015182095 -0.86977583 -0.09557485 -0.013929534
1.3765851 1.9257423 -0.03821583 0.64571077 0.265325 -0.021906437 0.05292013 -0.12102298
1.9612203 0.16900168 0.046499178 -1.2324828 0.38573983 -0.37336567 0.013612389 -1.3981929
-0.07356488 0.01117422 0.013895655 -0.1299629 1.5196673 0.035293728 0.07362135 0.095112555
-0.6084104 -0.06717827 0.034401212 0.20096461 -0.01988133 -0.9302049 0.061937373 0.06196061
-0.03321639 0.015160249 -0.034301233 0.03857252 0.14024746 0.07112459 0.032072335 -0.0009969948
-0.009546618 -0.2557511 0.04383425 0.0018399393 -0.08157104 -0.24835174 0.018039059 0.013928573
0.00010934142 0.02748564 0.06293045 1.1040363 0.000977803 -0.13763502 -0.06637889 -0.018025713
0.020891223 0.11355649 0.016216094 0.95118576 -0.83900017 0.033146966 -0.056852836 0.016473943
-0.4768755 0.6486301 0.006930611 -0.17648908 -0.064281724 -1.2962157 -0.010604878 0.47113758
-1.9850107 -0.048454367 -0.025568074 0.12023304 -0.007298338 1.2434578 -0.0386183 0.88974315
0.03941972 0.009367157 -0.0047811605 -0.009151547 -0.03268584 -0.38758823 0.03380804 -0.09459614
-0.025186708 0.07150481 0.018438708 -0.016552621 -0.040844157 -0.00727138 0.14957865 -0.025660275
-1.2533796 0.10982536 0.03780953 0.029861705 0.0050355424 -0.16129881 0.8956348 -1.7504654
-0.58058655 -0.010530096 -0.0047207163 -0.4483609 0.017228961 -1.4716691 0.06346555 -0.007804118
-0.5241638 -0.07469571 0.54080164 -0.06859811 1.316838 -0.008473584 -0.058906037 -0.95224625
2.0900033 -0.0007777029 -0.037314232 -0.05310121 0.315263 0.000533062 0.38989496 -0.037330132
-0.0060253674 0.019570936 0.06881999 -0.028788043 0.025934318 0.26524538 0.03831066 0.10848329
-0.57363766 -0.007361694 1.3024579 0.14741004 -0.15715583 0.027355118 0.030282794 0.020487413
00000000: 413c 87bc 35f1 8dbe 248f a93c 22a1 cdbc
00000010: fc2d 03bd 263a dbbc 5324 a73c dff7 a8bc
00000020: 30dc 80bb 0e2d 1cc0 668f 9ebd fd38 81bc
00000030: 17f0 843c 1304 e73e 933a 413e 2ed2 1e3f
00000040: 9d8e ce3d c270 9fbd bef3 7fbc 350f 3dbc
00000050: 148f b6bf 0a16 2340 2b63 69bd 9659 363e
00000060: 6933 b5bd 879d 0ebf dbc9 8ebb 8fa3 fe3d
00000070: 41b1 e3bc 3d00 103b 139a 3dbe 977c fa3b
00000080: a0e9 b7be b90a 0cbf 1ef6 0ebe 3ea7 27bd
00000090: cf9b 463d 9df3 053d a5a5 ddbe 5561 9b3c
000000a0: c811 8d3c da80 043e d263 0a40 7925 d63e
000000b0: cdb4 babd d3f4 233c 9d25 82bf cd22 713c
000000c0: 782d c3bf 4b3c 8dbe a4d6 24bf 2b8c 35bf
000000d0: e018 94bc 5397 a93f 3a31 863c 307e 2cbf
000000e0: 3ac2 9dbd f1d4 1d3d 2e36 f7be b0ef 493c
000000f0: 79be 90bf c0c9 b6be 8183 803d b8e2 d9be
00000100: beff c3bd ed13 fa3f 72f8 07bf ba64 dcbd
00000110: 3b89 7eba 55c7 09bd 6d8b e6bb 73d7 c7bd
00000120: 077a 04bc 2c53 a63e 77cb 8b3d 89fc 7e3f
00000130: e571 2c3b 30c4 093e 82cf 443f e081 11c0
00000140: 5265 94bf b9ee c93c b4c9 dd3c 1dbc 493d
00000150: e54f b13f 81c5 13bc e876 86bc 56a7 3140
00000160: fdd5 4d3e eaf7 77bf eefb cbbc 3fa0 fcba
00000170: dfe9 c53c 220b 983c 0397 06bf f7b9 ef3d
00000180: da16 8a3b 5c21 e0be 8d4b e13b 64b7 71bd
00000190: 3944 14ba ca93 68bd 9812 27bc 85f1 30bc
000001a0: 2c03 013f 8bee e1bd 0cc5 f4bf 2348 49bf
000001b0: 52be 78bc a1a9 5ebf bfbc c3bd b338 64bc
000001c0: f133 b03f b97e f63f 3488 1cbd 4d4d 253f
000001d0: aed8 873e 2175 b3bc c7c2 583d e5da f7bd
000001e0: 4409 fb3f c70e 2d3e ec75 3e3d ffc1 9dbf
000001f0: b17f c53e c929 bfbe 7f06 5f3c fcf7 b2bf
00000200: 2fa9 96bd 1314 373c 9aaa 633c ff14 05be
00000210: 7584 c23f 2890 103d cac6 963d 5fca c23d
00000220: c9c0 1bbf c394 89bd 49e8 0c3d abc9 4d3e
00000230: 2cde a2bc e921 6ebf 0bb2 7d3d 69ca 7d3d
00000240: e90d 08bd b162 783c 737f 0cbd 38fe 1d3d
00000250: 089d 0f3e c5a9 913d 485e 033d 98ad 82ba
00000260: 6b69 1cbc cff1 82be 8b8b 333d 1e2a f13a
00000270: b80e a7bd eb4f 7ebe a6c6 933c ab34 643c
00000280: 3a4e e538 9129 e13c aee1 803d 1051 8d3f
00000290: a029 803a 32f0 0cbe a8f1 87bd a9aa 93bc
000002a0: 1224 ab3c 4e90 e83d 9dd7 843c e980 733f
000002b0: b7c8 56bf 1dc5 073d 85de 68bd 5df4 863c
000002c0: 0729 f4be 9f0c 263f 2e1a e33b 8eb9 34be
000002d0: 23a6 83bd 65ea a5bf 15c0 2dbc f238 f13e
000002e0: d514 febf 1678 46bd 2374 d1bc bd3c f63d
000002f0: e626 efbb a029 9f3f 392e 1ebd 35c6 633f
00000300: 9376 213d b478 193c 48ab 9cbb 5ff0 15bc
00000310: 96e1 05bd f771 c6be 4d7a 0a3d 9fbb c1bd
00000320: 5b54 cebc 1d71 923d c60c 973c 5d99 87bc
00000330: 344c 27bd c244 eebb 252b 193e 7f35 d2bc
00000340: be6e a0bf 1eec e03d 2ade 1a3d 89a0 f43c
00000350: 3101 a53b 842b 25be 5248 653f 400f e0bf
00000360: 52a1 14bf 6c86 2cbc 3db0 9abb 8f8f e5be
00000370: c023 8d3c a75f bcbf 3afa 813d b0b9 ffbb
00000380: 992f 06bf 10fa 98bd fa71 0a3f 2a7d 8cbd
00000390: 268e a83f cad4 0abc 7547 71bd 69c6 73bf
000003a0: 9dc2 0540 c2de 4bba cfd6 18bd a880 59bd
000003b0: 276a a13e 2fbd 0b3a 50a0 c73e 7be7 18bd
000003c0: 7270 c5bb 3a53 a03c 7ff1 8c3d e7d4 ebbc
000003d0: 3574 d43c 3ece 873e a3eb 1c3d 7d2c de3d
000003e0: ebd9 12bf 5d3a f1bb f1b6 a63f a8f2 163e
000003f0: 75ed 20be d717 e03c 9f13 f83c 38d5 a73c

l3.bias f4 [4]
0.13942449 0.17929846 0.22388786 0.30895326
00000000: 4bc5 0e3e 049a 373e dc42 653e 1f2f 9e3e
