TD3_control/dir_Walker2D_002/biped-v7-2d-1_actor_t.pth (torch, 527895 bytes, 6 tensors)

l1.weight f4 [400, 24]
000000 b6 55 8f 40 5d d3 8e bf ea b8 5a bd 55 36 3a bf
       4.4792128 -1.1158253 -0.053399004 -0.72739154
000010 f8 e1 a0 bf 0f dc 0f bf d5 ad 5d bd e7 3e e2 3c
       -1.256896 -0.5619516 -0.054120857 0.027617885
000020 6b b1 d3 bf dd 1b bd 3d 60 de 90 bf 84 30 04 3f
       -1.6538519 0.0923383 -1.1317863 0.5163653
000030 7c 64 00 3f 1d be ec 3e 56 ad ef bd a0 0e 1a bc
       0.50153327 0.46238795 -0.11702983 -0.009402901
000040 ed b2 32 bf ae d1 ca bd d9 d3 6f 3d 23 d5 1c bd
       -0.6980427 -0.099032745 0.058551643 -0.0382892
000050 d8 26 0e bd ae ae c8 bc e5 7a de bd a4 43 00 3e
       -0.034705013 -0.024497356 -0.10863284 0.12525803
000060 b1 cb 67 3f 95 4c 0b bf 10 ed 11 3f 33 85 b0 c0
       0.90545183 -0.5441373 0.57002354 -5.5162597
000070 9c 3e 04 3f 36 67 76 bd 09 c6 3f be 6c c6 71 3c
       0.51658034 -0.060157023 -0.18727888 0.01475678
000080 26 de 6e bf aa 6a 94 3d 4d a7 86 3f ce fa 32 3e
       -0.9330772 0.07246907 1.0519806 0.17478487
000090 82 50 5c 3f 92 51 a0 bd 5a c7 c5 bd 8b a2 31 3e
       0.86060345 -0.07828058 -0.09657164 0.17347161
0000a0 b7 39 03 c0 b9 ea 82 3c b9 e3 bd 3e 15 52 2d 3e
       -2.0503976 0.015981065 0.370878 0.16925843
0000b0 0d b0 ab 3d b8 ef 00 be 6e e3 ac 3e e2 27 19 bf
       0.083831884 -0.12591445 0.33767265 -0.5982648
0000c0 7e 16 1b 3e 01 33 05 c0 00 60 44 3f 87 4e 53 c0
       0.15145299 -2.081238 0.76708984 -3.301668
0000d0 87 4b c9 bf 69 76 0a c0 7b 37 b8 bd 63 19 bb 3d
       -1.5726174 -2.1634772 -0.08994957 0.091357015
0000e0 be 31 19 bf cc af 3e bf 40 27 42 3f d5 8c c0 3d
       -0.59841526 -0.74486995 0.7584114 0.094018616
0000f0 84 df f9 bf 70 3e aa 3e 7d 09 25 3e aa 15 02 3e
       -1.9521337 0.3325076 0.161169 0.12703577
000100 88 88 82 be 10 53 9d bd ba 6f 2c c0 30 7e 4e 3e
       -0.2549479 -0.076818585 -2.6943192 0.20165324
000110 3c ea 21 3e fc e6 42 3e 4d cd b9 be fb a3 6a 3e
       0.1581201 0.19033426 -0.36289445 0.22914116
000120 c0 10 86 3f b2 a9 36 3e bc 39 c5 be 10 17 cd bf
       1.0473862 0.17838171 -0.3852061 -1.6022663
000130 b3 ae 05 bf 4f d3 22 40 8a 8f d5 bc 4f 29 a5 bd
       -0.52219695 2.5441473 -0.026069421 -0.080645196
000140 3e 2e d6 bf e2 c0 0b bf 5d 2f 78 3f 4d 5a bf be
       -1.6732862 -0.5459119 0.9694727 -0.37373582
000150 89 1d 91 3f b0 6d 89 be 21 3a e3 3c c8 fe 13 be
       1.1337138 -0.26841497 0.027737679 -0.1445266
000160 75 34 90 3f 76 07 24 3d bb 4d 75 c0 1d cd 05 be
       1.1266009 0.040046178 -3.8328693 -0.13066526
000170 6a 13 0c 3e 89 9b 4b bd d6 d2 f9 be 9b ba 22 be
       0.13679281 -0.049708877 -0.48793668 -0.15891497
000180 1d de 0c c0 cc 82 f8 be 60 a6 81 bd 75 f7 9a 3f
       -2.2010567 -0.4853729 -0.06330562 1.2106768
000190 1f af 03 40 42 d2 1a be ec c7 38 3e 0c 4f 5b bd
       2.0575635 -0.1511927 0.18045014 -0.05354218
0001a0 e7 7e 43 bf d6 38 54 be ca 1b fa 3f 89 63 64 3e
       -0.7636551 -0.20724806 1.953973 0.22303595
0001b0 c2 12 ab 3f 09 d7 f4 bc 77 55 b1 bc 8f e0 4a be
       1.33651 -0.029887693 -0.021647198 -0.19812225
0001c0 05 1b 97 3f 5d af 24 3e 36 d0 77 be 9a fc 2a 3e
       1.1805121 0.16082521 -0.2420052 0.16697922
0001d0 4e be d7 bd 4d be be bd f9 54 19 bf 6f fe ae 3e
       -0.105343446 -0.09313641 -0.59895283 0.34178492
0001e0 86 09 4b 40 45 bf 4c 3d 56 a5 c5 3e 3c 62 19 3f
       3.1724563 0.049987096 0.38602704 0.5991552
0001f0 17 ad 0b bf c4 05 e4 3f b1 fc 2e be f0 8b e1 bd
       -0.5456099 1.781426 -0.17088582 -0.11013019
000200 69 47 06 3f e0 09 14 be fe e1 2d 3e 07 e1 da bc
       0.52452713 -0.14456892 0.1698074 -0.02671863
000210 4d 44 16 be 33 15 93 bc f5 03 08 3e 71 dd ac 3d
       -0.14674492 -0.017954445 0.1328276 0.08440674
000220 b2 4b 05 3e 6b 1f 40 3d 4d 20 1d bf 1f 50 9e bb
       0.13017157 0.046904963 -0.6137741 -0.0048313285
000230 7e 2b d6 bc 9c 9c 43 3e f1 34 ae 3f 5d 7a 58 be
       -0.026143786 0.1910271 1.3609906 -0.21140428
000240 dc af 8d bf f4 4d a4 be 4b af 69 bf de 57 8f 3e
       -1.1069293 -0.32090724 -0.912831 0.27996725
000250 c9 bc 3f 3f 5d 76 97 bf b7 14 dc 3d 9f 1a 44 be
       0.7489744 -1.1832997 0.107461385 -0.1915078
000260 a3 13 a8 be 66 27 7e be 50 91 eb 3e 1f d9 d2 3d
       -0.32827482 -0.24819717 0.46009302 0.10295319
000270 25 88 77 3f 12 f7 87 be df 55 c5 bd 59 1d e3 bd
       0.96692115 -0.26555687 -0.09635519 -0.11089582
000280 2f bd d2 bf c7 90 af be a3 f4 c8 be d6 8e 56 3e
       -1.6463984 -0.34290144 -0.39249143 0.20952925
000290 bd ef 66 3d f4 99 12 3e 23 cc 61 bf 5e 9d f9 bf
       0.056380976 0.14316541 -0.8820211 -1.950115
0002a0 8c a7 ee bf 27 84 95 bd b5 79 16 3c fd fd 90 bf
       -1.8644881 -0.07300597 0.009184291 -1.1327511
0002b0 a2 01 39 c0 20 ed 41 c0 22 49 ab 3b e0 56 24 be
       -2.8907247 -3.030098 0.005227224 -0.16048765
0002c0 11 92 3e bf 97 74 ac 3a 4a 56 87 3f b7 20 56 3e
       -0.7444163 0.0013157305 1.0573208 0.20910917
0002d0 44 d9 ed 3c 4b b3 dc be 09 31 12 be f2 ae e0 bd
       0.029034264 -0.4310554 -0.14276518 -0.10970868
0002e0 13 19 c3 3f ed 37 65 be 88 cb 8e bf fa 69 44 3e
       1.5242027 -0.22384615 -1.1155863 0.19181052
0002f0 2e 75 29 bc 16 fa 1e be 17 3e a4 bf 07 29 04 c0
       -0.010342879 -0.15525088 -1.2831448 -2.065004
000300 da 44 99 40 5b 1d 86 3f b3 91 41 bf 9c de 96 3d
       4.7896547 1.0477709 -0.75612944 0.07366678
000310 b6 0e 0a bf ac 07 02 40 6a e6 35 3e 72 48 a2 bd
       -0.539287 2.0317183 0.17763677 -0.07923974
000320 6c d5 93 bf 78 11 07 bf 91 e4 24 bf fa ec cb bd
       -1.1549506 -0.5276103 -0.64411265 -0.09957309
000330 0d 98 7e bf 56 85 fc bd 16 75 32 be 97 f6 ab bd
       -0.9945076 -0.12330119 -0.17427477 -0.08396643
000340 0e b4 dc 3f 18 3c 38 3f 01 97 98 bf 47 b6 60 bf
       1.7242448 0.71966696 -1.1921083 -0.87778133
000350 20 6e 3f bc eb 39 a0 bd 29 83 f3 bf b8 75 53 bf
       -0.011683971 -0.07823547 -1.9024402 -0.826015
000360 68 ba ce be 14 58 a9 be 19 6c 0b 3f a9 91 4e c0
       -0.40376592 -0.3307501 0.5446182 -3.2276404
000370 fc 9e d2 bf 1f 72 67 3f b1 83 46 3d 44 ae f3 3d
       -1.6454768 0.9040851 0.048465434 0.11898473
000380 9f 9b 88 bf 22 b4 8e be 62 fa 81 be 31 3b 8d be
       -1.0672492 -0.27871805 -0.2538634 -0.27584222
000390 61 16 38 bf 7a 1e 18 3e 7e d3 90 3d 0a 4b 27 3e
       -0.7190915 0.14855376 0.07071589 0.16337219
0003a0 91 f7 a0 bf 88 41 eb 3d 41 ee 41 c0 5a 6a f4 bd
       -1.2575551 0.114871085 -3.0301669 -0.119343475
0003b0 86 33 99 3d 07 87 80 bd de 45 b2 3d f8 60 09 c0
       0.074805304 -0.062757544 0.08704732 -2.1465435
0003c0 ae ef ea 3f 6c e0 b9 3e dc 6a c4 bf 21 84 2b c0
       1.8354394 0.36304033 -1.5345111 -2.6799395
0003d0 d3 5d 8e 3f d5 56 c3 3f 24 2a b6 bd 82 6c f1 3d
       1.1122383 1.5260874 -0.088947564 0.11788274
0003e0 29 16 e8 bf b2 96 59 bd 61 30 71 bf 8c 13 8d be
       -1.8131763 -0.05312223 -0.94214445 -0.27553976
0003f0 13 1f 5e bf c1 f9 a5 be 60 67 a4 3d 8c 38 99 bc
       -0.86766165 -0.3241711 0.0802753 -0.018703721

l1.bias f4 [400]
000000 3a d4 dd be d6 2f ad be 96 34 33 3c e0 52 28 bf
       -0.4332598 -0.33825558 0.01093783 -0.6575146
000010 4f b4 e5 bf 58 7d 40 3f 35 ba c2 bf 63 ed f0 bf
       -1.7945651 0.7519126 -1.5213076 -1.8822445
000020 ae 3b 8b bf dc fd 26 bd bc 22 71 bf b7 9c 16 bd
       -1.0877588 -0.040769443 -0.94193625 -0.03677055
000030 69 5b 77 bf 14 d9 2b be dc a0 d0 bf 36 27 04 c0
       -0.96623856 -0.16782027 -1.629909 -2.0648932
000040 11 7c 25 bf b3 89 8d bf de f2 cb 3d 87 56 ca bf
       -0.64642435 -1.1057647 0.099584326 -1.5807656
000050 31 0c 9a bf 38 07 4e bf 15 75 24 3e 98 86 a1 bf
       -1.203497 -0.80479765 0.16060288 -1.26192
000060 f3 0a af bf 19 1a d7 be d4 29 3a bf b9 1d 8a bf
       -1.3675216 -0.42012098 -0.72720075 -1.0790321
000070 25 76 14 bf e8 7e 3e bf 52 0a 72 bf f4 9a 68 bf
       -0.57992774 -0.74412394 -0.94547 -0.9086144
000080 ca 35 ce bf a2 be 27 be 1c a5 4a bf a2 6c dc be
       -1.6110165 -0.16381314 -0.79158187 -0.4305163
000090 7d 79 d2 bf be af 02 c0 b9 bf 65 bd d9 2c fe be
       -1.6443325 -2.0419765 -0.056091044 -0.4964359
0000a0 18 a4 b4 bf 0b 96 b0 be 9f fb 66 bf 98 f9 8b be
       -1.4112577 -0.34489474 -0.90227693 -0.27338862
0000b0 55 4f 52 be 15 9e 34 bf df 17 09 3d 16 d6 c6 bf
       -0.20538075 -0.70553714 0.03347003 -1.5534084
0000c0 72 4a d1 bf ab 63 ce 3e 49 02 d2 bd 3b aa 96 bf
       -1.6350844 0.40310416 -0.10254342 -1.17707
0000d0 71 ab 9e bf 01 e7 82 be ad 30 84 bf 3c b6 2e bf
       -1.239607 -0.25566867 -1.0327355 -0.6824682
0000e0 fb 82 12 bf 8b 5e 02 c0 fa be d1 bf be e0 9b bf
       -0.5723111 -2.0370204 -1.6386406 -1.2177961
0000f0 80 03 85 be cd b7 96 bf a4 07 bc be a4 73 f7 be
       -0.25979233 -1.1774842 -0.3672458 -0.48330414
000100 1d e0 e4 bf b6 bc 1e bf bb dd 7a be a5 00 68 bf
       -1.7880894 -0.620067 -0.24498646 -0.90625983
000110 40 4a 97 bf c0 01 41 bf 09 59 1b be 14 71 b7 bf
       -1.1819534 -0.75393295 -0.15170683 -1.4331384
000120 84 f7 cb bf d6 6b fb bf 05 7f af bf 06 d2 66 bf
       -1.5934911 -1.9642284 -1.3710638 -0.9016422
000130 99 40 89 bf 47 36 65 be ca eb 97 bf 49 e6 1e bf
       -1.0722839 -0.22383986 -1.1868832 -0.6207014
000140 2a 6b 8f be f6 4b a9 3e 81 2e c8 3e 28 36 28 3e
       -0.28011447 0.33065766 0.3909798 0.16426909
000150 d9 3b 82 bf bb 76 84 bf 56 b0 87 bf 2b 59 99 be
       -1.0174514 -1.0348734 -1.0600688 -0.29950842
000160 1e c3 59 bf 91 19 9e bf d5 56 c9 3e b0 e3 12 bd
       -0.8506335 -1.2351552 0.3932406 -0.03586167
000170 a1 ae 65 bf 21 e1 25 be c0 dc c5 bd 8f 57 a1 bf
       -0.8971959 -0.16199161 -0.09661245 -1.2604846
000180 f8 60 b2 bf af 41 3d bf df 14 44 be e1 8c 5a be
       -1.3935843 -0.7392835 -0.19148587 -0.21342804
000190 89 4f 51 bf 34 7b 1d bf 97 56 81 bf 72 e2 8a 3f
       -0.81761986 -0.6151612 -1.010455 1.0850356
0001a0 0d dc 29 bf 04 14 59 be c9 05 ae bf 61 3a b4 bf
       -0.66351396 -0.21199042 -1.3595515 -1.4080316
0001b0 14 81 3b bf 95 24 ab 3e 7a b9 2c bf 3f d9 ce bf
       -0.7324383 0.33426347 -0.67470515 -1.6160048
0001c0 dd 6d 95 bf 18 26 6b 3f 38 47 30 bf b6 01 8b bf
       -1.1674153 0.91855 -0.6885867 -1.0859897
0001d0 6b ba e6 be 70 ef b9 bf 77 46 65 bf 2a 82 69 bf
       -0.450641 -1.4526196 -0.89560646 -0.9121424
0001e0 64 68 01 c0 13 ff 5b bf 82 92 73 bf 5b 46 8d bf
       -2.0219965 -0.8593609 -0.9514543 -1.1037096
0001f0 c3 43 51 bf a4 dd c4 bd 45 67 a1 bd ac fe 19 bf
       -0.8174402 -0.09612587 -0.07881025 -0.60154223
000200 3a b6 76 bf fb 49 91 bf 9a 8e c2 bf 7d 12 25 3e
       -0.96371806 -1.1350702 -1.5199769 0.16120334
000210 c1 18 a1 bf 78 8a 75 bc cb d1 30 bf 32 4d 57 be
       -1.2585679 -0.014986627 -0.6907012 -0.21025541
000220 2c 8e 2f bf 47 6c 5f bf cb 64 07 c0 07 cc 85 bf
       -0.6857631 -0.87274593 -2.115527 -1.0452889
000230 22 1e 64 be 10 17 f2 bf c6 67 9f bf bd 81 7a be
       -0.2227712 -1.8913288 -1.2453544 -0.24463554
000240 78 93 89 bf fb 26 7e bf e0 00 c5 be b7 12 1c 3e
       -1.0748129 -0.9927823 -0.3847723 0.15241514
000250 46 f8 0b c0 ef 41 08 bf 21 a7 e7 be 85 d0 9d be
       -2.1870284 -0.53225607 -0.45244697 -0.3082315
000260 0c 10 cd bf 66 12 7c bf 9e c2 65 bf 08 cc 38 bf
       -1.6020522 -0.98465574 -0.8975009 -0.72186327
000270 dd 5b 78 bf f4 a1 c9 bf 7f 9e e7 bf bc c6 70 bf
       -0.9701517 -1.5752549 -1.8095244 -0.94053245
000280 5f 90 1c bf 50 f5 a9 be 2d f9 82 3e e4 a7 6c bf
       -0.6115779 -0.3319497 0.2558073 -0.9244368
000290 52 d2 0d be db d3 38 bf 8a d9 95 bf 1e fd 6b bf
       -0.13849762 -0.72198266 -1.1707013 -0.921831
0002a0 54 d5 af bf d2 1a 06 3e 86 70 f7 bf 30 64 9d bf
       -1.3736978 0.13096169 -1.9331214 -1.22962
0002b0 7b a2 01 c0 ef 76 50 bf d6 56 b2 bf 4f 5c 2e bf
       -2.025542 -0.8143148 -1.393275 -0.681096
0002c0 ef 95 85 bf ed 8c d3 be c1 26 b2 3d 0f 7d 30 bf
       -1.0436381 -0.41318455 0.08698798 -0.68940824
0002d0 c9 95 bc bf f4 27 50 bf 51 e4 91 be 1b b1 2e 3e
       -1.4733211 -0.81310964 -0.28494504 0.17059748
0002e0 43 89 c1 bf 86 c1 a8 be be e9 b4 bf d3 c1 d6 bf
       -1.5120014 -0.32960147 -1.4133832 -1.67779
0002f0 6e 3a b1 bf e3 a7 8b bf 08 eb 48 bf 65 c0 7e be
       -1.3845956 -1.091061 -0.7848363 -0.2487808
000300 f0 6a c6 bf bf 31 a6 bf a1 f0 4b bf c2 d1 30 be
       -1.5501385 -1.2983931 -0.79664046 -0.17267516
000310 2f 41 c2 be 22 80 28 3f 22 e3 ac be fe 19 da bc
       -0.37940356 0.65820515 -0.3376704 -0.026623722
000320 55 a1 b9 bb 15 40 61 bf 26 b0 3a bf 26 31 f1 bf
       -0.005664984 -0.87988406 -0.7292503 -1.8843124
000330 1d ab 5a bd 78 4d 6a be 5d f5 fb be 58 a3 ba be
       -0.053385843 -0.22881114 -0.49210635 -0.36452746
000340 bb 77 18 bd 84 69 a2 bf 75 6f 3c bf d2 33 31 bf
       -0.03722356 -1.2688451 -0.7360757 -0.69219697
000350 90 3b ab bf c2 44 c6 3e 4d fe 17 be 8c 98 2d bf
       -1.3377552 0.38724333 -0.14843102 -0.67810893
000360 f5 08 73 bf 53 b6 47 bf d0 05 30 bf 9a 51 cb bf
       -0.9493554 -0.7801258 -0.6875887 -1.5884278
000370 33 69 95 bf 17 e0 d5 3e 76 55 b9 bf 52 5c 9f bf
       -1.1672729 0.4177253 -1.4479206 -1.2450049
000380 e5 a8 28 bf 86 90 af be 72 42 01 be c6 3d 83 bf
       -0.6588271 -0.3428995 -0.12623003 -1.0253227
000390 dc 94 ae bd 7e b5 94 3e f5 79 9d bf f3 7d d1 be
       -0.085244864 0.29044718 -1.2302843 -0.40916404
0003a0 6d 5c c3 bf 28 af 72 bf 71 7e c8 bf 65 6d 0e bf
       -1.5262581 -0.9479852 -1.5663587 -0.5563567
0003b0 0e e0 01 bf b3 d1 5c 3d 40 da 8d bf 6e 43 cb be
       -0.50732505 0.053910922 -1.108223 -0.39699882
0003c0 e1 05 b2 bf e7 9d 12 bf df 9e 0f 3e b0 ca 0d bf
       -1.3908044 -0.5727219 0.14025448 -0.553874
0003d0 76 81 a2 bf b2 cc 0f bf 09 d8 59 bf 52 51 9b bf
       -1.2695758 -0.56171715 -0.8509527 -1.2134192
0003e0 d4 10 12 c0 1a 64 28 bf de aa 8d bf 2f 39 1d bf
       -2.282277 -0.6577774 -1.106777 -0.6141538
0003f0 50 03 ba 3e be cf 9c bf a0 ba 8f 3e a9 1b d3 bf
       0.36330652 -1.2250898 0.2807207 -1.6492816

l2.weight f4 [300, 400]
000000 91 4f 4c bc 6c b9 0c bc 07 55 b3 3b 3d f0 19 3d
       -0.012470142 -0.00858913 0.0054727825 0.037582625
000010 61 02 56 3c a6 bb 98 bd 63 6a ff 3b b1 7b c1 bd
       0.013062091 -0.07457666 0.0077946647 -0.094474204
000020 e5 97 1f bc 45 6f 86 bd 1d 90 83 bd 88 ce 3e bd
       -0.009740804 -0.06564192 -0.06423972 -0.046583682
000030 47 60 ae bd ce df 9c bd e7 05 af bc 18 96 b7 bd
       -0.08514457 -0.07659875 -0.02136512 -0.08964175
000040 85 4a 89 bd 2c 25 7a 3d 4e 19 22 3c 8e 94 1b bd
       -0.067036666 0.061070606 0.009893728 -0.03798347
000050 f9 89 45 bc 7c e7 0f bd fb 91 fe bc f8 25 c5 3b
       -0.012056821 -0.03513287 -0.031075468 0.006016489
000060 d6 2a 9a bd 46 29 9a bd 97 91 a5 bd fd b8 1d 3d
       -0.075277016 -0.075274035 -0.0808441 0.038506497
000070 f3 a9 64 bd d3 68 66 bc b8 ac 3a bd 19 b5 4f bd
       -0.05582614 -0.014063078 -0.045574874 -0.050709818
000080 5b e6 65 bd 09 d5 d8 3a 09 4f 4d bc 10 19 ba bd
       -0.056127887 0.0016542982 -0.0125310505 -0.090868115
000090 bd 99 84 bd e5 dc 07 bd 8e 35 96 bd 80 b7 30 3d
       -0.06474636 -0.033169646 -0.073344335 0.04314375
0000a0 f9 1e 42 bb 83 9d 77 39 b1 24 43 bc 57 ea 2a 3b
       -0.0029620512 0.00023614433 -0.011910603 0.002607962
0000b0 0e b2 14 3d 66 91 1e bd 81 89 40 bd 35 de 86 bd
       0.03630262 -0.03871288 -0.047006134 -0.065853514
0000c0 5b 38 69 bd b6 bb 2b 3d 1e e8 9e bd ed 4e 8b bd
       -0.05693851 0.041927062 -0.077591166 -0.06802163
0000d0 c3 6f ef bc 05 5d 88 bd 2d 76 92 3b 9e 3f 9f bd
       -0.029228097 -0.06658367 0.004469654 -0.07775806
0000e0 59 82 cc bd ae 2c 98 bc f7 3c a4 bd 0f e4 ad bc
       -0.09985799 -0.018575992 -0.080194406 -0.02122691
0000f0 ca 8c e3 3b 8f 7f ab bd b4 5b f0 bc 8f b2 2f bd
       0.0069442736 -0.08373939 -0.029340602 -0.042894896
000100 6d 75 0f bc 40 e0 3d bd 50 6e b1 bd 47 c7 a1 bc
       -0.008756024 -0.04635644 -0.086636186 -0.019748343
000110 b0 25 c7 bc e7 91 a0 bc 79 ce c4 bd 7d ab 00 bd
       -0.024309963 -0.019600822 -0.09609694 -0.031413544
000120 a2 ef d5 bc 17 a5 a8 bd a0 a7 c8 bc 62 16 5b bd
       -0.026115242 -0.082346134 -0.024493992 -0.053488143
000130 55 96 9f 3c 1a 45 d1 bd 15 00 05 bc 0b fd e2 bc
       0.019480864 -0.10218258 -0.008117695 -0.02770855
000140 7d 23 86 bc a6 6f 14 bd b1 e0 45 bd 86 55 1c bd
       -0.016374344 -0.03623929 -0.048309986 -0.0381675
000150 fe f7 1f bd 3d e4 02 bc 61 93 c2 bd 1a f0 5a bd
       -0.039054863 -0.007988987 -0.095007665 -0.053451635
000160 c6 cf 91 bd b3 a2 60 bd 11 c4 5c 3c c5 f8 06 bd
       -0.07119708 -0.054842662 0.01347448 -0.03295209
000170 46 14 91 bd c6 58 29 3c b0 fc b8 bc 41 9e 48 bd
       -0.07083945 0.010336107 -0.022581428 -0.048979048
000180 7c 44 f4 3c 49 ce 56 3c 8b 9f 63 bc 15 21 8c bd
       0.029817812 0.013110706 -0.0138930185 -0.068422474
000190 be e4 9d bd f7 da 2b bd cd 5e 0c bd c4 b5 0d 3d
       -0.07709645 -0.041956868 -0.034270097 0.034597173
0001a0 f9 10 d5 3c 5a 71 53 3d fa 55 ef 3b 14 5a f6 bc
       0.02600907 0.051621772 0.0073039504 -0.03007225
0001b0 79 7d c5 bc e5 96 02 bd 07 51 23 bd d6 9b 9c bd
       -0.024107682 -0.031882185 -0.039872196 -0.07646911
0001c0 e9 48 da 3b e8 ed b2 bc a9 18 48 bd c9 14 5e 3b
       0.0066615236 -0.021841958 -0.048851643 0.00338869
0001d0 27 50 2c 3d cc 9d f5 bc e6 5d 18 bd be 39 94 bc
       0.042068627 -0.02998247 -0.037198924 -0.01809394
0001e0 31 7c c3 bd ce e6 1f 3c 04 6a f1 bd 92 32 55 bd
       -0.09545172 0.009759618 -0.11787799 -0.05205018
0001f0 a3 f8 60 bc 30 b2 ba bc 6b 0d 66 bd 9f 7b ae bd
       -0.013731155 -0.022790045 -0.05616514 -0.085196726
000200 3a 36 d4 bc d3 d9 e8 bc 37 57 29 bb f5 86 07 bd
       -0.025904763 -0.02842418 -0.0025839338 -0.03308769
000210 e2 b0 d4 ba ff 5b a0 bd 36 0e 18 bc 29 07 4d bd
       -0.0016227032 -0.07830047 -0.009280732 -0.050055657
000220 81 ac cf bc e5 4c 9f 3b 68 4d ba bd f4 ca 04 3c
       -0.025350811 0.0048614615 -0.09096795 0.008105028
000230 b6 85 9b 3b 0d cd 83 bd 74 92 03 3c 7f 27 2f 3b
       0.004746164 -0.06435595 0.008030523 0.0026726422
000240 96 00 80 3b 85 4a 89 bd b5 ad 8c bd c8 a8 bd bd
       0.00390632 -0.067036666 -0.068690695 -0.09260708
000250 0e 8c 92 3d eb 89 e4 bb 6e ce 2e 3d 34 f2 f2 bb
       0.071556196 -0.006974449 0.042677335 -0.007414127
000260 47 d0 ac bd 4f 68 32 3a dd 95 01 bd cd d8 80 bc
       -0.08438163 0.00068057043 -0.03163706 -0.015728379
000270 fe 3e 90 bd ef c2 32 3a da 7f 5b bd e8 63 49 3b
       -0.07043265 0.00068192085 -0.053588726 0.0030729715
000280 58 4a b4 bc 3d 3d 09 bd 76 63 a8 3c 2d 14 9a 3a
       -0.022008106 -0.033505667 0.02055524 0.001175528
000290 b6 ce 13 bd 73 78 66 bd 7c 5d f4 bc 7e b8 1b bd
       -0.036085807 -0.056267213 -0.029829733 -0.038017742
0002a0 a5 d6 07 be f7 a5 38 39 ac f2 77 bd 39 9d c7 bd
       -0.13265474 0.00017609434 -0.060534164 -0.09746785
0002b0 93 1f ed bb 4e 4f 99 bc c5 7c 0a bd 0e 67 94 bd
       -0.00723643 -0.018714573 -0.033810396 -0.072462186
0002c0 ce f8 1c bd 17 03 2a 3d 84 36 84 3b 2f 16 bb 3c
       -0.038323216 0.041506853 0.004034819 0.022837726
0002d0 a2 13 50 bd 4c 8b f6 ba 76 8f 10 bb 92 5a df bd
       -0.050799973 -0.0018809824 -0.0022058166 -0.10905947
0002e0 43 a6 e8 bc 1d e1 1b bc 5f 84 38 3d a6 1d 91 bd
       -0.028399592 -0.00951412 0.045048114 -0.07085733
0002f0 96 a1 9a bc 3f d0 2f bc 04 45 0c 3c 5e 1f 9b bd
       -0.018875878 -0.010730802 0.0085613765 -0.07574342
000300 e7 22 a6 bc ff 75 a4 3c 4d ee 0b 3d df 99 2a bd
       -0.020280315 0.020075796 0.03416281 -0.04165065
000310 05 17 83 bd 5d be 8d bd c7 68 b7 3c 58 7c b4 bd
       -0.06400875 -0.069210745 0.022388829 -0.08812779
000320 87 ed 24 bd 9d c5 11 3d 85 d5 0f bd 24 2a f8 bc
       -0.040265586 0.03558885 -0.035115737 -0.030293532
000330 e5 6b 05 bc 94 a3 09 3d ee 17 90 bc aa 30 5d bd
       -0.0081434 0.033603266 -0.017589536 -0.054001488
000340 fa 04 d7 bc 79 37 c0 bd 45 3d 86 bc 4f 53 29 bc
       -0.02624749 -0.093855806 -0.016386637 -0.010334804
000350 b5 66 83 bd e0 b7 be bc 48 e0 3a bd f6 0e 9b bd
       -0.06416074 -0.023281038 -0.045624048 -0.07571213
000360 a0 07 b9 bd 00 b4 bb bd f8 27 b4 bd 1a 52 53 bb
       -0.090346575 -0.09165192 -0.08796686 -0.0032244981
000370 34 8c 03 3d 58 1f b7 b9 18 7c 4c 3b e4 19 82 3c
       0.03211613 -0.00034927833 0.0031201895 0.015881486
000380 76 57 91 bd 44 57 f1 bd b6 96 94 bd ab 83 fd 3c
       -0.0709676 -0.11784223 -0.07255308 0.030946573
000390 8c 3a f8 bc 3d 4e 02 3c 81 bd c8 bc 23 8c 70 3c
       -0.030301355 0.007953224 -0.024504425 0.014681849
0003a0 b7 30 a5 bd 28 7d b1 bc ca fd e5 3c a5 14 06 bd
       -0.08065932 -0.021666124 0.028075118 -0.032734532
0003b0 f6 12 12 bd 78 78 31 bd 40 b8 cc bc 7b 5e f8 bc
       -0.035662614 -0.04332778 -0.024990201 -0.03031849
0003c0 3d 63 8b bd 00 50 bb bd b6 ce 2c bd 3d c4 98 3b
       -0.068060376 -0.09146118 -0.042189322 0.0046620653
0003d0 cd 87 81 bd 14 cb f8 bb 4c 0d f2 bd 88 78 44 3c
       -0.0632473 -0.007592568 -0.118189424 0.0119916275
0003e0 e5 3a 09 be 36 38 91 bd 5c 17 7b bd ff 0d ad bd
       -0.13401373 -0.070907995 -0.061301574 -0.08449935
0003f0 e7 54 26 bd 5d b0 87 bd 26 ef 1e bd 88 c6 b7 bd
       -0.040608313 -0.066254355 -0.03880229 -0.08973414

l2.bias f4 [300]
000000 d9 e4 46 bd dd 9a 9f be a0 9c 1b be 75 c4 03 be
       -0.04855809 -0.3117284 -0.15196466 -0.12867911
000010 73 d0 e8 bd fc e7 78 bd 06 68 1b bd d6 99 14 bb
       -0.113678835 -0.060768113 -0.037941 -0.0022674701
000020 ca 7d d9 bd 30 c2 cc bd 97 07 3c 3b 7a 51 dd be
       -0.106196955 -0.09997976 0.0028691047 -0.43226224
000030 7e e2 14 bd fa 21 f2 bd f7 35 21 bd c7 0d a9 bd
       -0.036348812 -0.11822887 -0.039358106 -0.08254581
000040 ce f6 94 bd 41 d9 58 3f 73 13 e2 be 53 9d 70 3e
       -0.07273637 0.84706503 -0.44155464 0.23497514
000050 8d b8 15 bc 15 83 84 bd 77 5c a5 bb 3a ec d7 bd
       -0.009138239 -0.064703144 -0.005046423 -0.105431035
000060 c6 3f 90 bd 26 6d a3 3a 85 16 81 be 1c ba b6 be
       -0.07043414 0.0012468442 -0.25212494 -0.35688865
000070 77 cd 27 bd 96 99 93 bd be c5 1e be c6 27 14 be
       -0.04096743 -0.072070286 -0.1550512 -0.14468297
000080 0e ac 15 bd 04 f1 00 3e 73 45 e2 bd d1 42 cb bd
       -0.036541037 0.1259194 -0.11048403 -0.099248536
000090 27 82 ac bd a6 45 9b bd 3d b4 0a be 8e 66 92 bd
       -0.08423262 -0.07581644 -0.13545318 -0.07148467
0000a0 7b e5 6e bc 65 89 97 be 87 07 a9 bd 1d 48 c8 bd
       -0.01458108 -0.2959701 -0.08253389 -0.097793795
0000b0 8e 50 1e bd 59 fd 0e bf 3e 6e 9e bd c7 77 e7 bb
       -0.03865104 -0.5585533 -0.07735871 -0.007063839
0000c0 b3 5d ac bf 7f 14 ae bd 63 01 6b be e9 a7 5f 3d
       -1.3466095 -0.08500003 -0.22949748 0.05460349
0000d0 9c 9b ff bd 28 5f 0b bf b0 3b bb bd 47 32 25 be
       -0.12480852 -0.5444207 -0.09142244 -0.1613246
0000e0 a5 c2 02 bd d1 b6 c0 bd ef 1b 00 bd 1f be 28 bf
       -0.03192391 -0.094098695 -0.03127664 -0.659151
0000f0 b5 21 82 bd 3c da 0c 3c 41 34 c9 bd 98 9d bc bd
       -0.06354085 0.008596953 -0.0982442 -0.09209746
000100 f4 2c 7d bd 11 ca 50 bf 21 63 49 be a0 6a b5 bd
       -0.06181045 -0.8155833 -0.19666721 -0.08858228
000110 8d b6 0d bd a0 c7 72 bf 7b 6c e5 bc e4 a8 7f bc
       -0.034597922 -0.94835854 -0.02800583 -0.0156042315
000120 d4 b7 76 bd a8 da b0 bd b1 89 42 bf 69 d4 49 be
       -0.060233906 -0.08635455 -0.7599135 -0.19709934
000130 85 cb 07 be 48 4a ba bd e2 50 64 3b 48 8e b7 bd
       -0.1326123 -0.09096199 0.003483825 -0.08962685
000140 1e 74 10 bd e7 47 24 bd 42 68 d1 bc 30 23 3d bd
       -0.035266988 -0.040107634 -0.02556241 -0.046176136
000150 84 c8 8d bd 1f 4e a7 bd 5f 7e 39 3c 7f a9 aa bd
       -0.06923011 -0.08169197 0.011321633 -0.0833311
000160 51 7b cc bd 83 ac 68 bd ad 9a 8e bd 9b 7d 6b bd
       -0.09984458 -0.056805145 -0.06963096 -0.057492834
000170 c7 06 26 bd 43 bf 68 bd 29 cd 45 bc ac db 91 bd
       -0.040533807 -0.056823026 -0.01207284 -0.07121977
000180 d5 97 8c bd 35 8e 8b bd 46 47 95 be d7 c8 a1 bd
       -0.06864897 -0.06814233 -0.2915594 -0.07899635
000190 b2 5b 57 bc e5 14 07 bd a2 f0 e9 3e bd 55 87 be
       -0.01314442 -0.03297891 0.456914 -0.264326
0001a0 da 32 d3 bc ca 82 95 be 7e ee 92 bd 17 cf 21 bd
       -0.025781084 -0.29201347 -0.07174395 -0.039504137
0001b0 77 a5 b6 3a 4d 8f 1f 3e fe 62 1a bf 86 94 9e bd
       0.001393481 0.15582009 -0.603073 -0.07743172
0001c0 9a 65 56 bd 75 dd 9c 3d c2 8c 8d 3e b0 ea bb bd
       -0.05234299 0.07659427 0.27646452 -0.091756225
0001d0 c1 8f 59 3c 43 67 e6 bc d0 62 b5 bd cf fa a4 bd
       0.0132789025 -0.02812541 -0.088567376 -0.080556504
0001e0 59 15 41 be 9c 87 fa bc a2 03 5b bd 70 9d 43 be
       -0.188558 -0.030582242 -0.05347026 -0.19103026
0001f0 1d f4 83 bd f2 d8 d8 bd e8 32 34 bd 5e 43 15 bd
       -0.06443045 -0.10588254 -0.04399386 -0.0364412
000200 31 5c 22 bf 38 ba ba be 94 1e 02 3e c7 8e 20 bb
       -0.6342192 -0.364702 0.12706977 -0.0024499164
000210 bc 77 04 bf 6e e7 15 be 73 b5 ba be ea c2 9e be
       -0.517452 -0.14639065 -0.3646656 -0.31008083
000220 b4 76 78 bd fc 0b 73 bd 4e 74 17 bd 81 5f c7 bd
       -0.06066008 -0.0593376 -0.03697615 -0.09735013
000230 a5 02 09 bd b1 d4 47 be 0f e9 28 bd 00 b5 3f bd
       -0.033449788 -0.19514729 -0.041237887 -0.046803474
000240 92 fc 44 bc 5b 11 e3 bd fe 51 aa 3d 4e 29 97 bc
       -0.012023108 -0.11087295 0.0831642 -0.018452313
000250 be 40 97 bd d9 fe 4a bd 25 d9 99 be 5d 84 a6 3e
       -0.073853955 -0.049559448 -0.3004848 0.3252286
000260 7a 8e d7 bd bc c6 f0 bc cd ae e3 be f8 f6 37 bd
       -0.10525222 -0.029391639 -0.444693 -0.044913262
000270 14 65 51 bf ef ee 45 3d b7 71 fb 3c b1 76 c6 bb
       -0.8179486 0.048323568 0.030693872 -0.0060566296
000280 d2 39 59 bd 59 5b c6 bd 9b 10 60 be 3f 7c a4 bd
       -0.053033657 -0.09685392 -0.21881334 -0.080315106
000290 08 a0 b3 bd 86 f1 9b be 92 13 56 bd c0 2a bc bd
       -0.08770758 -0.30457705 -0.052264757 -0.091878414
0002a0 97 1b 28 bd 51 be c5 bd 72 b3 c4 be 03 6f 6c bd
       -0.041041937 -0.096554406 -0.38418156 -0.057723057
0002b0 0e a3 c3 3d 77 9a 23 bd ff a1 25 bd 48 89 bc bd
       0.095525846 -0.03994223 -0.040437695 -0.09205872
0002c0 9d ed 82 be bf 87 20 be fd 63 8e bd 3d 5c 88 bd
       -0.2557191 -0.15676783 -0.06952665 -0.06658218
0002d0 7c be 01 be 0e 79 11 be f7 5c d6 3e 8d 1f 09 bd
       -0.1267032 -0.14206335 0.41867802 -0.033477355
0002e0 56 87 95 bc 33 96 60 bd a8 4d 3b bd 9b b0 6f be
       -0.01825301 -0.05483074 -0.045728356 -0.23407213
0002f0 6d 1d 8d bd 3f 58 2a bd ca 2a 52 be 47 5f 11 3f
       -0.06890378 -0.041588064 -0.20524135 0.56786007
000300 d7 0f 2b bd ac 5b 0c 3c 45 bf 01 bc d3 a8 6c bd
       -0.041763153 0.008566778 -0.007919137 -0.05777819
000310 8f b1 ab bd 0f ac ae bd 3f f7 ad 3e 22 9f d8 bd
       -0.08383476 -0.08528911 0.33977696 -0.10577227
000320 17 4e 2a bd c0 17 e5 3d 48 8e b7 bd 77 91 42 be
       -0.04157838 0.111861706 -0.08962685 -0.19000803
000330 50 69 36 be 82 c6 53 bd 97 42 ae bd 08 31 0e bb
       -0.17813611 -0.051702984 -0.08508795 -0.0021696705
000340 36 66 9a bd 2f 97 b2 3d 89 e3 c7 bd 76 70 11 be
       -0.075390264 0.08720242 -0.09760196 -0.14203057
000350 f7 80 a1 bd 19 7b c8 bc 1f 09 26 bd 5a 93 de bd
       -0.07885926 -0.02447276 -0.040536042 -0.10867949
000360 34 a4 ff bd 1f 03 a7 bd 16 10 41 bf ad c6 8f bd
       -0.12482491 -0.08154892 -0.7541517 -0.07020316
000370 3f 6d cd 3d 29 30 42 bc 6e 5d 13 bd dd 8e e6 be
       0.10030603 -0.011852303 -0.035977773 -0.4503087
000380 a1 3d c9 bd 2f 6a 09 bf d6 cb 94 bd a3 94 60 bd
       -0.09826208 -0.5367765 -0.07265441 -0.05482925
000390 27 2e 21 be c1 27 49 bd 05 83 0a bd 4f 26 3d 3c
       -0.15740262 -0.049110178 -0.033816356 0.011544778
0003a0 89 58 41 bc f9 1a f5 3d ee c1 95 bd 45 44 68 bf
       -0.011800894 0.11968035 -0.0731238 -0.9072917
0003b0 74 b4 75 bd fd a3 94 bd ea 6c 61 3f ab 66 6d bd
       -0.059986547 -0.07257841 0.88056815 -0.05795924
0003c0 8c 8c fb bd f0 e2 b5 bd 73 ce 92 3d 32 16 5c bc
       -0.122826666 -0.088811755 0.07168283 -0.013433026
0003d0 82 02 e3 bd f1 52 4d bd 70 eb 3e be 9e 23 93 bc
       -0.11084463 -0.050127927 -0.186445 -0.01796132
0003e0 79 89 c3 bd c6 5b 90 3e bf f3 27 bd b5 fe 0b be
       -0.09547705 0.28195018 -0.04100394 -0.13671382
0003f0 51 80 c7 bc c0 30 3b be 24 d5 81 bd 23 bd 6c bb
       -0.024353178 -0.18280315 -0.063394815 -0.0036123476

l3.weight f4 [4, 300]
000000 73 23 f0 3b 4c 11 c3 3e c8 15 35 be 5e a3 1e 3d
       0.0073284446 0.38099134 -0.1768409 0.038730018
000010 30 f7 bb 3a da 3a 5a bd 57 34 a7 3c ce fc 13 bd
       0.0014340635 -0.05327878 0.0204107 -0.036129765
000020 3d c5 03 bd 28 2a 2a 3e 25 f9 14 bd ea 97 d1 be
       -0.032170523 0.16617644 -0.036370415 -0.40936214
000030 33 10 6e bb 92 5d b5 bd 8a ee 5a 3d 36 94 23 3c
       -0.0036325573 -0.08855738 0.053450145 0.009984067
000040 23 5f eb 3b 38 29 53 be 8c 46 8f 3f 06 60 ad be
       0.007182972 -0.20621192 1.1193404 -0.33862323
000050 1d 17 13 3c e7 15 a4 bc 92 1f 54 3f d9 85 c1 bd
       0.008977679 -0.020029975 0.8286067 -0.094493575
000060 fe cf 15 3d d4 c8 08 bf 56 d5 21 3d 47 d1 86 be
       0.03657531 -0.5343144 0.039510094 -0.2633154
000070 58 2e c1 3e e3 00 e9 bc 5b 88 7d 3d 2e 3c a4 bc
       0.3773067 -0.028442806 0.061897617 -0.020048227
000080 85 c2 0e 3e b5 ab 9d 3f 3f 56 bb bd 68 83 b1 bc
       0.13941391 1.2318026 -0.091473095 -0.021669105
000090 d3 74 e4 bd f1 c7 c6 3c b0 92 b9 3e 66 fe 90 bc
       -0.11155095 0.024265261 0.36244726 -0.017699432
0000a0 c4 6b f8 3d d1 04 4d 3e d8 a8 b7 3c 64 d1 2b 3f
       0.1212993 0.20021369 0.022419378 0.6711638
0000b0 84 34 7c 3d c4 3c 18 c0 79 0b 58 3d 73 78 03 40
       0.06157352 -2.3787088 0.052745316 2.0542266
0000c0 93 d6 a6 3f dd 80 91 bc 59 ce d0 be a5 37 15 3d
       1.3034233 -0.017761642 -0.4078243 0.03643002
0000d0 60 56 48 3d 15 96 8a bf 14 5f f1 3c 42 7c d6 3e
       0.0489105 -1.0827051 0.029464282 0.41891676
0000e0 b4 b1 03 3c c4 19 0e 3e 3c c3 7b 3b 44 83 d6 be
       0.008037973 0.13877016 0.003841593 -0.41897023
0000f0 17 58 39 3c 12 41 dd 3c 7d 19 90 bc 7a 80 ea bb
       0.011312506 0.027008567 -0.017590279 -0.007156429
000100 c1 e8 46 3d 8b c8 47 be bc d3 0b 3f 38 f5 30 3d
       0.048561815 -0.19510095 0.54619956 0.04320261
000110 f1 7c 5f bb d3 26 a6 be 87 4b 26 bd cd 00 0b bd
       -0.003410157 -0.32451496 -0.040599372 -0.03393631
000120 c5 d3 08 3d 8a 9b 53 3d e9 d4 fa bf af 09 22 3e
       0.033405084 0.051662005 -1.9596225 0.15824006
000130 b8 b9 68 3c 27 a6 3f bd 1c fd f5 3c 94 92 f7 bd
       0.014204435 -0.046789315 0.030027919 -0.120885044
000140 f2 46 e8 3e ee 2e 21 3e de 23 14 bd 45 09 97 bc
       0.45366627 0.15740559 -0.036167018 -0.018437037
000150 ee 5b 26 bc e0 b3 c7 3c f8 f9 c3 bc cd e4 17 3e
       -0.010153754 0.024377763 -0.023922905 0.14833374
000160 46 17 1d bd 1c ff 7d bd db 89 ea bb bb 3f fa bc
       -0.038352273 -0.06201087 -0.007157547 -0.030547967
000170 8d 5d 87 bd 9b 64 eb ba 2d ce 94 bb 1e ad f5 3e
       -0.0660964 -0.001795906 -0.0045411796 0.4798364
000180 fd 5b 87 3d 10 8c 44 be 60 f6 3e bf fa 73 51 3d
       0.06609342 -0.19194055 -0.7459469 0.051135994
000190 0b a4 75 3d b7 26 af bc 02 cb 7f bc cf 0f 2e be
       0.059970897 -0.021380765 -0.015612366 -0.16998218
0001a0 d6 fa 21 3c 40 61 80 3d 4d eb 98 3c e9 35 40 3c
       0.009886464 0.06268549 0.018666888 0.011731603
0001b0 e3 76 e6 bc a9 87 5b be 13 56 62 3d 3b 79 7f 3c
       -0.028132861 -0.21438469 0.055257868 0.015592868
0001c0 da 3a da 3c e2 81 00 3e e8 d2 6e 3c 6c 67 f0 3c
       0.02663939 0.12549546 0.014576651 0.02934619
0001d0 3a 4a 59 3d ec 9a 0f bb 2a 98 eb be 75 09 9e 3c
       0.053049304 -0.002191241 -0.4601453 0.019291619
0001e0 2a c0 5c 3c 32 58 62 bd aa c8 e5 3b 99 b6 10 be
       0.01347355 -0.05525989 0.0070124464 -0.14132155
0001f0 46 cb 18 bd 94 f4 08 3d b9 0e 4c 3c 52 5a de 3c
       -0.03730323 0.033436373 0.012454682 0.027142677
000200 96 04 a4 bf 6d ea 28 bd 9f c8 b6 be b6 ce 2c bd
       -1.28139 -0.04123919 -0.35699937 -0.042189322
000210 09 a8 b8 3f f5 5f 01 bd fb 15 90 bf 2b b6 0a 3c
       1.442628 -0.031585652 -1.1256708 0.008466284
000220 ef 83 30 3d 33 01 e4 38 0c fa 08 bb 5f d5 37 3d
       0.04309457 0.000108721106 -0.0020900993 0.04488122
000230 23 d8 f4 3c b3 b5 fa be 96 e5 97 bc a7 4c 37 3d
       0.029888218 -0.4896675 -0.018542092 0.044750836
000240 de 89 08 3f 00 44 bd 3c 9f 1b a5 3e 70 8f 45 3d
       0.5333537 0.023103714 0.32247636 0.048232496
000250 48 62 36 3d f2 7f eb bd 64 25 6c bc 31 fb ce bd
       0.044527322 -0.11499013 -0.0144132115 -0.10106505
000260 09 18 d2 bc e5 7d 02 be ef 09 e5 3d 64 7f 88 bf
       -0.025646226 -0.12743337 0.11183535 -1.0663877
000270 0b d8 a4 bf 86 3a 00 3d 28 70 63 bd 14 8f 02 3b
       -1.2878431 0.031305812 -0.055526882 0.0019921707
000280 cd c6 03 be e8 87 aa ba 43 63 6f 3f 34 24 0c bc
       -0.12868805 -0.0013010474 0.93510836 -0.008553553
000290 1b 6f e3 bc 2e 53 1c 3f bc bc fa bc 37 db ac 3c
       -0.02776294 0.6106442 -0.030607574 0.021100624
0002a0 2a 1e 5e bc 8d 61 97 bb c1 e9 6a 3c 29 25 c8 bc
       -0.013556996 -0.0046197833 0.014337958 -0.024431782
0002b0 06 9b f3 3f 14 a5 8f 3c 60 a9 36 3d c1 a9 5d bb
       1.9031684 0.01753477 0.044595122 -0.0033823105
0002c0 37 14 30 be 64 d5 82 bc 0d ab 91 3c ce 1d 9b 3c
       -0.17195211 -0.015970893 0.017781759 0.01893511
0002d0 aa 28 56 3e d5 c1 1e 3f f5 8c 16 be ef b2 a4 be
       0.2091395 0.62014514 -0.14702208 -0.32167765
0002e0 2f f1 3c 3d b5 bd 01 3b 0e 33 a5 3c 85 9d 90 bf
       0.046128448 0.0019796912 0.020165946 -1.1298071
0002f0 86 ca 95 3c 40 8c b2 bc 1d c4 8b 3c 99 aa 81 bc
       0.018285047 -0.021795392 0.017061288 -0.015828418
000300 14 01 09 bd b7 c8 ad be 36 48 1f bd 64 47 89 3c
       -0.033448294 -0.33942196 -0.038887225 0.016757675
000310 31 18 c3 3c 55 de 93 bd fa b4 94 bd 5b 11 fc 3a
       0.023815246 -0.07220141 -0.07261081 0.0019231247
000320 a7 1b bb 3c 38 3d 1d 3d 52 fc dc 3b a1 7e c8 bd
       0.022840334 0.03838846 0.006743946 -0.097897775
000330 9c b0 88 3d be 69 a5 be 30 5c 40 3d f1 fc c4 3e
       0.066743106 -0.32307237 0.046962917 0.3847423
000340 82 50 6f bd 88 9f ca be cf f1 32 3d e3 13 6a 3f
       -0.058426388 -0.39574838 0.043687638 0.91436595
000350 64 ea 8b 3b af a6 3e 3e 60 49 46 3c b7 9c ac bc
       0.004269885 0.18618272 0.012102455 -0.021070821
000360 81 79 cb be fe fa 92 bc 65 57 06 3d c5 70 8c bc
       -0.39741138 -0.017941948 0.03279819 -0.017143616
000370 7f 81 8c ba d9 2f c7 3c ed 89 16 bb 87 ee de 3f
       -0.0010719745 0.024314808 -0.0022970394 1.7416543
000380 c3 7f fd bc df e9 7d 3e c3 2a ee 3c 3d 95 0b 3d
       -0.03094471 0.24796246 0.029073125 0.03407787
000390 bd 84 94 3d fa 60 e9 3c e4 3a 70 3c 1f a1 ae 3c
       0.0725188 0.028488625 0.014662478 0.021317063
0003a0 21 42 42 3c 18 50 d1 bd 31 06 df bb e2 4a 3e 3f
       0.011856587 -0.10220355 -0.006806158 0.7433301
0003b0 26 7b 90 bc ac 0b f8 3c 1e 5b 16 40 0f d2 30 3e
       -0.017636847 0.030279003 2.3493114 0.17267631
0003c0 53 d2 e3 be bc f8 09 be c1 04 5b be f5 73 15 bd
       -0.44496402 -0.13473791 -0.21388532 -0.03648754
0003d0 e4 b5 81 3e bc 8f 0e 3d 99 5b c7 3c a6 07 9d bd
       0.25334084 0.034805045 0.02433567 -0.076674744
0003e0 09 e3 c5 bc 88 9c a6 bf bd 08 18 3c 18 4a cc bc
       -0.02415611 -1.301652 0.009279427 -0.024937674
0003f0 f0 89 48 bd 5f 75 ae 3f 75 b9 09 bb ce 4a a0 bd
       -0.048959672 1.3629569 -0.0021015082 -0.07826768

l3.bias f4 [4]
000000 1a c7 d6 3f dd 9f 9a 3f 00 94 d6 bf 01 ad 88 bd
       1.6779511 1.2080036 -1.6763916 -0.06673623
