TD3_control/dir_Walker2D_002/biped-v7-2d-16_actor.pth (torch, 527895 bytes, 6 tensors)

l1.weight f4 [400, 24]
0.09654563 -2.692981 -0.55794746 -1.8431189 -3.423699 -1.2856383 -0.054120857 0.027617885
-1.2222482 -0.038954306 -0.122899935 0.17646302 0.9496578 0.20126979 -0.11702983 -0.009402901
-1.6707802 0.0795479 -2.8657703 0.006987872 -0.034705013 -0.024497356 -0.665327 -0.5291855
0.5760372 -1.4949567 -0.5542896 -1.464929 2.875713 -1.2788614 -0.18727888 0.01475678
-0.22745197 -0.22043777 1.5135185 0.14275923 2.523147 0.020693291 -0.09657164 0.17347161
-1.0941341 0.08171998 1.2668184 -0.17566721 0.083831884 -0.12591445 -1.2949009 -0.8902468
-4.0668144 0.1717544 -0.100528 -1.8355951 1.868554 -0.57035595 -0.08994957 0.091357015
-0.6366976 -0.47098017 -1.1124697 -0.109550714 -0.2519959 -0.81527734 0.161169 0.12703577
-1.2048647 0.40500814 -10.179917 -1.0165441 0.1581201 0.19033426 -1.10452 -0.8998582
2.803998 0.24123164 -0.9427447 -1.72212 5.4804387 1.2281237 -0.026069399 -0.080645196
0.25069082 -0.56611425 0.05194251 0.21241015 0.989444 -0.008308948 0.027737679 -0.1445266
-1.6269374 0.52070063 -3.6026533 0.2932629 0.13679281 -0.049708877 -2.1121283 -1.1055113
1.5990849 -0.35319427 -0.723217 -1.2802306 -1.5897226 2.7599564 0.18045014 -0.05354218
-1.4430066 -0.053951897 0.71386737 0.15628687 -0.16418457 0.11756491 -0.021647198 -0.19812225
-1.3272083 -0.123523116 1.07623 -0.08299091 -0.105343446 -0.09313641 -2.0963218 -1.3297492
3.042167 0.30180958 0.32305992 1.3567951 2.1164317 -4.5913477 -0.17088582 -0.11013019
-1.0440818 -0.5045202 1.2888162 -0.038160495 -1.2791226 -0.6366586 0.1328276 0.08440674
-6.106594 0.35708085 2.4214182 -0.55723315 -0.026143786 0.1910271 0.44359094 -0.7588381
-5.7794676 0.5136866 0.07524727 1.5189605 5.748738 -11.02285 0.107461385 -0.1915078
-0.32006013 0.7595891 3.2052789 0.23103155 -0.8625178 0.67460114 -0.09635519 -0.11089582
-3.1128001 0.5411459 -2.1484118 0.4404944 0.056380976 0.14316541 0.12431316 -1.7155746
1.1887962 0.088621974 0.45387053 -6.000871 0.42029077 3.3645444 0.005227224 -0.16048765
-0.95701164 -0.21843728 -0.07147473 -0.20772101 -0.40400156 -0.97336227 -0.14276518 -0.10970868
-0.26904717 0.69726485 0.80262417 -0.581965 -0.010342879 -0.15525074 -2.0476186 -0.16413009
-0.27150318 -1.048704 0.40684965 -3.466282 -2.3719308 -3.900542 0.17763677 -0.07923974
1.5083288 -0.43566358 -0.92533493 0.45816272 1.3120335 0.06971677 -0.17427477 -0.08396643
0.9343078 0.21704781 2.5462627 -0.14978448 -0.011683971 -0.07823547 -0.007998558 1.1376092
-0.8989948 -2.0811644 -0.28876933 -3.551036 -1.4510173 -0.113548495 0.048465434 0.11898473
1.2577004 -1.190517 -1.5043707 0.058599517 -1.5478531 -0.07429315 0.07071589 0.16337219
-1.4316732 -0.6005969 -1.0460541 -0.5881156 0.074805304 -0.062757544 -1.6836814 0.12676044
-0.18116929 -0.16868058 -0.92734885 -0.93812656 0.38418823 -0.6173836 -0.088947564 0.11788274
0.3445116 -0.7305191 -2.7197022 0.19865261 -0.35421064 -0.010517404 0.0802753 -0.018703721
00000000: b7b9 c53d cd59 2cc0 a5d5 0ebf 52eb ebbf
00000010: e21d 5bc0 cc8f a4bf d5ad 5dbd e73e e23c
00000020: a172 9cbf 8d8e 1fbd f6b2 fbbd b9b2 343e
00000030: c61c 733f ab19 4e3e 56ad efbd a00e 1abc
00000040: 20dc d5bf 02ea a23d c868 37c0 85fa e43b
00000050: d826 0ebd aeae c8bc df52 2abf b378 07bf
00000060: 2d77 133f be5a bfbf ece5 0dbf cb82 bbbf
00000070: af0b 3840 bbb1 a3bf 09c6 3fbe 6cc6 713c
00000080: 2be9 68be 70ba 61be f9ba c13f 7a2f 123e
00000090: 3e7b 2140 fa84 a93c 5ac7 c5bd 8ba2 313e
000000a0: 960c 8cbf ce5c a73d 1b27 a23f 1be2 33be
000000b0: 0db0 ab3d b8ef 00be 50bf a5bf 37e7 63bf
000000c0: 5823 82c0 63e0 2f3e a0e1 cdbd c8f4 eabf
000000d0: c72c ef3f d902 12bf 7b37 b8bd 6319 bb3d
000000e0: 9dfe 22bf 5024 f1be 6865 8ebf 205c e0bd
000000f0: 9b05 81be 04b6 50bf 7d09 253e aa15 023e
00000100: 0239 9abf 3a5d cf3e f1e0 22c1 1e1e 82bf
00000110: 3cea 213e fce6 423e e960 8dbf 1b5d 66bf
00000120: b474 3340 6d05 773e b757 71bf 6e6e dcbf
00000130: c15f af40 2833 9d3f 7e8f d5bc 4f29 a5bd
00000140: 8c5a 803e ddec 10bf abc1 543d 0c82 593e
00000150: 344c 7d3f 4122 08bc 213a e33c c8fe 13be
00000160: 7c3f d0bf a34c 053f df91 66c0 8e26 963e
00000170: 6a13 0c3e 899b 4bbd 1c2d 07c0 6581 8dbf
00000180: d0ae cc3f e1d5 b4be c024 39bf 99de a3bf
00000190: 087c cbbf 20a3 3040 ecc7 383e 0c4f 5bbd
000001a0: 71b4 b8bf aafc 5cbd 03c0 363f aa09 203e
000001b0: 0020 28be dfc5 f03d 7755 b1bc 8fe0 4abe
000001c0: f6e1 a9bf b0f9 fcbd e8c1 893f 23f7 a9bd
000001d0: 4ebe d7bd 4dbe bebd 232a 06c0 3935 aabf
000001e0: ddb2 4240 c986 9a3e 1c68 a53e 76ab ad3f
000001f0: 9e73 0740 52ec 92c0 b1fc 2ebe f08b e1bd
00000200: 79a4 85bf 3c28 01bf eef7 a43f 2e4e 1cbd
00000210: 4aba a3bf 0ffc 22bf f503 083e 71dd ac3d
00000220: 3869 c3c0 4dd3 b63e 84f8 1a40 d5a6 0ebf
00000230: 7e2b d6bc 9c9c 433e 5a1e e33e 3743 42bf
00000240: 66f1 b8c0 f780 033f 3e1b 9a3d 4c6d c23f
00000250: a9f5 b740 985d 30c1 b714 dc3d 9f1a 44be
00000260: ecde a3be 6e74 423f 4a23 4d40 8993 6c3e
00000270: f7cd 5cbf a9b2 2c3f df55 c5bd 591d e3bd
00000280: 1e38 47c0 8a88 0a3f 947f 09c0 7b88 e13e
00000290: bdef 663d f499 123e e697 fe3d f397 dbbf
000002a0: 792a 983f 707f b53d b861 e83e 2307 c0c0
000002b0: 5a30 d73e b254 5740 2249 ab3b e056 24be
000002c0: b7fe 74bf 06ae 5fbe 5861 92bd d1b4 54be
000002d0: 4bd9 cebe 452e 79bf 0931 12be f2ae e0bd
000002e0: 8dc0 89be f37f 323f c778 4d3f a9fb 14bf
000002f0: 2e75 29bc 0dfa 1ebe 2f0c 03c0 b811 28be
00000300: 7702 8bbe ef3b 86bf 994e d03e 90d7 5dc0
00000310: b7cd 17c0 7ba2 79c0 6ae6 353e 7248 a2bd
00000320: eb10 c13f 4c0f dfbe c0e2 6cbf 4e94 ea3e
00000330: b7f0 a73f aac7 8e3d 1675 32be 97f6 abbd
00000340: cc2e 6f3f c841 5e3e f8f5 2240 1a61 19be
00000350: 206e 3fbc eb39 a0bd 620c 03bc 2e9d 913f
00000360: 8624 66bf cc31 05c0 93d9 93be 2c44 63c0
00000370: efba b9bf 1d8c e8bd b183 463d 44ae f33d
00000380: 54fc a03f dc62 98bf 388f c0bf 0c06 703d
00000390: 0d20 c6bf 0227 98bd 7ed3 903d 0a4b 273e
000003a0: 1141 b7bf b8c0 19bf 1ae5 85bf be8e 16bf
000003b0: 8633 993d 0787 80bd df82 d7bf 7dcd 013e
000003c0: 7184 39be 9aba 2cbe bc66 6dbf 1029 70bf
000003d0: 52b4 c43e da0c 1ebf 242a b6bd 826c f13d
000003e0: d363 b03e 4d03 3bbf 9a0f 2ec0 976b 4b3e
000003f0: 195b b5be 3151 2cbc 6067 a43d 8c38 99bc

l1.bias f4 [400]
-1.0912963 -1.9442624 -2.359416 -2.4111702 -1.9083043 1.6146557 -1.2166898 -0.9378751
-0.7692904 -1.3746256 -1.6217651 -1.4140452 -1.4046798 -1.7860572 -1.7203592 0.8722335
-1.4809666 0.9379552 -1.3251528 -2.085457 -2.144276 -0.5294698 -1.7742822 -2.1083994
-2.7398396 -2.4254642 -1.4344081 -1.7340485 -0.33954966 -1.837383 1.8024542 -0.8350948
-1.1427479 -1.4849757 -2.1505282 -1.496137 -0.48522812 0.49189875 -1.7091749 -1.872815
-1.7225981 -1.8386787 -2.1169178 -0.99618936 -1.67426 -0.97612417 -0.7539982 -3.6932216
-0.78358674 -1.836608 -1.8592405 -3.3543508 -0.39161745 -0.9673931 1.4708555 -1.1648347
-1.3641312 -1.9309636 -1.5916964 -1.7704977 -0.8311388 -1.7465116 -1.9016691 0.49162388
-2.0395787 -1.8880928 -0.055502903 -2.5157993 -0.06931501 -2.249818 -1.3258704 -1.7013263
-1.2520993 1.00262 -0.52077913 -2.3716447 -2.4015532 -1.7017909 -0.72177154 -1.7289065
-0.8224961 -1.5590283 2.1353722 -0.23637113 -2.4552944 -1.766041 -2.4433208 -2.2180834
-0.33012342 -1.8988503 1.7155015 -1.5074877 -0.022348966 -1.2954811 -3.1500661 -2.432837
-0.85376585 -1.4540693 -0.9786046 -1.9736289 0.081044324 0.33496943 -0.65778023 -1.2050103
-2.016875 -0.26957774 -1.4944564 -1.0508548 -2.638266 -1.2443038 -0.72615117 -3.1918972
1.1604644 -1.1115578 -1.729384 -0.9103827 -1.10566 -1.3585091 -1.4085764 -1.9513083
-3.0478866 -1.6074759 -1.9793735 -1.7415677 -2.5736265 -0.5357953 -2.4906342 -1.8363783
-2.4449425 -1.2111412 -1.6656395 -1.7083495 1.2259266 -0.63393825 -2.6245568 -1.754476
-0.019140583 -1.1497065 0.9979896 -2.276898 -1.3583455 -2.5793693 -1.4019172 -0.043910023
-1.4802591 -1.2374024 -0.40284008 -1.0524323 -1.6545788 -1.6515136 -1.7571424 -1.4043028
-2.6287549 -1.9732882 -1.7929319 -0.6218967 -0.30363542 -2.837832 -0.8839816 -2.1933973
-1.5605516 -1.7861701 -0.7658416 -2.6091914 -2.423272 -1.8186082 0.7148837 -0.98020256
-2.1931372 -1.7761701 -1.127586 -2.0085711 -1.7239814 -2.0920956 -1.0811913 -2.2814214
-2.5683181 -1.5282727 -0.7952866 0.829276 -1.5679338 -1.8873545 -1.4363483 -0.7821676
-0.10573022 1.2868516 -2.0287473 -1.1468095 -1.5733119 -1.6801431 -2.2376122 -0.6977799
-2.9593325 -1.5260129 -2.1618686 -1.7209835 -0.93571013 -0.63037014 -1.1365175 -2.3891795
-0.50740826 -1.1884676 -0.7306576 -1.4575435 -0.93929666 -0.93739974 0.038291316 -2.9585953
-2.151115 -2.852082 -0.52729297 -2.2251244 0.026077148 -1.157006 1.3199416 -1.2868421
1.1034532 -1.0135618 -1.3806146 0.20708561 0.07196801 -1.0993495 0.5894557 -0.024901655
-1.529706 -0.9024643 -2.1555254 -1.49535 -1.8360673 -1.8809658 -2.4192913 -0.5766806
-2.8764634 -1.929739 -1.9375432 -2.3483589 -2.3663735 -2.0530899 -2.5369751 -3.1656213
-1.3889993 -2.0720146 -2.975114 -1.4618015 -0.35782477 -2.2515116 -1.104126 -1.7027676
-2.5487123 1.2695479 -1.5593594 -2.3915968 -0.9829605 -2.4148052 -1.335506 -2.71809
00000000: 99af 8bbf 97dd f8bf ac00 17c0 9d50 1ac0
00000010: 5143 f4bf 0aad ce3f 7ebc 9bbf 9518 70bf
00000020: 37f0 44bf bbf3 afbf 0096 cfbf 6fff b4bf
00000030: 8ccc b3bf 869d e4bf bb34 dcbf b24a 5f3f
00000040: 5090 bdbf d51d 703f 9b9e a9bf 2178 05c0
00000050: d13b 09c0 558b 07bf ae1b e3bf 04f0 06c0
00000060: 8859 2fc0 ce3a 1bc0 af9a b7bf 4df5 ddbf
00000070: 74d9 adbe 5e2f ebbf d2b6 e63f c6c8 55bf
00000080: 9045 92bf af13 bebf 41a2 09c0 6b81 bfbf
00000090: d26f f8be 27da fb3e 3ec6 dabf 67b8 efbf
000000a0: 187e dcbf d359 ebbf 957b 07c0 4406 7fbf
000000b0: 274e d6bf 46e3 79bf 0706 41bf be5d 6cc0
000000c0: 2499 48bf f915 ebbf 98fb edbf afad 56c0
000000d0: 1582 c8be 13a7 77bf fe44 bc3f 4e19 95bf
000000e0: da9b aebf d129 f7bf b5bc cbbf ab9f e2bf
000000f0: 83c5 54bf b18d dfbf e569 f3bf 20b6 fb3e
00000100: 7588 02c0 06ad f1bf 0357 63bd db02 21c0
00000110: 07f5 8dbd 05fd 0fc0 1fb6 a9bf 0fc5 d9bf
00000120: ca44 a0bf da55 803f c851 05bf 07c9 17c0
00000130: 0cb3 19c0 49d4 d9bf 05c6 38bf cf4c ddbf
00000140: 1b8f 52bf 3d8e c7bf f0a9 0840 460b 72be
00000150: 8b23 1dc0 a20d e2bf 5e5f 1cc0 14f5 0dc0
00000160: f005 a9be 870d f3bf 8e95 db3f 5bf5 c0bf
00000170: 2e15 b7bc 53d2 a5bf af9a 49c0 9ab3 1bc0
00000180: 6690 5abf f11e babf d585 7abf df9f fcbf
00000190: 91fa a53d 1d81 ab3e 4964 28bf c73d 9abf
000001a0: 7b14 01c0 1806 8abe 594a bfbf 6982 86bf
000001b0: 5ad9 28c0 5945 9fbf 0be5 39bf 0b48 4cc0
000001c0: 198a 943f 8747 8ebf 745c ddbf d70e 69bf
000001d0: 4486 8dbf a0e3 adbf 3b4c b4bf 78c4 f9bf
000001e0: 9310 43c0 c5c1 cdbf 1c5c fdbf b1eb debf
000001f0: 4cb6 24c0 e129 09bf 8d66 1fc0 720e ebbf
00000200: f079 1cc0 ad06 9bbf ad33 d5bf 32ab dabf
00000210: 2aeb 9c3f c749 22bf bdf8 27c0 ab92 e0bf
00000220: b6cc 9cbc 9529 93bf 3f7c 7f3f b2b8 11c0
00000230: 44de adbf 6314 25c0 0672 b3bf ffda 33bd
00000240: 2179 bdbf 3463 9ebf 0e41 cebe 1ab6 86bf
00000250: 3dc9 d3bf cc64 d3bf 0bea e0bf 32c0 b3bf
00000260: 853d 28c0 b594 fcbf cb7e e5bf 9f34 1fbf
00000270: 1a76 9bbe 0a9f 35c0 9e4c 62bf 9f60 0cc0
00000280: 28c0 c7bf 39a1 e4bf 320e 44bf fefc 26c0
00000290: e316 1bc0 27c8 e8bf 9e02 373f 8eee 7abf
000002a0: 5c5c 0cc0 8b59 e3bf bd54 90bf 6e8c 00c0
000002b0: 6cab dcbf e5e4 05c0 7a64 8abf cf02 12c0
000002c0: 535f 24c0 719e c3bf e797 4bbf 6f4b 543f
000002d0: 0eb2 c8bf d594 f1bf 43da b7bf 233c 48bf
000002e0: 1689 d8bd 8eb7 a43f ffd6 01c0 a7ca 92bf
000002f0: 4962 c9bf ee0e d7bf 0a35 0fc0 b4a1 32bf
00000300: b465 3dc0 6454 c3bf 0e5c 0ac0 3049 dcbf
00000310: b38a 6fbf f05f 21bf 6879 91bf 51e8 18c0
00000320: 82e5 01bf b51f 98bf 600c 3bbf c990 babf
00000330: bf75 70bf 6ef9 6fbf 5bd7 1c3d a059 3dc0
00000340: deab 09c0 8388 36c0 acfc 06bf 7068 0ec0
00000350: be9f d53c c618 94bf d9f3 a83f 3eb7 a4bf
00000360: f43d 8d3f 65bc 81bf fbb7 b0bf 400e 543e
00000370: f763 933d 7cb7 8cbf 92e6 163f 8efe cbbc
00000380: 68cd c3bf e607 67bf 21f4 09c0 a167 bfbf
00000390: 4104 ebbf 7dc3 f0bf abd5 1ac0 57a1 13bf
000003a0: fa17 38c0 b001 f7bf 6a01 f8bf 834b 16c0
000003b0: aa72 17c0 d365 03c0 cd5d 22c0 8a99 4ac0
000003c0: bbca b1bf e39b 04c0 4568 3ec0 501c bbbf
000003d0: cf34 b7be c418 10c0 0054 8dbf 4af4 d9bf
000003e0: 1a1e 23c0 8c80 a23f 1799 c7bf ec0f 19c0
000003f0: 4da3 7bbf 2b8c 1ac0 dcf1 aabf 30f5 2dc0

l2.weight f4 [300, 400]
-0.13435124 -0.17386411 -0.5157158 0.18856488 -0.009266948 -0.21046327 -0.3229602 -0.3688309
-0.2005515 -0.19630261 0.105962455 -0.20601577 0.0036489193 0.09819618 0.16311194 0.05524552
-0.41102487 -0.14336196 -0.07658944 -0.31071037 -0.05647988 -0.2195599 -0.21364813 -0.09546917
-0.10670124 0.05594466 -0.071807265 -0.1104615 -0.08390492 0.055865485 -0.20724918 0.050995722
-0.19548179 -0.1296097 -0.2259127 -0.11147749 -0.046118636 -0.17140228 -0.44246915 -0.021430472
-0.48527786 0.036139395 0.11417115 -0.24947445 -0.11978052 0.10786971 -0.42449254 -0.12385646
-0.15105689 -0.0028283712 0.0120691545 0.32929987 -0.24461325 -0.14807889 -0.31060046 -0.10074721
-0.37999213 -0.24131015 -0.20707907 -0.18109353 0.036317855 -0.045104623 -0.29709598 -0.20145468
-0.08599894 0.11897892 -0.15272598 0.19366112 -0.26494133 -0.18951628 0.11289501 -0.49315247
-0.05264837 -0.15558231 -0.05408125 -0.0949283 0.088858314 -0.15445343 0.13130307 0.047111165
-0.006493598 0.13840415 -0.010062356 0.02134094 -0.05725305 -0.011122955 -0.20885473 -0.0006452433
-0.06474757 -0.11901194 0.03968418 -0.25363377 -0.13904569 -0.0039650574 0.0073120543 -0.21000403
-0.054819953 -0.35047892 0.0017007664 -0.0027112134 -0.1378095 -0.04307188 -0.46370876 -0.023083562
0.088001415 -0.06574688 -0.12053922 -0.10805074 -0.1800944 -0.23730159 -0.15625824 0.073850326
-0.16637585 0.24645698 0.211197 0.006364839 0.037891485 -0.099148765 0.00080815196 0.28971452
0.1275298 -0.21006905 0.05570104 -0.020193374 -0.017218683 -0.371287 -0.06775157 0.058299262
-0.37781698 0.14716958 -0.13516007 0.049484167 -0.18319625 0.02716068 0.035481215 0.068742655
-0.031190448 -0.06620354 -0.10018096 -0.025379406 0.016876105 -0.08468096 -0.090713866 -0.15435727
-0.121170856 0.115088165 -0.2759653 0.15539207 0.014489123 -0.10460715 0.012678707 -0.1801861
0.064926796 0.08515023 -0.12155196 0.058604162 -0.12704939 -0.0134334825 -0.08136996 -0.014046019
-0.10753828 -0.19474766 -0.10336615 -0.21915668 -0.1217881 -0.13257404 -0.05513811 0.0857664
0.038533274 0.11113174 -0.1665982 0.02729068 -0.040395893 0.08009216 0.005790734 0.2817946
-0.099954836 -0.076483436 -0.14516272 -0.016723009 -0.03443683 0.12177029 0.057146184 -0.053651772
-0.080131985 -0.18098731 -0.3485101 -0.083330214 -0.096841834 -0.06910684 -0.15786284 -0.061292954
0.0792594 -0.078971714 -0.10947662 -0.23714507 -0.08292057 0.010300919 -0.033304628 -0.012138935
-0.0139024025 0.06543533 -0.3124224 -0.25781935 0.03946051 0.03754641 -0.13646127 -0.08059984
-0.0078262575 -0.17713639 0.033111487 -0.16175212 -0.06522598 -0.0069148582 -0.039461844 0.06895545
-0.029343603 -0.20819855 -0.32437846 -0.14951071 0.20924258 0.0034912785 0.13697946 -0.014950176
-0.046687465 -0.010158719 -0.029493207 0.00636813 -0.20337465 -0.0674176 -0.083985865 -0.0013294225
-0.33498725 0.17315842 -0.013614916 -0.21801758 -0.1180278 -0.34543967 -0.014924896 -0.04969755
0.08978323 -0.015557241 -0.25347003 -0.23273681 0.12245103 0.19714342 -0.026919162 -0.1646364
0.13763599 -0.14354013 -0.28111276 -0.15210828 -0.15256327 0.038111385 -0.060149647 -0.06251143
00000000: 5f93 09be 6f09 32be f305 04bf 2717 413e
00000010: 66d4 17bc af83 57be 0a5b a5be 67d7 bcbe
00000020: 5f5d 4dbe 8d03 49be d802 d93d ccf5 52be
00000030: b522 6f3b 141b c93d d106 273e 2049 623d
00000040: da71 d2be 7acd 12be edda 9cbd 6e15 9fbe
00000050: 7257 67bd 4fd4 60be 93c6 5abe 5785 c3bd
00000060: 2e86 dabd 3a26 653d b00f 93bd a439 e2bd
00000070: 58d6 abbd 35d3 643d 2139 54be e4e0 503d
00000080: 612c 48be 68b8 04be a955 67be 4f4e e4bd
00000090: e5e6 3cbd 1484 2fbe 518b e2be f58e afbc
000000a0: 5776 f8be e706 143d 90d2 e93d 3b76 7fbe
000000b0: 7d4f f5bd cbea dc3d 1657 d9be 75a8 fdbd
000000c0: a8ae 1abe 325c 39bb b4bd 453c fe99 a83e
000000d0: e57b 7abe fea1 17be 0607 9fbe 8e54 cebd
000000e0: 548e c2be 021a 77be 890c 54be 9570 39be
000000f0: 08c2 143d a0bf 38bd f71c 98be 234a 4ebe
00000100: 3620 b0bd 38ab f33d 3364 1cbe 1a4f 463e
00000110: 64a6 87be 8e10 42be 8035 e73d 7b7e fcbe
00000120: d1a5 57bd f850 1fbe 4d84 5dbd c569 c2bd
00000130: 59fb b53d 0a29 1ebe 5074 063e a3f7 403d
00000140: 40c8 d4bb d1b9 0d3e 94dc 24bc 32d3 ae3c
00000150: 2d82 6abd 0e3d 36bc 04de 55be 8b25 29ba
00000160: 609a 84bd 88bc f3bd e18b 223d 49dc 81be
00000170: fe61 0ebe 50ed 81bb f599 ef3b 4c0b 57be
00000180: e38a 60bd f971 b3be 40ec de3a 9dae 31bb
00000190: ef1d 0dbe 246c 30bd 3c6b edbe bd19 bdbc
000001a0: 163a b43d 4da6 86bd 44dd f6bd b549 ddbd
000001b0: ab6a 38be 30ff 72be 2902 20be d73e 973d
000001c0: 6e5e 2abe 385f 7c3e 0744 583e 2490 d03b
000001d0: 1a34 1b3d 820e cbbd 29da 533a 7655 943e
000001e0: 2c97 023e 571c 57be c626 643d 936c a5bc
000001f0: 320e 8dbc 5419 bebe 56c1 8abd 35cb 6e3d
00000200: 3a71 c1be 9fb3 163e 6767 0abe e9af 4a3d
00000210: cc97 3bbe 1380 de3c c054 113d f3c8 8c3d
00000220: 1c83 ffbc b995 87bd ad2b cdbd 79e8 cfbc
00000230: c23f 8a3c 366d adbd 31c8 b9bd d50f 1ebe
00000240: 6d28 f8bd 58b3 eb3d 534b 8dbe 191f 1f3e
00000250: c963 6d3c 463c d6bd 5aba 4f3c b482 38be
00000260: 57f8 843d 3e63 ae3d 3cf0 f8bd eb0a 703d
00000270: 3c19 02be 1c18 5cbc 4ba5 a6bd 4621 66bc
00000280: 083d dcbd ee6b 47be a2b1 d3bd 9c6a 60be
00000290: 0a6c f9bd 7dc1 07be 80d8 61bd 4ba6 af3d
000002a0: 11d5 1d3d 0a99 e33d b898 2abe b490 df3c
000002b0: 2a76 25bd 5c07 a43d 33c0 bd3b 6247 903e
000002c0: 1fb5 ccbd 59a3 9cbd 89a5 14be b1fe 88bc
000002d0: a20d 0dbd b462 f93d 1e12 6a3d f6c1 5bbd
000002e0: 3d1c a4bd bd54 39be ea6f b2be 08a9 aabd
000002f0: 0355 c6bd e387 8dbd cca6 21be 520e 7bbd
00000300: c152 a23d ecbb a1bd 4735 e0bd 28d6 72be
00000310: 43d2 a9bd 30c5 283c 6f6a 08bd 62e2 46bc
00000320: e7c6 63bc f502 863d d4f5 9fbe e600 84be
00000330: 58a1 213d 44ca 193d 81bc 0bbe 8711 a5bd
00000340: b439 00bc 3e63 35be e99f 073d 59a2 25be
00000350: 3395 85bd 0996 e2bb bea2 21bd 8438 8d3d
00000360: ff61 f0bc 0032 55be ef14 a6be 5619 19be
00000370: b043 563e efcd 643b 5844 0c3e 95f1 74bc
00000380: 5b3b 3fbd c170 26bc bd9b f1bc bfab d03b
00000390: 7241 50be 3d12 8abd c800 acbd 0440 aeba
000003a0: 7383 abbe 7150 313e 1911 5fbc 0040 5fbe
000003b0: 8fb8 f1bd 78dd b0be 8d87 74bc a88f 4bbd
000003c0: 45e0 b73d cce3 7ebc d3c6 81be 8f52 6ebe
000003d0: 9bc7 fa3d f7df 493e 9385 dcbc 7296 28be
000003e0: 73f0 0c3e 2ffc 12be 03ee 8fbe 46c2 1bbe
000003f0: 8c39 1cbe af1a 1c3d 7a5f 76bd fe05 80bd

l2.bias f4 [300]
-0.2893389 -0.096815266 -0.33776987 -0.18353304 -0.18173681 -0.091498196 -0.035462886 -1.6729116
-1.0814525 -0.053786054 -0.862604 -0.106931336 -0.2897561 0.46203965 0.2071248 -0.091554746
-0.5704971 -0.056977954 -0.116276264 -0.051404797 -1.4953285 -0.09643099 0.10455524 1.6880196
1.6727248 -0.05372436 -0.046847627 -0.050666984 -0.06323835 -0.20101397 -0.101058 -0.79344326
-0.063935466 -0.23367414 -0.7809434 2.4037259 -0.10738772 0.4141309 -0.1116793 -0.117822744
-0.07479351 -0.026856728 -0.43648285 -0.89460707 -0.1680425 -0.06317732 -0.36776364 -1.3235623
-0.10853004 -0.10196365 -2.226226 -0.043148868 1.0337682 -0.20658007 -0.22228199 -0.37079722
-0.056056414 -0.12772204 -0.076192744 -0.050931126 -0.10135198 0.15405965 -0.12505504 -0.55882686
1.2178267 -0.08979817 -0.21787952 -0.4965061 1.8120992 -2.350634 -1.0665708 -0.008429814
-0.08655031 -0.10011537 -0.05342587 -0.10067142 -0.13366327 -0.31599185 -0.048514474 -0.25195992
0.42243412 -0.7433185 -0.30466664 -0.07287849 -0.2550146 -0.087828204 -0.046477422 -0.38676772
-0.11374664 -0.05993571 -0.09624613 -0.10291819 -0.13178939 -0.06789571 -0.043621764 -0.04638352
-0.11233462 -0.06423989 0.10143021 -0.06846295 -0.019395031 -0.40945786 -0.17964369 0.12479523
-0.8300426 -0.06542656 -0.10266837 -0.8157551 -0.021843655 -0.10518114 -0.4876022 -0.33552888
-0.08406006 -0.4860064 -0.12626052 -0.93707246 -0.023429634 -0.27802023 -0.08874825 -0.097696535
-0.08486179 -0.9468857 -0.091569506 -0.41719735 -0.60328764 -0.19663662 -0.046050385 -0.02624597
-0.5004344 -0.08377315 -0.028308474 -0.042027444 1.8950839 -0.48151362 -0.93890256 -0.038504038
-2.7838202 -0.17558469 -0.086264394 -0.10707987 -0.07146816 -1.1792914 -0.04396318 -0.040134393
-0.69203204 -0.4009815 -1.4080615 -0.069988735 -0.2530564 -0.18207332 -0.14502367 -0.05855028
-0.05716096 -0.2060867 -0.06689738 -0.09063423 -0.85686195 -0.0025625455 -0.057277374 -1.058604
-0.1525061 -0.11013663 -0.12965794 0.20019053 -0.5837337 -0.22809222 -0.0071432446 -0.078478575
-0.2887323 -0.20271273 -1.321467 -0.04456693 -0.047711346 -0.0003393324 -0.19243437 -0.097569115
-0.06793596 -0.05237858 -0.047888465 -0.18885416 -0.6509037 -0.15492491 -1.0887936 -1.8278258
-0.03333125 -0.22554225 -0.12724075 -0.032336425 -0.5501897 -0.18215726 -0.123469226 -0.100022584
-0.025952328 -0.7801533 -0.62853897 -1.339275 -0.06775079 -0.076949716 -0.08660561 -0.09972873
-0.7176219 -0.056597274 -1.0957505 -0.86976403 -0.053624164 -0.008948285 0.03109833 -0.2434391
-1.1717736 1.1267303 -0.6056712 -0.12712607 -0.32403377 -0.10376371 -0.32604384 -2.7070708
-0.02165503 -0.6987808 -0.11215273 -0.54571474 -0.62765765 -0.026907934 -0.08899257 0.026304906
-0.19012251 -0.3461961 -1.6603314 -0.029892363 -0.6374152 -0.90583616 -0.0068792375 -0.06287921
-0.5784577 -0.09487997 -0.4983542 -0.030799715 -0.08452768 -0.12421026 -0.24444053 -0.71112
-1.6703397 -1.2420316 -0.010588699 -0.05186252 -0.06668715 -0.5197821 -0.5366854 -0.07097209
-0.3182154 -0.08148799 -0.91896796 -0.15032734 -0.92770004 -0.086134695 -0.23861702 -0.06918968
00000000: 3a24 94be 1547 c6bd 2cf0 acbe 16f0 3bbe
00000010: 3719 3abe 6863 bbbd 8841 11bd f821 d6bf
00000020: 096d 8abf c44e 5cbd 9ed3 5cbf d1fe dabd
00000030: e95a 94be 7690 ec3e 8618 543e 0e81 bbbd
00000040: 190c 12bf b761 69bd 4022 eebd d68d 52bd
00000050: ed66 bfbf 9c7d c5bd 0f21 d63d 0711 d83f
00000060: d91b d63f 130e 5cbd 4ce3 3fbd 2f88 4fbd
00000070: 1c83 81bd 9bd6 4dbe 7ff7 cebd 191f 4bbf
00000080: 99f0 82bd 4648 6fbe e8eb 47bf a5d6 1940
00000090: 18ee dbbd f708 d43e 1eb8 e4bd 0d4d f1bd
000000a0: 572d 99bd a402 dcbc ae7a dfbe f804 65bf
000000b0: 5513 2cbe 1c63 81bd 844b bcbe 7d6a a9bf
000000c0: ff44 debd 51d2 d0bd 7d7a 0ec0 debc 30bd
000000d0: 8452 843f ba89 53be e49d 63be 22d9 bdbe
000000e0: 699b 65bd 91c9 02be f10a 9cbd 289d 50bd
000000f0: a091 cfbd d0c1 1d3e 6e0e 00be 470f 0fbf
00000100: bfe1 9b3f 1ae8 b7bd cf1b 5fbe 0c36 febe
00000110: def2 e73f ca70 16c0 6485 88bf 341d 0abc
00000120: 4a41 b1bd 4909 cdbd 16d5 5abd d12c cebd
00000130: 06df 08be afc9 a1be 1db7 46bd e400 81be
00000140: 4949 d83e 1f4a 3ebf 44fd 9bbe 5141 95bd
00000150: 4691 82be 46df b3bd 1c5f 3ebd 6b06 c6be
00000160: 00f4 e8bd 267f 75bd b11c c5bd c6c6 d2bd
00000170: ccf3 06be e80c 8bbd bcac 32bd a5fc 3dbd
00000180: b10f e6bd 3490 83bd a4ba cf3d 4e36 8cbd
00000190: 54e2 9ebc 76a4 d1be 84f4 37be a494 ff3d
000001a0: ac7d 54bf 5cfe 85bd cb43 d2bd 54d5 50bf
000001b0: 77f1 b2bc 3669 d7bd ffa6 f9be 71ca abbe
000001c0: ae27 acbd d5d5 f8be 704a 01be fbe3 6fbf
000001d0: 81ef bfbc ab58 8ebe a4c1 b5bd 1f15 c8bd
000001e0: 05cc adbd 1a67 72bf cb88 bbbd e49a d5be
000001f0: 0f71 1abf 1c5b 49be 549f 3cbd ca01 d7bc
00000200: 781c 00bf 4291 abbd 2ce7 e7bc f824 2cbd
00000210: 1c92 f23f f488 f6be eb5b 70bf 69b6 1dbd
00000220: 1c2a 32c0 79cc 33be 63ab b0bd b14c dbbd
00000230: e65d 92bd 05f3 96bf bc12 34bd f663 24bd
00000240: 0329 31bf 724d cdbe 5c3b b4bf 4156 8fbd
00000250: 9c90 81be 6e71 3abe 1681 14be 6bd2 6fbd
00000260: 9c21 6abd 6408 53be 7e01 89bd 709e b9bd
00000270: 4e5b 5bbf 61f0 27bb ae9b 6abd 5680 87bf
00000280: 8f2a 1cbe 508f e1bd 0dc5 04be bffe 4c3e
00000290: 926f 15bf 0291 69be e111 eabb 60b9 a0bd
000002a0: b8d4 93be ed93 4fbe d525 a9bf d08b 36bd
000002b0: f96c 43bd 6ce8 b1b9 840d 45be 51d2 c7bd
000002c0: 0222 8bbd ec8a 56bd b226 44bd fc62 41be
000002d0: a0a1 26bf a3a4 1ebe 975d 8bbf 32f6 e9bf
000002e0: 5986 08bd 8cf4 66be 664b 02be 3373 04bd
000002f0: 3bd9 0cbf 6f87 3abe 6fdd fcbd a4d8 ccbd
00000300: fa99 d4bc 20b8 47bf eee7 20bf 5d6d abbf
00000310: edc0 8abd d097 9dbd 485e b1bd 943e ccbd
00000320: 12b6 37bf 8bd2 67bd 8d41 8cbf dba8 5ebf
00000330: 03a5 5bbd d49b 12bc edc1 fe3c 1948 79be
00000340: adfc 95bf b338 903f 450d 1bbf 562d 02be
00000350: c1e7 a5be 1182 d4bd 38ef a6be a640 2dc0
00000360: e465 b1bc 4ce3 32bf 55b0 e5bd f6b3 0bbf
00000370: 2cae 20bf 076e dcbc bd41 b6bd 637d d73c
00000380: 7aaf 42be 9d40 b1be bd85 d4bf d4e0 f4bc
00000390: a42d 23bf e1e4 67bf 3a6b e1bb d1c6 80bd
000003a0: ce15 14bf 6e50 c2bd 4828 ffbe af4f fcbc
000003b0: d91c adbd f361 febd 9e4e 7abe f60b 36bf
000003c0: b1cd d5bf e4fa 9ebf 397c 2dbc cb6d 54bd
000003d0: 4693 88bd 7110 05bf 3764 09bf d159 91bd
000003e0: 21ed a2be 2de3 a6bd 7c41 6bbf 69ef 19be
000003f0: c07d 6dbf 6367 b0bd 0558 74be 52b3 8dbd

l3.weight f4 [4, 300]
-0.060336903 -0.2565802 0.15146975 -0.03503552 0.08922526 -0.010703314 -0.03544641 1.0462502
4.362271 -0.0016414229 -1.4855192 -0.55188483 1.2113924 0.074157774 -0.0427462 -0.007251445
-0.22077122 0.013398294 -0.52289474 0.077067815 -1.0076276 0.010117327 -0.055842705 -0.23434222
0.7777149 0.02164038 -0.010716975 0.04597812 -0.22461343 0.5800055 -0.092789814 0.65110934
0.011210434 -0.65602076 -2.8452868 -0.002734638 -0.09415339 0.002828394 -0.027826013 -0.0408365
-0.03498118 -0.041315388 -0.027159644 -0.6363204 0.36082917 -0.30665803 -0.48539206 0.15568942
0.014394934 0.0058815787 -0.08781586 -0.0019413878 -0.3494073 0.36714712 0.1968985 -0.08336075
-0.038953193 0.029300433 -1.1173393 0.17943631 0.008255563 0.02424926 -0.037076455 0.010592055
0.014027095 -0.054706942 0.3928115 -0.07985328 -0.0018914682 -0.03828299 0.04012805 -0.00028887158
-0.0047113854 0.034559302 -0.046462424 -0.21826057 1.2363745 0.07567808 0.019374851 -0.60155094
-0.010314606 0.3482515 0.09339629 0.0035447723 -0.18234347 -0.015448514 -0.3917598 1.1375909
-0.02761297 0.04738791 0.0042292727 -0.033090174 0.0073149437 -0.002411445 -0.017384393 0.001904974
0.008413262 -0.03541305 1.3568511 0.021575047 0.011840424 -0.4594818 -1.3680861 -1.4902046
0.02215063 0.017401982 0.00035598685 -0.4059024 0.032143816 -0.045518734 -1.6412762 -0.3509264
0.9115722 -0.20061241 -0.106371455 -0.097668596 0.24093184 -0.28864238 -0.13278995 -0.027325723
0.024722835 2.425657 0.025612481 0.016008943 2.444735 0.00044950264 0.16933894 0.019569565
1.1764972 -0.0037194956 0.052012846 -0.043160874 0.8518135 0.8482835 0.1212505 0.015564617
0.00035645513 0.085978776 0.019855969 0.022690203 0.01755985 0.45821887 0.04195555 -0.0065658055
-0.13629708 -0.13196479 -0.017540097 -0.0052535716 0.68499804 -0.24415709 -0.09958628 0.026160317
-0.027400479 0.26874447 -0.014205165 -0.16625306 0.9010667 0.026660006 -0.021506732 -0.88346773
-0.2652092 0.030560471 -0.05912727 0.024361607 0.089801036 0.41736236 -0.786844 -0.66942537
0.0015273752 -0.04941387 0.07777299 -0.016648797 0.01379266 0.056839086 0.6491433 2.5662458
-0.10438191 -0.09080506 0.03491794 -0.22610125 -0.8753785 -0.7108917 -0.17905097 0.53196764
0.007535293 0.23186651 0.04470279 0.06048071 1.7013806 -0.3087281 0.4056585 0.022846721
-0.06888972 2.2527971 -0.39351526 -0.00536917 0.036580555 -0.033840436 -0.015630981 -0.019509243
-0.34349805 0.017795695 3.982662 0.81478393 0.08457851 0.07630739 1.5456204 -0.05418562
-1.2027012 0.97929347 0.09240769 1.5090564 0.7698649 -1.3896271 -0.59306645 0.028707845
0.033707663 0.32607314 0.024589851 -0.84665084 0.01606795 0.0037645325 -0.075347476 -1.5350382
-0.4850103 0.029742407 0.038474865 -0.3772395 -0.5236019 0.022593886 0.0112930145 0.0013203503
0.17707726 -0.05342294 -0.26554585 -0.07671317 0.009004944 0.0012333991 0.14751618 -0.06058606
-0.50987923 -0.36076602 -0.00576533 0.032209776 -0.01226636 -0.12068034 -0.01862831 0.060559686
-0.0045237304 0.008741755 0.63781714 -0.050554994 -0.050846003 -0.009150601 -0.21857804 -0.0004930211
00000000: d423 77bd 7b5e 83be e31a 1b3e 6881 0fbd
00000010: bcbb b63d f45c 2fbc 4130 11bd 87eb 853f
00000020: b997 8b40 0325 d7ba 7e25 bebf 5348 0dbf
00000030: e80e 9b3f 08e0 973d a416 2fbd 889d edbb
00000040: da11 62be 8584 5b3c 6edc 05bf bbd5 9d3d
00000050: f1f9 80bf 25c3 253c 52bb 64bd 68f7 6fbe
00000060: 5318 473f 2b47 b13c 4096 2fbc 8e53 3c3d
00000070: 1001 66be 3e7b 143f 9608 bebd 1aaf 263f
00000080: f8ab 373c faf0 27bf 2e19 36c0 9d37 33bb
00000090: 7ed3 c0bd 945c 393b 61f3 e3bc 2c44 27bd
000000a0: 6d48 0fbd 533a 29bd e77d debc e5e5 22bf
000000b0: 9abe b83e 4802 9dbe 4f85 f8be 0c6d 1f3e
000000c0: bbd8 6b3c 42ba c03b cdd8 b3bd 2a76 feba
000000d0: 83e5 b2be b5fa bb3e c39f 493e 0ab9 aabd
000000e0: 628d 1fbd 7607 f03c f904 8fbf 27be 373e
000000f0: 5742 073c 62a6 c63c 7bdd 17bd 4c8a 2d3c
00000100: e7d1 653c 6314 60bd 971e c93e 1e8a a3bd
00000110: 24eb f7ba a0ce 1cbd 4f5d 243d b073 97b9
00000120: f761 9abb 0e8e 0d3d 624f 3ebd b37f 5fbe
00000130: 8541 9e3f 1cfd 9a3d 02b8 9e3c 3eff 19bf
00000140: 98fe 28bc 054e b23e 8e46 bf3d 694f 683b
00000150: 3fb8 3abe c41b 7dbc be94 c8be 949c 913f
00000160: 9834 e2bc d319 423d b695 8a3b 9089 07bd
00000170: 32b2 ef3b 5509 1ebb b769 8ebc 52b0 f93a
00000180: c7d7 093c 460d 11bd 4cad ad3f 27be b03c
00000190: 56fe 413c 3341 ebbe 721d afbf 06bf bebf
000001a0: 3d75 b53c 9a8e 8e3c bfa3 ba39 70d2 cfbe
000001b0: 3ca9 033d da71 3abd 5715 d2bf a0ac b3be
000001c0: cc5c 693f 576d 4dbe 47d9 d9bd 7906 c8bd
000001d0: d6b6 763e efc8 93be 17fa 07be 32da dfbc
000001e0: 8b87 ca3c f73d 1b40 44d1 d13c 3025 833c
000001f0: 8a76 1c40 39ab eb39 3067 2d3e 5a50 a03c
00000200: 7697 963f c8c2 73bb 6c0b 553d 75c9 30bd
00000210: 7310 5a3f 1c29 593f 2f52 f83d bc02 7f3c
00000220: 99e2 ba39 a415 b03d fca8 a23c cee0 b93c
00000230: add9 8f3c aa9b ea3e 95d9 2b3d f825 d7bb
00000240: 7691 0bbe c721 07be 40b0 8fbc 2726 acbb
00000250: 085c 2f3f 5104 7abe e4f3 cbbd 294e d63c
00000260: f876 e0bc e098 893e c8bc 68bc 3e3e 2abe
00000270: 4fac 663f 1666 da3c e32e b0bc f12a 62bf
00000280: 80c9 87be f459 fa3c 702f 72bd fe91 c73c
00000290: 9be9 b73d 85b0 d53e 9c6e 49bf 765f 2bbf
000002a0: 3532 c83a 3366 4abd 7247 9f3d 0f63 88bc
000002b0: 9cfa 613c 1ad0 683d 412e 263f 5f3d 2440
000002c0: 2fc6 d5bd 01f8 b9bd 1d06 0f3d 1687 67be
000002d0: ce18 60bf 00fd 35bf 2359 37be 082f 083f
000002e0: 9fea f63b 6a6e 6d3e 461a 373d 9fba 773d
000002f0: d7c6 d93f 9c11 9ebe 79b2 cf3e 0c29 bb3c
00000300: 0e16 8dbd d42d 1040 d57a c9be ddef afbb
00000310: 7ed5 153d 459c 0abd 8b0c 80bc d9d1 9fbc
00000320: fade afbe 47c8 913c efe3 7e40 ae95 503f
00000330: 7f37 ad3d 0d47 9c3d e4d6 c53f bef1 5dbd
00000340: 1df2 99bf fab2 7a3f 3e40 bd3d c328 c13f
00000350: de15 453f 4ddf b1bf 34d3 17bf b72c eb3c
00000360: 0c11 0a3d 0ff3 a63e a870 c93c 1cbe 58bf
00000370: efa0 833c 60b6 763b c74f 9abd 227c c4bf
00000380: 4553 f8be 59a6 f33c d297 1d3d 8925 c1be
00000390: c60a 06bf d016 b93c 5606 393c 9b0f ad3a
000003a0: be53 353e 03d2 5abd a0f5 87be cb1b 9dbd
000003b0: 7989 133c 02aa a13a 7b0e 173e 1729 78bd
000003c0: 7287 02bf 53b6 b8be 18eb bcbb 66ee 033d
000003d0: d8f8 48bc 4127 f7bd 669a 98bc 6f0d 783d
000003e0: cd3b 94bb 9439 0f3c fc47 233f c112 4fbd
000003f0: e643 50bd 67ec 15bc ecd2 5fbe 163e 01ba

l3.bias f4 [4]
0.3729381 -0.51523376 -0.5430071 -0.58909893
00000000: bef1 be3e 5ce6 03bf 8302 0bbf 30cf 16bf
