TD3_control/dir_Walker2D_002/biped-v6-2d-15_actor.pth (torch, 527895 bytes, 6 tensors)

l1.weight f4 [400, 24]
0.26211682 0.17155425 -0.0873558 -4.457532 0.775761 3.6335785 -0.054120857 0.027617885
-1.4883093 0.11074029 -3.984157 0.26797807 -0.09473274 -0.038322814 2.6533465 -0.12274268
-4.0814557 -0.070640214 0.06658605 0.046051074 -0.1453223 -0.029945605 -0.91449773 0.038018316
0.7499301 0.5747603 -1.9188249 -5.8941226 -0.5928332 2.1617873 -0.18727888 0.01475678
-1.1317863 -0.69849104 1.3433063 -0.07948767 0.05503685 0.33717686 0.8584304 0.2591057
-2.4084597 -0.18898682 -0.3390563 -0.30399993 0.8110651 -0.23245016 -1.5521244 -0.148917
0.8458153 -0.2568444 -0.84588385 0.07661967 2.8736503 1.1266346 -0.08994957 0.091357015
-0.5876183 -0.7314266 0.57685006 0.10157097 -1.3343456 -0.30414033 -0.15491806 -0.10829035
0.7916048 0.4465737 -3.1900697 0.53219914 -0.40945196 -0.30154875 -0.17147385 0.38879204
1.9013746 0.4617757 -1.7103499 -3.0199306 2.009016 -0.788751 -0.026069399 -0.080645196
-1.4493134 0.15693909 -1.4230956 0.22023343 0.070511684 0.15091679 1.8399825 -0.2556435
0.8623497 0.31558493 -0.26799762 0.47832522 0.5491014 -0.3120919 -1.1220587 -0.9102638
0.99169415 0.52456504 -1.3005538 -3.8209422 -1.7054139 0.781687 0.18045014 -0.05354218
-1.719175 -0.055782422 -0.045391344 -0.2786834 -0.75904524 0.4285752 0.05202046 -0.6896173
-1.0207258 -0.9411685 -1.3259254 -0.19631328 -0.19738786 0.06760947 -0.43850234 -1.593242
0.2748568 1.0939347 0.49864167 0.5365882 -1.0801909 2.4353778 -0.17088582 -0.11013019
1.7470905 0.17226166 -1.7725409 0.22776449 -1.4948342 0.0035768368 1.144291 0.02716086
0.44017977 1.1974586 -1.2545413 1.1723545 0.9077595 0.43143994 -0.9700377 -0.92671824
0.08726401 -1.1294637 -0.95515364 -0.782492 -1.4156495 0.20516501 0.107461385 -0.1915078
-0.6358269 -1.8855118 1.314599 -0.10426731 -0.6531359 -0.015362232 -0.73227644 -0.1005482
0.5717701 0.2872897 -0.26178023 -0.074761175 2.8587675 0.1867941 -0.63242084 -0.49108967
-0.62881964 0.33527228 -0.50201654 -2.0548313 -3.416958 -1.4136207 0.005227224 -0.16048765
-1.8144859 -0.25368005 5.750306 0.003041922 -0.13452238 0.15076111 0.21578722 -0.22772065
-3.3985262 0.13504477 -0.24273722 -0.157967 0.21948041 0.22282076 -0.042365756 -0.020887868
-0.50865847 1.1998013 1.1245313 -0.17501515 -0.11760682 -1.056104 0.17763677 -0.07923974
-0.48648992 -0.20030618 2.8133612 -0.22192666 -1.1033674 -0.19739397 0.51630753 -0.030888537
2.497845 -0.69605994 -2.998344 -0.1622915 0.18314002 -0.26563627 0.5375301 0.7203926
1.3465352 1.5570546 -0.40905005 -1.9311311 -0.49455404 0.1972206 0.048465434 0.11898473
-1.949134 -1.2667542 0.070805125 0.14081389 -0.19272101 0.10707535 -0.014224651 0.12974255
0.4962413 0.21451588 -2.1872783 0.041971467 0.29536748 -0.03807262 -1.2701697 -1.3647966
0.81042033 0.04609751 -1.4804202 -0.9549305 -0.22054122 -1.3547356 -0.088947564 0.11788274
-0.76087683 -0.48028257 0.22394863 0.3084988 -0.34124705 -0.023995854 0.74994874 -0.06367293
00000000: 2d34 863e ebab 2f3e 99e7 b2bd 1aa4 8ec0
00000010: 4698 463f 8d8c 6840 d5ad 5dbd e73e e23c
00000020: eb80 bebf cecb e23d 6efc 7ec0 6c34 893e
00000030: 3d03 c2bd 62f8 1cbd 6ed0 2940 8460 fbbd
00000040: 499b 82c0 d1ab 90bd 445e 883d 0da0 3c3d
00000050: 5ecf 14be 7c50 f5bc 861c 6abf 18b9 1b3d
00000060: 6bfb 3f3f 7e23 133f 0e9c f5bf a79c bcc0
00000070: ebc3 17bf b95a 0a40 09c6 3fbe 6cc6 713c
00000080: 60de 90bf 4fd0 32bf 76f1 ab3f 6eca a2bd
00000090: 526e 613d 72a2 ac3e 18c2 5b3f 81a9 843e
000000a0: 3424 1ac0 c385 41be ca98 adbe e1a5 9bbe
000000b0: f6a1 4f3f 6a07 6ebe 03ac c6bf b37d 18be
000000c0: 5a87 583f 1c81 83be d88b 58bf c6ea 9c3d
000000d0: e3e9 3740 9035 903f 7b37 b8bd 6319 bb3d
000000e0: 276e 16bf c63e 3bbf 72ac 133f 7104 d03d
000000f0: d6cb aabf 48b8 9bbe d7a2 1ebe 55c7 ddbd
00000100: 9da6 4a3f 4fa5 e43e 1a2a 4cc0 343e 083f
00000110: b0a3 d1be 9964 9abe d796 2fbe c00f c73e
00000120: 3e60 f33f dd6d ec3e bfec dabf 8b46 41c0
00000130: b893 0040 96eb 49bf 7e8f d5bc 4f29 a5bd
00000140: 1a83 b9bf a4b4 203e ff27 b6bf df84 613e
00000150: 6e68 903d ee89 1a3e 8c84 eb3f b4e3 82be
00000160: f3c2 5c3f 5994 a13e fc36 89be 0be7 f43e
00000170: e991 0c3f 82ca 9fbe 9f9f 8fbf 0c07 69bf
00000180: abdf 7d3f e549 063f 8c78 a6bf 518a 74c0
00000190: 014b dabf a41c 483f ecc7 383e 0c4f 5bbd
000001a0: ed0d dcbf 1c7c 64bd 46ec 39bd 97af 8ebe
000001b0: ca50 42bf 356e db3e 6813 553d c28a 30bf
000001c0: 25a7 82bf 6bf0 70bf ecb7 a9bf 5906 49be
000001d0: 0b20 4abe d576 8a3d 6183 e0be 5bef cbbf
000001e0: 08ba 8c3e 0d06 8c3f f64d ff3e d85d 093f
000001f0: b243 8abf 3bdd 1b40 b1fc 2ebe f08b e1bd
00000200: a9a0 df3f 5c65 303e 9fe2 e2bf 183b 693e
00000210: ba56 bfbf 5d69 6a3b 2178 923f 7480 de3c
00000220: 3e5f e13e 5346 993f cf94 a0bf b60f 963f
00000230: ed62 683f b2e5 dc3e 6454 78bf 683d 6dbf
00000240: 79b7 b23d 4492 90bf f384 74bf 6551 48bf
00000250: 0134 b5bf c716 523e b714 dc3d 9f1a 44be
00000260: 8dc5 22bf 7358 f1bf c844 a83f 198a d5bd
00000270: ea33 27bf dfb1 7bbc 7876 3bbf 37ec cdbd
00000280: 865f 123f a317 933e 0f08 86be 631c 99bd
00000290: 0cf6 3640 f446 3f3e 55e6 21bf 1b70 fbbe
000002a0: 53fa 20bf cfa8 ab3e 2884 00bf 5b82 03c0
000002b0: 71af 5ac0 86f1 b4bf 2249 ab3b e056 24be
000002c0: 1341 e8bf 5ae2 81be 8202 b840 fc5a 473b
000002d0: 3cc0 09be 1f61 1a3e 53f7 5c3e 9a2f 69be
000002e0: 7481 59c0 2d49 0a3e 1b90 78be 1ac2 21be
000002f0: 79bf 603e 202b 643e b787 2dbd 091d abbc
00000300: 7137 02bf 1793 993f a4f0 8f3f 2c37 33be
00000310: d8db f0bd 6a2e 87bf 6ae6 353e 7248 a2bd
00000320: 3515 f9be 101d 4dbe 1c0e 3440 be40 63be
00000330: 253b 8dbf a521 4abe bb2c 043f f509 fdbc
00000340: b1dc 1f40 fc30 32bf dee4 3fc0 be2f 26be
00000350: 0f89 3b3e 7a01 88be 939b 093f a66b 383f
00000360: 445b ac3f 914d c73f 026f d1be 4e2f f7bf
00000370: 3036 fdbe 32f4 493e b183 463d 44ae f33d
00000380: 397d f9bf 0025 a2bf 4702 913d 8431 103e
00000390: a858 45be 524a db3d 830e 69bc 3bdb 043e
000003a0: 5713 fe3e 0daa 5b3e 5efc 0bc0 46ea 2b3d
000003b0: 683a 973e 09f2 1bbd ec94 a2bf a8b1 aebf
000003c0: b577 4f3f bed0 3c3d 697e bdbf 5376 74bf
000003d0: 8fd5 61be fa67 adbf 242a b6bd 826c f13d
000003e0: d3c8 42bf 99e7 f5be ca52 653e 8ef3 9d3e
000003f0: efb7 aebe f492 c4bc a4fc 3f3f f466 82bd

l1.bias f4 [400]
-0.86120254 -1.2284728 -0.594155 -1.3591899 -1.2219852 0.010792348 -1.5743711 -0.60291415
1.266617 -0.9920202 -1.5563242 1.9288106 -0.8220482 -0.9175964 -1.3688823 -0.37745914
-1.5708632 -0.62283343 -0.83053935 1.8068776 -0.723405 -1.178294 -0.64830273 -0.9586943
-1.1533636 -0.28961757 -0.59431076 0.65694684 -1.0362557 -0.13452612 -1.0958164 -0.6228838
-0.8853607 0.03747355 -0.7026473 1.0612419 -0.53401405 -0.5912383 -0.93058664 -1.0457691
0.0722442 -0.40334165 -0.8719582 0.5655125 -0.54199487 -1.2752485 -0.5217556 -0.8812492
-1.7600504 -0.31367 -0.4228699 -1.4030656 0.1705008 -1.6482755 -0.79702765 -0.60689396
-1.347645 -1.029949 -1.336105 -0.77771246 -0.3955159 -0.99475 0.35714054 1.2655609
-1.0843939 -1.2545139 -0.04687241 0.29124296 -0.9091344 -0.21006092 -0.5149119 -0.5800149
-0.37686476 1.1518067 0.10185315 -0.15355024 -1.7066541 -0.54275906 -0.57217014 1.4918453
-0.059799116 -0.6561178 0.46364552 0.1757024 -0.590886 -1.4923769 1.3417273 0.07601711
-0.07230978 -1.3633294 -0.82922447 -1.7906032 -0.81881255 -0.5397098 -0.96780115 0.4343248
-1.9090556 -0.14715196 0.57700634 -1.3241082 0.18749978 -1.046328 -0.833869 -1.3603188
-1.2083416 -0.116184175 -0.7539487 -1.1282195 0.31028703 0.79315907 -0.55524004 -0.47776675
-1.7417494 -0.78549385 -0.35681468 -0.953573 -1.3240839 -1.261972 -1.537621 -0.6872343
-1.6940918 -1.0583397 -0.7886268 -1.350214 -0.60226035 -0.8149933 -0.12833968 -0.6402136
-0.74462944 -0.27630228 -0.69181514 -1.0159422 0.09804679 -0.87674737 0.008850694 -0.6440957
1.0126661 -1.3964565 0.80751365 -0.7124674 0.88372916 -1.2161211 -1.0154749 0.26152742
1.7416588 -0.5312202 -1.748031 -1.1063775 -0.25692868 0.09913154 -0.23749521 -0.10872923
-1.5058693 0.46017763 -1.5273882 0.52437395 -0.15269502 -0.76579684 -0.8415231 -1.2796867
-0.06738961 -1.1440748 0.45303455 -0.7175935 -1.3892317 -0.8351025 -0.75985825 -1.349634
-0.94507295 -0.5604161 -0.5188827 -0.4114215 -0.6024746 -0.95663404 -0.5915918 0.119337276
-0.34186146 0.23072186 -0.006850881 -0.8233114 -1.0523493 -0.21990453 -0.8890602 -0.69449645
-0.12690042 -0.543764 0.5819266 -0.4665736 -0.6248783 -0.2891358 -0.667688 0.8680652
-1.9467472 0.21612105 0.66856 -0.16434374 -1.2793672 -0.7986264 1.2605858 -1.1008155
1.4182582 -0.7994946 -0.9557174 -0.3477748 -1.2049137 -1.205533 -0.38390896 -1.3874195
-2.172436 -1.0571151 -0.013491213 -1.3932852 -0.85000193 -0.87092483 -0.45046028 -0.07339147
-0.6417635 -0.06497897 -0.33400464 -1.0430716 0.48734954 -1.2687756 -1.2280909 -0.8542901
0.49260336 -0.69360775 0.11696265 -1.0035429 -1.5046264 -0.15445712 -1.0246227 -0.94147766
-0.4764238 -0.5905526 -1.1715279 -1.1494137 -1.6088014 -0.17289248 0.8093086 -0.2560597
0.005813021 -1.1913928 -1.1490773 0.4141676 -1.6988504 0.7603882 -0.08219708 -0.5892124
-0.7692103 -1.227868 -0.3617692 -0.7604876 -0.20697083 -0.31201562 0.16453736 -0.8397857
00000000: c577 5cbf 993e 9dbf 8b1a 18bf eff9 adbf
00000010: 036a 9cbf 63d2 303c fe84 c9bf 9558 1abf
00000020: 8120 a23f 09f5 7dbf a235 c7bf 44e3 f63f
00000030: c071 52bf 99e7 6abf 8937 afbf 5342 c1be
00000040: 0c12 c9bf 0372 1fbf 3a9e 54bf c447 e73f
00000050: 1231 39bf 56d2 96bf 2bf7 25bf fd6c 75bf
00000060: 6ba1 93bf c148 94be c024 18bf ab2d 283f
00000070: 07a4 84bf 37c1 09be b643 8cbf 5075 1fbf
00000080: 00a7 62bf dd7d 193d b2e0 33bf c6d6 873f
00000090: 25b5 08bf 655b 17bf ed3a 6ebf c3db 85bf
000000a0: c4f4 933d cc82 cebe a738 5fbf 6dc5 103f
000000b0: 2dc0 0abf 583b a3bf c691 05bf 8c99 61bf
000000c0: 5549 e1bf 5b99 a0be 6782 d8be a797 b3bf
000000d0: c397 2e3e b1fa d2bf 010a 4cbf 675d 1bbf
000000e0: a27f acbf 5ed5 83bf 7d05 abbf 2a18 47bf
000000f0: 0f81 cabe f0a7 7ebf 20db b63e e6fd a13f
00000100: 6bcd 8abf e993 a0bf 49fd 3fbd cc1d 953e
00000110: 08bd 68bf 361a 57be 44d1 03bf db7b 14bf
00000120: 6bf4 c0be 676e 933f 6298 d03d 463c 1dbe
00000130: a473 dabf 42f2 0abf be79 12bf c9f4 be3f
00000140: ebef 74bd 56f7 27bf f262 ed3e 54eb 333e
00000150: 4e44 17bf 3506 bfbf b8bd ab3f dcae 9b3d
00000160: 2617 94bd 9481 aebf 0e48 54bf 7c32 e5bf
00000170: b39d 51bf 6c2a 0abf d1c1 77bf d25f de3e
00000180: ef5b f4bf 01af 16be b0b6 133f 617c a9bf
00000190: f1ff 3f3e 13ee 85bf 7078 55bf ed1e aebf
000001a0: f0aa 9abf f8f1 edbd c802 41bf 7f69 90bf
000001b0: f1dd 9e3e 790c 4b3f 3624 0ebf d89d f4be
000001c0: a5f1 debf 2016 49bf 6ab0 b6be 5c1d 74bf
000001d0: 957b a9bf 4c88 a1bf c4d0 c4bf 96ee 2fbf
000001e0: 00d8 d8bf ad77 87bf 72e3 49bf d0d3 acbf
000001f0: bc2d 1abf 67a3 50bf 7a6b 03be 0ae5 23bf
00000200: 09a0 3ebf 7e77 8dbe cc1a 31bf 650a 82bf
00000210: c1cc c83d 8472 60bf 8002 113c 75e3 24bf
00000220: 0b9f 813f 16bf b2bf 37b9 4e3f 4364 36bf
00000230: 133c 623f dba9 9bbf 15fb 81bf ece6 853e
00000240: adee de3f 0cfe 07bf 7bbf dfbf c79d 8dbf
00000250: 288c 83be 7a05 cb3d f231 73be 6ead debd
00000260: 53c0 c0bf 679c eb3e 7581 c3bf 5f3d 063f
00000270: 155c 1cbe 430b 44bf 0f6e 57bf c6cc a3bf
00000280: 9003 8abd 0b71 92bf 25f4 e73e 35b4 37bf
00000290: 58d2 b1bf 47c9 55bf 1286 42bf cfc0 acbf
000002a0: 4df0 71bf 6e77 0fbf 7fd5 04bf d7a5 d2be
000002b0: c63b 1abf f8e5 74bf 8f72 17bf 1a67 f43d
000002c0: 7708 afbe 5a42 6c3e 5b7d e0bb 89c4 52bf
000002d0: 62b3 86bf a72e 61be 7399 63bf 85ca 31bf
000002e0: 2ff2 01be 1e34 0bbf 24f9 143f bce2 eebe
000002f0: 06f8 1fbf 9c09 94be 9aed 2abf 8539 5e3f
00000300: 032f f9bf d64e 5d3e c026 2b3f ba49 28be
00000310: 4ec2 a3bf c872 4cbf e05a a13f 86e7 8cbf
00000320: 7c89 b53f aeab 4cbf e5a9 74bf 8a0f b2be
00000330: 9d3a 9abf e84e 9abf b78f c4be f696 b1bf
00000340: 3109 0bc0 8c4f 87bf 400a 5dbc 2b57 b2bf
00000350: ba99 59bf eef4 5ebf bba2 e6be 444e 96bd
00000360: 9d4a 24bf b213 85bd a802 abbe 5f83 85bf
00000370: e185 f93e 3d67 a2bf 1532 9dbf c2b2 5abf
00000380: 8236 fc3e 4790 31bf 1d8a ef3d 1874 80bf
00000390: 9997 c0bf 022a 1ebe d626 83bf ae04 71bf
000003a0: d2ed f3be 752e 17bf a0f4 95bf fd1f 93bf
000003b0: 34ed cdbf ba0a 31be d92e 4f3f 421a 83be
000003c0: 287b be3b 8f7f 98bf f714 93bf c70d d43e
000003d0: ee73 d9bf cda8 423f f156 a8bd a0d6 16bf
000003e0: f7ea 44bf c72a 9dbf d039 b9be 51af 42bf
000003f0: 29f0 53be 83c0 9fbe 7b7c 283e 32fc 56bf

l2.weight f4 [300, 400]
-0.8506634 -0.17978403 -0.5581294 -0.36681324 -0.20724985 -0.062057473 -0.2754479 -0.041752197
-0.16506226 0.10901295 -0.2618916 -0.29139152 0.19589072 -0.031068094 0.1512784 -0.40927762
0.25214005 -0.1243139 0.16713949 -0.5489814 -0.5392988 -0.014818162 0.2846915 -0.24804899
-0.30836254 0.028607292 -0.016663723 0.13016008 -0.6856883 0.00062032323 -0.27654758 0.0067490735
0.3062187 -0.3255956 -0.29070666 0.019364089 0.002676108 -1.0455977 -0.04449477 -0.020008158
0.35285172 0.23146729 -0.7015696 -1.1096731 0.025386788 -0.21010128 0.024945958 0.08981714
-0.1908008 -0.74545014 -0.5117942 -0.34918573 0.22640112 -0.56726533 0.0020016234 -0.40908945
0.019209366 -0.30324176 -0.19625655 -0.37089494 -0.5815722 0.42140466 -0.07649819 -0.71555513
-0.061006773 -0.105884634 0.5027304 0.008534506 -1.0335693 -0.6359792 0.11728887 -0.047082223
-0.054435566 -0.1701814 0.011072093 -0.24639651 0.16055274 -0.27367154 0.3734005 -0.53869885
-0.17019272 0.046669606 -0.04354669 -0.11974055 0.050764892 0.14806898 -0.42677373 -0.51485586
-0.3412616 -0.20658644 -0.2984886 -0.60743064 0.056900725 -0.28065217 -0.61216366 -0.10596603
0.08959829 0.083969556 -0.98741406 -0.05094037 -0.09686984 -0.109620035 -0.5686704 0.06292194
-0.22765532 0.39169815 0.028575797 -0.00409027 -0.12397556 -0.44576055 -0.50289786 0.18451224
-0.26805615 -0.33322757 0.27998206 -0.44957474 -0.36037704 -0.17432109 0.12316132 -0.44428355
-0.22002095 -0.0012264923 -0.18212126 0.03248942 -0.27993459 -0.43520048 0.20181292 -0.09126276
-0.029830279 0.011721617 0.14595643 -0.10608049 -0.35525334 -0.08699868 -0.63899314 -0.43369916
-0.31750745 0.31001312 -0.4228451 0.3641666 -0.5266243 -0.92085785 0.8692949 -0.39179394
0.12482958 -0.23719488 -0.04413212 0.0072169127 -0.18095854 0.29365548 -0.14986464 -0.31405273
0.05623829 0.14249305 -0.3721884 -0.7873073 -0.14433801 -0.5087211 -0.38345465 -0.17117493
-0.08363924 -0.3047771 -0.4769671 -0.048051283 0.20546193 -0.8922237 -0.8321644 -0.22870845
-0.6314635 0.03472842 -0.26404628 0.11173461 0.12441467 -0.45489705 0.124753475 -0.070638895
0.3919717 -0.16883732 0.3949182 0.072927736 -0.16925292 -0.0680201 -0.35681033 -0.84087795
0.2535328 -0.15718243 -0.36123598 0.14798355 -0.07806645 -0.21459217 -0.3337256 -0.19494534
-0.3318716 -0.24692062 -0.5249517 0.11494804 0.028840207 -0.13753377 0.026139941 -0.48096374
-0.7216961 -0.928905 -0.04165099 0.4063448 0.03630944 0.038539194 -0.38304472 0.12761828
-0.40561035 -0.048218228 -0.44243628 -0.63287085 -0.2748601 0.30239642 -0.16041431 -0.6898331
-0.043598216 -0.22436419 -0.3888625 0.14451335 -0.052508235 0.0838986 -1.0256381 -0.63604754
-0.19932656 -0.61329657 -0.38780418 -0.5518187 -0.18660405 -0.30904204 0.17523538 -0.2091896
0.41947675 -0.37095472 -0.09204801 0.6096391 -0.5752546 0.09384061 0.11486191 -0.30020046
0.112648025 -0.14514415 0.042807836 -0.2002283 -0.43251863 -0.35190362 0.087663844 -0.1350635
-0.06405688 0.16913584 0.4488127 0.35796535 0.16062564 -0.35474694 -0.33506596 -0.39235112
00000000: 14c5 59bf 4e19 38be 91e1 0ebf f2ce bbbe
00000010: 4e39 54be fa2f 7ebd 8207 8dbe 5a04 2bbd
00000020: 1506 29be 2e42 df3d a816 86be 4531 95be
00000030: 9497 483e 8482 febc bae8 1a3e d68c d1be
00000040: 8018 813e 4998 febd 9d26 2b3e 0c8a 0cbf
00000050: 7c0f 0abf e0c7 72bc 16c3 913e 8e00 7ebe
00000060: b2e1 9dbe d759 ea3c 5c82 88bc af48 053e
00000070: 4589 2fbf 309d 223a a597 8dbe 5527 dd3b
00000080: b3c8 9c3e 77b4 a6be 81d7 94be 70a1 9e3c
00000090: a461 2f3b 25d6 85bf 2640 36bd 26e8 a3bc
000000a0: fba8 b43e c305 6d3e 119a 33bf c509 8ebf
000000b0: f4f7 cf3c ca24 57be 775b cc3c 0cf2 b73d
000000c0: 4961 43be d2d5 3ebf f204 03bf 79c8 b2be
000000d0: b2d5 673e 4d38 11bf ab2d 033b 2c74 d1be
000000e0: f65c 9d3c 8142 9bbe 7af7 48be f1e5 bdbe
000000f0: eae1 14bf 5ac2 d73e 15ab 9cbd 9f2e 37bf
00000100: 3de2 79bd 0bda d8bd f1b2 003f 50d4 0b3c
00000110: 004c 84bf 88cf 22bf 2635 f03d 4ad9 40bd
00000120: d4f7 5ebd 0844 2ebe b967 353c 5e4f 7cbe
00000130: f067 243e ad1e 8cbe 5a2e bf3e 2be8 09bf
00000140: 0047 2ebe a128 3f3d 045e 32bd 893a f5bd
00000150: d9ee 4f3d 659f 173e 1682 dabe 98cd 03bf
00000160: d7b9 aebe 658b 53be 7fd3 98be 9380 1bbf
00000170: bc10 693d a4b1 8fbe c2b6 1cbf b804 d9bd
00000180: 4f7f b73d 3bf8 ab3d 2bc7 7cbf d9a6 50bd
00000190: b263 c6bd 7880 e0bd 6294 11bf 38dd 803d
000001a0: 7a1e 69be a98c c83e ca17 ea3c ac07 86bb
000001b0: e6e6 fdbd ba3a e4be eabd 00bf c7f0 3c3e
000001c0: a83e 89be ce9c aabe cf59 8f3e a92e e6be
000001d0: 5783 b8be 3a81 32be 013c fc3d 2279 e3be
000001e0: 2c4d 61be 41c2 a0ba ff7d 3abe a013 053d
000001f0: 9653 8fbe 99d2 debe 0ca8 4e3e f8e7 babd
00000200: a15e f4bc 060c 403c 9a75 153e ba40 d9bd
00000210: c4e3 b5be 5d2c b2bd 0e95 23bf d10d debe
00000220: 5690 a2be 0aba 9e3e 277f d8be 0b74 ba3e
00000230: dad0 06bf 57bd 6bbf 1c8a 5e3f 3799 c8be
00000240: a7a6 ff3d 37e3 72be e2c3 34bd da7b ec3b
00000250: 324d 39be 035a 963e 1e76 19be 85cb a0be
00000260: 1f5a 663d b3e9 113e 7a8f bebe f98c 49bf
00000270: 58cd 13be 8c3b 02bf 2b54 c4be 7b48 2fbe
00000280: 0d4b abbd be0b 9cbe 0835 f4be 6cd1 44bd
00000290: 9d64 523e c668 64bf ba08 55bf 8c32 6abe
000002a0: 98a7 21bf 633f 0e3d 1331 87be 1dd5 e43d
000002b0: 1ecd fe3d 44e8 e8be c07e ff3d 20ab 90bd
000002c0: 84b0 c83e b1e3 2cbe b832 ca3e 235b 953d
000002d0: a350 2dbe 1f4e 8bbd d8af b6be c743 57bf
000002e0: 0dcf 813e 6ef4 20be ecf3 b8be 0089 173e
000002f0: 4ee1 9fbd 0dbe 5bbe 15de aabe c09f 47be
00000300: 13eb a9be c2d8 7cbe 3c63 06bf e169 eb3d
00000310: 4c42 ec3c a7d5 0cbe 6e23 d63c e140 f6be
00000320: 13c1 38bf b8cc 6dbf 3a9a 2abd 6d0c d03e
00000330: 35b9 143d 46db 1d3d 701e c4be 5eae 023e
00000340: 29ac cfbe 7a80 45bd 0287 e2be d303 22bf
00000350: 77ba 8cbe b4d3 9a3e a643 24be e798 30bf
00000360: 0b94 32bd babf 65be fc18 c7be 4ffb 133e
00000370: e012 57bd 07d3 ab3d 1c48 83bf 03d4 22bf
00000380: 431c 4cbe 0101 1dbf 458e c6be fe43 0dbf
00000390: 2215 3fbe c23a 9ebe e770 333e cc35 56be
000003a0: a8c5 d63e c7ed bdbe ab83 bcbd 4f11 1c3f
000003b0: e343 13bf 812f c03d b93c eb3d e0b3 99be
000003c0: 02b4 e63d aba0 14be 4557 2f3d a608 4dbe
000003d0: 1573 ddbe b62c b4be 1a89 b33d 164e 0abe
000003e0: 4130 83bd f231 2d3e c7ca e53e 3c47 b73e
000003f0: 0c7b 243e 64a1 b5be c48d abbe 3fe2 c8be

l2.bias f4 [300]
-0.40556785 0.59093755 -0.13040379 -0.08706701 -0.08201775 -0.35972768 -0.023977157 -0.0037645518
-0.07333443 -0.21830763 -0.12708756 -0.6600792 -0.0017283875 0.43692383 0.008456774 -0.10350356
-0.24291018 0.6028968 0.028035218 -0.20019792 -1.4855113 -0.09446445 -0.053564418 -0.19923392
-0.05620318 -0.03484908 -0.043388534 -0.024224091 -0.28741145 -0.067476936 -0.060914773 -0.03875695
-0.74893904 -0.9790707 -0.73440576 -0.08521357 -1.0038174 -0.07525371 -0.25946838 -0.07298742
-0.06539717 -0.01639488 -0.08751207 -0.14706995 -0.00569646 -0.035569284 -0.4672574 -0.04443842
-0.095291145 -0.091835886 1.4347504 0.0048543103 -0.20608886 -0.065876834 -0.34005907 -0.015286477
0.056728847 -0.055549152 -0.4502229 -0.79295015 -1.3381104 -0.27261832 -0.08079424 -0.09645354
-0.1782167 -0.07200279 -0.052585624 -0.0073494334 -0.12926579 -0.025995716 -1.1256638 -0.24927276
-0.17191914 -0.41275692 -0.20581448 -0.010464489 -0.12107153 -0.08009791 -0.2124823 -0.069119126
-0.11835371 -0.057793155 -0.38531962 -1.5100795 -0.0829311 -0.05460317 -0.00021491777 1.1320469
-0.25758725 -0.0699689 -0.028395826 -0.09466911 -0.0816636 -0.10465128 0.005091817 -0.004206629
-0.009111855 -0.3221234 -0.12503505 -0.05819403 -0.07163808 -0.64317596 -0.0709787 -0.04238443
-0.04687589 -0.08655405 -0.5720995 -0.40230846 -0.101465985 -0.87765986 -0.07958585 -0.07139562
-0.010939925 0.0066487757 -0.41649452 -0.112697 -0.3424181 0.4006502 -0.04377675 -0.09118721
-0.0925395 -0.48555958 -0.20338026 -0.041059177 -0.09423003 -0.20338686 -0.009346339 -0.010201266
-0.10811033 -0.17905653 -0.6823731 -0.20946886 -0.16481404 -0.74115664 -0.07270307 -0.043743603
-0.5359037 0.39570907 -0.14437099 -0.5124951 -0.018393433 -0.04986462 -0.7474387 0.123963766
-0.052688118 -0.09364788 -0.11136751 -0.047564965 -0.09486233 -0.057392485 -0.056140088 -0.7358847
-0.060879044 -0.05127011 0.97536767 -0.49097705 -0.30160502 0.02624957 -0.020026805 0.010718568
0.31802997 -0.113792166 -0.36878812 -0.1292477 -0.09088638 0.03417357 -0.06576161 -0.40261558
-0.15740715 -0.5674174 -0.062400553 -0.69164085 -0.080703236 -0.5826885 -0.069434926 -0.10667232
-0.19135651 -1.2641885 -1.4236438 -0.083166204 -0.054771665 -0.07455555 -0.027847545 -0.15106492
-0.028411308 -0.88641477 -0.051887702 -0.6146797 -0.09130171 -0.10147464 -0.074515805 -0.05561073
2.9972032e-05 -0.2578307 0.8361848 -0.082595214 -0.28587723 -0.76871634 -0.19862957 -0.5666546
-0.35200602 -0.031977065 -0.063394666 -0.23563643 -1.4419764 -0.12657014 -0.49670961 -0.06687747
-0.063754514 -0.040229134 -0.0908837 -0.009245728 -0.0845 -0.0244363 -0.041068442 -0.21285242
-1.4464927 -0.08405541 -0.07101103 -0.087808244 -0.11746589 -0.025326226 -1.3113414 -0.040822707
-0.803177 -0.7451791 -0.07770833 -0.014547846 -0.06608449 -0.1546449 -0.055956304 -0.02162867
-0.0035107771 -0.059529614 -0.25658318 -0.045197263 -0.08206393 -0.40271112 -0.051070813 -0.11000091
-0.074024096 -0.10367829 -1.0716705 -1.8788327 -0.123570785 -0.058550265 -0.13391545 -0.004452076
-0.11521535 -0.1109486 -0.029360298 -0.19551279 -0.075268544 -0.36238804 -0.0027044471 -0.3462506
00000000: 97a6 cfbe af47 173f 9288 05be 3050 b2bd
00000010: ecf8 a7bd 3a2e b8be be6b c4bc b3b6 76bb
00000020: 5d30 96bd 098c 5fbe 3e23 02be f3fa 28bf
00000030: 108b e2ba 7bb4 df3e 488e 0a3c adf9 d3bd
00000040: 72bd 78be 7257 1a3f 1daa e53c af00 4dbe
00000050: 3c25 bebf 9476 c1bd 5d66 5bbd fa03 4cbe
00000060: 4e35 66bd e9bd 0ebd 2db8 31bd 9a71 c6bc
00000070: 9827 93be 5931 8abd c581 79bd 9cbf 1ebd
00000080: 78ba 3fbf 61a4 7abf 0402 3cbf 7484 aebd
00000090: 177d 80bf 9e1e 9abd 0ad9 84be 6e7a 95bd
000000a0: f4ee 85bd 8e4e 86bc 8739 b3bd 8199 16be
000000b0: 5fa9 babb 19b1 11bd 5d3c efbe 1005 36bd
000000c0: 0128 c3bd 7414 bcbd e7a5 b73f e810 9f3b
000000d0: f508 53be 6fea 86bd 391c aebe 2274 7abc
000000e0: 825c 683d 8287 63bd 9e83 e6be c8fe 4abf
000000f0: 3447 abbf a194 8bbe 7377 a5bd 6f89 c5bd
00000100: 707e 36be 3376 93bd 0664 57bd 84d3 f0bb
00000110: 405e 04be f8f4 d4bc c015 90bf 5c41 7fbe
00000120: 920b 30be e054 d3be 08c1 52be 4073 2bbc
00000130: 5af4 f7bd 5f0a a4bd f694 59be 548e 8dbd
00000140: 6e63 f2bd 84b8 6cbd 9d48 c5be 494a c1bf
00000150: c8d7 a9bd 93a7 5fbd 8d5b 61b9 eae6 903f
00000160: 7ae2 83be db4b 8fbd 5d9e e8bc e1e1 c1bd
00000170: 3f3f a7bd 6953 d6bd 42d9 a63b c3d7 89bb
00000180: e449 15bc 5ced a4be 3009 00be dd5c 6ebd
00000190: fcb6 92bd 2ea7 24bf 485d 91bd 4c9b 2dbd
000001a0: ef00 40bd 4043 b1bd 1d75 12bf 60fb cdbe
000001b0: 66cd cfbd 51ae 60bf e8fd a2bd de37 92bd
000001c0: 5f3d 33bc f9dd d93b c53e d5be afcd e6bd
000001d0: 6d51 afbe 0622 cd3e 404f 33bd 5cc0 babd
000001e0: 5985 bdbd 449b f8be ea42 50be ab2d 28bd
000001f0: adfb c0bd a544 50be 6321 19bc 3623 27bc
00000200: f368 ddbd 985a 37be 01b0 2ebf 017f 56be
00000210: 03c5 28be 71bc 3dbf 59e5 94bd 7e2c 33bd
00000220: fc30 09bf 619a ca3e fdd5 13be e132 03bf
00000230: d3ad 96bc d83e 4cbd 2558 3fbf b7e0 fd3d
00000240: 7fcf 57bd 76ca bfbd a614 e4bd 7bd3 42bd
00000250: 2e47 c2bd 6214 6bbd 26f3 65bd f162 3cbf
00000260: 4e5c 79bd 9b00 52bd b2b1 793f 5861 fbbe
00000270: f96b 9abe 5709 d73c 410f a4bc ef9c 2f3c
00000280: d3d4 a23e de0b e9bd ccd1 bcbe 8259 04be
00000290: a322 babd 96f9 0b3d 06ae 86bd a123 cebe
000002a0: 572f 21be 4442 11bf b997 7fbd 600f 31bf
000002b0: bd47 a5bd 132b 15bf e633 8ebd 0477 dabd
000002c0: f6f2 43be eed0 a1bf f639 b6bf 0b53 aabd
000002d0: 4158 60bd 95b0 98bd 8920 e4bc c3b0 1abe
000002e0: d5be e8bc 14ec 62bf 3388 54bd a65b 1dbf
000002f0: 64fc babd f0d1 cfbd be9b 98bd 14c8 63bd
00000300: 736c fb37 6302 84be 3510 563f ae27 a9bd
00000310: 805e 92be 98ca 44bf 8d65 4bbe 4710 11bf
00000320: 223a b4be 62fa 02bd 10d5 81bd ad4a 71be
00000330: af92 b8bf 9a9b 01be b950 febe 0ef7 88bd
00000340: ba91 82bd 4ec7 24bd 3c21 babd 657b 17bc
00000350: 560e adbd a32e c8bc 6237 28bd fcf5 59be
00000360: ac26 b9bf 3e25 acbd 3b6e 91bd cfd4 b3bd
00000370: f591 f0bd f278 cfbc 09da a7bf b635 27bd
00000380: 029d 4dbf 0fc4 3ebf 8b25 9fbd 175a 6ebc
00000390: 4e57 87bd 3c5b 1ebe 7032 65bd 9c2e b1bc
000003a0: 1115 66bb 53d5 73bd df5e 83be c420 39bd
000003b0: 2211 a8bd 2730 cebe a12f 51bd 2848 e1bd
000003c0: f299 97bd 4955 d4bd 802c 89bf 977d f0bf
000003d0: ae12 fdbd 67d2 6fbd 2221 09be b8e2 91bb
000003e0: 07f6 ebbd 0539 e3bd 0285 f0bc 8134 48be
000003f0: 6526 9abd ed8a b9be 183d 31bb c247 b1be

l3.weight f4 [4, 300]
0.3111969 -0.08597714 0.049818974 0.015829934 -0.0342601 0.008376073 0.0264417 -0.038471654
0.03686236 -0.20075728 0.06997432 -0.8305292 -0.01876963 0.0012823774 -0.013031221 -0.029741753
-0.32806343 -0.124644235 -0.40987667 0.12519097 -1.0013411 0.006332175 -0.05268096 0.04243836
-0.024092035 -0.0037269068 -0.035466198 0.008858896 0.04190109 -0.046462312 -0.02991934 0.005875237
0.07063027 -0.85581416 -0.45434684 0.03663983 -0.014646986 0.05314775 0.033791255 -0.020756556
-0.011466694 0.0028716896 0.06256943 0.16028363 -0.01287316 0.0052170684 0.5010168 0.07029545
-0.03158815 0.0059086327 -1.9013355 -0.031470533 2.2887444 0.022852765 -0.43840423 0.045051653
-2.220459 -0.030099958 0.33680314 -0.9195919 0.27523994 -0.07872592 -0.0042259716 -0.03232574
-0.1745912 -0.01747325 0.024157865 -0.034062862 -0.05781716 -0.0311709 0.84745693 -0.5537564
0.035170052 0.056002382 0.07876268 0.04373541 -0.00648482 -0.15146734 -0.014832437 -0.35377207
0.77817124 0.00083499437 -0.5079124 0.029799705 -0.014978157 -0.11577576 0.024845783 -0.086091556
-0.7365169 0.026123276 0.0673624 0.0119718565 -0.08319193 0.28793818 -0.039622903 -0.03148142
0.30390936 0.5899242 0.09610254 -0.009713524 0.020969968 0.034810573 0.01060386 -0.005272657
-0.005604251 0.33095452 -0.008577911 0.42834714 0.09906579 0.4730277 -0.015522656 -0.09106538
0.053136252 -0.017797092 0.2497846 0.013463183 -0.12885915 -2.197786 -0.02161766 0.16597135
0.007664901 -0.7270498 -0.35302502 0.0118699875 0.0048610135 -0.06854863 -0.030434104 -0.089743435
0.1313199 0.0011522181 0.000522341 -0.31612086 0.08566947 0.07881436 0.012205788 0.04865379
0.14852075 -0.035193972 0.14160518 -0.4790836 0.037364073 -0.017910834 -0.60861146 1.5641372
-0.023331221 0.036557272 0.019835291 0.08245715 -0.0052809035 -0.045194987 -0.059315547 -0.006386953
0.012862928 0.026979774 -1.0775572 -0.7989649 -0.51694137 -0.0028990002 -0.024449196 -0.22023171
0.005718531 0.02087329 -0.15371598 -0.0073718256 -0.02648973 -0.017739885 -0.042670026 1.1844566
-0.5548314 0.0044152047 0.052195404 0.31849813 -0.014621767 -0.38424307 -0.03976492 -0.007512606
1.3923098 -0.862882 0.26787305 -0.020358501 -0.046935596 0.015488664 -0.012136608 -0.6988125
-0.020865127 -0.0114384405 -0.2544362 0.21640852 -0.03633897 -0.5388603 -0.021642335 0.08015765
0.018175727 0.13708709 0.15881024 0.034916226 -1.5384883 -0.553931 -0.60674435 0.68357885
0.91600686 -0.0068722074 0.022016982 0.65125024 0.0916968 -0.6395345 0.9395109 -0.052826326
-0.0024452046 -0.0005173839 -0.029116677 0.8257439 0.008407416 -0.013171055 0.03893658 -0.7828976
-0.2908661 -0.003547582 -0.007234381 0.01800554 -0.4038221 -0.040889654 0.0063771894 0.0017841872
2.7089486 -0.17421079 0.0061667813 0.007456427 -0.04299684 0.043254804 -0.020747622 -0.041872825
-0.002934882 0.0032870884 -0.32657248 -0.079894364 0.01761632 -0.22641814 0.023679255 0.10610389
-0.033269823 -0.03531319 0.48859394 0.5451116 0.04439166 0.0073123015 -0.03332942 0.0062964177
0.0146595305 0.013170454 -0.011110776 -0.74979866 -0.016024405 0.074001364 -0.10655728 1.5328974
00000000: 3355 9f3e c814 b0bd fb0e 4c3d c7ad 813c
00000010: 5254 0cbd cc3b 093c 449c d83c 7494 1dbd
00000020: fcfc 163d 5193 4dbe b24e 8f3d 909d 54bf
00000030: c4c2 99bc 7215 a83a e780 55bc faa4 f3bc
00000040: eef7 a7be 7a45 ffbd 5bdb d1be 1032 003e
00000050: f22b 80bf 227e cf3b fec7 57bd d9d3 2d3d
00000060: a95c c5bc 1f3f 74bb 0145 11bd e724 113c
00000070: 7aa0 2b3d 444f 3ebd 6719 f5bc 0f85 c03b
00000080: 9aa6 903d a316 5bbf 26a0 e8be a513 163d
00000090: e9f9 6fbc 75b1 593d b368 0a3d a709 aabc
000000a0: cdde 3bbc f532 3c3b 6724 803d 6421 243e
000000b0: f2e9 52bc f1f3 aa3b a342 003f 10f7 8f3d
000000c0: 9362 01bd 349d c13b f65e f3bf 3fe7 00bd
000000d0: ca7a 1240 b935 bb3c 8576 e0be 1588 383d
000000e0: 001c 0ec0 3094 f6bc 7671 ac3e 606a 6bbf
000000f0: 40ec 8c3e 0e3b a1bd 057a 8abb ff67 04bd
00000100: 09c8 32be 1024 8fbc b7e6 c53c 8085 0bbd
00000110: b0d1 6cbd 1e5a ffbc f0f2 583f fbc2 0dbf
00000120: 790e 103d c162 653d 544e a13d e723 333d
00000130: 9d7e d4bb 411a 1bbe c003 73bc 9d21 b5be
00000140: 3b36 473f 86e3 5a3a 8c06 02bf 831e f43c
00000150: f266 75bc d71b edbd 6289 cb3c c550 b0bd
00000160: 5f8c 3cbf 7b00 d63c 4cf5 893d 9b25 443c
00000170: 8860 aabd a26c 933e a04b 22bd a9f2 00bd
00000180: 029a 9b3e 4605 173f 69d1 c43d 7925 1fbc
00000190: 36c9 ab3c 8895 0e3d d0bb 2d3c 41c6 acbb
000001a0: dda3 b7bb df72 a93e 5e8a 0cbc 5150 db3e
000001b0: 01e3 ca3d b030 f23e bd52 7ebc 7c80 babd
000001c0: 66a5 593d 35cb 91bc 89c7 7f3e af94 5c3c
000001d0: a7f3 03be 87a8 0cc0 8517 b1bc 65f4 293e
000001e0: da29 fb3b f01f 3abf b2bf b4be 567a 423c
000001f0: 2349 9f3b 3963 8cbd f150 f9bc 68cb b7bd
00000200: b978 063e 0606 973a b6ed 083a 98da a1be
00000210: 7a73 af3d 6c69 a13d c9fa 473c 3249 473d
00000220: d315 183e 8e27 10bd f300 113e 724a f5be
00000230: 120b 193d beb9 92bc f6cd 1bbf a635 c83f
00000240: 1e21 bfbc 14bd 153d 9f7d a23c 4bdf a83d
00000250: 6e0b adbb 611e 39bd dcf4 72bd a549 d1bb
00000260: 08bf 523c b004 dd3c 65ed 89bf f788 4cbf
00000270: 4556 04bf 27fd 3dbb ae49 c8bc 6c84 61be
00000280: 8462 bb3b 76fe aa3c b967 1dbe 5b8f f1bb
00000290: fe00 d9bc 3c53 91bc c4c6 2ebd 469c 973f
000002a0: 6e09 0ebf 6cad 903b d9ca 553d 3012 a33e
000002b0: 2390 6fbc 82bb c4be 8ae0 22bd 4f2c f6bb
000002c0: 3537 b23f d6e5 5cbf a826 893e dfc6 a6bc
000002d0: 8a3f 40bd 2ac4 7d3c a0d8 46bc 60e5 32bf
000002e0: 58ed aabc 4c68 3bbc 7645 82be 329a 5d3e
000002f0: 2cd8 14bd c0f2 09bf 444b b1bc b229 a43d
00000300: 43e5 943c 8f60 0c3e 279f 223e 5104 0f3d
00000310: 2fed c4bf 6cce 0dbf 9953 1bbf 06ff 2e3f
00000320: 6d7f 6a3f 4130 e1bb f55c b43c 56b8 263f
00000330: 88cb bb3d 88b8 23bf c983 703f 6b60 58bd
00000340: ba3f 20bb 0ca1 07ba 1986 eebc f463 533f
00000350: 42bf 093c 69cb 57bc f77b 1f3d fa6b 48bf
00000360: 67ec 94be 8d7e 68bb 630e edbb 5b80 933c
00000370: c5c1 cebe e97b 27bd bef7 d03b 63db e93a
00000380: 6a5f 2d40 5064 32be b612 ca3b 0b55 f43b
00000390: 741d 30bd f32b 313d ebf6 a9bc d782 2bbd
000003a0: 2657 40bb 316c 573b 8234 a7be a89f a3bd
000003b0: 1a50 903c 28da 67be fffa c13c ff4c d93d
000003c0: f045 08bd 90a4 10bd fc28 fa3e 6f8c 0b3f
000003d0: 07d4 353d 089c ef3b 6e84 08bd 2e52 ce3b
000003e0: 872e 703c e3c8 573c f909 36bc cef2 3fbf
000003f0: 9d45 83bc 078e 973d b43a dabd fb35 c43f

l3.bias f4 [4]
0.7589124 0.46688595 -1.3189479 -0.51021826
00000000: 1548 423f ad0b ef3e 49d3 a8bf aa9d 02bf
