TD3_control/dir_Walker2D_002/biped-v7-2d-22_actor.pth (torch, 527895 bytes, 6 tensors)

l1.weight f4 [400, 24]
00000000: 2157 ee40 1769 d13f baa0 833f d43b 7bc0
00000010: f2f8 1fc0 689a 6840 500e 00bd a8d9 11be
00000020: a519 99bf 0dee 25bf 769c 953f 1b34 7b3f
00000030: b00f 8fc0 d7f4 0f3e 040c 27be 9b21 33be
00000040: f0ee fe3f 012a b43e a87c 38c0 3bab 98bd
00000050: a80b 383e 5238 cfbd 3321 303f a4ba f13e
00000060: 0708 21c0 fb8f 4d3f 5a40 54bf 77aa c7bf
00000070: ebce 91bf c20d 34c0 4d07 cc3d 415c 4fbe
00000080: d8c1 293e 6372 7b3e e483 a1bf 1df3 8a3e
00000090: 1686 3dbd afdc 4c3b e79b da3d 0e38 aebd
000000a0: 5872 f1c0 3ecc 773e 66e4 17c0 085e 8ebe
000000b0: 9ee9 41bd c8ad ea3d 5d55 fe3e 5dc6 e6be
000000c0: 13cc 59bf 2605 003f eeb7 343f c871 483f
000000d0: c709 b540 3e30 a83f 22bf 6f3d 9b84 093e
000000e0: 0880 1cbf d547 003e 0922 293f 798b 47be
000000f0: d228 19c0 cc9b 393f 1cd2 f1bc a3c2 23be
00000100: 6eca 343f 9e77 18bf 1f4c 25c0 4b35 19be
00000110: 79ef 0fbd 6393 4cbe 8233 ecbf 3ec4 683f
00000120: 0c01 7cc0 d555 fe3f 0312 a1bf 269e 0140
00000130: 0c7a 03c0 2efa 35c0 fc27 c3bd 495d e43d
00000140: 3ea0 b6bf 36df 35bf f0a3 8440 eb0f 3b3f
00000150: 8778 f2bf 705b a7be 400d 8f3c e318 4e3c
00000160: 6b4f f1bd df56 273e 760c c1be 1b71 96bd
00000170: 8c75 413e 903c e33d 5f4f acbf 12f8 a33e
00000180: 02b8 cdbf 8588 0ac0 5cc1 4b3f 49db 4340
00000190: 46ae 52c0 47a8 a5c0 0619 12be 357e c2bd
000001a0: 0769 e33d b844 97bd 14bc 0641 5384 91be
000001b0: 5661 0f3f d929 e23e bfc4 1c3c 10d9 13be
000001c0: 7b4e c1be e63e eebd 310a 8e3e 8981 823c
000001d0: 08c4 6fbd ffda 0f3e f4d9 573e 663a 39bc
000001e0: 6e38 4f40 ab84 a83f 5766 25c0 4c88 c83f
000001f0: 74af 37bd 0f90 d03f 6953 edbd 2a22 dbbd
00000200: 0b71 20c0 c479 11bf 6d4d 083f dd2f 733e
00000210: 4230 a03e 14bd 913c 77b9 30bd e581 4fbe
00000220: c98a 0cc0 595b 303f 3f6a 323d 03ca 8f3e
00000230: a33c 693d 8236 873c 8040 a6bf 284d 283d
00000240: 4206 823f c194 963f c5d2 33c0 871a 153f
00000250: 5884 c4bf 2b38 9840 be91 3abe 1e79 313e
00000260: 2044 173e 5212 833d 4298 0cbf 2b40 183d
00000270: 146d 93bf dfa7 e3bc 19a4 383e 8291 0d3e
00000280: 1264 bdc0 b2dc 3dbe 62f2 2fbf 48db e03d
00000290: 681a 03be 9070 313c a1cb 173f 4cdd 053f
000002a0: e6fb 903f 8c3f 97bd b3c1 8dbf d772 74be
000002b0: 1cc3 653c 3074 afbe 47b4 b33b 3902 ccbd
000002c0: a4b6 0abf fab0 6bbf 0f4b 503f f72c d7bc
000002d0: 8cf6 70bf 3671 7abd e882 39be f61e 4ebe
000002e0: 8191 e1be e3f1 043e 76e3 1cbc 19be 7a3e
000002f0: cbdd 393e ba8c 353e 3fd0 57bf 5ddd 6bbf
00000300: 630b 3f40 bd55 33c0 aabe 29bf d709 47bf
00000310: b825 1fc0 adb1 bc40 528c 7b3d 0552 d7bd
00000320: 4085 5cbf e5ab 1bbf 15de a93f 2443 37ba
00000330: e3df 48bf e07e 243f a478 f5bc 8bfa 3e3d
00000340: f378 45c0 2b24 5f3e dd0c 82bf 16d5 973d
00000350: 1a4d 703c 0e3a 40be e6ec 22be d0dc 0e3e
00000360: 6e71 3240 e9b2 5d3f 3bce a2bf 82b9 bd3e
00000370: 7316 1dc0 895d 9cbf 4f89 d8bd 8fa5 29be
00000380: a93a 19bf 098f 54bf 8c12 4840 a4f3 47be
00000390: eba9 82bf b36b 823e d6b2 3abe ddbc c13d
000003a0: 9511 e1bf 76b6 f5be 9f16 9fbf f4c2 33bf
000003b0: 57f6 04be a786 fd3c 18ad 52bf 5f58 a8bf
000003c0: 5a4b fc40 2cf0 2abf f025 ed3f 7df5 69bf
000003d0: 8230 20c0 ea5a 2b40 9a0e a23b a2d6 3cbe
000003e0: 876f 8fbe 17d1 80bf c82e a23f cf9e 853f
000003f0: a209 77c0 a0e2 893e f595 7f3d ae4e dabd
7.448136 1.6360196 1.0283425 -3.9255266 -2.4995694 3.6344242 -0.03126365 -0.14243186
-1.1960951 -0.6481636 1.1688373 0.9812638 -4.470665 0.14058243 -0.16313177 -0.17493288
1.9916668 0.35188296 -2.8826084 -0.074545346 0.17973197 -0.10118164 0.6880066 0.47212708
-2.516115 0.8029782 -0.8291069 -1.5598897 -1.1391271 -2.8133397 0.0996233 -0.20250036
0.16577852 0.24555354 -1.2618375 0.27138606 -0.046270452 0.0031259467 0.10674267 -0.08506785
-7.545208 0.24199006 -2.3733153 -0.27806115 -0.047341935 0.114589274 0.49674502 -0.45073214
-0.8507702 0.50007856 0.70593154 0.78298616 5.6574435 1.3139722 0.058531888 0.13429491
-0.6113286 0.12527402 0.6606756 -0.19486798 -2.3931165 0.7250335 -0.029519133 -0.15992217
0.70621383 -0.5955752 -2.582771 -0.14961736 -0.03514049 -0.19978099 -1.8453219 0.9092444
-3.937564 1.9869944 -1.2583622 2.0252776 -2.0543242 -2.8433948 -0.09529111 0.11150605
-1.4267652 -0.7104372 4.145012 0.73071164 -1.8943032 -0.3268695 0.017462373 0.012579176
-0.11782726 0.16341732 -0.3770482 -0.07345792 0.18892497 0.11095536 -1.3461722 0.320252
-1.607178 -2.1645825 0.7959192 3.060259 -3.2918868 -5.1767917 -0.14267358 -0.09496728
0.11104017 -0.07386154 8.4209175 -0.28421268 0.560079 0.44172552 0.009568392 -0.14438272
-0.37755188 -0.11633091 0.2774215 0.015930908 -0.05853656 0.14048384 0.21079236 -0.011305427
3.2378192 1.3165487 -2.5843713 1.5666595 -0.04484506 1.6293963 -0.11588175 -0.10699876
-2.5068996 -0.56826425 0.5324314 0.23748727 0.31286818 0.017790355 -0.043145623 -0.20264395
-2.1959708 0.68889385 0.043558355 0.2808381 0.056942593 0.016505484 -1.2988434 0.041089207
1.015816 1.1764146 -2.8097394 0.582436 -1.5352888 4.7568564 -0.18219659 0.17331359
0.14772081 0.06399979 -0.54919827 0.03717057 -1.1517663 -0.027790008 0.18031348 0.13825038
-5.9184656 -0.1854122 -0.6872922 0.109793246 -0.12803042 0.01083006 0.5929509 0.522908
1.1326873 -0.073851675 -1.1074737 -0.23871933 0.0140235685 -0.34268332 0.005484137 -0.099613614
-0.5418494 -0.9206692 0.8136453 -0.026266558 -0.941262 -0.061143123 -0.18116343 -0.20128998
-0.44056323 0.12982897 -0.009575715 0.24486579 0.18151014 0.17729464 -0.84302133 -0.9213465
2.98507 -2.802108 -0.66306555 -0.7774939 -2.4866772 5.896689 0.061413117 -0.10513691
-0.86140823 -0.60809165 1.3270899 -0.0006990901 -0.78466624 0.64256096 -0.029964752 0.046625655
-3.0855072 0.2179114 -1.0160176 0.0741369 0.01466682 -0.18772146 -0.15910682 0.13951421
2.7881732 0.8660112 -1.2719187 0.37055594 -2.4544952 -1.2216045 -0.105730645 -0.16567062
-0.59855133 -0.83030754 3.126132 -0.19526535 -1.0208105 0.25472793 -0.18232283 0.09459851
-1.7583491 -0.4799077 -1.2428778 -0.7021935 -0.12984596 0.030947996 -0.8229537 -1.3151969
7.884198 -0.66772723 1.8527203 -0.9139021 -2.5029607 2.677424 0.0049455883 -0.18441251
-0.28014776 -1.0063809 1.2670527 1.043909 -3.859963 0.26930714 0.06239887 -0.10659538

l1.bias f4 [400]
00000000: 6d1e f43e 67bb 56be e893 68bf 1d1d d6bf
00000010: e5d4 cd3f 23a2 b3bf bf62 543f 10d0 aabf
00000020: 917e 15be 4143 c6bf d658 823f 57f9 adbf
00000030: 0bcf 9cbf 6e70 b6bf b2a3 adbf b5b9 7bbf
00000040: b88e 523f 57dd adbf c129 07bf 8905 6bbf
00000050: 82fd d3be 0edb 28bf 3b1e 03c0 9dc9 76bf
00000060: 70b7 6abf 2b5c 87bf 8189 a4bf a7e6 87bf
00000070: 510f cd3e b8d3 39bf dfca e2bf ca72 8ebf
00000080: 3e00 eabf 5861 1fbf 6182 c4bf 1e1e 49bf
00000090: e3a9 acbf 0f15 ea3f 9fea 4cbe 5012 00bf
000000a0: cfb7 78bf dcd0 c9bf 9ab7 2cbf 15c6 f2be
000000b0: 7dd2 9ebf 0146 67bf 85a3 b8bf 85b9 61bf
000000c0: c370 c1bd bf51 edbf 29ef fa3e e669 383b
000000d0: 14a1 85bf fcf4 8bbf 2461 fa3a 8ce4 423f
000000e0: e304 8fbf 2563 e2be ed37 51bf b23c d9bf
000000f0: 00a0 c7bd b7be 333f eb1d b4bf 5dd9 cd3e
00000100: 0e7e a5bf 61a8 363f fa3e 30bf ba83 fcbe
00000110: cc02 3ebe 5e6a 0bc0 93a6 b3bf 4d1e 0dc0
00000120: fb25 c5bf 3433 abbe 7944 4b3e d4e1 a7bf
00000130: 6dbc 1bc0 1703 0cbd 52dd 063f bf6d 893f
00000140: 6508 30bf 313b 893f 4fd8 91bf 7bfc c7bf
00000150: c3a8 173e 0386 5bbf a9a1 72be cf0e 283e
00000160: 1990 adbf cb6d d53e 760f 4dbf 13a3 2a3e
00000170: 9ca7 03bd 4fef a2bf 7c65 e9bf a27f 2fbf
00000180: ee37 5f3f 1cee 85bf e041 bcbf 3a86 c5be
00000190: 1d1b e2bf 6059 adbf da28 99be dec2 75bf
000001a0: 32e3 92bf b9e4 5e3f a916 1b3e 7f93 b93f
000001b0: 99b8 44bf 133c ae3e 172c 95bf a913 79bf
000001c0: ac69 20bf fc61 32bf 37a3 52bf d584 cebe
000001d0: 2726 0dbf 8401 95bf 8274 8fbf 19a8 27bf
000001e0: fc4f f8bf f8b0 97be ac03 ffbd 5fe3 82bf
000001f0: 800e 6cbf 3eb0 9d3f 98aa 92bf 864d 09bb
00000200: ddfd c3bf 11c7 d2bf ed1d f4bf 5858 0b3e
00000210: 3c61 3ebf ca56 76bf 1062 403e 4d97 cbbe
00000220: 9deb a0bf 8a98 6d3f 9da7 49bf 2743 9fbf
00000230: 8f25 a63f 6662 20be 54b3 8ebe e608 003f
00000240: 05ac 23bf f73c 0bc0 7aa4 9dbf 4ccc 59bf
00000250: 62ad dabf 55aa 1b3e 8892 3bbf 92e6 fa3f
00000260: e33e 52bf 9c82 81bf b201 c0bf 1b84 99be
00000270: 15ed 92bf f780 f9bf e264 b63f 0075 c9bf
00000280: 0461 dfbf fd75 67bf 55bd 0ebe b0a6 efbe
00000290: 725e 8dbf 309b a0bf 2194 f9bf eb3a a7bf
000002a0: 1c8f 483e 89d1 c5bf bc2d 57bf 90b3 cdbe
000002b0: d908 b0bf e590 b2bf cf02 c6be 757b 0cbf
000002c0: 8ebe 7bbd da6d ddbf 3d25 7fbf ff20 5cbe
000002d0: 17a6 7c3e cf46 9bbf 94b2 86bf e819 42bf
000002e0: 2541 c5bf fcac 54bf a3f9 a2bf ee2b c3bf
000002f0: ad7d f3bf bb8a 13bf b09c 283e 46f2 69be
00000300: 6512 99bf d536 d9be b8c1 92bf b062 43bf
00000310: 299b fe3f abf1 49bf d74b 8ebf 1bb5 e7be
00000320: c7ed 20bf f0bb dfbf 2b4b ccbf 59fe a9bf
00000330: adfa 14c0 12ce d8bf 0af7 b6bf 9e58 c53e
00000340: b949 68bf 7ec6 c9be ea9d b9be ee65 76bf
00000350: f06f 86bf 8136 ad3e 3c3f 293e f67f e8be
00000360: 9820 a53f 7ee6 043f f68c 78bf 10a1 49bf
00000370: d21d f2bf 43f9 93bf 1f35 a83e 061e 1dbf
00000380: 3610 223f 9e0a 83bf 6c67 e9bf 1960 f93f
00000390: 380d ba3e 3a33 eabf 5dda a4bf 35cd 26bf
000003a0: f799 dfbe cf4c 96bd b937 09bf a7ad a03d
000003b0: 7446 a0bf a559 d4be 0339 a93e 282c 1abf
000003c0: 1bd7 743f d29e 36bf 6876 f1be 60d3 babe
000003d0: a9f3 d4bf 5fdf f83d be5f 803f 5bde 07bf
000003e0: d5b3 35bf b2e6 61bf b6e3 91bf 259e cfbe
000003f0: e84d 77be 184e 13bf df90 dbbe 8b09 25bf
0.47679463 -0.20969926 -0.9085069 -1.6727635 1.6080595 -1.4033855 0.82963175 -1.3344746
-0.14599063 -1.5489274 1.018336 -1.3591717 -1.2250684 -1.4253061 -1.3565581 -0.9833024
0.8224902 -1.3583173 -0.52798086 -0.9180532 -0.4140435 -0.6595925 -2.0487201 -0.9640139
-0.91686153 -1.0575002 -1.2854463 -1.0617265 0.40050748 -0.7258868 -1.7718161 -1.1128781
-1.8281324 -0.6225791 -1.5352288 -0.7856158 -1.3489345 1.8287677 -0.20011376 -0.5002794
-0.9715547 -1.5766864 -0.67467654 -0.4741675 -1.2407986 -0.9034119 -1.4424902 -0.88173705
-0.09445336 -1.8540572 0.4901059 0.0028139292 -1.0439782 -1.0934138 0.0019102436 0.76129985
-1.1173366 -0.44216266 -0.8172596 -1.6971648 -0.097473145 0.7021288 -1.407163 0.40204898
-1.2929094 0.71350676 -0.68846095 -0.4931925 -0.18555754 -2.1783671 -1.403521 -2.2049744
-1.5402216 -0.33437502 0.19850339 -1.3115792 -2.4333756 -0.034182634 0.5268146 1.0736617
-0.6876281 1.0721189 -1.1394137 -1.5623926 0.14810471 -0.8575136 -0.23694481 0.16411899
-1.35596 0.41685328 -0.80101717 0.1666377 -0.032142267 -1.2729281 -1.8234096 -0.6855413
0.87194717 -1.046329 -1.4707603 -0.3857897 -1.7664524 -1.35429 -0.2991398 -0.9600047
-1.1475585 0.87067753 0.15145363 1.4498137 -0.76844174 0.34030208 -1.165408 -0.97295624
-0.6266124 -0.6968076 -0.82280296 -0.40335718 -0.5513634 -1.1641088 -1.120743 -0.6549087
-1.9399409 -0.29627204 -0.12451872 -1.0225638 -0.92209625 1.231941 -1.1458311 -0.0020950749
-1.5311848 -1.6467 -1.9071633 0.13607919 -0.7436712 -0.9622618 0.18787408 -0.3976387
-1.2571903 0.9281088 -0.7877138 -1.2442368 1.2980212 -0.15662536 -0.27871192 0.5001358
-0.63934356 -2.175596 -1.2315819 -0.8507736 -1.7084162 0.15201695 -0.73270464 1.9601614
-0.8212721 -1.0117984 -1.5000517 -0.299836 -1.1478602 -1.9492482 1.4249537 -1.573883
-1.7451482 -0.9041441 -0.13939412 -0.4680686 -1.1044447 -1.254736 -1.949833 -1.3064855
0.19585842 -1.545457 -0.8405416 -0.40176058 -1.37527 -1.3950468 -0.38674018 -0.5487588
-0.061461024 -1.7299149 -0.99666196 -0.21496962 0.24672733 -1.2130984 -1.0523248 -0.7582078
-1.5410506 -0.83076453 -1.2732433 -1.5247781 -1.9022728 -0.5763356 0.16466022 -0.22846326
-1.1958739 -0.42424646 -1.1465368 -0.7632246 1.9891101 -0.7888438 -1.1116894 -0.4525536
-0.6286282 -1.7479229 -1.596044 -1.3280746 -2.3278 -1.6937888 -1.429414 0.38544172
-0.9073749 -0.3940925 -0.3625329 -0.9624928 -1.0502911 0.33830646 0.16528028 -0.45410126
1.2900572 0.51914203 -0.9709009 -0.78761387 -1.891535 -1.1560444 0.32853028 -0.6137394
0.63305986 -1.0237615 -1.8234687 1.9482452 0.3633821 -1.8296883 -1.2879139 -0.6515687
-0.43672153 -0.07338869 -0.5360065 0.078456216 -1.25215 -0.41474643 0.3305131 -0.6022363
0.95640725 -0.7133609 -0.4716065 -0.3648939 -1.6636859 0.1215198 1.0029218 -0.5307366
-0.70977527 -0.8824264 -1.1397617 -0.40550342 -0.24150813 -0.57541037 -0.42883965 -0.64467686

l2.weight f4 [300, 400]
00000000: e40b 8ebc 7322 9c3b 2b22 233d 0908 91ba
00000010: a45d 1fbd 6d0c 56bd 3175 ea3b 17fa d03c
00000020: 9e29 aa3c 46bb 24bd 016f 203b 2ca0 0abd
00000030: 68d1 19bd 8faf 7bbb 3762 f7ba 1ef4 abbc
00000040: 1636 fbbc 3a11 11bc 2831 9b3c e305 d43c
00000050: d4eb 19bd 3fb3 e5bb 425e 05bc 0300 f93c
00000060: 1d84 403c 2bda af3c 8370 5dbd 87fb c13b
00000070: cffb 82bd c8a2 82bc 4273 3bbd d471 8b3b
00000080: 67da 5c3a e112 d93c c9fd 31bd 1a1e 6fbb
00000090: c4c8 30bd 2ba6 1b3d 977c 3cbd b873 af3b
000000a0: 0423 41bd 4a1a 143b eb9b 22bd ba9c 2b3c
000000b0: 6630 9cbc 8056 0fbd f797 2f3d 182c d0bc
000000c0: 81d6 1dbd 884d ac3a 2868 74ba 0f7b 333c
000000d0: ce3d 60bd 854d 443b 64ed 9bbc a216 c2bc
000000e0: d3b2 99bc ecec 5abd 137a 10bd d276 7abd
000000f0: cd20 c3bb 0da6 54ba b56c ef3c e1a4 82bc
00000100: 5151 913c 24d3 1a3d 0361 a63c a4d4 c9bb
00000110: 2e95 c13a 88b2 bb3b 2d52 50bd 79e2 c1bc
00000120: 5287 07bd db82 0fbd 9e66 2b3c d705 9d3c
00000130: 0a48 b3bc 7c73 473c 35e9 85bd dac6 1a3d
00000140: 7d8f d2bc 8dd7 46bd 6997 853c ac91 8cbd
00000150: 6eba 73bd e22a 07bd d6e9 b2bb 4196 f83c
00000160: 11a6 aebc 4468 89bc f0c1 60bc 95e1 c4ba
00000170: 8714 36bd 7df9 4a3c c56b 203d 44f8 2cbc
00000180: 6df1 2dbc eae8 653b 8dc5 88bd 11d0 53bc
00000190: d642 b4bc eb24 3fbc 60d1 8bbc 135c 10bd
000001a0: 913a b6bc 76cc 823c 6c37 e3bc e8a9 dcbc
000001b0: 8ab4 aabc afb8 3bbd 34ea ccbc e40c ae3b
000001c0: 5f6f 1fbd 539b 80bc 090c 6abc d676 c4bc
000001d0: b6aa b9bb 36c0 ad3c 4098 4cbd 08e9 ef3c
000001e0: 90e6 57bd 9efd 5e3b abc5 d0bc c0d1 2a3d
000001f0: 1d75 21bc 88b7 86bd 1c77 623b c278 563c
00000200: c778 8cbc 93e8 34bd 7667 1cbd 62b6 13bd
00000210: 074f c43b 0dd9 543c f28d 63bd e5f0 0b3d
00000220: 18b4 ef3b f77e 29bd 12f2 c3bc 11b2 31bd
00000230: c21d 02bd f640 3dbd 14e3 f5bc 5767 48bd
00000240: 5528 9e3c 3543 d2bc 8909 e3bc 51d3 9dbd
00000250: 6076 0abd be0e 2bbd f773 63bd 21d5 20bb
00000260: b5c0 e23c 2239 00bd 045f bdbc 244e 113d
00000270: cd65 2abc 3dc1 06bd 6c4f 8b3c 8065 a1bd
00000280: a3ce adbd e6a2 96bd 51d1 3ebd 42cc 29bc
00000290: 4a73 cc3c 0bfe 62bd 0b64 dbbc c5f5 be3c
000002a0: 717f 553c 9e72 8cbd 9b4d 343c 1ad8 46bc
000002b0: 3210 aabc a67e b3bc 931c fdbc 3c1c 5bbd
000002c0: 1734 8d3c ec2c 7dbc 361e 5dbd 8f68 dbbc
000002d0: 4cb5 64bd 8cbc eebc f34a 39bd 7eee 123b
000002e0: a11f c03c 717f b6ba b323 1ebd 08c9 8b3b
000002f0: 6872 20bc 499c d9bb c277 52bc fe0e bf3c
00000300: 1c75 1d3c 7005 11bc 2a6a 01bc 2b03 debc
00000310: 4dad 87bc 9088 9b3c e186 4abd 30b5 46bd
00000320: a582 dabc c2bb 1ebd f174 dd3c 8dc6 15bd
00000330: f6c8 e93b b0ce 073d 4fc1 28bc 581e a9bc
00000340: 740d 563c fd99 2f3c 3968 89bd 404a 2f3d
00000350: 40f3 babb e2cb 6ebd 26c0 54bc e2df 09bc
00000360: dbb5 41bc f5fb a4bd 65cd bd3b 14a5 43bb
00000370: 8df1 f3bc f007 56bc d5f4 65bc eced 503b
00000380: a0ee 11bd ce51 02bc 46ba 11bd e858 cebc
00000390: 3067 d8bb 6325 8bbd 20c0 0639 0d23 f93c
000003a0: 1b55 6bbb 35a8 34bc 965a dcbb d702 77bd
000003b0: 2984 e33c 627a 5ebd bdde d1bc cbd9 24bd
000003c0: deee b4bc e6fd 09bd e1fe 33bd 67f7 313d
000003d0: c4ab 1b3d cba9 c3bc 4dec 2bbd e2de 7c3b
000003e0: f2dc a4bc af00 1fbd eb30 debc 2634 183d
000003f0: 957b 8abc 77c6 31ba e1d2 f8bc 0414 92bd
-0.017339654 0.004764849 0.039827507 -0.0011065017 -0.038907662 -0.052257944 0.0071550836 0.025509877
0.020771798 -0.04021766 0.0024480226 -0.033844158 -0.03755322 -0.0038404202 -0.0018873875 -0.020990428
-0.030665439 -0.008854205 0.018944338 0.025881713 -0.03757842 -0.007009893 -0.008140149 0.030395513
0.011750248 0.021466335 -0.054062378 0.005919877 -0.06395685 -0.01594676 -0.045764215 0.0042555127
0.00084248785 0.02649826 -0.04345492 -0.0036486448 -0.043160215 0.038000267 -0.046017256 0.005354371
-0.047152534 0.0022598677 -0.039699476 0.010474378 -0.019066047 -0.034994602 0.042869534 -0.02541165
-0.038534645 0.0013145665 -0.0009323382 0.010954632 -0.05474644 0.0029953432 -0.019034095 -0.023692433
-0.018762028 -0.053448603 -0.03527267 -0.061148472 -0.005954838 -0.00081119017 0.02922664 -0.015947761
0.01773897 0.037799016 0.02030993 -0.006159382 0.001476919 0.0057280697 -0.05085962 -0.02366756
-0.033088036 -0.035036903 0.010461478 0.019167824 -0.021884937 0.01217353 -0.06538621 0.037787296
-0.025703186 -0.04854541 0.01630755 -0.06863722 -0.059503965 -0.03299988 -0.0054600043 0.030345084
-0.021319421 -0.01677335 -0.013718113 -0.0015020842 -0.04445317 0.012388584 0.039165277 -0.010557238
-0.010616642 0.0035081455 -0.06678305 -0.012928025 -0.022004526 -0.011666517 -0.017067611 -0.03524406
-0.022244724 0.015966635 -0.027736388 -0.026936486 -0.02083804 -0.045830425 -0.02501402 0.0053115953
-0.03892457 -0.015699064 -0.014285096 -0.023982447 -0.0056661023 0.021209817 -0.049949884 0.029285923
-0.052710116 0.003402568 -0.02548488 0.04170394 -0.009854582 -0.065779746 0.0034555858 0.013090314
-0.017147435 -0.044167113 -0.038184606 -0.036062606 0.005990866 0.012991202 -0.05555529 0.03416528
0.00731517 -0.04138085 -0.023919139 -0.043382708 -0.03176666 -0.04620453 -0.030015506 -0.048926678
0.019306341 -0.025666812 -0.027714508 -0.07706321 -0.033804297 -0.041762106 -0.055530515 -0.0024541097
0.02767978 -0.031304486 -0.023116596 0.03547491 -0.010400248 -0.03289913 0.017005645 -0.07880688
-0.084866785 -0.07355289 -0.04658634 -0.01036364 0.024957318 -0.055418056 -0.026781103 0.023310551
0.013030873 -0.06857799 0.011004831 -0.012136484 -0.020759676 -0.021910977 -0.030897414 -0.053493723
0.017236752 -0.015452605 -0.05398389 -0.026783256 -0.05583696 -0.02914264 -0.045237493 0.0022419984
0.023452582 -0.0013923479 -0.038608264 0.004265908 -0.009792902 -0.006640945 -0.012845935 0.023322579
0.009610441 -0.008851394 -0.007898847 -0.02710112 -0.016562128 0.018986017 -0.049445037 -0.048512638
-0.026673624 -0.03875328 0.027033301 -0.036566306 0.007134552 0.033156097 -0.010299995 -0.020644352
0.013064731 0.010717866 -0.06709332 0.04279542 -0.005705267 -0.058299907 -0.012985265 -0.008415194
-0.011823143 -0.080558695 0.005792307 -0.0029853033 -0.029778266 -0.013063416 -0.014035423 0.0031880094
-0.03562796 -0.007954074 -0.035578035 -0.025188878 -0.006604098 -0.0679424 0.00012850808 0.030412221
-0.003590888 -0.011026432 -0.006724666 -0.060305443 0.02777298 -0.054315932 -0.025618905 -0.040246766
-0.022086557 -0.033689402 -0.043944243 0.043448832 0.038005605 -0.023884675 -0.0419734 0.0038584997
-0.020124886 -0.03881901 -0.027122935 0.037159108 -0.016904632 -0.0006781588 -0.030373992 -0.07132724

l2.bias f4 [300]
00000000: bf82 9abd d07a aabf 585c 15be 6362 45bd
00000010: 3f86 17be 89e0 4abf 9ce2 9bbe 5bc7 49be
00000020: aedd 1fbd e109 6639 12e0 97bd 5ff2 13be
00000030: e7bb 6e3e 3387 ebbe 2761 62bd 602b cabd
00000040: 7a66 88bd 68bb 94bd ba39 d6bd 209b a7bd
00000050: 4bc7 9cbc 4bc6 e4bd 0565 cfbe 5792 1fbe
00000060: 7f63 a3bd f4ed 6cbd c7fd c4bd 53f2 07bf
00000070: 367d ebbd 8a75 e2bd 4b41 4139 50bf b9bd
00000080: ae8d b6bd f71e 29be aff3 bdbc 2177 66bd
00000090: ea97 9b3a 1386 97bc 5ce0 fcbe 3ae2 7ebd
000000a0: 0d8b d3bd 901d a5be bf2a b7bd 936b 8ebd
000000b0: f37d 09bf dfef a4bf d45c 3fbc fc26 aabd
000000c0: 684d 30bd d6e8 27bd 43d0 02bf e83c 2f3d
000000d0: a643 8e3f 015d 8ebe c7ac 10bf d4b5 c6be
000000e0: dc64 77be d1af d1bd c15d 00be 57df 82be
000000f0: d1b6 5abd 215b c1bd dd50 6a3b d346 8ebd
00000100: 9205 8a3e 5e6f 75bd 0125 84be 736f 56bf
00000110: bf1b e6bb 816c 18bf 9150 c3bd 98bc 19bf
00000120: 65ae f1bd 68d8 82bd f99c 6fbd 47c4 65bd
00000130: c5d9 93bd 11b9 1bbc e815 ccbc 655e d7bd
00000140: 61cf 413d 3230 b6bd b66a 7fbf ee03 9dbf
00000150: 34f4 a7bd 4ef6 b5bd 372e a0bd c180 a9be
00000160: d129 f8bb 5cee 43bd 8a37 2fbe 0287 cabd
00000170: 46cf 8fbd 7556 573c 7bd1 09be aad9 d23b
00000180: 821d 3bbf a662 aebd a55f 5cbd 618d 7abd
00000190: 8f63 7c3b f3e6 ecbe 3986 94bd ce2a 33be
000001a0: 35a3 d1be 4def 34bf b067 a8bc 4d03 66bd
000001b0: 3139 8cbe 2fcb 01bf bc0e 76bd a2fa 28bd
000001c0: a7ae 49be 3a7f e5bd 5bca 06be 7f54 d9bd
000001d0: 8324 1cbf 9020 22bf 9367 15bf 30a9 93be
000001e0: e009 54bf 463e dfbe 0306 ecbd dc91 d7bb
000001f0: 22ca a5bf dd91 05be dfca 26be 9354 49be
00000200: 34c3 b5bd 55e9 a6be 041e aebc e50c 32bd
00000210: ded9 8abe 59f1 9fbd aa7a a0bc 11a8 533e
00000220: 76ca d2be c719 e9bd b575 323f 031e a6bf
00000230: 5c0e bcbd 1a2b 84bc a280 553f a033 61bd
00000240: 96a2 0cbf dcb5 c7be 2ce0 b6bd a24d 9dbf
00000250: 4c9b b2bd 90f4 d0bd 4369 45be 4224 80bd
00000260: 5b71 70bd 3f85 bebf c523 61bd cde3 13bd
00000270: 571a 50bd bf72 c3be 93ba 10bd 1e93 b23c
00000280: b428 5dbd fe38 a2be 957e de3a ebe9 00be
00000290: 1a00 c6bd 3079 1dbe 8604 9bbc 4a79 40bf
000002a0: 2699 88bd 1932 dd3c 34ba 71bf c925 37bb
000002b0: f109 53bf 7270 d0bc 8130 b6bd ad26 be3e
000002c0: 260a ecbd 0d9f 41bf c14d 39be 13ac 88bc
000002d0: 942d 3bbd 8123 8ebe 88f0 bbbd cf74 9fbc
000002e0: 4bd2 b03f 8cb0 c3bd efed 2ebf 2bfc 7cbc
000002f0: 8902 85bf 6a4e 8fbf 607e f93e c2f9 e4bd
00000300: c9cd b7bd b632 fc3d 3d0b e7bd 9e8f b2bc
00000310: 5d22 34bc f7d2 233e a726 83bd 672e b8be
00000320: a465 78bd a23c 0ebe 031c 08be 56b8 483c
00000330: 1189 8bbf 1267 d6bc 3726 1fbe 8087 f3bd
00000340: cab5 c6bd e9f4 d4bd 1498 9bbd f23c 82be
00000350: 271f 99bf dde0 cabd 249d 05bd faca 803a
00000360: 1543 6c3f 4f77 b4bd e7ce 16bf b6bf 07bf
00000370: dbc8 56be 8e5d 0bbf 7e7d b6bd 0855 93bc
00000380: 1f34 87bd a62d a8bd 20b6 efbb f47f 34bf
00000390: db1d cbbc 5ae3 53bd ca2c c1ba 78cd eebc
000003a0: 91cb d4bd 4785 8fbd 77e6 82be 43e3 81be
000003b0: f6e8 40be 33ab 5f3e e92c a2bd fa01 2cbd
000003c0: 472b f1bd c4f3 8abd a73d 9bbc d625 c2bd
000003d0: ec1b 2dbf 99df 98bd 24a9 2fbd 6f1d 823f
000003e0: cbea fdbe c9d8 73be 2c5e a4bd c7d4 06be
000003f0: 2391 fbbd 5328 75be 037f c1be a88e 83bd
-0.07544469 -1.3318729 -0.14586008 -0.048189532 -0.14797305 -0.79248863 -0.30446327 -0.19704954
-0.03902977 0.0002193819 -0.07415785 -0.14447926 0.23313867 -0.46001586 -0.055268433 -0.098715544
-0.06660171 -0.072623074 -0.10460229 -0.081838846 -0.019137999 -0.11170634 -0.4050676 -0.15583168
-0.07977962 -0.057844117 -0.09618717 -0.5310413 -0.114984915 -0.11057575 0.00018430238 -0.09069693
-0.08913742 -0.16515718 -0.023187486 -0.056265954 0.0011870835 -0.018496549 -0.49389923 -0.062227465
-0.10329256 -0.32249117 -0.089437 -0.06954112 -0.5370781 -1.2885703 -0.011679847 -0.08308217
-0.04304257 -0.040993534 -0.5109903 0.042782694 1.1114395 -0.2780533 -0.5651364 -0.388106
-0.24159569 -0.102386124 -0.12535764 -0.2556102 -0.053397004 -0.094412096 0.0035753765 -0.069471024
0.26957375 -0.05992066 -0.25809482 -0.8376381 -0.0070223506 -0.59540564 -0.09536851 -0.60053396
-0.11800841 -0.063889325 -0.05849931 -0.056095388 -0.072192706 -0.0095045725 -0.02491279 -0.10516051
0.047316913 -0.08895911 -0.997722 -1.2266824 -0.08200875 -0.088848695 -0.07821315 -0.33106044
-0.0075733443 -0.04783474 -0.1711103 -0.09889032 -0.07021956 0.013143172 -0.13458817 0.006434639
-0.730919 -0.085149094 -0.05380215 -0.061169986 0.003851149 -0.4626995 -0.072521634 -0.17496797
-0.4094483 -0.70677644 -0.020557255 -0.05615549 -0.27387384 -0.5070066 -0.060072646 -0.041254647
-0.19695531 -0.11205907 -0.1316313 -0.106118195 -0.6099321 -0.63330936 -0.58361167 -0.28840017
-0.8282757 -0.43602198 -0.11524584 -0.006578667 -1.2952311 -0.13043924 -0.16288327 -0.19661169
-0.08875123 -0.32599893 -0.021254547 -0.04346933 -0.27119344 -0.07809705 -0.01958974 0.20669581
-0.4117009 -0.1138187 0.69710857 -1.2977909 -0.09182426 -0.016133834 0.83399403 -0.054980874
-0.54935586 -0.39005935 -0.08929476 -1.2289317 -0.08721027 -0.102028966 -0.19278435 -0.06256916
-0.058701854 -1.4884413 -0.054965753 -0.03610592 -0.05080637 -0.38173482 -0.03533418 0.021798667
-0.053993896 -0.31684107 0.001697498 -0.12589233 -0.09667988 -0.1537826 -0.018923055 -0.7518507
-0.06669836 0.027001427 -0.9442475 -0.0027946106 -0.82437044 -0.025444243 -0.0889597 0.37138882
-0.11525373 -0.7563332 -0.18096067 -0.016683614 -0.045697764 -0.27761462 -0.09176737 -0.019464878
1.3814176 -0.09555158 -0.6833181 -0.015440981 -1.0391399 -1.1195805 0.4872923 -0.1118045
-0.08974797 0.1231436 -0.112814404 -0.021796998 -0.010994521 0.15998445 -0.06403857 -0.35972902
-0.060643807 -0.13890317 -0.13291936 0.01225098 -1.0901204 -0.026172195 -0.15541922 -0.11891079
-0.09702642 -0.103982754 -0.07597366 -0.25437123 -1.1962632 -0.099061705 -0.032620564 0.0009826117
0.9228986 -0.08811819 -0.5890946 -0.530269 -0.20975058 -0.5443963 -0.089106545 -0.017984882
-0.06601738 -0.08211832 -0.007315412 -0.7050774 -0.02479451 -0.05173049 -0.001473808 -0.02915071
-0.1039039 -0.070078425 -0.25566456 -0.253687 -0.18838868 0.21842651 -0.07918722 -0.041994072
-0.117758326 -0.06784776 -0.018950297 -0.09479873 -0.6762073 -0.07464523 -0.042885914 1.0165232
-0.49593195 -0.23813166 -0.08025774 -0.13167106 -0.12283542 -0.23941164 -0.37792215 -0.06423694

l3.weight f4 [4, 300]
00000000: 2393 c93c 942f 333f 4d1e b13e 5f4f 0d3c
00000010: 7a77 183b 4c76 96bf 553f ea3f 71db 423f
00000020: 37eb 45bd 4a3f f93a e0c2 36bd 05e8 793c
00000030: 914e cf3e 128c 83bf 51bf 36bc 1091 34bc
00000040: 7993 193c a03c 233c b56d 8b3c 39ea bbbc
00000050: ccb9 4839 bebe e13d 75a7 67c0 eeb8 c03e
00000060: b356 163c 2313 493d d71d c4bc eab9 c3bd
00000070: 389a 323e 6f42 123c 34cd 0aba 1c01 29bc
00000080: ecef 58bd 2202 a03e f0e0 6dbd 78d1 adbc
00000090: eaaf f03c 9299 74bc b0fa e2be cd63 853d
000000a0: 001f d4bd e106 a73f cadb d9bd a93c 91bb
000000b0: e04c 8cbf bd35 9d3f 0d1d 1abe 2136 46bc
000000c0: aaa2 47bd 22b1 543d 31f1 773f 0d76 2ebe
000000d0: fe51 393e d253 48bf 91df 033f e53b 743e
000000e0: 6bf0 38bd 5c99 4bbd c7d8 c93c 5f71 3d3e
000000f0: ded8 f3bd d927 783c 5a57 993e 70b6 143d
00000100: 315f 2440 0edb 9f3d 8534 f9be dd03 513e
00000110: 6479 ecbb ec93 683f 3166 ab3b bd7c 613f
00000120: a649 953c 9919 28bc 8fc2 0d3e 56da 7d3c
00000130: a3b2 04bb d8d5 e93b 4786 493d 0ce6 c4bd
00000140: 97a8 1f40 8ed0 84bc f6a4 43bc 1147 4140
00000150: 46f4 8a3d a6ff 32b9 e588 343d 9752 1dbf
00000160: c955 ca3c fe8e 773c a6c4 223e 08fe 40bd
00000170: 978e 173d eb93 833c e017 373c 2790 753d
00000180: bad1 8b3d 37bd 843d cfee a63d c594 bc3c
00000190: 5fcc 023b 7f25 813f 4796 8639 dcfb 5bbe
000001a0: 7a41 2d3e 0c79 abbf 0e09 cebb eec3 74b9
000001b0: c53f 8ebf 87ae b6bf 49e4 11bd a74d 033c
000001c0: 53e4 1bbd b1e2 a83c 3e50 3a3f 2537 81be
000001d0: 5da4 25bf c51b 3d3f 1dc9 3ebd 54f6 b9be
000001e0: 5064 14bf 29b9 0d3f dbdd 9b3d 6ccd d4bb
000001f0: 7108 4d40 0613 843d ce17 2bbe dcac 123e
00000200: 07f2 59be 9247 71be 723e 16c0 e102 833d
00000210: 25f8 e5be 2c31 63bc d733 9e3c 1f5f 2bbf
00000220: 17e5 83bc 5349 acbb d43b aa3e 4d44 55bf
00000230: 4b0d 093c 972d 0b3f 18c5 d53d c39d 143d
00000240: b618 5cc0 26f7 dbbe 1df9 d03a 8553 453f
00000250: 2fb0 aabc 8bed 483d b0b6 67be ab53 91bc
00000260: 2772 493c 0da1 843f 93da 40bc 04bb 0a3c
00000270: 9a54 973b 53dc f13e 19a0 133c b6f1 133e
00000280: 05e0 f03a 0434 ed3f 11c8 06bd 8c3e c83d
00000290: fef4 713f 0937 63be 3fa7 823c 122c e0bb
000002a0: 4321 613e 7f85 883f 07ab b83f 3093 8bbc
000002b0: 3ee7 7c3f ddc1 263d f4fb 95bd a8e3 97bc
000002c0: 9830 3fbd 41a7 523f 6d71 78bb 5659 833f
000002d0: 5b4d 6abd 0b68 513d 41a5 31be 9a48 0e3f
000002e0: f4ed 5d40 2058 2cbd af81 1dbf 9d62 24bb
000002f0: aa92 bb3e c1df febe 0bab c33d abb3 89bc
00000300: aad3 473d 6894 30be 9722 fb3c 40b0 01bd
00000310: 7e09 333c b977 c5bd bc81 0dbc 9127 a33e
00000320: daa4 2dbd 5ff4 cf3c b0f9 ea3d 71d8 fcbc
00000330: 2e96 ddbf 0aee 65bb c4f8 9abe afd5 4b3f
00000340: 55bd 043e b665 32bc 8294 173e 6851 9e3f
00000350: 9eeb 483c e574 aebc 310b 613e 57e6 8bba
00000360: 3f96 2b3b cc1c c1bd a0fe 293f 51d0 82be
00000370: f08a 743f 383e 803e efc7 b33c 5568 cd3b
00000380: f189 7ebc a039 b0bb 6bfe 543c 3b01 0640
00000390: 43b9 943c 3ce9 e33b ce26 853c 4f71 07bd
000003a0: 3cf5 eebb c1a6 493c 875a 853e 116e 943e
000003b0: f58e 083e 1553 043f 8939 f53c f7ad 44bc
000003c0: a277 913d 48c9 893d c323 253c 6d0c 77bd
000003d0: 95fa 02bf 4c43 683d af17 f23c 6d99 3cbe
000003e0: fa46 aa3d 624c 7bbe cec4 513c 9574 153c
000003f0: 1f25 8f3e 6943 063f 7cb8 ecbe 9c6f dd3c
0.024606293 0.69994473 0.3459343 0.008624881 0.0023264573 -1.1754851 1.8300577 0.7611609
-0.04832002 0.0019016054 -0.04461944 0.015253072 0.4048963 -1.0277121 -0.011154012 -0.011020914
0.009373539 0.009963185 0.017020086 -0.022938835 0.00019142701 0.11022709 -3.6195958 0.3764109
0.009175944 0.049090516 -0.02394001 -0.09556945 0.17441642 0.008926972 -0.000529486 -0.010315206
-0.052963182 0.31251627 -0.058075845 -0.021218047 0.029380757 -0.014929192 -0.44331884 0.06513176
-0.10357475 1.3048974 -0.106376246 -0.00443228 -1.096096 1.2282025 -0.15050144 -0.012097866
-0.048739113 0.05192674 0.96852404 -0.1703722 0.18097684 -0.782529 0.5151301 0.23850973
-0.045151155 -0.0497068 0.0246395 0.18500279 -0.119065985 0.015146219 0.29949456 0.0363068
2.56831 0.07805453 -0.48672882 0.2041163 -0.0072166193 0.9085071 0.005230688 0.8808096
0.018223595 -0.010260009 0.1384375 0.01549395 -0.0020248077 0.007136088 0.049200322 -0.096141905
2.494665 -0.016212728 -0.011941185 3.0199625 0.06784873 -0.0001707064 0.044075865 -0.6145415
0.024699109 0.015109776 0.15895328 -0.047117263 0.03700122 0.016061744 0.011175126 0.059951928
0.068271115 0.06481402 0.08151018 0.023020158 0.001995824 1.0089568 0.00025670437 -0.21482795
0.16919509 -1.3396316 -0.0062877005 -0.00023342643 -1.1113211 -1.4272012 -0.0356181 0.008014119
-0.038059544 0.020615907 0.7277869 -0.25237384 -0.64703923 0.738705 -0.046578515 -0.36320746
-0.57965565 0.55360657 0.07610675 -0.0064942148 3.2036402 0.06448941 -0.167083 0.14323753
-0.21283732 -0.23562458 -2.3475614 0.063970335 -0.44915882 -0.013866704 0.019311829 -0.6694202
-0.01610045 -0.0052577644 0.3324877 -0.83307344 0.008364986 0.5436644 0.10437983 0.036283266
-3.4390082 -0.42961997 0.0015943382 0.77080566 -0.020835964 0.049054664 -0.22628284 -0.017740091
0.012295282 1.0361649 -0.011770862 0.00846744 0.0046182396 0.47238407 0.009010338 0.14447674
0.001837731 1.8531499 -0.032905642 0.09777555 0.94514453 -0.22188963 0.01594889 -0.006841191
0.21985345 1.066574 1.4427193 -0.017037958 0.9879035 0.040712226 -0.07323447 -0.018541172
-0.046677202 0.8228646 -0.0037909404 1.0261638 -0.05720268 0.051124614 -0.17348196 0.5557953
3.4676485 -0.04207623 -0.61526006 -0.0025083192 0.36635333 -0.49780086 0.09554108 -0.016809305
0.048785843 -0.17244112 0.030656142 -0.031662226 0.010927556 -0.09641976 -0.008636888 0.31866124
-0.042393543 0.02538508 0.11473405 -0.030864926 -1.7311456 -0.003508451 -0.30267918 0.7962293
0.1296285 -0.010888508 0.14802745 1.2368593 0.012263207 -0.021295974 0.21976925 -0.0010673505
0.0026182083 -0.09429321 0.6640415 -0.25549558 0.955245 0.2504747 0.021945922 0.006268541
-0.0155358175 -0.005377963 0.013000111 2.093825 0.018154746 0.006955294 0.016253855 -0.033067044
-0.007292418 0.012307824 0.2604563 0.28990224 0.13335784 0.51689273 0.029934661 -0.012004367
0.07102896 0.067278445 0.010079327 -0.060314585 -0.5116361 0.056704804 0.029552309 -0.18417902
0.08314319 -0.24540856 0.01280327 0.009122034 0.2795801 0.5244661 -0.462345 0.027030759

l3.bias f4 [4]
00000000: fa5c 503c e29d 6abe 434e 99bf 5a78 2fbf
0.01271748 -0.2291179 -1.1977009 -0.68543017
