TD3_control/dir_Walker2D_002/biped-v9-2d-7_actor_t.pth (torch, 531543 bytes, 6 tensors)

l1.weight f4 [400, 24]
000000 82 db 5c 3f 26 cc a8 3e dd 69 99 be a2 bf dd bc
       0.8627244 0.32968253 -0.2996358 -0.027068917
000010 44 24 86 be 5b dc ef bc 06 b1 c1 3a 84 df a5 3d
       -0.26199543 -0.029279878 0.0014777489 0.08099273
000020 a2 a0 5e bf c9 ee 42 bf d9 ea 45 3e 7f f2 a2 bd
       -0.86963856 -0.7614561 0.19327869 -0.07956409
000030 b7 57 ab be 35 1c 9e bd 42 87 e9 3e 1c d0 09 3d
       -0.3346536 -0.07720224 0.45611006 0.033645734
000040 5a dc 56 3e 9a 80 5e 3d 89 dc dd bd f7 b7 35 3c
       0.20982495 0.054321863 -0.10833079 0.011091224
000050 96 57 1e bd 86 18 a2 bc f0 c3 36 bf c7 98 af be
       -0.038657747 -0.019787084 -0.71392727 -0.34296247
000060 7c 2f 03 bf 72 ed c2 bf 1a 76 cc 3e f3 0a 17 bf
       -0.5124433 -1.5228713 0.39933854 -0.5900108
000070 04 cb c2 3e 28 53 30 3f 9d bb 81 3d 20 d5 29 be
       0.38045514 0.68876886 0.063346125 -0.16585207
000080 2d 3f 92 be 34 43 82 be 23 74 87 3c 70 61 d1 3e
       -0.28563824 -0.25441897 0.01653487 0.4089465
000090 36 ef 35 bf dc 70 25 bf 83 6e ea be 04 8c ff be
       -0.7106813 -0.64625335 -0.4578744 -0.4991151
0000a0 c6 4e af be e8 1b 87 be d6 6e 86 3e 99 87 a5 3e
       -0.34239787 -0.26388478 0.26256436 0.32330015
0000b0 b9 8f 9e be 57 be e5 bd 2f 15 eb 3e 39 c8 ec bf
       -0.30969027 -0.11217945 0.459146 -1.8498603
0000c0 bd ef 1e be 7a b9 dd 3f d3 e2 fb bf 13 56 da 3f
       -0.1552114 1.7322228 -1.9678596 1.7057518
0000d0 d7 b1 85 be 51 61 53 3e 99 5c 88 bc d7 2d 44 be
       -0.26112244 0.20642592 -0.016645717 -0.19158112
0000e0 15 4a d4 3e 29 9e 1e be f4 64 d2 3d ec f6 77 3d
       0.4146277 -0.15490021 0.102731615 0.060538217
0000f0 20 88 51 3f a0 97 5c 3d 1e be d0 be d2 f6 ab be
       0.81848335 0.05385554 -0.40770048 -0.33586746
000100 af 01 cd 3d ae 74 3b be 22 de 2c 3f f8 55 0e bf
       0.10010087 -0.18306229 0.6752645 -0.5559993
000110 7e 58 07 3f af be e3 3d 58 fa 5a 3e ec c5 a4 3e
       0.52869403 0.111203544 0.21384561 0.32182252
000120 37 4e 60 bf a9 cb 27 bf c8 12 8a 3e 0d 90 a7 be
       -0.87619346 -0.65545136 0.26967454 -0.3272709
000130 b4 90 bc be dc d8 05 c0 2f 52 09 3d 95 0e 8d bd
       -0.3682915 -2.091361 0.033525642 -0.06887547
000140 0a 07 49 bf e6 f6 5e bf 91 e9 af 3f 58 fa 54 be
       -0.78526366 -0.8709549 1.3743154 -0.20798624
000150 0b b9 bb 3e a3 07 30 bd cc f2 b9 3e e8 9f f5 bd
       0.36664614 -0.042976033 0.36318052 -0.1199339
000160 5d 3f bf 3f 2c cf bb bd ce 03 8f bf 38 1e 23 be
       1.4941212 -0.09170374 -1.1173036 -0.15929496
000170 5c ac 62 bf 3e 78 7c bc 7e e5 2e be b2 b2 80 bc
       -0.8854425 -0.015409527 -0.17079732 -0.015710209
000180 ca 37 e0 bf a0 b3 01 3e eb 6a 8b 3e 41 ed a0 bf
       -1.7517025 0.12666178 0.2723001 -1.2572404
000190 9f 7b fd 3e 92 b8 c9 bf e7 03 33 be 84 11 7b bd
       0.49508378 -1.5759451 -0.17481957 -0.061296
0001a0 cc 46 27 bf 81 09 e6 be b1 48 d9 3f 3b b0 8a 3e
       -0.653424 -0.44929126 1.6975309 0.27087578
0001b0 ef 21 10 be 6d 8b 28 be c9 8a 82 3f 7c bc 58 be
       -0.14075445 -0.16459437 1.0198604 -0.21165651
0001c0 8d 3a bf be 57 b0 8b 3e c6 01 77 bf 16 d7 84 bd
       -0.37349358 0.27282974 -0.9648708 -0.06486337
0001d0 1f 97 96 bd d5 37 86 be 37 5f 09 bf f8 59 3b bf
       -0.07353043 -0.2621447 -0.5366091 -0.73184156
0001e0 bb 2d a7 3e 57 06 49 bf 86 d5 2a bf c0 0b 23 3f
       0.32652077 -0.785253 -0.6673206 0.63689804
0001f0 7a 6f 8d 3e 02 f5 03 40 59 20 30 3e 88 85 ee bd
       0.27624112 2.061829 0.1719984 -0.11646563
000200 95 9e 53 be 73 2e 75 be 77 b8 4f bf 03 7a ee 3d
       -0.20665963 -0.239435 -0.81140846 0.11644366
000210 3c cd 6a bf 23 2e bc 3e af 4e 08 bc 04 90 84 3e
       -0.9171941 0.3675395 -0.008319541 0.25891125
000220 e9 a8 e5 3c e5 49 5f be 54 ef f0 3f c9 4b c0 be
       0.028034644 -0.21805532 1.8823037 -0.3755782
000230 7b 8b 29 3f 7f 98 2b 3f 37 be 80 3d bd 1b 9b be
       0.66228455 0.67029566 0.062862806 -0.302946
000240 9b 9a f6 be d0 8f 27 3f d2 a4 a8 be 1b cf 67 be
       -0.4816483 0.65453815 -0.32938248 -0.22637598
000250 70 b9 a8 be a8 08 b1 bc 11 80 c7 3b 5e 7c a2 bd
       -0.32953978 -0.021610573 0.0060882648 -0.079338774
000260 32 29 e2 bd 51 80 d2 3d a0 7d 11 3f c6 2d a5 3e
       -0.11043014 0.10278381 0.56832314 0.32261485
000270 e2 8c 24 3f 75 2a c7 3e 15 2b 98 3f 89 c9 00 bf
       0.6427747 0.3889958 1.1888148 -0.5030752
000280 c8 d1 82 3d 07 65 4b 3d 72 4b eb 3f 82 ab 1a 3e
       0.06387669 0.049656894 1.8382399 0.15104488
000290 6a 37 70 bf 3c f1 a3 bd 87 e4 38 bf 98 ff 13 3f
       -0.93834555 -0.08004996 -0.72223705 0.5781188
0002a0 7f 24 ba bf 1a b8 9d 3f 21 64 a5 bf 23 59 cc 3f
       -1.4542388 1.2321808 -1.2921182 1.5964702
0002b0 ef 61 22 3f a8 7b 1d bf 05 ca 71 3d 9b bb e7 bd
       0.63430685 -0.6151681 0.05903055 -0.1131508
0002c0 57 78 c2 3e 08 d7 d4 3e e1 bd 21 bf 3b 29 4f 3e
       0.37982437 0.41570306 -0.6318036 0.20230572
0002d0 89 2a 5f be cf 8e 85 3d 36 96 08 bf c0 36 e4 3e
       -0.2179357 0.06521379 -0.53354204 0.4457302
0002e0 09 f1 c3 bc 2b 38 a1 3e 0b 78 74 3e 36 fc a9 bd
       -0.023918645 0.31488165 0.23873918 -0.083000585
0002f0 07 d6 61 3f 53 22 e9 3e 60 21 12 3d 6d d3 89 3e
       0.88217205 0.45534 0.03567636 0.26919118
000300 02 3c bc be 67 cf 86 bf e8 f6 9b be f5 89 0c bf
       -0.36764532 -1.0532044 -0.30461812 -0.54898006
000310 07 cf e4 3e de 8f ee be f4 20 ff bd 42 76 07 3e
       0.446892 -0.46594137 -0.12457457 0.13228706
000320 3b 4a 23 bf a9 5f 3a 3e 96 cc d5 bc d1 00 16 3d
       -0.6378514 0.18200554 -0.02609853 0.036621872
000330 99 b0 08 40 31 a1 49 bd b4 6a 66 3f 43 e5 b6 be
       2.1357787 -0.04922599 0.90006566 -0.35721788
000340 5f b9 8b 3e b0 3b 0c 3e 05 2f 9d 3f 99 bd 05 3f
       0.27289864 0.13694644 1.2279974 0.5224243
000350 68 71 b3 3e 74 0b b8 bd 5a 88 36 bf 44 9c c8 3e
       0.3504746 -0.089865595 -0.71301806 0.3918172
000360 4d 62 98 3e eb 1b 11 bf 70 52 47 be 4d fc e5 be
       0.29762498 -0.56683224 -0.19465041 -0.44919053
000370 cc 3a 3d bf e3 a5 0c 3f b0 0e 2c 3e 6f 33 90 3d
       -0.7391784 0.54940623 0.16802478 0.0704106
000380 72 be 8d bf d6 33 71 3f f5 83 f3 3e 80 da b3 3e
       -1.1073744 0.9421972 0.47561613 0.3512764
000390 3a df 55 bf a6 93 58 bf 8b d7 ef 3e 73 e4 22 bc
       -0.8354374 -0.84600294 0.46844134 -0.009942162
0003a0 81 e1 62 3f c5 2c 74 be 6e 25 01 3f 0f ff 8e be
       0.8862534 -0.23845203 0.5044774 -0.2792897
0003b0 18 e9 9c 3b 9c d8 a1 3e c7 39 a7 bf d9 c5 03 3f
       0.004788529 0.31610572 -1.3064507 0.51473767
0003c0 e1 1a 46 3f a5 f2 d9 bf 1d 7f c6 3f c0 dd b4 be
       0.77384764 -1.7027174 1.5507542 -0.35325432
0003d0 45 d3 73 bf 89 7b ca 3f af fa e6 39 cd cc 39 3e
       -0.95244247 1.581895 0.00044055792 0.18144532
0003e0 ea 66 b8 be b5 56 c8 3e 01 2a 9c 3d 57 b5 97 3e
       -0.36016017 0.39128652 0.07625199 0.2963054
0003f0 4a 70 9b 3e 2b e9 7e 3e 61 1b 51 3e 5d 47 31 bf
       0.30359107 0.24893634 0.204206 -0.69249517

l1.bias f4 [400]
000000 20 b0 38 bf b4 2d ba 3d cb 5b 07 3f 0d e5 a1 be
       -0.72143745 0.090907484 0.5287444 -0.31620064
000010 a2 82 27 bf 3e 07 30 be be f1 ef be 51 32 a9 3e
       -0.65433705 -0.17190263 -0.46864122 0.330462
000020 9b 25 fd be a8 7e 7a bf 90 6b 08 bf b3 06 fa be
       -0.49442753 -0.9784951 -0.5328913 -0.48833236
000030 59 ac 04 3b e2 29 15 bf b3 00 41 be 6b 94 8e be
       0.0020244329 -0.58267033 -0.18847923 -0.2784761
000040 8b 39 96 3e 0a 64 96 be 48 c8 9e 3d 0f 72 1f bf
       0.29340777 -0.293732 0.07753044 -0.62283415
000050 b7 ff 37 be 6e 95 b9 be 90 37 9a bd 8a e6 f6 be
       -0.17968641 -0.36246818 -0.07530129 -0.48222762
000060 e8 44 22 bf 4d 29 02 3f 9f 4b 9e bf a0 c7 32 bf
       -0.6338639 0.5084427 -1.2366828 -0.69835854
000070 27 e9 0a bd 30 42 e7 bd 81 4d 5e bf d9 3c 1b bf
       -0.033913758 -0.11291921 -0.8683701 -0.6063972
000080 88 14 87 be 90 c6 4b be e1 c4 f6 be 7c 1f 13 bf
       -0.26382852 -0.19899964 -0.48197082 -0.57469916
000090 43 6d 2f be 22 5b f5 be 29 a8 93 be d7 82 22 be
       -0.17131524 -0.4792109 -0.28839234 -0.15870224
0000a0 3a 7c aa be ff 14 23 3f 75 3d e1 be f4 55 ed be
       -0.33297902 0.6370391 -0.439922 -0.4635464
0000b0 c8 f2 0f 3f 35 f7 13 bf 14 8e f9 bd ca 92 4f be
       0.5622983 -0.57799083 -0.121853024 -0.2027084
0000c0 ff fc d1 be 9f f9 f8 be 24 ef c5 be 74 b3 03 be
       -0.41013333 -0.48627946 -0.38659012 -0.12861425
0000d0 82 34 d0 bd 24 a8 64 bf 40 74 e7 bd d1 c9 09 bf
       -0.10166265 -0.8931906 -0.1130147 -0.5382357
0000e0 c1 c5 20 3e f6 67 56 bf 87 a6 e1 bd ed 67 dc be
       0.15700437 -0.8375238 -0.11018091 -0.4304804
0000f0 e6 8a 9e bf c0 4d 6f bf 6a 27 0a 3e d6 c9 7d be
       -1.2386138 -0.9347801 0.13491598 -0.24784026
000100 3e 7c f6 be e7 e5 5a bf 19 12 d9 3e 7c 91 f8 be
       -0.48141664 -0.85507053 0.4239662 -0.48548496
000110 5e 84 d7 3c 79 18 49 3f 34 48 47 bf 78 c0 3f be
       0.026308235 0.7855297 -0.7784455 -0.18725765
000120 af a6 6c bf b6 3d 51 bf 92 15 97 bf 8d 27 02 bf
       -0.9244184 -0.8173479 -1.1803458 -0.508416
000130 87 8d fe be 0f 95 29 3d 81 8b fc 3e 94 4c 2e bf
       -0.49717352 0.04140192 0.49325183 -0.680856
000140 be b9 a8 bd 14 0c 16 be bc 25 3c bf 09 3b 85 be
       -0.082385525 -0.14653045 -0.7349508 -0.26021603
000150 58 f7 16 3f 25 d5 c8 be b2 39 ea be 4c 76 35 bf
       0.58971167 -0.39225116 -0.45747143 -0.7088363
000160 6b b9 e8 be 5a 17 41 bf 28 bb b9 bd 07 27 24 be
       -0.45453963 -0.75426257 -0.090689 -0.16030513
000170 b5 06 72 bf e7 10 c8 bd 55 c3 9b 3e 77 9e 30 3d
       -0.94541484 -0.09768849 0.30422464 0.043119874
000180 75 65 31 bf 46 7a b0 bc f9 f8 e8 be fb c7 f2 3e
       -0.69295436 -0.02154268 -0.4550245 0.47418198
000190 9b 5e 16 bf b7 dc 13 bf 3d 1a 0c bf 69 13 89 be
       -0.58738106 -0.5775866 -0.54727536 -0.2677262
0001a0 a1 86 5a bf ca a1 eb 3d 95 fe aa be 71 ef 6b 3e
       -0.8536168 0.11505468 -0.33397356 0.23040558
0001b0 bc c0 88 bf d5 c2 32 3e 56 8a 66 bf a0 22 25 bf
       -1.0683818 0.17457135 -0.90054834 -0.6450596
0001c0 58 7c 8e bf 85 29 06 bf 83 bd 85 be 09 9e c4 be
       -1.1131697 -0.52407104 -0.26121148 -0.3840182
0001d0 ba 59 55 bf f6 bc f7 be b1 de 62 bf 76 88 65 be
       -0.83340037 -0.48386353 -0.8862105 -0.22415337
0001e0 01 1f 09 be bd eb ce be bb 36 ac be 6f cb b4 be
       -0.13390733 -0.4041423 -0.33635506 -0.35311458
0001f0 28 0f c5 be b3 e2 6b be 78 75 04 bf 29 42 b8 3e
       -0.38488126 -0.23035698 -0.51741743 0.35987976
000200 58 8e d6 3e 05 07 f3 be 98 81 9c be 69 32 14 bf
       0.41905475 -0.47466293 -0.30567622 -0.5788942
000210 0a b2 71 be 94 08 cd 3e e9 43 e7 be b8 ae 72 bf
       -0.23603073 0.40045607 -0.45169 -0.9479785
000220 90 d7 35 3e 12 89 e0 be cf 0e 08 3f 63 33 9a be
       0.17758012 -0.43854576 0.53147596 -0.3011733
000230 28 e2 e2 3d 80 13 3f bf 77 48 99 be 64 e6 d2 3e
       0.11078292 -0.7463913 -0.299381 0.411914
000240 65 5b bd be 6f a2 dd 3c 3c f9 ce 3d 57 9a 30 bf
       -0.3698379 0.027054993 0.101061314 -0.68985504
000250 0c dd 1b 3d dd ab fb be 35 6c 1a bf 16 73 96 be
       0.038052604 -0.4915456 -0.6032136 -0.2938468
000260 50 9f 06 3d df bf 25 bf 95 c7 04 3e 20 03 15 bf
       0.032866776 -0.647459 0.1296676 -0.58207893
000270 10 41 26 bf de 7d 40 be 51 db 19 bf 1e 0b 29 be
       -0.6494303 -0.18798015 -0.60100275 -0.16508147
000280 20 cc bb be 89 94 a3 be 8d af 52 3e c3 bd 67 be
       -0.36679173 -0.3194926 0.2057478 -0.22630982
000290 66 d3 32 3e ca a5 44 be e0 45 29 bf 77 d5 06 3e
       0.17463455 -0.19203869 -0.66122246 0.13167368
0002a0 a5 56 d8 be 59 58 95 bf 9c 9e 36 bf 48 e8 1f be
       -0.42253605 -1.1667587 -0.7133577 -0.15615952
0002b0 15 d7 6a bf 47 34 a2 be ed 99 09 bf 6f c3 c1 bd
       -0.9173444 -0.3168051 -0.537505 -0.09461104
0002c0 5f 2e ff bd d8 fe c1 be 7a 1d 47 bf 6c a6 45 bf
       -0.124600165 -0.37889743 -0.7777935 -0.77207065
0002d0 dd c0 66 bf cc f3 71 3e 12 08 31 3d 9c 94 3b bf
       -0.90138036 0.23628157 0.043220587 -0.73273635
0002e0 a9 c6 f7 be 98 bc 0c bf 7e 84 63 3f 8f 5f 7d 3e
       -0.48393753 -0.5497527 0.8887404 0.24743484
0002f0 9e fa 02 be f7 5f fe 3e 61 79 b1 3d a2 f6 78 be
       -0.12790915 0.4968259 0.08665729 -0.24312833
000300 1b aa 93 be 06 72 2c be 69 04 8c be 6d 25 0c bf
       -0.28840718 -0.16840371 -0.27347115 -0.5474461
000310 e3 ef b2 be bf 65 a6 be f2 b3 7f bf 58 71 dd be
       -0.34948644 -0.324995 -0.9988395 -0.43250537
000320 07 bd 5a bf 69 b9 26 3e e3 b7 19 bd 69 5a 94 bf
       -0.8544468 0.16281666 -0.037528884 -1.1590091
000330 e3 7a 05 bf f3 d0 0e bf 22 c9 43 bf a0 c5 29 bf
       -0.52140635 -0.5578758 -0.7647878 -0.66317177
000340 4b 52 8e 3e 3b 8a 4f 3e 29 6b 43 bf df 4d 89 be
       0.2779716 0.20267574 -0.7633539 -0.26817223
000350 20 62 40 bf f0 b9 e0 be 8d 36 43 bf 69 f2 9d bf
       -0.75149727 -0.4389186 -0.7625511 -1.2339603
000360 cf 7e 0c be e9 53 9a 3e 1d 19 65 be f2 e0 46 bf
       -0.13720249 0.30142143 -0.22372861 -0.7768699
000370 7d 17 ae 3e 2a 2c 2a bf b9 46 81 bf dd 29 56 bf
       0.34002295 -0.6647364 -1.0099708 -0.8365763
000380 4b 1b cc bc c5 4a 4f bf ef ed a7 be 36 4f a4 be
       -0.024915358 -0.80973464 -0.32798716 -0.32091683
000390 e6 cb c6 be 25 8c 85 bd 47 00 1c bf 70 4f 00 be
       -0.38827437 -0.06520871 -0.60937923 -0.12530303
0003a0 1e a0 c1 be a8 a2 bb bf 1a bd f9 bc b7 f5 c8 be
       -0.37817472 -1.4659014 -0.030485678 -0.39249966
0003b0 52 94 cd 3e 2e e9 73 bf c0 8c 7e bf ac f4 9c be
       0.40152222 -0.9527768 -0.9943352 -0.3065542
0003c0 86 02 58 3d b4 51 fd bd 13 e9 f3 be fa 31 ed be
       0.05273678 -0.12369099 -0.4763876 -0.46327192
0003d0 c2 19 6b bf 46 e9 b2 be 6b fd ca be f7 ef 29 be
       -0.9183618 -0.34943599 -0.39646468 -0.16595446
0003e0 40 89 fc be cc 06 5b 3e e5 c6 52 be e2 fb e3 be
       -0.49323463 0.21389312 -0.20583685 -0.4452811
0003f0 af 70 23 bf 06 22 4f bc 0a 8b 69 bf 40 5e 68 bf
       -0.63843817 -0.012642389 -0.9122778 -0.90768814

l2.weight f4 [300, 400]
000000 3e 8e a1 3c aa fb 50 bd 43 e5 ea bc 35 5a 03 be
       0.019721147 -0.051021256 -0.028673774 -0.1282738
000010 60 47 be bd 04 e9 79 bc 72 22 ec bc 30 8d 3c bd
       -0.092909575 -0.015253309 -0.028825019 -0.046033084
000020 4f 52 a5 bc 87 25 a4 bd 58 17 b0 bd 67 aa b7 bc
       -0.02018085 -0.0801497 -0.085982025 -0.022420121
000030 50 87 31 bc 17 a0 2d bc 39 05 58 3c 35 c5 86 bd
       -0.010835484 -0.01059725 0.013184839 -0.06580583
000040 0b 4e e2 bd 09 32 56 3b 55 ec 80 bd fb 96 80 bd
       -0.11050042 0.0032683632 -0.06295077 -0.06278797
000050 a1 df c7 bc bb cc ef bc ba f8 57 bd 3b 11 ef bc
       -0.024398627 -0.029272428 -0.05272744 -0.02918302
000060 89 40 45 3d 75 61 07 bd db 6f e6 bc ad ab 07 be
       0.04815725 -0.033051927 -0.028129509 -0.13249083
000070 37 a1 be 3c 7a 62 56 bc 1b 7c 65 bd df cb aa bd
       0.023270233 -0.013085002 -0.05602656 -0.083396666
000080 1e 7b 93 bd a0 ee 38 3d fb b0 64 bd a8 57 31 bd
       -0.07201217 0.045149446 -0.055832844 -0.043296486
000090 7b 2f 6b bd 9e 0c 9b bd d1 53 dd 3c bf 25 28 bd
       -0.057418328 -0.07570766 0.027017506 -0.041051622
0000a0 e4 f3 ff bc e0 b6 ba bc 88 18 3b bc 02 31 d5 bc
       -0.031244226 -0.02279228 -0.011419423 -0.026024345
0000b0 1d 8a 84 bd f6 43 27 3c 15 fb 89 bd e5 60 8b bd
       -0.064716555 0.010209074 -0.06737343 -0.068055905
0000c0 e7 1b a3 bd 04 ad 03 3d 12 50 67 bd 07 d1 af bd
       -0.07964306 0.032147422 -0.056472845 -0.08584791
0000d0 a5 e2 85 bc b8 ae c2 3c 2d c5 89 bc d8 f9 36 bd
       -0.016343424 0.023764953 -0.016817654 -0.044671863
0000e0 63 c3 6c bd ee a5 a2 3c d5 9e 8f bd 1d 16 0f 3d
       -0.057803523 0.019854512 -0.07012717 0.0349332
0000f0 41 01 de 3b 80 42 37 bd cb e9 e0 bb 8a 75 51 bd
       0.006775052 -0.044741154 -0.006863808 -0.051137485
000100 8d c8 8a bc 92 19 55 bd 2e 50 90 bb 39 59 4a bb
       -0.016941333 -0.05202634 -0.0044040894 -0.0030875935
000110 3d b5 0e bd 64 f3 7d bd 2b 2d e8 bc bf 91 2f bd
       -0.03484081 -0.061999694 -0.02834185 -0.042863604
000120 ce 21 92 3d 48 2f cb bc 88 5a b0 bc a2 27 55 bd
       0.07135354 -0.024802819 -0.021527544 -0.05203975
000130 f3 44 60 bd 6a 10 d9 bd f1 d4 c8 bc dd 55 14 3c
       -0.054753255 -0.10598834 -0.0245156 0.0090536745
000140 aa 15 d5 bd 07 bf b2 3c ae 84 9a bd e8 56 c7 3b
       -0.10404523 0.021819605 -0.07544838 0.006083358
000150 b5 f5 19 bd 4e 57 20 bd cd 64 8b bd 75 fe 0a bd
       -0.03758784 -0.03914576 -0.068063356 -0.033934075
000160 1c 6f fc bd ef 4e a4 bd 97 14 a5 bd c6 fe 9e bd
       -0.1232588 -0.08022868 -0.08060568 -0.07763438
000170 cc 32 72 bc b2 21 d0 bd d2 e7 55 bd 2e cd 10 be
       -0.014782619 -0.10162677 -0.052223034 -0.1414077
000180 dd c7 81 bd 6d 99 09 bd 8d e1 0a bd 22 61 5a bd
       -0.06336949 -0.033593584 -0.03390651 -0.05331529
000190 d4 14 8d 3c 36 28 9c bd df 24 b1 3c cc 38 f1 3c
       0.017221846 -0.07624857 0.021624027 0.029446028
0001a0 ca c8 59 bd 2a 2d e8 3c 8c f4 0b 3b 0a e9 5d bc
       -0.053170003 0.028341848 0.0021355478 -0.01354433
0001b0 4a 20 da bc d3 2c f0 3b de a6 93 bc 01 e2 dd 3a
       -0.026626725 0.007329562 -0.018023904 0.0016928316
0001c0 75 80 86 bd 1a a7 e2 3b e3 94 61 bd 1e 49 93 bd
       -0.0656747 0.0069168927 -0.05507363 -0.0719168
0001d0 d2 e7 ee 3b 6c b0 81 bd f6 63 91 bd b8 87 bc bd
       0.0072908187 -0.06332478 -0.07099144 -0.09205574
0001e0 87 46 2b bc 10 09 c5 bc 75 28 84 bd 91 7e c0 bd
       -0.010453827 -0.024052173 -0.06453029 -0.093991406
0001f0 24 3b f1 bc 3f d6 2e bd 2f 49 a6 bc d2 76 d3 bd
       -0.029447146 -0.04268479 -0.020298569 -0.103253976
000200 09 eb 4c bd de 8d 13 bd 71 0b 42 bb 64 8c 71 bd
       -0.050028834 -0.036023967 -0.002960887 -0.058971778
000210 89 d7 49 bd 86 c9 91 bc c0 95 3f bd 6d 01 1a 3d
       -0.049277816 -0.01779629 -0.046773672 0.037599016
000220 3c ed 74 bd 4a 1b 5f bd 43 41 e4 bc 67 aa 37 3c
       -0.059796557 -0.054469384 -0.02786315 0.011210061
000230 4f 47 ab bd 32 85 67 3d 5f b7 a3 bb ff c9 2f bd
       -0.083632104 0.05652351 -0.004996225 -0.042917248
000240 f0 2a 43 3c 9d e9 8b bc 62 74 dc bc bc 50 0c 3d
       0.011912093 -0.017079169 -0.026910964 0.03425668
000250 52 8a d6 bd dc 52 88 3a 64 f0 71 bd 8f 45 bd 3c
       -0.10475601 0.001040067 -0.059067145 0.023104457
000260 ff f3 28 bd 55 47 0f bd 8f 07 a6 bd 62 22 d9 bd
       -0.041248318 -0.034980137 -0.081069104 -0.10602261
000270 7a c6 56 bd 44 af 73 bd d9 5c cc bc 24 86 0a 3d
       -0.052435376 -0.05949332 -0.024946617 0.033819333
000280 34 f5 fe bc 4f c8 22 bb 8c 64 8a bc fc 13 7a bd
       -0.031122781 -0.0024838632 -0.016893648 -0.061054215
000290 54 58 08 3b 52 9e 5b bd 62 81 de bb 15 3e 83 bd
       0.00208046 -0.053617783 -0.006790326 -0.064083256
0002a0 b6 60 1d bc 92 e2 59 bd 0f 9d 24 bc 35 a0 88 bd
       -0.009605577 -0.05319459 -0.010047211 -0.06671182
0002b0 9b 5c 64 bd 31 2e d0 bb 56 fd 92 bc 18 fa 37 bd
       -0.055752378 -0.0063531627 -0.017943066 -0.044916242
0002c0 ff 58 2d bd 39 89 5b 3d f8 eb 3d bd 09 bf cb bc
       -0.0423212 0.053597663 -0.046367615 -0.024871366
0002d0 45 0a 02 bd 8e d6 10 bd df 49 af bb dc 0d 07 3c
       -0.031748075 -0.035360865 -0.0053493823 0.00824305
0002e0 ad 68 8e bd 70 34 b7 bd 9b fa 6b bc e0 44 34 bd
       -0.06953559 -0.089455485 -0.014403011 -0.044010997
0002f0 1c db 03 3d e6 cf 9e bd 17 26 20 bc 02 af d9 bc
       0.03219138 -0.07754497 -0.009774706 -0.026572708
000300 f2 15 53 bc 05 5d 08 bd 33 d4 f7 3a 86 f6 16 bc
       -0.01288365 -0.033291835 0.0018907845 -0.009214049
000310 5e 0b 96 bc d7 6c 28 bd fb aa 65 bd 4c e7 88 3d
       -0.018315967 -0.041119423 -0.056071263 0.066847414
000320 bd 03 04 bd 86 ab 96 bc 66 c9 9d bd 75 4f 0a bd
       -0.032230128 -0.018392336 -0.07704429 -0.033767182
000330 5d c2 04 bc 8f 1a 27 bd d8 2d 3f bd 14 79 0e 3d
       -0.00810298 -0.040796813 -0.04667458 0.034783438
000340 b3 55 71 3c 5b 4b 6a bd 49 f8 4f bd d6 e0 1d bd
       0.014729905 -0.05720077 -0.050773893 -0.0385445
000350 5d 08 0a bc 97 e2 a4 bd e5 65 06 bd a7 25 31 3c
       -0.0084248455 -0.08051031 -0.032812018 0.0108122
000360 ea 5b 5b bd 98 1a bd bc 2f 06 2d bd 92 e6 50 bd
       -0.053554453 -0.02308397 -0.042242225 -0.05100114
000370 7e d5 92 bd 8b 7d f1 3c 45 de 80 bd 01 27 df bc
       -0.07169627 0.029478809 -0.062923945 -0.027240278
000380 3d b7 16 3c e1 42 45 bd ff 3c a1 bd 94 0d 89 3c
       0.009198961 -0.048159484 -0.07872962 0.016730107
000390 ae 9f 22 3d e2 28 5a bd 87 4c 2a bd 63 9c 66 bc
       0.039703064 -0.053261645 -0.04157689 -0.014075371
0003a0 a9 39 4f bd dc 02 f4 bc df 4f 2e bd ca 2b ef 3c
       -0.0505921 -0.02978652 -0.04255664 0.029195685
0003b0 24 e5 f6 bc 2c 75 75 bd aa e1 e5 3c 9d ad 15 bb
       -0.03013856 -0.059926197 0.028061707 -0.0022839077
0003c0 13 b5 6b bc e0 25 ce 3c 0d 11 01 bc b9 c1 c3 bd
       -0.014386433 0.025164545 -0.0078776 -0.09558434
0003d0 4c a8 86 3c b5 29 09 bd 66 3d 93 bc ba 41 d0 bc
       0.016437672 -0.03348704 -0.017973613 -0.025421966
0003e0 a2 f0 59 bd 54 7e 71 bd 78 53 33 bc 6d a5 87 bd
       -0.053208 -0.058958367 -0.0109451935 -0.06623349
0003f0 ae 3e 15 bd c7 b4 a2 bd 8f 99 af bd 73 00 61 bd
       -0.03643673 -0.07944637 -0.08574211 -0.05493207

l2.bias f4 [300]
000000 ac c8 fe bd 5a 4e 42 3e ac e6 79 bc b4 a6 09 3e
       -0.12440619 0.18975201 -0.01525275 0.13442498
000010 7e 76 26 3c 52 22 df bd c0 59 b0 bd 37 0d ad bb
       0.010160087 -0.10895218 -0.086108685 -0.0052811163
000020 19 4b 50 3b 1c 06 4b be 89 e3 c7 bc 5d e8 86 bd
       0.0031783043 -0.1982655 -0.02440049 -0.065872885
000030 60 07 38 be 7f 2c aa bd 80 43 bb bd b5 99 87 bd
       -0.17971563 -0.08309268 -0.09143734 -0.06621114
000040 5a 33 6e be 4b 57 6e bd f8 9e b5 bb 79 3a 65 bf
       -0.23261777 -0.058188718 -0.005542632 -0.8954235
000050 4b 59 76 3c 1e 32 1b bd 27 5d ef 3e 86 6c 26 3f
       0.015035938 -0.037889592 0.46750757 0.65009344
000060 79 98 4d bd e4 d2 78 bd f4 9a 0c 3c 1e 81 92 bd
       -0.050194237 -0.060747996 0.008581866 -0.071535334
000070 3f 17 80 be 36 52 ae 3c 81 5f 69 bf c0 41 b4 bd
       -0.25017735 0.021279436 -0.9116135 -0.08801603
000080 38 fe 14 be f4 8a db be 3e 2f 1c bc f3 1b eb bc
       -0.14550102 -0.4287945 -0.009532748 -0.02869985
000090 ea 07 50 bd 61 92 59 3e d4 b2 7b bd 48 ad b6 bd
       -0.050788797 0.21247245 -0.06144984 -0.089197695
0000a0 87 3f 28 bc 45 cc 83 be 4a 3d b0 be b2 d0 d0 bd
       -0.010269052 -0.25741783 -0.3442176 -0.101960555
0000b0 dc db 06 3d 7a 3e dc bc 83 99 67 bd 03 1b 30 3f
       0.032924518 -0.02688526 -0.056542885 0.68791217
0000c0 a2 58 3b be cf 71 7c 3d 01 75 52 3c 25 f7 8c bf
       -0.1829553 0.061631974 0.012845279 -1.1012923
0000d0 47 3f a7 bd 0d 83 07 bd 86 9d 90 bd 16 93 12 bf
       -0.08166366 -0.033083964 -0.07061295 -0.57255685
0000e0 bd d6 97 3c 14 67 78 bd d0 61 31 bd 3c 54 bf be
       0.018535012 -0.060645178 -0.043306172 -0.37368953
0000f0 05 3c 81 bd b2 6a b9 be db b3 63 bd 0f 78 a6 be
       -0.06310276 -0.36214215 -0.055591445 -0.32513472
000100 51 59 c1 bd 06 54 16 be 55 af 86 bd ec 06 fe be
       -0.09440864 -0.1468049 -0.06576411 -0.49614656
000110 66 38 98 bd 0e 34 2e bf c4 b3 21 bf 37 11 a4 bd
       -0.07432632 -0.6804818 -0.63164926 -0.08011096
000120 d0 1d b4 bd 47 d6 ab bc e1 12 b3 bd 6c 90 7e bd
       -0.08794749 -0.020976199 -0.08743835 -0.06214945
000130 2d ad 8e be 4d cf 0c bf 37 bb e3 3e de 12 9b be
       -0.27866498 -0.55003816 0.4447877 -0.30287832
000140 85 8b 13 3b 06 04 1b bd 51 0e 41 bc 74 94 8b 3c
       0.002251358 -0.037845634 -0.011783198 0.017038561
000150 65 0a 0f be a6 40 57 3f 93 20 b6 3e 1f 6d 4d bd
       -0.13968809 0.8408302 0.35571727 -0.050152894
000160 9a 97 56 bd 00 83 bf bc 0f 48 ae bd d7 06 20 be
       -0.052390672 -0.023377895 -0.08509838 -0.15627609
000170 3c 3d 10 bf 76 4c 17 bc cd 56 05 bd d5 3a 8f be
       -0.56343436 -0.009234538 -0.032553483 -0.27974573
000180 7f 52 2c be 7f 82 4c 3e f0 b7 38 bd 18 24 31 bd
       -0.16828345 0.19971655 -0.04509729 -0.043247312
000190 2a 5b 58 bd 22 b3 30 bf af ec 2a bd 5e f1 91 bf
       -0.052821316 -0.69023335 -0.041729625 -1.1401784
0001a0 c7 06 26 bf 46 d0 13 be e0 b6 3a bd a9 a6 41 bc
       -0.6485409 -0.14434919 -0.04558456 -0.01181952
0001b0 c5 6e 04 bf a7 fb 1b bf c9 72 c6 bd 23 b7 e0 3e
       -0.5173152 -0.60930866 -0.09689862 0.43889722
0001c0 8f 0e a9 bd de d8 93 bd 9b 0c 0f 3f b1 5e 4a bd
       -0.0825473 -0.072190985 0.5587861 -0.04940671
0001d0 70 88 58 be 1f ea a6 bd bb 45 00 bf 64 49 78 bd
       -0.21145797 -0.08150124 -0.501064 -0.060616866
0001e0 17 f6 4f bd 9a 61 02 3f c6 fd 9a bd 58 07 bb bd
       -0.0507718 0.5093018 -0.07567935 -0.0913226
0001f0 e9 fe c5 b9 97 ac 2d be 2f f3 2b bd c6 5f 13 bd
       -0.0003776469 -0.16960369 -0.041979965 -0.03598001
000200 ac b5 3b bf fd b7 00 bc 24 e3 ab bc d6 e3 2f 3f
       -0.73324084 -0.007856366 -0.020982333 0.68707025
000210 5b 43 81 3e 69 87 1d bf f7 62 8a 3e 87 58 a8 bb
       0.252467 -0.61534745 0.2702863 -0.0051375064
000220 18 13 e1 bd e6 04 b0 be bc cd 9b 3d e7 6d 26 bd
       -0.1098997 -0.34378737 0.076076 -0.040632155
000230 67 df aa bd 84 d1 ff bc 9e 29 92 bd 16 c7 1a be
       -0.08343392 -0.031227835 -0.07136844 -0.15115008
000240 e9 3d c7 bb 6a 10 70 bf 05 fc 93 3c 60 1a b2 be
       -0.0060803783 -0.93775046 0.018064508 -0.34785748
000250 17 e2 22 be 01 aa 45 bf 6f c5 23 bd 06 1c 97 bc
       -0.15906559 -0.7721253 -0.03998321 -0.01844598
000260 36 6d 9d bc bf ff a5 bc 22 e1 8a bd 9f 49 ae bc
       -0.019217115 -0.02026355 -0.06781222 -0.02127534
000270 5c 43 fc bc f9 56 c1 bd f5 fc 84 bc 62 0a dd bd
       -0.030793838 -0.09440417 -0.0162339 -0.10792996
000280 b4 cf e9 be 37 d3 25 bd f5 b3 0c bd 3c 78 7b bd
       -0.45666277 -0.040484633 -0.034351308 -0.06139396
000290 38 48 b8 bd a0 2b 0b bf b8 5d c3 3c ac b8 70 bd
       -0.0899815 -0.5436344 0.0238484 -0.058769867
0002a0 3e 1d 1f bd 3e 53 6c be ad 73 88 bd cc 70 09 3b
       -0.038846247 -0.2307863 -0.066626884 0.0020971773
0002b0 18 ce e5 3e e8 c4 b5 bd 41 ed 58 3c 52 64 d4 bd
       0.448838 -0.088754475 0.0132401595 -0.10370697
0002c0 d7 67 ad bc d2 1d 66 bd e3 ff e4 bc b2 e0 ff bd
       -0.021167679 -0.056180783 -0.027954048 -0.12494029
0002d0 e9 4a c9 bc 3f f3 25 bc 2f a6 23 bf 75 b2 06 bd
       -0.024571853 -0.010128795 -0.6392545 -0.032885034
0002e0 4d 9b 27 bf ff 52 ae bc fd f1 4e 3e a9 43 45 bc
       -0.65471345 -0.02127981 0.20209499 -0.012040057
0002f0 f1 50 45 be 39 0f 4e bd e9 80 c0 bc cd f5 10 3c
       -0.19269158 -0.050307486 -0.02349897 0.008847666
000300 9a 8f 0e bf a8 40 39 bc 8d f9 06 bd 78 c6 bd bc
       -0.5568787 -0.011306919 -0.032952834 -0.023165926
000310 37 bc ad bd 05 9d 8e bc 0f 6c a8 bd 82 b6 50 bf
       -0.08483165 -0.017408857 -0.082237355 -0.81528485
000320 26 df 10 be 0e 7c 1d bf ed 7f 87 be 05 51 8a bd
       -0.14147624 -0.6151742 -0.26464787 -0.067537345
000330 98 59 3f bd 96 7b 3b 3e 3a 00 5d bd de 56 98 bd
       -0.046716303 0.18308863 -0.053955294 -0.074384436
000340 5e ed 9a bd 40 8f 3e bd c8 c5 b4 bc 4f 0c a0 bd
       -0.075648054 -0.046523333 -0.022066966 -0.07814848
000350 2b ce 62 bd 63 fd b0 be 30 3a 35 bd 1b a7 fb 3b
       -0.0553724 -0.3456832 -0.044244945 0.0076798326
000360 c4 e9 fc bd 58 f5 3d be 03 b3 69 bd 89 41 49 bc
       -0.12349275 -0.18550622 -0.057055485 -0.012283691
000370 ae 6c 1e bd a9 24 46 bd 5c 18 7f be 65 3a 87 be
       -0.038677864 -0.048374806 -0.24911636 -0.2641174
000380 d0 9d ab bd 4a 71 59 be 8d 1f 09 be 49 b8 49 bf
       -0.0837971 -0.21234623 -0.13390942 -0.7879682
000390 89 77 40 bd 0d 21 19 3e 56 d2 15 bd d0 fc 45 3c
       -0.046988998 0.14954014 -0.036577545 0.012084201
0003a0 da 44 20 be 1f 0a aa bd 81 d9 6f bf 3c 10 2d 3c
       -0.15651265 -0.08302712 -0.9369126 0.010562953
0003b0 a4 d4 94 bd da 1c 5f bd 44 0f 7d bd 10 9d 3d ba
       -0.072671205 -0.054470874 -0.061782137 -0.0007233182
0003c0 0c 01 73 bd 26 b6 0c bf be 39 94 bd 8b c1 6e bd
       -0.05932717 -0.54965436 -0.07237576 -0.058290046
0003d0 e4 55 79 be be 9d 6e be 6c 9e eb be 37 94 95 bc
       -0.24349171 -0.23302361 -0.46019304 -0.01825915
0003e0 96 a8 9d bc 54 3b 78 bd 9a 90 d3 be 20 e0 30 be
       -0.019245427 -0.060603455 -0.4132126 -0.17272997
0003f0 a4 67 45 bf 2e 69 a9 3c 49 01 c2 be 36 7a 9f bd
       -0.7711127 0.020680036 -0.37891605 -0.07786982

l3.weight f4 [7, 300]
000000 c5 de 82 bc b7 8e 00 bf 3d 10 1d 3c 2c a6 71 be
       -0.015975365 -0.50217766 0.009586391 -0.23598546
000010 0e ea 2c bd d7 a4 27 bd f9 3a 4e bd 2a 0d e5 3c
       -0.0422154 -0.040928688 -0.05034921 0.027960379
000020 a2 cf eb bc 6a 63 87 3f 69 be 55 3d a4 4f f8 bc
       -0.02878553 1.0577214 0.052183542 -0.030311413
000030 cf 4d ac 3e aa 66 d4 bc 17 71 80 bb 07 38 bc 3c
       0.33653113 -0.02592786 -0.0039197314 0.022975935
000040 79 96 de 3e e5 2e 0b bd 89 48 4c 3c fa b0 3f bf
       0.43474177 -0.03398027 0.012468466 -0.7487942
000050 e9 ef d3 3a e9 66 d5 3c 44 0c 32 3e 7e 6b 37 bf
       0.0016169521 0.026050048 0.17387491 -0.71648395
000060 d5 7c 9d 39 2c 6f 0f 3c bc 43 0a bd 1f 68 2b bd
       0.0003003838 0.008754533 -0.033756003 -0.041847344
000070 1d de 8f bc 44 57 0a bd 81 32 34 bf 17 07 ba 3c
       -0.017561967 -0.03377463 -0.7038956 0.022708459
000080 1b dd bd 3e ce 7e f7 3d 3c bf 04 bd a8 00 cc 3a
       0.37082753 0.12084733 -0.032408938 0.001556416
000090 ca ba 53 bc f1 27 8b bf 2d e9 1c bd 49 59 44 bd
       -0.012922952 -1.0871564 -0.03830831 -0.04793671
0000a0 37 b9 ba 3d 4d 50 9d 3d 8a 93 65 3d b8 84 49 be
       0.09117358 0.07681332 0.056048907 -0.19679534
0000b0 dc 04 fc bc 37 c3 b0 3b e5 6e 11 3d f2 41 0f 3f
       -0.030764036 0.005394365 0.035506148 0.5596
0000c0 2e 6a 58 be c5 b8 c1 3d 07 79 ad bc fd 9d 15 3e
       -0.21134254 0.0945907 -0.021175874 0.14611049
0000d0 2f 66 36 3d 78 92 35 3d 77 bb aa bc 8d ec 9d 3f
       0.044531044 0.044329137 -0.020841343 1.2337815
0000e0 8d 45 0b bc 1c 15 72 3b c7 8c b1 be 89 47 95 3f
       -0.008500469 0.0036938852 -0.34677717 1.1662456
0000f0 28 bc 33 bc d0 47 50 3e 95 65 8b bc be eb b9 be
       -0.010970153 0.20339894 -0.017016212 -0.3631267
000100 83 65 f8 bd 20 b3 c4 bc e3 1b f1 3c 7f a8 3f 3e
       -0.12128737 -0.024011195 0.029432243 0.1871662
000110 52 c5 61 bd 85 cc a1 3e 77 8d 9c 3e 02 a3 db 3c
       -0.05511982 0.3160135 0.3057668 0.026811127
000120 58 de 45 3d 0c 00 88 bd 4f 40 86 3f 14 c2 06 3d
       0.048307747 -0.06640634 1.0488375 0.03289993
000130 78 4c 49 3e 3b d0 64 bc 4b fe 00 bf e4 77 03 bf
       0.19658077 -0.013965662 -0.5038802 -0.51354814
000140 f8 cb 3a bc 3a 2a d6 3b ae f0 21 3d 9c b3 7b 3d
       -0.011401169 0.0065357955 0.03953617 0.061450586
000150 6f a2 ad 3c 79 98 66 bd 55 a3 26 bf 6f 22 14 3f
       0.021195618 -0.056297753 -0.65092975 0.5786504
000160 40 8b c7 bb 7c 8f 0d 3b b5 7f 03 3d e9 ee cf bd
       -0.006089598 0.0021600416 0.032104213 -0.1015299
000170 00 b7 47 3f 21 06 4c bd cd 73 15 3d 2c f5 01 3e
       0.7801361 -0.049810532 0.03648739 0.12691182
000180 1e 0a 11 bd 60 fe 1d 3f d5 e8 8b bd c7 49 b8 3b
       -0.03541004 0.6171627 -0.068315186 0.0056240293
000190 18 ff cb bd 44 f3 89 3f 9b a7 e4 3c 8b aa 76 3d
       -0.09960765 1.0777364 0.027911952 0.060221236
0001a0 08 8d 4b be 05 d2 9a be 06 d1 af 3c 82 b7 62 3d
       -0.19878018 -0.30238357 0.021461975 0.055350788
0001b0 e4 93 0f bc a2 e2 a6 3e d8 b3 b1 bd 78 e5 fd be
       -0.008763287 0.32594782 -0.086768806 -0.49589133
0001c0 a6 11 13 bd 3e a7 21 bc b7 64 5a bf b0 45 b1 bc
       -0.035905503 -0.009866534 -0.8530993 -0.021639675
0001d0 49 f0 99 bf 26 8c a2 3c a4 6d 0c 3f 68 97 cf 39
       -1.2026454 0.019842219 0.548548 0.00039594923
0001e0 0c ad 61 bf dd e3 04 3f 65 71 02 bd 07 bb a2 bd
       -0.88154674 0.5191019 -0.031846423 -0.07945829
0001f0 04 db da 3f 9c 73 8e bd cf 96 a4 3c 93 ad ff bc
       1.7098088 -0.069556445 0.020091442 -0.031210696
000200 06 2c 25 bf ee 6c 1f bc f3 7c 68 bf dc 18 5f 3f
       -0.645203 -0.009730561 -0.9081566 0.8714731
000210 e1 0a c3 bf 80 b1 9f be 2e dd c1 3c 54 46 f2 ba
       -1.5237695 -0.3119011 0.023665037 -0.0018484094
000220 f5 10 23 bf d6 40 27 3f ef e5 fe 3e 04 97 0f 3d
       -0.6369775 0.65333307 0.497848 0.03505613
000230 51 a7 4d bd cc 70 70 3c 78 16 b9 bc ce 2d 10 bd
       -0.050208393 0.01467533 -0.022593722 -0.035199933
000240 24 0d 01 3d 50 9a 2e 3f 1d 49 13 3c 03 31 a1 3e
       0.031506673 0.6820421 0.0089895995 0.31482705
000250 5e 08 23 be f4 c0 8e bd 8e 6d 95 bd 72 8a 63 3b
       -0.1592116 -0.06970397 -0.072962865 0.003471997
000260 6d 67 89 bc ca 3d 6c bc 09 84 94 3e 65 da 96 3c
       -0.01677295 -0.014419029 0.29006985 0.018414686
000270 f4 16 f0 3b 76 d1 1e bd 3d f5 14 bd a0 1a ba bd
       0.007326955 -0.038773976 -0.03636669 -0.090871096
000280 69 93 f5 be 7c 7b 88 bc 68 68 c2 3b c0 80 36 bd
       -0.47964028 -0.016660444 0.0059328564 -0.04455638
000290 a9 d8 5a bc 7c 21 c7 3d e2 a6 de bc 88 7d bf bc
       -0.01335732 0.097231835 -0.027179185 -0.023375288
0002a0 e2 03 dc bb 57 86 85 be 56 4e 2b 3d 52 29 62 bc
       -0.00671433 -0.26079056 0.041822754 -0.013803797
0002b0 6f c8 5e bf 8e c5 97 bf 28 75 c3 3c 4e 23 98 3d
       -0.8702459 -1.1857164 0.023859575 0.07428609
0002c0 df 7f a6 bb af be a1 bd 1b 07 6c bd eb a6 91 bc
       -0.0050811614 -0.07897698 -0.057623964 -0.017779788
0002d0 ad d2 8d 3c 89 be 49 bd a5 e2 9e bc 92 6a 54 bd
       0.017312372 -0.049253974 -0.019395182 -0.051859446
0002e0 ad 09 49 3e fa b2 53 bd a6 67 96 be eb ec 60 bd
       0.19632597 -0.051684357 -0.29375952 -0.054913443
0002f0 52 d5 56 bd 2e f0 1f 3c 6f f1 3d 3c cd 3b 16 3d
       -0.05244953 0.009761853 0.011593207 0.036678124
000300 70 76 45 3e 18 99 c3 bc 51 2d 40 3d a3 f2 61 bc
       0.19283462 -0.023876712 0.046918217 -0.013790759
000310 2a b1 52 bd f5 1b 84 bd dd 05 19 3b 3d eb 9e 3e
       -0.051438488 -0.06450645 0.0023349442 0.31038848
000320 83 91 79 bc 18 fa 37 be 44 7d 8c 3e 3e 2d 2d 3d
       -0.015232447 -0.17966497 0.2743932 0.042279474
000330 ac 7b f6 bc b9 b6 b2 3f f4 d7 06 3d cb fb f6 3b
       -0.030088268 1.3962013 0.032920793 0.0075373403
000340 77 cb b8 3c ec 92 08 bd 71 11 41 3d 47 ae a1 bd
       0.022557957 -0.03334324 0.047135774 -0.07894569
000350 37 fd 37 3d e9 29 b3 be e8 68 c4 bb 18 57 ce 3c
       0.04491922 -0.34992912 -0.005993951 0.025188014
000360 56 7a 2c 3d fa a0 6f bd 28 51 30 3d 67 88 2c bd
       0.042108856 -0.05850313 0.043046147 -0.04212227
000370 bd 3b 9c 3c e4 7a 8f bd be 3f 2c bf e3 4f 79 3f
       0.019071454 -0.070058614 -0.6728476 0.9738752
000380 82 8e 8f 3f 67 72 b8 bc 61 c7 4a 3d 75 78 18 3f
       1.1215365 -0.022515489 0.04950655 0.595588
000390 88 cc cf 3c d2 cd e8 be 49 c3 08 3d 36 9c 91 bd
       0.025366083 -0.45469528 0.033389363 -0.07109873
0003a0 0e 2e 4e 3e b8 c0 3f bd 7f 0b 71 be 94 26 4f bf
       0.20134756 -0.04681465 -0.23539542 -0.8091824
0003b0 80 2e b0 be ac 9a 0e bb 6c f1 0b bd 16 0c 1c bd
       -0.34410477 -0.0021759672 -0.034165785 -0.038097464
0003c0 7b 8f f4 3c 12 ec cc 3e 36 90 13 be 95 a3 09 bc
       0.029853573 0.40023857 -0.14410481 -0.008400817
0003d0 fa e3 27 3e 33 ad 6f bf 68 08 a7 3f bd 68 6f be
       0.1639556 -0.93623656 1.304944 -0.23379798
0003e0 5c 52 86 bc 35 85 99 3c 26 bf 26 bd 76 7d 2c be
       -0.016396694 0.018740276 -0.040709637 -0.16844735
0003f0 19 a8 8d 3f cf c6 b5 bc 0d 2b 9e 3e ea 04 5d 3d
       1.1066924 -0.022189526 0.3089222 0.053959765

l3.bias f4 [7]
000000 20 6d fd bf 42 93 24 3e 8e 90 30 3e a5 e9 02 bf
       -1.9798927 0.160718 0.17242643 -0.51137763
000010 58 62 48 3f 51 06 31 bf 6f 2f 95 3d
       0.7827506 -0.69150263 0.07284438
