TD3_control/dir_Walker2D_002/biped-v7-2d-16_actor_t.pth (torch, 527895 bytes, 6 tensors)

l1.weight f4 [400, 24]
0	0x3dc5ba68	0.09654695
1	0xc02c5987	-2.6929643
2	0xbf0ed60c	-0.5579536
3	0xbfebeafb	-1.8431085
4	0xc05b1d6a	-3.4236703
5	0xbfa48fc7	-1.2856377
6	0xbd5dadd5	-0.054120857
7	0x3ce23ee7	0.027617885
8	0xbf9c726e	-1.2222421
9	0xbd1f8e86	-0.03895428
10	0xbdfbb2d4	-0.12289968
11	0x3e34b307	0.17646419
12	0x3f731d2b	0.9496638
13	0x3e4e1a28	0.20127165
14	0xbdefad56	-0.11702983
15	0xbc1a0ea0	-0.009402901
16	0xbfd5dc1a	-1.6707795
17	0x3da2e9e7	0.079547696
18	0xc037698f	-2.8658178
19	0x3be4fa6b	0.00698786
20	0xbd0e26d8	-0.034705013
21	0xbcc8aeae	-0.024497356
22	0xbf2a52c7	-0.6653256
23	0xbf07781d	-0.52917653
24	0x3f0e7529	0.5564752
25	0xbfbee8b7	-1.4914769
26	0xbf13e4ac	-0.577708
27	0xbfb91844	-1.446053
28	0x4037eb8a	2.8737512
29	0xbfa63289	-1.2984172
30	0xbe3fc609	-0.18727888
31	0x3c71c66c	0.01475678
32	0xbe5854d1	-0.21126105
33	0xbe4b111b	-0.19830744
34	0x3fc4a6a3	1.5363353
35	0x3e121a6b	0.1426789
36	0x4022f563	2.5462272
37	0x3d38b399	0.045093153
38	0xbdc5c75a	-0.09657164
39	0x3e31a28b	0.17347161
40	0xbf89044c	-1.0704436
41	0x3d808f70	0.062773585
42	0x3fa5124e	1.2896211
43	0xbe4cef98	-0.20013273
44	0x3dabb00d	0.083831884
45	0xbe00efb8	-0.12591445
46	0xbfa2c00f	-1.2714862
47	0xbf63e6a3	-0.890238
48	0xc0820bbf	-4.063934
49	0x3e347249	0.17621721
50	0xbdc5e0fc	-0.09662053
51	0xbfeba958	-1.8411055
52	0x3fef9b3a	1.8719246
53	0xbf12caec	-0.57340884
54	0xbdb8377b	-0.08994957
55	0x3dbb1963	0.091357015
56	0xbf24f371	-0.6443396
57	0xbef1d70f	-0.4723439
58	0xbf8ebfdf	-1.1152304
59	0xbdcce616	-0.10004823
60	0xbe8276b8	-0.254812
61	0xbf53675d	-0.82579595
62	0x3e25097d	0.161169
63	0x3e0215aa	0.12703577
64	0xbf9b14e4	-1.211575
65	0x3eca0d06	0.3946306
66	0xc122fbab	-10.186442
67	0xbf80d959	-1.0066329
68	0x3e21ea3c	0.1581201
69	0x3e42e6fc	0.19033426
70	0xbf8da1e8	-1.1065035
71	0xbf680570	-0.90633297
72	0x40337448	2.8039722
73	0x3e7705f3	0.24123363
74	0xbf71580b	-0.9427497
75	0xbfdc6e22	-1.722111
76	0x40af6086	5.4805326
77	0x3f9d3365	1.2281309
78	0xbcd58f8a	-0.026069421
79	0xbda5294f	-0.080645196
80	0x3e805ad2	0.2506929
81	0xbf10ec6e	-0.56610763
82	0x3d54c211	0.05194289
83	0x3e598279	0.21241178
84	0x3f7d4c34	0.989444
85	0xbc08226c	-0.008308988
86	0x3ce33a21	0.027737679
87	0xbe13fec8	-0.1445266
88	0xbfd03f62	-1.6269343
89	0x3f054d6c	0.5207126
90	0xc0669173	-3.6026275
91	0x3e9626b5	0.29326406
92	0x3e0c136a	0.13679281
93	0xbd4b9b89	-0.049708877
94	0xc0072de4	-2.112176
95	0xbf8d816d	-1.1055123
96	0x3fccae19	1.599063
97	0xbeb4d568	-0.35319066
98	0xbf39254f	-0.72322553
99	0xbfa3df36	-1.2802494
100	0xbfcb7ca0	-1.5897408
101	0x4030a32f	2.75996
102	0x3e38c7ec	0.18045014
103	0xbd5b4f0c	-0.05354218
104	0xbfb8b408	-1.4429941
105	0xbd5cfc52	-0.05395157
106	0x3f36c0cf	0.7138795
107	0x3e2009f6	0.156288
108	0xbe281f7f	-0.16418265
109	0x3df0c52c	0.117563576
110	0xbcb15577	-0.021647198
111	0xbe4ae08f	-0.19812225
112	0xbfa9e246	-1.3272178
113	0xbdfcf964	-0.12352255
114	0x3f89c20c	1.0762343
115	0xbda9f75e	-0.08299135
116	0xbdd7be4e	-0.105343446
117	0xbdbebe4d	-0.09313641
118	0xc00629bd	-2.0962975
119	0xbfaa3517	-1.3297452
120	0x40424bd5	3.0358784
121	0x3e97ed70	0.29673338
122	0x3ea98d39	0.33115557
123	0x3facac2b	1.3490041
124	0x4007ff59	2.1249602
125	0xc092c8f8	-4.5870323
126	0xbe2efcb1	-0.17088582
127	0xbde18bf0	-0.11013019
128	0xbf87254c	-1.0558257
129	0xbf02c41f	-0.5108051
130	0x3fa3f3bc	1.2808757
131	0xbd0b56d8	-0.034018368
132	0xbfa2e76f	-1.2726878
133	0xbf23480f	-0.6378183
134	0x3e0803f5	0.1328276
135	0x3dacdd71	0.08440674
136	0xc0c397a1	-6.1122594
137	0x3eb33b57	0.3500621
138	0x401b5ecc	2.427661
139	0xbf0e00fd	-0.5547026
140	0xbcd62b7e	-0.026143786
141	0x3e439c9c	0.1910271
142	0x3ee0db61	0.43917373
143	0xbf441e26	-0.766085
144	0xc0b93319	-5.7874875
145	0x3f03057f	0.5118026
146	0x3dad2a1a	0.08455296
147	0x3fc20dff	1.5160521
148	0x40b7ccd9	5.743756
149	0xc13044e3	-11.016818
150	0x3ddc14b7	0.107461385
151	0xbe441a9f	-0.1915078
152	0xbea77c44	-0.32711995
153	0x3f40f143	0.75368136
154	0x404cedc8	3.202013
155	0x3e71c7c5	0.23611362
156	0xbf5cf6a0	-0.8631382
157	0x3f2c1924	0.6722586
158	0xbdc555df	-0.09635519
159	0xbde31d59	-0.11089582
160	0xc0473091	-3.1123393
161	0x3f091ba1	0.53557783
162	0xc0094fd2	-2.1454968
163	0x3ee2f184	0.44324887
164	0x3d66efbd	0.056380976
165	0x3e1299f4	0.14316541
166	0x3df58612	0.119884625
167	0xbfda7919	-1.7068206
168	0x3f98aac2	1.1927111
169	0x3dc04c56	0.0938956
170	0x3ee4e511	0.44706014
171	0xc0bfd561	-5.994797
172	0x3ed51def	0.416244
173	0x4057728f	3.366367
174	0x3bab4922	0.005227224
175	0xbe2456e0	-0.16048765
176	0xbf74a431	-0.95563036
177	0xbe5b4d7c	-0.21416277
178	0xbd8dc899	-0.069230266
179	0xbe5844ee	-0.21120045
180	0xbed2394b	-0.41059336
181	0xbf78d4a7	-0.9719948
182	0xbe123109	-0.14276518
183	0xbde0aef2	-0.10970868
184	0xbe8748df	-0.26422784
185	0x3f341ac5	0.7035335
186	0x3f4e8657	0.80673736
187	0xbf16870f	-0.58799833
188	0xbc29752e	-0.010342879
189	0xbe1efa16	-0.15525088
190	0xc002c712	-2.0434003
191	0xbe231f61	-0.15929939
192	0xbe8becd7	-0.27329132
193	0xbf849f84	-1.036118
194	0x3ecdfcf6	0.40232056
195	0xc05dae59	-3.4637663
196	0xc017b720	-2.370552
197	0xc079a12f	-3.9004629
198	0x3e35e66a	0.17763677
199	0xbda24872	-0.07923974
200	0x3fc20306	1.5157173
201	0xbede9a9e	-0.4347734
202	0xbf6b7ee0	-0.9199047
203	0x3ee7900d	0.4522709
204	0x3fa7fa7a	1.3123314
205	0x3da21b7a	0.07915397
206	0xbe327516	-0.17427477
207	0xbdabf697	-0.08396643
208	0x3f6ed32e	0.93290985
209	0x3e5c1f10	0.21496224
210	0x402311fa	2.5479722
211	0xbe1e1270	-0.15436721
212	0xbc3f6e20	-0.011683971
213	0xbda039eb	-0.07823547
214	0xbb59f1d7	-0.003325572
215	0x3f924a5d	1.1428944
216	0xbf6624da	-0.8989998
217	0xc005314d	-2.081134
218	0xbe93d9a5	-0.28876987
219	0xc0634423	-3.5510337
220	0xbfb9bb4f	-1.4510287
221	0xbde88c7a	-0.11354919
222	0x3d4683b1	0.048465434
223	0x3df3ae44	0.11898473
224	0x3fa0fcee	1.2577188
225	0xbf986296	-1.1905086
226	0xbfc08ef9	-1.5043632
227	0x3d7005c4	0.05859925
228	0xbfc620c0	-1.5478745
229	0xbd98266e	-0.07429205
230	0x3d90d37e	0.07071589
231	0x3e274b0a	0.16337219
232	0xbfb740f0	-1.4316692
233	0xbf19c096	-0.6005949
234	0xbf85e4fd	-1.0460507
235	0xbf168f65	-0.5881255
236	0x3d993386	0.074805304
237	0xbd808707	-0.062757544
238	0xbfd782c2	-1.6836779
239	0x3e01ce1c	0.1267628
240	0xbe39849f	-0.18116997
241	0xbe2cbb2e	-0.16868278
242	0xbf6d66ab	-0.92734784
243	0xbf7029b3	-0.9381363
244	0x3ec4b3e9	0.3841851
245	0xbf1e0d5d	-0.6173914
246	0xbdb62a24	-0.088947564
247	0x3df16c82	0.11788274
248	0x3eb063e7	0.3445122
249	0xbf3b036f	-0.73052114
250	0xc02e0fce	-2.7197146
251	0x3e4b6b71	0.19865204
252	0xbeb55b00	-0.3542099
253	0xbc2c51b6	-0.010517528
254	0x3da46760	0.0802753
255	0xbc99388c	-0.018703721

l1.bias f4 [400]
0	0xbf8baf05	-1.0912787
1	0xbff5de35	-1.9208437
2	0xc017408c	-2.3633146
3	0xc01a5056	-2.4111533
4	0xbff442ec	-1.9082923
5	0x3fcdd9c5	1.6082083
6	0xbf9bf162	-1.2183039
7	0xbf6eb6f2	-0.932479
8	0xbf457b6e	-0.77141464
9	0xbfaff367	-1.3746156
10	0xbfcf96a0	-1.6217842
11	0xbfb4bfbe	-1.4121015
12	0xbfb4ba46	-1.4119346
13	0xbfe49d73	-1.786055
14	0xbfdc3452	-1.7203467
15	0x3f608f59	0.8771873
16	0xbfbf7095	-1.4956232
17	0x3f6e05a8	0.9297738
18	0xbfa99e4f	-1.3251437
19	0xc004b59f	-2.0735853
20	0xc0096e51	-2.1473582
21	0xbf0c15d6	-0.5472082
22	0xbfe39fc3	-1.778313
23	0xc006ef65	-2.1083615
24	0xc02f9ad6	-2.7438254
25	0xc01b19fc	-2.423461
26	0xbfb683ee	-1.4259012
27	0xbfdc5a44	-1.7215047
28	0xbea9ec53	-0.33188114
29	0xbfeb2eb3	-1.8373626
30	0x3fe6842e	1.8009088
31	0xbf55c892	-0.8350917
32	0xbf912a27	-1.1340989
33	0xbfbe28a3	-1.4856151
34	0xc009a205	-2.150514
35	0xbfbf8aa1	-1.4964181
36	0xbef62d5f	-0.4808149
37	0x3efc4f8a	0.49279433
38	0xbfd876ae	-1.6911218
39	0xbff03c1b	-1.8768343
40	0xbfdd42cf	-1.7286013
41	0xbfec8e8d	-1.8481003
42	0xc0077b3d	-2.1168969
43	0xbf7f059c	-0.99617934
44	0xbfd6b69e	-1.677448
45	0xbf79f03c	-0.97632194
46	0xbf40b7e3	-0.7528059
47	0xc06c5792	-3.6928449
48	0xbf4a6465	-0.7905944
49	0xbfea0fac	-1.8286033
50	0xbfed6cc4	-1.8548818
51	0xc05698d1	-3.3530772
52	0xbec8248c	-0.39090383
53	0xbf77b239	-0.9675632
54	0x3fbc4c05	1.4710699
55	0xbf950935	-1.1643435
56	0xbfaf7399	-1.3707153
57	0xbff7291c	-1.930942
58	0xbfc8b14a	-1.5679104
59	0xbfe29f4b	-1.7704862
60	0xbf54c5f9	-0.8311458
61	0xbfddc6fa	-1.7326348
62	0xbff369bc	-1.9016643
63	0x3ef7dc07	0.48410055
64	0xc002880d	-2.0395539
65	0xbff18868	-1.8869753
66	0xbd4a0314	-0.04931934
67	0xc0210267	-2.5157716
68	0xbd8d8897	-0.06910818
69	0xc0103ec2	-2.2538304
70	0xbfaa7bbd	-1.3319012
71	0xbfd9c4e2	-1.7013209
72	0xbf9f36af	-1.2438563
73	0x3f8099aa	1.0046895
74	0xbf05446a	-0.52057517
75	0xc018263c	-2.3773336
76	0xc0192112	-2.3926435
77	0xbfd9d3ba	-1.7017739
78	0xbf37070a	-0.71495116
79	0xbfdd4cca	-1.7289059
80	0xbf50421d	-0.8135088
81	0xbfc64b94	-1.5491815
82	0x400844f6	2.129209
83	0xbe6c4f0f	-0.23077033
84	0xc01ccf9d	-2.4501717
85	0xbfe20dfa	-1.7660515
86	0xc01bd721	-2.4350054
87	0xc00e3178	-2.2217693
88	0xbea905f7	-0.33012363
89	0xbff36929	-1.9016467
90	0x3fdaee3f	1.7103957
91	0xbfbff0fc	-1.4995418
92	0xbd0eb1a5	-0.034837384
93	0xbfa5d1a7	-1.2954606
94	0xc04a78d0	-3.1636238
95	0xc01bafb1	-2.4325984
96	0xbf5ab109	-0.85426384
97	0xbfb9ebe3	-1.4525112
98	0xbf7a875b	-0.97862786
99	0xbffd030c	-1.9766555
100	0x3dc2b304	0.09506801
101	0x3eaecfd6	0.3414294
102	0xbf2a252c	-0.6646297
103	0xbf9a15ac	-1.2037864
104	0xc000eb6b	-2.0143688
105	0xbe892bab	-0.2679113
106	0xbfbf56b9	-1.4948341
107	0xbf86c297	-1.0528134
108	0xc0295bfe	-2.6462398
109	0xbf9f9cbb	-1.2469705
110	0xbf3dffd4	-0.7421849
111	0xc04c1487	-3.188753
112	0x3f953746	1.1657493
113	0xbf90a57f	-1.1300505
114	0xbfdd5c6a	-1.7293828
115	0xbf677f0d	-0.9042824
116	0xbf8d861d	-1.1056553
117	0xbfacd7db	-1.3503374
118	0xbfb349a0	-1.4006844
119	0xbff94afa	-1.9476006
120	0xc0431061	-3.0478747
121	0xbfcea982	-1.614548
122	0xbffd5bd4	-1.9793649
123	0xbfdf11f7	-1.7427357
124	0xc024ca18	-2.5748348
125	0xbf0cba0e	-0.54971397
126	0xc01fa9b7	-2.4947336
127	0xbfeb0eaa	-1.836385
128	0xc01c222d	-2.439586
129	0xbf9a97a2	-1.2077525
130	0xbfd48f30	-1.6606197
131	0xbfdaaa92	-1.7083304
132	0x3f9c37f8	1.220458
133	0xbf221e12	-0.63327134
134	0xc027f86f	-2.6245382
135	0xbfe0b533	-1.7555298
136	0xbce95892	-0.028484616
137	0xbf93e2c7	-1.1553582
138	0x3f7e6bad	0.9938305
139	0xc011c49f	-2.2776258
140	0xbfade1a3	-1.3584484
141	0xc0245a31	-2.5680048
142	0xbfb4901d	-1.410648
143	0xbcffe061	-0.031234922
144	0xbfbc4bb6	-1.4710605
145	0xbf9e634d	-1.2374054
146	0xbec917d9	-0.39276007
147	0xbf8778b5	-1.0583712
148	0xbfd4c9b1	-1.6624051
149	0xbfd25004	-1.6430669
150	0xbfe04e48	-1.752389
151	0xbfb264d8	-1.3937025
152	0xc0283d2f	-2.6287344
153	0xbfffb709	-1.9977733
154	0xbfe4f8fc	-1.7888484
155	0xbf1c3754	-0.61021924
156	0xbea67f60	-0.32519054
157	0xc0351dd0	-2.8299446
158	0xbf61c6f5	-0.8819421
159	0xc00c605d	-2.1933815
160	0xbfc7cd50	-1.5609531
161	0xbfe36b95	-1.7767206
162	0xbf455d4d	-0.7709549
163	0xc026fcdf	-2.609184
164	0xc01b885f	-2.4301984
165	0xbfe86762	-1.815655
166	0x3f33d015	0.70239383
167	0xbf7b439e	-0.9815005
168	0xc00c5ad5	-2.193044
169	0xbfe4ab0d	-1.78647
170	0xbf8fa675	-1.1222674
171	0xc0008c0b	-2.0085475
172	0xbfdcd1a5	-1.7251478
173	0xc00649c2	-2.0982518
174	0xbf8a9f94	-1.0829949
175	0xc0117efe	-2.273376
176	0xc0249fb9	-2.5722487
177	0xbfc39e90	-1.5282764
178	0xbf4bf92d	-0.7967709
179	0x3f5288d5	0.8224004
180	0xbfc8b1c9	-1.5679256
181	0xbff19434	-1.8873353
182	0xbfb7da10	-1.4363422
183	0xbf483c98	-0.7821746
184	0xbddc7871	-0.1076516
185	0x3fa441d8	1.2832594
186	0xc001d6b5	-2.0287297
187	0xbf94a000	-1.1611328
188	0xbfc969da	-1.5735428
189	0xbfd70f21	-1.6801492
190	0xc00fbcbf	-2.2458951
191	0xbf32a21f	-0.6977863
192	0xc03dab5e	-2.9635844
193	0xbfc1c2d3	-1.5137581
194	0xc009e74d	-2.1547425
195	0xbfdc48a2	-1.7209666
196	0xbf6f8b1a	-0.9357163
197	0xbf23f87e	-0.64051044
198	0xbf9092e5	-1.1294829
199	0xc019524a	-2.3956475
200	0xbeffa92f	-0.49933764
201	0xbf981f66	-1.1884582
202	0xbf39fd34	-0.7265198
203	0xbfba8810	-1.4572773
204	0xbf7294c6	-0.9475826
205	0xbf71b2f5	-0.9441369
206	0x3d29e245	0.041475553
207	0xc03d9e95	-2.962804
208	0xc00a184a	-2.1577325
209	0xc03758d1	-2.864796
210	0xbf08615f	-0.53273576
211	0xc00e67e5	-2.2250912
212	0x3cb8ff01	0.022582533
213	0xbf93f736	-1.1559818
214	0x3fa7a0c4	1.3095937
215	0xbfa30e3a	-1.2738717
216	0x3f8c846e	1.0977914
217	0xbf835e87	-1.0263222
218	0xbfb025f6	-1.3761585
219	0x3e46594c	0.19370002
220	0x3d8779c4	0.06615022
221	0xbf8b53b4	-1.0884919
222	0x3f168972	0.58803475
223	0xbc23c43e	-0.009995518
224	0xbfc3cd71	-1.5297071
225	0xbf67406b	-0.9033267
226	0xc00a7a97	-2.1637323
227	0xbfbfecef	-1.4994181
228	0xbfea2fc8	-1.8295832
229	0xbff0d034	-1.8813539
230	0xc01abeb9	-2.4178908
231	0xbf13a09e	-0.5766696
232	0xc037931d	-2.868354
233	0xbff703c0	-1.929802
234	0xbff867fe	-1.9406736
235	0xc0164b6e	-2.3483539
236	0xc0173efb	-2.363219
237	0xc003f8a7	-2.0620515
238	0xc022f497	-2.5461786
239	0xc04a0c9f	-3.1570203
240	0xbfb1ca80	-1.3889923
241	0xc003f311	-2.0617106
242	0xc03ded81	-2.967621
243	0xbfbc46e8	-1.4709139
244	0xbeb73470	-0.35782194
245	0xc01018b6	-2.2515082
246	0xbf8d5355	-1.1041056
247	0xbfd9fcb9	-1.703025
248	0xc0228133	-2.5391357
249	0x3fa2bcd3	1.2713875
250	0xbfc7c769	-1.560773
251	0xc0190f3e	-2.3915553
252	0xbf79256f	-0.97322744
253	0xc01a643b	-2.4123676
254	0xbfab679e	-1.3390996
255	0xc02d875f	-2.7113874

l2.weight f4 [300, 400]
0	0xbe09932d	-0.1343505
1	0xbe320900	-0.17386246
2	0xbf04054d	-0.5157059
3	0x3e4117b0	0.18856692
4	0xbc17d466	-0.009266948
5	0xbe578451	-0.21046568
6	0xbea55ae7	-0.32295915
7	0xbebcd768	-0.36883092
8	0xbe4d5d19	-0.20055045
9	0xbe490309	-0.19630064
10	0x3dd90321	0.105963
11	0xbe52f522	-0.20601323
12	0x3b6f2332	0.0036489484
13	0x3dc91b40	0.09819651
14	0x3e270706	0.16311273
15	0x3d62495a	0.055245735
16	0xbed271e2	-0.4110251
17	0xbe12cce6	-0.14335975
18	0xbd9cda56	-0.07658832
19	0xbe9f156e	-0.31071037
20	0xbd67571b	-0.056479555
21	0xbe60d3eb	-0.2195584
22	0xbe5ac5ea	-0.2136456
23	0xbdc384c9	-0.09546811
24	0xbdda85da	-0.106700614
25	0x3d6526f2	0.055945344
26	0xbd930f4e	-0.071806535
27	0xbde238f3	-0.110460185
28	0xbdabd647	-0.083904795
29	0x3d64d293	0.05586488
30	0xbe543892	-0.20724705
31	0x3d50e119	0.05099592
32	0xbe482c31	-0.19548108
33	0xbe04b835	-0.12960894
34	0xbe67558b	-0.22591226
35	0xbde44e8a	-0.11147793
36	0xbd3ce640	-0.04611802
37	0xbe2f83af	-0.17140077
38	0xbee28afb	-0.4424666
39	0xbcaf8f66	-0.021430682
40	0xbef875ec	-0.48527467
41	0x3d14062e	0.036138706
42	0x3de9d30a	0.11417206
43	0xbe7f761c	-0.24947399
44	0xbdf54ee4	-0.11977938
45	0x3ddceb21	0.10787035
46	0xbed956ba	-0.4244898
47	0xbdfda864	-0.123856336
48	0xbe1aae16	-0.15105471
49	0xbb395c00	-0.0028283596
50	0x3c45be50	0.0120693
51	0x3ea89a26	0.32930106
52	0xbe7a7be4	-0.24461323
53	0xbe17a19e	-0.14807746
54	0xbe9f0696	-0.31059712
55	0xbdce53f9	-0.1007461
56	0xbec28de9	-0.37998894
57	0xbe77197c	-0.24130815
58	0xbe540c0a	-0.20707718
59	0xbe397050	-0.1810925
60	0x3d14c275	0.03631826
61	0xbd38bef8	-0.045103997
62	0xbe981c46	-0.2970907
63	0xbe4e49d1	-0.20145346
64	0xbdb01ff0	-0.085998416
65	0x3df3ab5b	0.11897918
66	0xbe1c6396	-0.15272364
67	0x3e464fa0	0.19366312
68	0xbe87a635	-0.26493993
69	0xbe421021	-0.18951465
70	0x3de7364a	0.11289652
71	0xbefc7df4	-0.49314845
72	0xbd57a522	-0.052647717
73	0xbe1f50ce	-0.15558168
74	0xbd5d8442	-0.05408121
75	0xbdc26931	-0.0949272
76	0x3db5fbef	0.08885943
77	0xbe1e28b6	-0.15445217
78	0x3e0674bc	0.13130468
79	0x3d40f7a9	0.047111187
80	0xbbd4c78a	-0.0064935135
81	0x3e0dba74	0.13840657
82	0xbc24dc57	-0.010062299
83	0x3caed3e6	0.021341275
84	0xbd6a820b	-0.057252925
85	0xbc363cc8	-0.01112289
86	0xbe55ddaa	-0.2088534
87	0xba292537	-0.0006452384
88	0xbd849a84	-0.06474784
89	0xbdf3bc8c	-0.11901197
90	0x3d228c26	0.039684437
91	0xbe81dc2d	-0.25363293
92	0xbe0e61a5	-0.13904436
93	0xbb81ec95	-0.0039649704
94	0x3bef9aba	0.007312146
95	0xbe570b3a	-0.21000376
96	0xbd608a7b	-0.054819565
97	0xbeb372b7	-0.35048458
98	0x3adeeba2	0.001700748
99	0xbb31ae60	-0.0027111992
100	0xbe0d1d6d	-0.13780756
101	0xbd306bb8	-0.04307148
102	0xbeed6a93	-0.46370372
103	0xbcbd1908	-0.023083225
104	0x3db43ab7	0.088002615
105	0xbd86a5f5	-0.065746225
106	0xbdf6dc8c	-0.12053785
107	0xbddd49aa	-0.10805066
108	0xbe386a98	-0.18009412
109	0xbe72feb4	-0.23729974
110	0xbe200227	-0.15625821
111	0x3d973f2d	0.07385097
112	0xbe2a5db7	-0.16637312
113	0x3e7c5f7b	0.24645798
114	0x3e584481	0.21119882
115	0x3bd08fda	0.0063648047
116	0x3d1b3475	0.037891824
117	0xbdcb0e79	-0.0991487
118	0x3a53dad1	0.00080816174
119	0x3e9455dd	0.28971758
120	0x3e0297ac	0.1275317
121	0xbe571ba2	-0.21006635
122	0x3d64277a	0.05570171
123	0xbca56c17	-0.020193143
124	0xbc8d0dcd	-0.017218495
125	0xbebe1948	-0.37128663
126	0xbd8ac0bd	-0.06775043
127	0x3d6ecbb2	0.058299728
128	0xbec170c1	-0.37781337
129	0x3e16b41d	0.14717145
130	0xbe0a66e5	-0.13515814
131	0x3d4ab0b8	0.04948494
132	0xbe3b9718	-0.18319356
133	0x3cde8099	0.02716093
134	0x3d115456	0.03548082
135	0x3d8cc90c	0.06874284
136	0xbcff829c	-0.03119021
137	0xbd879505	-0.0662022
138	0xbdcd2b19	-0.10017986
139	0xbccfe7e1	-0.025379123
140	0x3c8a3fd4	0.016876139
141	0xbdad6c87	-0.084679656
142	0xbdb9c7d0	-0.09071314
143	0xbe1e0fb6	-0.15435681
144	0xbdf82893	-0.12117114
145	0x3debb382	0.11508848
146	0xbe8d4abd	-0.27596083
147	0x3e1f1f95	0.15539391
148	0x3c6d6452	0.01448925
149	0xbdd63c32	-0.104607
150	0x3c4fba90	0.012678757
151	0xbe388208	-0.18018353
152	0x3d84f90c	0.064928144
153	0x3dae6366	0.085150525
154	0xbdf8efcc	-0.121551126
155	0x3d700b3b	0.05860446
156	0xbe02191d	-0.12704892
157	0xbc5c176a	-0.013433317
158	0xbda6a497	-0.08136862
159	0xbc6620f3	-0.014045942
160	0xbddc3cea	-0.10753806
161	0xbe476b39	-0.19474496
162	0xbdd3b16a	-0.103365734
163	0xbe606a73	-0.21915607
164	0xbdf96ccb	-0.12178954
165	0xbe07c0c5	-0.1325713
166	0xbd61d8da	-0.055138446
167	0x3dafa6d6	0.08576743
168	0x3d1dd51d	0.03853332
169	0x3de3994a	0.11113222
170	0xbe2a984f	-0.16659664
171	0x3cdf9141	0.027290942
172	0xbd257577	-0.040395226
173	0x3da407d6	0.08009307
174	0x3bbdc0ff	0.005790829
175	0x3e904795	0.28179613
176	0xbdccb521	-0.09995485
177	0xbd9ca2de	-0.07648252
178	0xbe14a58e	-0.14516279
179	0xbc88fdf5	-0.016722659
180	0xbd0d0d05	-0.034436245
181	0x3df9636b	0.121771656
182	0x3d6a1252	0.057146378
183	0xbd5bc17a	-0.05365131
184	0xbda41c27	-0.08013182
185	0xbe395430	-0.18098521
186	0xbeb26f58	-0.34850574
187	0xbdaaa8b7	-0.08332961
188	0xbdc65451	-0.09684051
189	0xbd8d87ad	-0.06910644
190	0xbe21a73e	-0.15786454
191	0xbd7b0dfc	-0.061292633
192	0x3da2531e	0.079260096
193	0xbda1bb8f	-0.07897102
194	0xbde03553	-0.10947671
195	0xbe72d614	-0.23714477
196	0xbda9d1df	-0.08291983
197	0x3c28c5e6	0.010301089
198	0xbd086a4d	-0.0333045
199	0xbc46e1b9	-0.012138777
200	0xbc63c69b	-0.013902332
201	0x3d860374	0.065436274
202	0xbe9ff5a6	-0.31242102
203	0xbe84009d	-0.25781718
204	0x3d21a1c6	0.03946092
205	0x3d19cabd	0.037546862
206	0xbe0bbc4d	-0.1364605
207	0xbda51177	-0.08059972
208	0xbc00393b	-0.007826145
209	0xbe3562d0	-0.17713475
210	0x3d079ff4	0.033111528
211	0xbe25a1ff	-0.16175078
212	0xbd859485	-0.065224685
213	0xbbe295eb	-0.0069148443
214	0xbd21a356	-0.03946241
215	0x3d8d38c4	0.06895593
216	0xbcf061f4	-0.029343583
217	0xbe5531ca	-0.20819774
218	0xbea614d7	-0.32437775
219	0xbe19189e	-0.14950797
220	0x3e564401	0.20924379
221	0x3b64ceaa	0.003491322
222	0x3e0c4504	0.13698202
223	0xbc74f124	-0.0149500705
224	0xbd3f3b20	-0.046687245
225	0xbc26703f	-0.0101585975
226	0xbcf19b3c	-0.029492967
227	0x3bd0abf9	0.006368157
228	0xbe5040f2	-0.20337275
229	0xbd8a11bd	-0.067416646
230	0xbdac0077	-0.08398526
231	0xbaae3f77	-0.001329406
232	0xbeab8377	-0.33498737
233	0x3e31509f	0.17315911
234	0xbc5f1122	-0.013614925
235	0xbe5f4002	-0.21801761
236	0xbdf1b824	-0.118027
237	0xbeb0dd00	-0.3454361
238	0xbc7486e4	-0.014924739
239	0xbd4b8f61	-0.049697284
240	0x3db7e050	0.08978331
241	0xbc7ee33c	-0.015557107
242	0xbe81c64d	-0.25346604
243	0xbe6e529b	-0.23273699
244	0x3dfac7ab	0.12245115
245	0x3e49e020	0.19714403
246	0xbcdc8592	-0.02691916
247	0xbe28963f	-0.16463564
248	0x3e0cf0e4	0.13763767
249	0xbe12fbc6	-0.14353856
250	0xbe8fedbd	-0.28111067
251	0xbe1bc2a5	-0.1521097
252	0xbe1c3966	-0.15256271
253	0x3d1c1a26	0.038110875
254	0xbd765ec4	-0.06014897
255	0xbd8005ab	-0.06251081

l2.bias f4 [300]
0	0xbe9423de	-0.28933614
1	0xbdc64709	-0.09681518
2	0xbeacef87	-0.33776495
3	0xbe3bef60	-0.18353033
4	0xbe3a1910	-0.18173623
5	0xbdbb62c0	-0.091496944
6	0xbd1140ce	-0.035462193
7	0xbfd621a2	-1.6729014
8	0xbf89d809	-1.0769054
9	0xbd5c4e1a	-0.05378542
10	0xbf5cd2ea	-0.8625933
11	0xbddafe2a	-0.10693009
12	0xbe945a8e	-0.28975338
13	0x3eed289f	0.46320054
14	0x3e4d7065	0.20062406
15	0xbdbb8070	-0.09155357
16	0xbf120bee	-0.57049453
17	0xbd6961c3	-0.056978
18	0xbdee222b	-0.11627611
19	0xbd528d3a	-0.051404215
20	0xbfbf66e0	-1.495327
21	0xbdc57d79	-0.09643073
22	0x3de9613b	0.11395498
23	0x3fd9e62e	1.702337
24	0x3fd5e251	1.6709691
25	0xbd5c0e0a	-0.053724326
26	0xbd3fe318	-0.046847433
27	0xbd4f87c9	-0.050666604
28	0xbd81831d	-0.06323836
29	0xbe4dd631	-0.20101239
30	0xbdcef741	-0.10105754
31	0xbf4f7579	-0.81038624
32	0xbd82eff5	-0.063934244
33	0xbe6f47eb	-0.23367278
34	0xbf479a7c	-0.779701
35	0x4019a7b2	2.4008603
36	0xbddbee02	-0.10738756
37	0x3ed6c76c	0.41949022
38	0xbde4b803	-0.1116791
39	0xbdf14c54	-0.117821366
40	0xbd992cee	-0.07479273
41	0xbcdc0252	-0.026856575
42	0xbee1a0d9	-0.4406803
43	0xbf62e6cf	-0.88633436
44	0xbe2a0efa	-0.16607276
45	0xbd816315	-0.063177265
46	0xbebc4ac8	-0.36775804
47	0xbfa969f7	-1.3235463
48	0xbdde4472	-0.10852899
49	0xbdd0d242	-0.101963535
50	0xc00e79dd	-2.226188
51	0xbd30bc30	-0.04314822
52	0x3f84adc7	1.0365533
53	0xbe538992	-0.20657948
54	0xbe5ae3ef	-0.21376012
55	0xbebdd937	-0.37079784
56	0xbd659b5b	-0.05605636
57	0xbe02c8e5	-0.12771948
58	0xbd9c0a86	-0.07619195
59	0xbd509d22	-0.050931104
60	0xbdcf9129	-0.10135109
61	0x3e1dc25d	0.15406175
62	0xbe000e43	-0.1250544
63	0xbf0f0fdc	-0.55883574
64	0x3f9c0c83	1.2191318
65	0xbdb7e820	-0.08979821
66	0xbe5f1b4a	-0.21787754
67	0xbefe35cc	-0.4965042
68	0x3fe67c7c	1.800674
69	0xc015a15a	-2.337973
70	0xbf8a0ec4	-1.0785756
71	0xbc0a1cad	-0.008429688
72	0xbdb14100	-0.08654976
73	0xbdcd08b9	-0.10011429
74	0xbd5ad4c2	-0.053425558
75	0xbdce2c21	-0.10067011
76	0xbe08df7c	-0.13366503
77	0xbea1c99f	-0.31599137
78	0xbd46b6c1	-0.04851413
79	0xbe8100a5	-0.25195804
80	0x3edc62d8	0.43044162
81	0xbf3e49b8	-0.74331236
82	0xbe9bfd3e	-0.30466646
83	0xbd954106	-0.07287793
84	0xbe8290a5	-0.2550098
85	0xbdb3df50	-0.08782828
86	0xbd3e5ed0	-0.04647714
87	0xbec60631	-0.386766
88	0xbde8f39b	-0.11374589
89	0xbd757e8c	-0.059935138
90	0xbdc51c99	-0.09624595
91	0xbdd2c709	-0.10291869
92	0xbe06f34d	-0.1317875
93	0xbd8b0c85	-0.06789497
94	0xbd32ac48	-0.04362133
95	0xbd3dfc60	-0.04638326
96	0xbde60efb	-0.11233326
97	0xbd83901d	-0.06423972
98	0x3dd510f3	0.104036234
99	0xbd8c362d	-0.06846271
100	0xbc9ee1de	-0.019394811
101	0xbed1a46a	-0.4094575
102	0xbe37f3d8	-0.17964113
103	0x3dff9494	0.12479511
104	0xbf517c9e	-0.81830776
105	0xbd85fdfd	-0.06542585
106	0xbdd243ca	-0.10266836
107	0xbf50d49a	-0.81574404
108	0xbcb2f108	-0.021843448
109	0xbdd768fa	-0.105180696
110	0xbef9a69c	-0.48759925
111	0xbeaba997	-0.33527824
112	0xbdac2787	-0.08405977
113	0xbef8d53c	-0.48600185
114	0xbe014a15	-0.12625916
115	0xbf6fe363	-0.9370634
116	0xbcbfeed0	-0.023429304
117	0xbe8e590c	-0.27802312
118	0xbdb5c158	-0.08874768
119	0xbdc814c1	-0.097695835
120	0xbdadcbd7	-0.08486145
121	0xbf726724	-0.9468863
122	0xbdbb8840	-0.09156847
123	0xbed59a7a	-0.4171942
124	0xbf1da071	-0.6157294
125	0xbe495a89	-0.19663443
126	0xbd3c9f28	-0.04605022
127	0xbcd70112	-0.026245628
128	0xbf002e4c	-0.50070643
129	0xbdab90bf	-0.083772175
130	0xbce7e6db	-0.028308323
131	0xbd2c2467	-0.042026903
132	0x3ff29282	1.8950961
133	0xbef688f4	-0.48151362
134	0xbf705bb4	-0.9388993
135	0xbd1db5de	-0.03850352
136	0xc032d172	-2.7940335
137	0xbe33cbc8	-0.17558205
138	0xbdb0ab00	-0.08626366
139	0xbddb4c4a	-0.1070791
140	0xbd925d2e	-0.07146679
141	0xbf96f29e	-1.1792791
142	0xbd341218	-0.043962568
143	0xbd24633f	-0.04013371
144	0xbf3128c8	-0.6920285
145	0xbec6c844	-0.38824666
146	0xbfb41493	-1.4068779
147	0xbd8f562d	-0.069988586
148	0xbe819065	-0.25305477
149	0xbe3a7158	-0.182073
150	0xbe1480d6	-0.14502272
151	0xbd6fd233	-0.05855007
152	0xbd6a212b	-0.057160538
153	0xbe5307e2	-0.20608476
154	0xbd890115	-0.066896595
155	0xbdb99e68	-0.09063417
156	0xbf5b5b22	-0.8568593
157	0xbb27efd7	-0.0025625133
158	0xbd6a9b0b	-0.057276767
159	0xbf85acd8	-1.0443373
160	0xbe1c2a8e	-0.15250608
161	0xbde18ea3	-0.11013534
162	0xbe04c4b5	-0.12965663
163	0x3e4ae425	0.19813593
164	0xbf156f1e	-0.58372676
165	0xbe6990a3	-0.22809081
166	0xbbea118b	-0.0071432046
167	0xbda0b8f7	-0.07847779
168	0xbe970f0c	-0.29503667
169	0xbe4f9381	-0.20271112
170	0xbfa92537	-1.3214482
171	0xbd368bb0	-0.04456681
172	0xbd436c91	-0.04771096
173	0xba4b0025	-0.0007743857
174	0xbe450cf9	-0.1924323
175	0xbdc7d259	-0.097569175
176	0xbd8b219d	-0.067935206
177	0xbd568a52	-0.052378006
178	0xbd442681	-0.047888283
179	0xbe4162b1	-0.18885304
180	0xbf26a177	-0.65090126
181	0xbe1ea426	-0.15492305
182	0xbf8b5cfd	-1.0887753
183	0xbfe717d7	-1.805415
184	0xbd0885a5	-0.03333058
185	0xbe66f3e3	-0.22553973
186	0xbe024b1d	-0.12723966
187	0xbd0472ad	-0.032335926
188	0xbf0cd8ad	-0.5501812
189	0xbe3a8738	-0.18215644
190	0xbdfcdd44	-0.123468906
191	0xbdccd849	-0.100021906
192	0xbcd49972	-0.025952075
193	0xbf47b7c9	-0.7801481
194	0xbf20e7d7	-0.6285376
195	0xbfaaa8ec	-1.3332801
196	0xbd8ac0bd	-0.06775043
197	0xbd9d9766	-0.076948926
198	0xbdb15de8	-0.08660489
199	0xbdcc3e61	-0.09972835
200	0xbf37b558	-0.71761084
201	0xbd67d28b	-0.056597274
202	0xbf8b2884	-1.0871739
203	0xbf5ea939	-0.86976963
204	0xbd5ba492	-0.053623743
205	0xbc129bae	-0.00894825
206	0x3cfec26b	0.031098565
207	0xbe794814	-0.24343902
208	0xbf95fc86	-1.1717689
209	0x3f8fb42f	1.1226863
210	0xbf1b0c9e	-0.6056613
211	0xbe0102ac	-0.12598675
212	0xbea5e84e	-0.32403797
213	0xbdd48202	-0.103763595
214	0xbea6eecf	-0.32604071
215	0xc02da50c	-2.7131987
216	0xbcb165b8	-0.021654949
217	0xbf32e2f8	-0.69877577
218	0xbde5afab	-0.11215147
219	0xbf0bb3b5	-0.54571086
220	0xbf1f9ebb	-0.6235158
221	0xbcdc6d5a	-0.026907612
222	0xbdb64178	-0.08899206
223	0x3cd77e11	0.02630523
224	0xbe42af81	-0.19012262
225	0xbeb14038	-0.34619308
226	0xbfd449b0	-1.6584988
227	0xbcf4e0bc	-0.029892318
228	0xbf232d17	-0.63740677
229	0xbf65f5e4	-0.89828324
230	0xbbe16ab3	-0.0068791746
231	0xbd80c6d5	-0.06287924
232	0xbf1415ce	-0.5784577
233	0xbdc25031	-0.094879515
234	0xbeff27fc	-0.49835193
235	0xbcfc4f14	-0.030799426
236	0xbdad1cd7	-0.084527664
237	0xbdfe618c	-0.12420949
238	0xbe7a4e94	-0.24444038
239	0xbf360c57	-0.7111258
240	0xbfd47618	-1.6598539
241	0xbf9e362b	-1.2360281
242	0xbc2d7c27	-0.010588682
243	0xbd546db2	-0.051862426
244	0xbd8892ed	-0.06668649
245	0xbf056e07	-0.52121013
246	0xbf096385	-0.5366748
247	0xbd9159ce	-0.07097207
248	0xbea2ed07	-0.31821463
249	0xbda6e317	-0.08148783
250	0xbf6be138	-0.9214053
251	0xbe19eeae	-0.15032455
252	0xbf6db18c	-0.9284904
253	0xbdb06708	-0.08613402
254	0xbe745804	-0.238617
255	0xbd8db2a5	-0.06918839

l3.weight f4 [4, 300]
0	0xbd7723a4	-0.060336724
1	0xbe835ee4	-0.25658333
2	0x3e1b1aae	0.15146896
3	0xbd0f81ec	-0.035036013
4	0x3db6bc1f	0.089226
5	0xbc2f5d66	-0.01070342
6	0xbd112f9e	-0.035445802
7	0x3f85ec04	1.0462651
8	0x408bbed1	4.367043
9	0xbad725c9	-0.0016414459
10	0xbfbe25c7	-1.4855279
11	0xbf0d479d	-0.551874
12	0x3f9b0e2e	1.2113702
13	0x3d909096	0.070588276
14	0xbd30d66c	-0.04317324
15	0xbbed9d5b	-0.0072514242
16	0xbe6212aa	-0.22077432
17	0x3c5b8551	0.013398484
18	0xbf05dd2c	-0.52290606
19	0x3d9dd51e	0.077066645
20	0xbf80fa64	-1.0076413
21	0x3c25c2cf	0.010117247
22	0xbd7581f4	-0.059938386
23	0xbe6d2705	-0.23159416
24	0x3f456f22	0.771227
25	0x3cb14678	0.021640047
26	0xbc2f966e	-0.010717018
27	0x3d3c5360	0.04597795
28	0xbe6601b2	-0.22461584
29	0x3f147b5d	0.5800074
30	0xbdbe08df	-0.09279036
31	0x3f26a9f3	0.6510307
32	0x3c37abf8	0.011210434
33	0xbf27f09f	-0.65601534
34	0xc03603ee	-2.8439898
35	0xbb722250	-0.0036946721
36	0xbdc0d3b8	-0.09415382
37	0x3a354f0b	0.00069163804
38	0xbce3f323	-0.027825898
39	0xbd2744be	-0.040837042
40	0xbd0f48e4	-0.034981623
41	0xbd293a4f	-0.041315373
42	0xbce69f47	-0.028152121
43	0xbf25926e	-0.6467656
44	0x3eb828c8	0.35968614
45	0xbe9d02f5	-0.3066632
46	0xbef8858b	-0.48539385
47	0x3e1f6cee	0.15568897
48	0x3c6bd83b	0.014394815
49	0x3bc0b9f1	0.005881541
50	0xbdb3d848	-0.08781487
51	0xbafe75dc	-0.0019413787
52	0xbeb2d21f	-0.34925935
53	0x3ebbfb17	0.36715004
54	0x3e55c347	0.20875274
55	0xbdaab91e	-0.083360896
56	0xbd1f8cf6	-0.03895279
57	0x3cf0081b	0.02930074
58	0xbf8f05b4	-1.1173615
59	0x3e37bdf0	0.17943549
60	0x3c0742fc	0.008255716
61	0x3cc6a659	0.024249243
62	0xbd17ddc5	-0.03707673
63	0x3c2d8a37	0.010592035
64	0x3b5769ce	0.003286946
65	0xbd601482	-0.054707058
66	0x3ec91f28	0.39281583
67	0xbda38a0f	-0.07985317
68	0x3aed6a02	0.0018113258
69	0xbd24ae58	-0.04020533
70	0x3cf605ab	0.030032
71	0xb9977386	-0.00028887036
72	0xbb9a6186	-0.0047113327
73	0x3d0d8ded	0.03455918
74	0xbd3e4f30	-0.046462238
75	0xbe5f8011	-0.21826197
76	0x3f9e40ee	1.2363565
77	0x3d9afdc5	0.07567934
78	0x3c9eb875	0.019375065
79	0xbf19ffdd	-0.6015604
80	0xbc897d09	-0.016783254
81	0x3eb24e87	0.34825537
82	0x3dbf4610	0.09339535
83	0x3b684ec3	0.0035447336
84	0xbe3ab86f	-0.18234418
85	0xbc7d1c8b	-0.0154487
86	0xbec894e0	-0.39176083
87	0x3f919cfd	1.1376034
88	0xbce2350a	-0.027613182
89	0x3d421981	0.047387604
90	0x3b8a94fd	0.0042291866
91	0xbd078a14	-0.033090666
92	0x3befb22b	0.0073149404
93	0xbb1e08ae	-0.002411406
94	0xbc8e6a3c	-0.01738464
95	0x3af9b0c3	0.0019049871
96	0x3c09d7ec	0.008413296
97	0xbd110e05	-0.03541376
98	0x3fadc70b	1.3576368
99	0x3cb0bdc0	0.021574855
100	0x3c41fef0	0.011840567
101	0xbeeb40ab	-0.45947775
102	0xbfaf1d57	-1.3680829
103	0xbfbebfaf	-1.4902247
104	0x3c9d103c	0.01917278
105	0x3c8e8e2d	0.01740178
106	0x39baa41f	0.00035598964
107	0xbecfd2c8	-0.405905
108	0x3d03a91d	0.0321437
109	0xbd3a7158	-0.04551825
110	0xbfd215b1	-1.641287
111	0xbeb3a95e	-0.35090154
112	0x3f695c4b	0.9115645
113	0xbe4d6d80	-0.20061302
114	0xbdd9d932	-0.1063713
115	0xbdc806b0	-0.097669005
116	0x3e76b70b	0.24093263
117	0xbe93c876	-0.28863877
118	0xbe07fa94	-0.13279182
119	0xbcdfd9ea	-0.02732559
120	0x3cca8751	0.024722727
121	0x401b3dd6	2.4256492
122	0x3cd1d1b9	0.025612699
123	0x3c832515	0.016008893
124	0x401c771d	2.44477
125	0x39ebaaeb	0.00044950037
126	0x3e2d67d6	0.16934142
127	0x3ca05047	0.01956953
128	0x3f954c4f	1.1663913
129	0xbb73c2cc	-0.0037194965
130	0x3d550aba	0.052012183
131	0xbd30ca3f	-0.043161627
132	0x3f5bf947	0.8592724
133	0x3f592969	0.8482881
134	0x3df852c3	0.121251605
135	0x3c7f0343	0.0155647425
136	0x3a8abefd	0.0010585483
137	0x3db01500	0.085977554
138	0x3ca2a847	0.019855632
139	0x3cb9e0d0	0.022690207
140	0x3c8fda34	0.017560102
141	0x3eea9b0b	0.45821413
142	0x3d2bd967	0.041955378
143	0xbbd72691	-0.006565877
144	0xbe0b921c	-0.13629955
145	0xbe0d50ac	-0.13800305
146	0xbcc4a98c	-0.024006628
147	0xbbac25f7	-0.005253549
148	0x3f2f5bd7	0.6849951
149	0xbe7a0523	-0.24416022
150	0xbdcbf428	-0.099586785
151	0x3cd64ef1	0.02616069
152	0xbce076f3	-0.02740047
153	0x3e89996c	0.26874864
154	0xbc68bc23	-0.014205012
155	0xbe2a3e76	-0.1662539
156	0x3f66ac03	0.9010622
157	0x3cda65d2	0.02665988
158	0xbcb02f8f	-0.021507053
159	0xbf6245fb	-0.8838803
160	0xbe87ca24	-0.2652141
161	0x3cfa5a4b	0.030560633
162	0xbd722fab	-0.05912749
163	0x3ce3c8ec	0.027805768
164	0x3db7e8e8	0.0897997
165	0x3ed5b121	0.417367
166	0xbf496ed8	-0.7868476
167	0xbf2b5f86	-0.6694263
168	0x3ce83e83	0.02835012
169	0xbd4a6680	-0.049414158
170	0x3d9f476e	0.07777296
171	0xbc88627d	-0.016648525
172	0x3c61fa73	0.013792622
173	0x3d4c8c29	0.049938355
174	0x3f262dd7	0.64913696
175	0x40243cf7	2.566221
176	0xbdd5c63a	-0.10438199
177	0xbdb9f778	-0.09080404
178	0x3d0f067c	0.034918293
179	0xbe67878a	-0.22610298
180	0xbf601932	-0.87538445
181	0xbf35fd7f	-0.7108993
182	0xbe375928	-0.17905104
183	0x3f0e59ac	0.5560558
184	0x3bf6eb63	0.0075353845
185	0x3e6d6db3	0.23186378
186	0x3d371aa7	0.044703152
187	0x3d77ba6c	0.06048052
188	0x3fd9c672	1.7013686
189	0xbe9e120d	-0.30873147
190	0x3ecfb1f9	0.4056547
191	0x3cbb29b7	0.02284704
192	0xbd8d1664	-0.06889036
193	0x40102dce	2.2527957
194	0xbec97b58	-0.39351916
195	0x3bee60e5	0.0072747343
196	0x3d15d576	0.036580525
197	0xbd0a9ccc	-0.03384094
198	0xbc800d16	-0.01563124
199	0xbc9fd1b6	-0.019509178
200	0xbeafdf16	-0.3434989
201	0x3c91c8bd	0.017795915
202	0x407f6d66	3.9910522
203	0x3f509619	0.8147903
204	0x3dad382e	0.08457981
205	0x3d9c4775	0.07630817
206	0x3fc5d750	1.5456333
207	0xbd5df269	-0.05418626
208	0xbf99f295	-1.2027155
209	0x3f786218	0.9702468
210	0x3dbd4018	0.092407405
211	0x3fc12819	1.5090362
212	0x3f451591	0.7698603
213	0xbfb1df97	-1.3896359
214	0xbf17d39d	-0.5930727
215	0x3cb8658a	0.022509355
216	0x3d0a11bc	0.03370832
217	0x3ea6f2b7	0.32607052
218	0x3cc97069	0.024589734
219	0xbf58be61	-0.84665495
220	0x3c2109c5	0.009828989
221	0x3b76b644	0.003764526
222	0xbd9a5055	-0.07534853
223	0xbfc47c70	-1.5350475
224	0xbef8538b	-0.48501238
225	0x3cf3a6ab	0.02974256
226	0x3d04dc8f	0.032436904
227	0xbec125c0	-0.37724113
228	0xbf060b44	-0.5236094
229	0x3cc4248d	0.02394321
230	0x3c3906d7	0.011293135
231	0x3aad1056	0.0013203721
232	0x3e355330	0.17707515
233	0xbd5ad1a2	-0.053422578
234	0xbe87f51d	-0.26554194
235	0xbd9d1b2e	-0.076712
236	0x3c13892e	0.009004874
237	0x3aa1aa5e	0.0012334099
238	0x3e170df6	0.1475142
239	0xbd782894	-0.060585573
240	0xbf053063	-0.5202696
241	0xbebc5197	-0.36780998
242	0xbbbcebb7	-0.005765404
243	0x3d03eddd	0.032209266
244	0xbc48f9a8	-0.012266554
245	0xbdd0807b	-0.10180756
246	0xbc989ad5	-0.018628517
247	0x3d780d3c	0.060559496
248	0xbb943c15	-0.004523764
249	0x3c0f3945	0.008741681
250	0x3f2347a7	0.6378121
251	0xbd4f1299	-0.050554845
252	0xbd1839af	-0.037164386
253	0xbc15ec1e	-0.009150533
254	0xbe5fd3a9	-0.21858086
255	0xba013e5c	-0.0004930252

l3.bias f4 [4]
0	0x3ec1b2d1	0.3783174
1	0xbf046e03	-0.51730365
2	0xbf092f51	-0.53587824
3	0xbf11cf95	-0.5695737
