TD3_control/dir_Walker2D_002/biped-v7-2d-23_actor_t.pth (torch, 527895 bytes, 6 tensors)

l1.weight f4 [400, 24]
000000 1d 6b 05 3f a8 9b 47 3d 37 35 b7 bd 0e 35 94 bf
       0.52116567 0.04873243 -0.08945697 -1.1578691
000010 88 3e 3d 3f 4f 4c 3f 3f df 45 e1 bd fe 82 0d 3e
       0.7392354 0.7472581 -0.10999655 0.13819501
000020 a6 19 1a c0 b3 d7 ec bf 5a ae 66 3f 67 47 bb be
       -2.4078155 -1.8503326 0.9010979 -0.36577913
000030 9e 7a 91 bf 99 58 d4 be e4 42 1f 3e 49 af d8 bd
       -1.1365545 -0.41473845 0.1555286 -0.10580308
000040 1b df 7a 3f be 53 98 3e 5c b1 f2 bf 8e ef 29 3e
       0.9799668 0.2975139 -1.8960376 0.16595289
000050 f5 03 2f be f8 99 22 3d 06 16 18 bf d7 92 2a bf
       -0.17091353 0.039697617 -0.59408605 -0.6663031
000060 f9 95 2b c0 21 35 3e be fd f3 1e bf d5 a3 f3 bf
       -2.6810286 -0.18574955 -0.62091047 -1.9034373
000070 f9 33 59 3f 7b 11 42 bf ba 67 09 3e 5c a8 ca bd
       0.8484493 -0.75807923 0.13418475 -0.09895393
000080 f8 80 a8 bf 07 af 72 3e 46 22 3e c0 70 54 b4 3e
       -1.3164358 0.2369958 -2.970842 0.3522067
000090 1d 0f 7c bf 7a 4d 08 3f 01 7c 12 3e 12 8d fc 3d
       -0.9846056 0.5324322 0.14305116 0.123315945
0000a0 3f 18 70 bf 1c d3 87 3f 7d ec db bf d3 21 10 3f
       -0.93786997 1.06113 -1.7181545 0.5630161
0000b0 1c 6e 93 3d bf 46 e3 bd 4f cf 2c be 24 02 f0 bf
       0.07198736 -0.11097478 -0.16875957 -1.8750653
0000c0 0c da 4e c1 c6 3f 20 be 9a 06 0f 3f 22 73 c8 3f
       -12.928234 -0.15649328 0.5586945 1.5660136
0000d0 fc 05 84 3e 5c c8 1e c0 79 8c 08 3e 6b e6 9f bd
       0.25785816 -2.480979 0.13334836 -0.078076206
0000e0 0a c1 58 bf b3 41 a1 3d 04 75 90 3f 9d 1f 14 3c
       -0.84669554 0.07873859 1.128571 0.00904074
0000f0 4b b0 b5 bf e5 4c 78 bd 37 95 0e 3e d2 8e e9 3b
       -1.4194425 -0.060620207 0.13924108 0.007127621
000100 c8 29 cf 3f 1e 9e 5d 3e ac 76 8b 3f 01 8f 59 bd
       1.6184626 0.21642348 1.0895591 -0.053114895
000110 37 29 c1 bd 2b 3e 2d be 92 ba 8b 3f 4a 0d 28 c0
       -0.09431689 -0.16918246 1.0916312 -2.625811
000120 9f a2 6b 40 7a 54 0d bf 5a f6 b6 3f e9 2c 9a c0
       3.6818006 -0.55207026 1.429393 -4.817982
000130 20 45 3b 40 9e fe c5 bf 53 02 9a 3c 40 9f 22 3e
       2.926094 -1.5468328 0.018799936 0.15881062
000140 1f dd 00 40 9e 11 45 3e a9 74 d0 be 29 f1 c9 3d
       2.0134962 0.19245002 -0.40714005 0.09860451
000150 9c df 1d c0 31 39 31 bf 00 ab 38 3e 35 df 49 3d
       -2.466773 -0.6922789 0.18033981 0.049285132
000160 5d 8d 43 3f 22 b1 1c 3f 76 62 cf bd 25 12 bc 3e
       0.7638758 0.61207783 -0.10126202 0.36732593
000170 b5 3c 3d be a6 05 18 3d d6 e6 8b 3f ad df ff 3d
       -0.18480189 0.03711476 1.092982 0.12493835
000180 21 4c 97 40 87 5e 04 bf 24 af 28 3f f1 32 a3 3f
       4.728043 -0.5170674 0.65892243 1.2749921
000190 f0 b7 5a 3f 3a d5 ba 3f e2 cd 07 3e 3d 94 94 3c
       0.85436916 1.4596322 0.13262132 0.018137092
0001a0 10 d1 91 be 94 b4 dc 3e 1f 1e 2f c0 a1 de 8c bd
       -0.28479815 0.4310652 -2.7362134 -0.068784006
0001b0 ef 43 9e bf ea 5f cb be f1 df a3 bd 0c 03 7b bc
       -1.2364482 -0.39721614 -0.08001698 -0.015320551
0001c0 c7 13 11 40 38 73 a3 3e cb c9 99 bd 2d 0d 44 3f
       2.266832 0.31923842 -0.07509192 0.76582605
0001d0 d7 31 4b be 30 2e 21 be 5d 01 5b 3f b0 32 7d bf
       -0.19843231 -0.15740275 0.85548955 -0.9890547
0001e0 e8 df 7c 40 d3 eb 06 bf e3 68 d6 3e bf 6b b6 be
       3.9511662 -0.5270359 0.41876897 -0.3562908
0001f0 3e 49 a0 3d 95 31 03 41 3e ed 65 ba 96 54 13 3e
       0.0782647 8.199605 -0.00087710086 0.14387736
000200 c4 9d d5 bf e6 8b 44 bf fe 27 1f 40 71 2f 25 be
       -1.6688771 -0.7677597 2.486816 -0.16131379
000210 8c 25 b7 c0 58 ea 4c 3e 82 76 cd bc f3 4c 94 bc
       -5.7233334 0.2001127 -0.025080923 -0.018103098
000220 bc 2a 83 3f ee ff f6 3e 6e 81 40 c0 55 76 49 3c
       1.0247416 0.48242134 -3.0078998 0.012296279
000230 6a 55 44 bd 4e 33 49 3e c0 07 69 3f f1 43 dc 3f
       -0.04793302 0.19648477 0.9102745 1.7208234
000240 01 36 39 40 5b 67 f1 bf 3d dd c4 bf 04 fd ad bf
       2.8939211 -1.8859667 -1.5380017 -1.3592839
000250 a8 c1 63 3f a8 08 31 40 cc 39 cc bd 75 f2 4f 3e
       0.8896737 2.7661533 -0.099719614 0.20307334
000260 b4 40 01 3f 99 fd 95 bc c8 62 d2 bf e5 65 58 bf
       0.50489354 -0.018309401 -1.6436396 -0.8453048
000270 b4 3e 3a be db 5d b6 be 3e eb 8d 3b 69 6b 83 bd
       -0.18187982 -0.3561848 0.0043310216 -0.06416971
000280 c8 d4 fc bf 66 76 88 3e 4f 8c df bf 58 ad 89 be
       -1.9752436 0.2665283 -1.7464694 -0.26890063
000290 73 2f 4c be 4c 62 39 3e 57 51 fa be f2 33 5f c0
       -0.19939975 0.18103904 -0.48890182 -3.4875455
0002a0 f8 e6 c2 3e 4e c5 af be 1c d6 08 bf 96 a0 af be
       0.3806684 -0.3433022 -0.53451705 -0.34302205
0002b0 04 18 87 be 8b b8 e3 3c e1 05 10 be 60 fb 4a 3e
       -0.2638551 0.027797958 -0.14064743 0.19822454
0002c0 8f c9 a7 be b5 29 89 bf 80 30 3a bd f1 b9 d9 bb
       -0.32770965 -1.0715853 -0.04545641 -0.0066444804
0002d0 ad 30 0f be 5f 85 a3 3b e9 48 02 be a3 bd 59 3d
       -0.13983412 0.0049902643 -0.12723126 0.053159367
0002e0 b1 09 d4 3e 3d 28 99 3d cd 34 13 be cd e6 9f 3d
       0.41413644 0.07478378 -0.1437561 0.07807694
0002f0 b7 6e c8 bd 61 f1 08 bd 24 56 f9 be a0 88 c9 be
       -0.09786742 -0.033433322 -0.48698533 -0.3936205
000300 5d 23 11 40 7a e9 80 3f f2 f6 8b 3e 96 91 a1 c0
       2.2677834 1.0071251 0.27336842 -5.0490217
000310 4b 3e b1 3f ef 3e aa c0 ea 95 20 be 38 9e 2a 3e
       1.3847135 -5.3201823 -0.15682188 0.16661918
000320 08 b9 dd 3e 89 45 8c 3e 8b c9 65 bf 72 d3 87 3e
       0.4330523 0.273968 -0.89760655 0.26528507
000330 dd 6e db bf d5 67 68 bf e1 80 ff bd 99 0b 8d bd
       -1.7143208 -0.90783435 -0.124757536 -0.06886978
000340 46 8d e2 be ce 4c 07 3f b9 9d 83 3c 7b a5 e8 3e
       -0.44248408 0.5285157 0.016066419 0.45438752
000350 45 be 30 be 66 dd 89 bd d6 cf 1d bf 6a 8e be bf
       -0.17260082 -0.067316815 -0.6164526 -1.4887211
000360 dd ee 07 3f 79 9a d5 be 38 dc 30 bf e2 a0 df bd
       0.5309885 -0.41719416 -0.6908603 -0.10919358
000370 fa a7 59 3d 13 0a fb be 3d ce 1c be 6f 89 4f 3a
       0.05313871 -0.49031124 -0.15313049 0.00079169025
000380 f0 27 37 bf 1a 73 da be 2e 21 1c be c1 71 5e 3e
       -0.71545315 -0.4266594 -0.15247032 0.21723081
000390 d2 2f 63 bf 35 16 1f 3e 6f 68 ed 3d a7 1c 9b bd
       -0.88744843 0.15535815 0.11592185 -0.075738244
0003a0 fd 0d 94 3e 01 9a 50 bd b1 cd 44 bf f7 29 bc 3c
       0.28916922 -0.05092812 -0.7687636 0.02296923
0003b0 7d 96 4c be df 6a ee 3d c9 c8 c0 bf 5a 1a d5 be
       -0.19979282 0.11641478 -1.5061275 -0.41621667
0003c0 53 91 a2 3f 74 ee 89 3f 9c da 4c 3f 36 a0 a5 bf
       1.27006 1.0775895 0.8002107 -1.2939517
0003d0 c8 6d 3f c0 5c c4 5b bf 45 96 bc 3c ff a6 c0 3c
       -2.9910755 -0.85846496 0.023020873 0.02351713
0003e0 77 fa 43 c0 b4 2e c8 be 24 fe 3b c0 5a 17 c5 3d
       -3.0621622 -0.39098132 -2.9373865 0.096235946
0003f0 4a c8 44 3f e8 59 80 3e 64 c1 c5 3c 8d c8 29 be
       0.76868117 0.25068593 0.024140067 -0.1658041

l1.bias f4 [400]
000000 a6 12 97 bf bb f3 4b bf fd 2a 45 be 0b 95 cb 3f
       -1.1802566 -0.7966878 -0.1925468 1.5904859
000010 c4 e3 20 bf 01 6a a2 3e e6 97 c0 bf 09 fe 4d bf
       -0.6284754 0.317215 -1.5046356 -0.8046575
000020 c0 9d 75 bf f2 fd 56 bf f4 95 e0 be 4d c7 15 bf
       -0.9594383 -0.8398124 -0.43864405 -0.58507234
000030 1d 20 9e bf e5 40 9f bf 90 ac 6a bf 2d 12 1b bf
       -1.235355 -1.2441679 -0.9166956 -0.6057461
000040 3f 58 ff 3e f0 26 88 3f f4 d6 8c bf db bc 6e bf
       0.49872014 1.0636883 -1.1003098 -0.9325692
000050 61 57 4c bf d2 01 ce bf b6 53 74 bf 61 f0 2c c0
       -0.7982083 -1.6094306 -0.9544023 -2.7021716
000060 c1 17 8a bd 49 1f aa bf c9 7b 9e bf 82 67 e3 bf
       -0.06742812 -1.3290797 -1.2381526 -1.7765963
000070 e1 86 3f 3e 18 15 14 3f 8a 0e 32 bf 2f 72 d7 bf
       0.18703796 0.57844687 -0.69553435 -1.6831721
000080 1f 32 b4 bf d9 fd 46 bf 94 26 f0 bf 3d 63 8b bf
       -1.4077796 -0.7773109 -1.8761773 -1.088966
000090 5d 8d fd bf f2 3d 6a bf de 2b c9 3e 30 ca 13 bf
       -1.9808766 -0.9150077 0.3929128 -0.5773039
0000a0 33 ef dc bf f4 2c 2b bf 80 f9 cd bd 9c b9 fa be
       -1.7260498 -0.6686547 -0.10057354 -0.48969734
0000b0 a2 98 57 bf 99 1b 71 3c 34 71 88 bf df ff cd bf
       -0.84217274 0.014716052 -1.0659547 -1.6093711
0000c0 f6 ea bf be b7 2b b4 bf 3d 2d 75 bf 55 df 17 bf
       -0.37483948 -1.4075841 -0.95772153 -0.5932515
0000d0 e5 01 54 bf 0e a8 64 bf ed 25 cb be 65 a4 2a c0
       -0.8281539 -0.8931893 -0.39677373 -2.6662838
0000e0 fd 2a 80 be 33 7d 60 bf 9e ad 69 3e ad 41 88 bf
       -0.25032797 -0.8769104 0.22820136 -1.0645043
0000f0 ec 60 85 bf 66 fa c1 be bb 21 66 bf 5a 05 99 3f
       -1.0420203 -0.3788635 -0.8989522 1.1954758
000100 f8 bd 23 c0 30 f2 dc bd 19 df c1 3d 77 25 aa bf
       -2.5584698 -0.10788381 0.094663806 -1.3292683
000110 78 01 20 bf 81 3e 74 bf db 62 64 bf c9 42 1e c0
       -0.6250224 -0.95407873 -0.8921334 -2.4728262
000120 da c3 7a 3e 01 6d 6a be 7d 3f 43 bd cd 8b 88 bf
       0.24488774 -0.22893144 -0.04766797 -1.0667664
000130 4e 3b 94 bf cc f3 e5 3d 1f 21 ac bf c9 0a 1f 3f
       -1.1580598 0.11228141 -1.3447608 0.6212583
000140 9e 01 95 bf bb 22 17 bf 1d b8 8d bf 12 67 df bf
       -1.1641119 -0.5903737 -1.1071812 -1.745333
000150 24 86 f1 bf 0f 90 ef bf 46 86 63 bf 3e 90 90 be
       -1.8869061 -1.8715838 -0.8887676 -0.28235048
000160 23 fb 58 bf 65 cf 49 be da c7 05 3f 40 86 34 3f
       -0.84758204 -0.19708021 0.52258074 0.7051735
000170 46 11 9e bf 11 0c de bf 6d 54 88 bf a8 c5 a3 bf
       -1.2349021 -1.7347432 -1.0650765 -1.2794695
000180 ac c5 9d bf d1 3e 8f bf 56 f3 b0 bf 82 fc a6 3e
       -1.232595 -1.1191045 -1.382426 0.32614523
000190 95 7f 8f bf c2 2c ad bf 1f 87 2a bf e9 43 c6 bf
       -1.121081 -1.3529284 -0.6661243 -1.5489475
0001a0 5c 6c bf bd 1e b7 70 3d c0 7f 9c bf 2c a9 fd bf
       -0.0934684 0.058768384 -1.2226486 -1.9817252
0001b0 d9 a8 ac bf 86 46 12 bf cd c5 a0 bf 01 f5 b9 bf
       -1.3489028 -0.5713886 -1.2560364 -1.4527894
0001c0 48 94 b7 bf fc 72 72 3f 5c cd fe bf d2 a2 f4 bf
       -1.4342127 0.947067 -1.9906421 -1.9112189
0001d0 7c a7 70 bf 08 cb 74 bf f9 00 47 bf 92 6b 89 bf
       -0.9400556 -0.956223 -0.7773586 -1.0735953
0001e0 2e 4d 9b be 62 81 ea be ff 6f b7 be b6 c5 c8 bf
       -0.3033232 -0.45801836 -0.35827634 -1.5685337
0001f0 57 48 ac bf 61 88 9f bf 4e 5e 3d 3f 4f 6f 00 bf
       -1.3459576 -1.2463495 0.7397202 -0.50169843
000200 c3 55 51 bf 7e 05 0e c0 03 79 b0 bd 13 2f 70 be
       -0.81771487 -2.2190852 -0.08616831 -0.23455457
000210 ad b2 0a c0 ee 78 dd be c1 12 a0 bf 61 87 bd bf
       -2.1671555 -0.43256325 -1.2505723 -1.4806939
000220 f6 0a 6e be de fc b6 bf 09 76 d7 be e5 40 81 3f
       -0.23246369 -1.4295919 -0.4208224 1.0097929
000230 6d 28 87 bf 6e 25 2c 3f 05 ea 74 be ab 05 1c 3f
       -1.0559212 0.67244613 -0.23917396 0.6094615
000240 25 b6 a8 bf df 4a 6b bf 7e d3 1f 3e 1e 76 88 3e
       -1.3180586 -0.9191112 0.15608022 0.26652616
000250 ad 23 91 bf d1 6e 4c bf ab fd b7 bf 7f 3d 0f bf
       -1.1339012 -0.7985659 -1.4374288 -0.5595321
000260 e0 1a de be a6 80 c0 3d 51 c9 7d bf c4 9a 00 3f
       -0.4337988 0.09399538 -0.9913531 0.50236154
000270 c4 3f f7 bf 65 54 16 c0 03 73 98 bf be 3f 13 bf
       -1.9316335 -2.348901 -1.1910099 -0.5751914
000280 c2 33 89 bf c1 70 9f 3e 06 2c 25 c0 db 92 83 bf
       -1.071892 0.31140712 -2.580812 -1.0279192
000290 bf 48 b9 bf 68 ab 7a bf 82 4b 5a be 09 e0 2a bf
       -1.4475325 -0.97917795 -0.21317866 -0.667481
0002a0 91 fa d0 bf ed e7 3d bf 36 35 1a bf 63 91 6c bf
       -1.6326467 -0.74182016 -0.60237443 -0.9240934
0002b0 04 83 71 bf 6e 4b 97 be dd 63 4c 3e 20 eb f1 bf
       -0.9434054 -0.29549736 0.1995997 -1.889988
0002c0 d1 27 b8 bf 5f 91 a1 bf e5 5d f4 be e8 75 56 3c
       -1.4387151 -1.2622489 -0.47727886 0.0130896345
0002d0 2c ea 84 bf 47 7e 29 c0 22 45 7c bf 7d f1 0b bf
       -1.0383964 -2.6483324 -0.9854299 -0.54665357
0002e0 bf 39 94 be 58 87 94 bd 06 b0 84 bf 21 ba 18 c0
       -0.28950307 -0.07252377 -1.0366218 -2.3863604
0002f0 c1 de 50 be 5e d1 bc be 6d 46 f2 bf ef cc ee bf
       -0.20397474 -0.36878484 -1.8927742 -1.8656291
000300 b0 b9 ea bd 53 38 2c bf f6 1b 0b bf 4b 66 03 c0
       -0.11461198 -0.67273444 -0.5433954 -2.0531185
000310 8d ec 04 c0 78 a4 71 bf 7c 8c dc 3f 6e 85 79 bf
       -2.076938 -0.94391584 1.7230372 -0.9746922
000320 4e 78 64 3e a9 f9 07 c0 91 1f f1 be 91 3e d3 bf
       0.22311518 -2.124613 -0.47094396 -1.6503469
000330 dc 3a 23 3f c6 ed 04 3f 40 21 6b 3f 08 4a dd bf
       0.6376169 0.51925313 0.9184761 -1.7288218
000340 38 0e bc bd 53 79 de be d0 c2 cf 3d 48 a1 b5 bf
       -0.091823995 -0.43451938 0.101445794 -1.4189844
000350 5d 82 15 be 67 4e 0e be 75 ff 0e c0 41 6c 3f bf
       -0.14600511 -0.13897096 -2.2343419 -0.7477456
000360 66 d5 9b bf 4d 4c c2 be 93 a3 b7 be 0e 30 7f bf
       -1.2174499 -0.37948838 -0.35866985 -0.996827
000370 97 91 36 3d 2a 1c 56 bf 06 e6 68 3d f6 d1 8c bc
       0.04457244 -0.83636725 0.056859992 -0.01718996
000380 56 11 9d bf f6 7f 1d bf 76 65 64 bf 05 b7 b8 be
       -1.2270916 -0.6152338 -0.8921732 -0.36077133
000390 f6 c1 d2 3f b3 90 63 bf 02 44 1c be b6 72 4a 3f
       1.6465442 -0.8889267 -0.15260318 0.79081285
0003a0 52 68 32 be f8 d9 45 3d 9d 06 c5 be 7d 21 48 bf
       -0.17422608 0.048303574 -0.38481608 -0.781761
0003b0 ee f3 81 3f dc dd 8d bf 4f 14 a7 bf 51 0a fa be
       1.0152566 -1.1083331 -1.3053073 -0.48835996
0003c0 f9 bb 45 bf 5b 1a 3d bf e6 e7 c8 be 0b 63 e7 bf
       -0.7723995 -0.7386834 -0.39239424 -1.80771
0003d0 d4 6a 9a 3e d4 62 c9 bf db 82 38 be ee 91 f7 bf
       0.30159628 -1.5733285 -0.18018667 -1.9341409
0003e0 9a b0 b2 bf 5a b1 7b 3e 2b d7 ed be c2 9e f1 bf
       -1.3960145 0.24579373 -0.46453223 -1.8876574
0003f0 10 c3 3f bf e4 4f 62 bf 9d c4 8d bf 49 cb 2d bf
       -0.74907017 -0.88403153 -1.1075627 -0.67888314

l2.weight f4 [300, 400]
000000 5f ab 3e bd b5 90 15 bd 76 08 9a bd de cb 91 bd
       -0.04655015 -0.036514957 -0.07521145 -0.07118963
000010 02 cd 54 bd d6 55 17 bd b3 f6 eb bc ef 7b 29 bd
       -0.051953323 -0.036947094 -0.028804159 -0.041377958
000020 f7 fa 2e bb e1 76 4d bd aa 67 58 bd 38 d4 29 bd
       -0.002669988 -0.0501622 -0.052833237 -0.041462153
000030 77 ad a4 bc a3 c1 c7 3c 8d f1 18 bd 62 7a 74 bd
       -0.020102246 0.024384325 -0.037339736 -0.059687026
000040 38 46 30 bd 83 0e 61 bd 8f 83 3b 3c cc b1 7a bc
       -0.043035716 -0.05494548 0.01144494 -0.015301179
000050 93 a6 63 bc fc 70 77 bc 46 be 96 bd 7b c5 6b 3d
       -0.013894695 -0.015102621 -0.073605105 0.05756138
000060 fd 78 17 bd 9d d4 02 bc 9e 89 9b bd 2f f7 22 bd
       -0.036980618 -0.007985261 -0.07594608 -0.039786514
000070 bd 29 86 bd 74 fe 71 bd 20 4b b4 bd 0c dd f8 bd
       -0.0655093 -0.059080556 -0.088033915 -0.12151536
000080 7b 78 63 bd 14 ec ff bc b8 a5 37 bd 93 af ee bc
       -0.05553482 -0.0312405 -0.044835776 -0.029136455
000090 ec a6 74 bb 7e 64 10 bd b8 61 3a bd fd cf 95 3d
       -0.0037330939 -0.035252087 -0.045503348 0.07315061
0000a0 e5 51 81 bd d9 9e da bb dc a7 fe bc 47 22 05 3d
       -0.06314448 -0.006671768 -0.031085901 0.032503393
0000b0 d3 2b c0 bc 19 28 c1 bd 79 9d 48 3d f3 83 e2 bc
       -0.023458397 -0.09431476 0.048978303 -0.027650809
0000c0 6a 1e 5f bd 6b c2 65 bc d2 8c 00 3d b5 6d 86 bd
       -0.054472364 -0.014023404 0.031384297 -0.06563894
0000d0 18 ff 4b b9 c5 4f 85 bd 11 8b 40 bc 92 83 54 bd
       -0.00019454618 -0.065093555 -0.011751906 -0.051883288
0000e0 e5 27 88 bd b7 10 a2 bd 89 5f c4 3c d3 73 00 3c
       -0.06648234 -0.07913344 0.023971336 0.007840115
0000f0 89 ef 45 bd e8 a8 b1 bc 8d ad 02 3c 8e 1b 12 bd
       -0.04832414 -0.021686986 0.007975948 -0.03567081
000100 35 e4 05 bc 5e d9 15 bb 90 7b b4 bc 8e 88 9d bd
       -0.008172085 -0.0022865157 -0.022031575 -0.07692061
000110 78 07 48 bc 06 37 1f bc a6 64 1a bd 4a 25 55 bc
       -0.012208812 -0.009717708 -0.037693642 -0.013009379
000120 a1 43 c8 bd 45 c5 00 bd 62 1b 56 bc 95 cd 82 bd
       -0.09778524 -0.03143813 -0.013068052 -0.06386868
000130 91 75 4e bd d7 5b 2f bc ae 17 a8 3c f6 95 11 be
       -0.05040509 -0.010703049 0.020519104 -0.14217362
000140 8e 35 2f 3b 36 0c 90 bd da e3 db bb bb 1d 6f bd
       0.0026734802 -0.07033579 -0.0067105116 -0.058377963
000150 a7 8d a8 bd b5 b8 9f bd 09 58 58 3c 99 43 4b bc
       -0.08230143 -0.07798902 0.013204583 -0.012406253
000160 3f 69 23 bd 9a 9d ae bb cf 2b 3a bd 47 af be 3c
       -0.039895292 -0.005328846 -0.045451935 0.023276938
000170 16 44 9b bc 0b 4f 66 bd 27 66 a0 bd c3 a0 6b 3c
       -0.018953364 -0.056227725 -0.07831984 0.01438159
000180 b5 58 32 3d 94 2c 88 3b 49 d2 cd 3c e0 11 30 3d
       0.04354163 0.0041557048 0.025124686 0.042985797
000190 fe 26 2d bc 83 0c f2 bc 64 a8 7d bd 8d 71 8c bd
       -0.0105683785 -0.029546982 -0.061928168 -0.068575956
0001a0 42 24 54 3c ba a0 d5 bd e0 fc 3f bd 48 ec 38 bd
       0.012948098 -0.10431047 -0.04687202 -0.04514721
0001b0 b5 60 84 3c 7b a3 60 bd 5c 3b f5 bb 96 95 9c bd
       0.016159395 -0.054843407 -0.007483883 -0.07645719
0001c0 35 8d 87 bd 0d eb 17 3d 17 46 3c 3b 70 3f b1 bc
       -0.0661873 0.037089396 0.00287283 -0.021636695
0001d0 43 02 fb 3c 6f 9c ae bc 47 63 a1 bd b2 05 dd bc
       0.030640727 -0.021314828 -0.07880264 -0.026980255
0001e0 94 53 75 bd 02 14 5e 3c c3 58 77 3c d6 35 94 bd
       -0.05989416 0.013554575 0.015096846 -0.07236831
0001f0 81 83 da 3b be 07 2d bd ae 33 1b bb 1f bd ba 3c
       0.0066685085 -0.04224371 -0.0023681927 0.022795258
000200 41 8a 43 bd 38 21 b2 3b 93 fd e1 bd df 79 27 bd
       -0.04773927 0.005436089 -0.110346936 -0.04088771
000210 c0 b3 ba bc 00 b2 33 bd 9f 91 a2 3d f6 0c 93 bd
       -0.02279079 -0.043870926 0.07937931 -0.071802065
000220 b3 ff 76 3c e1 46 55 3c 35 7d 92 3b 0e c4 11 ba
       0.015075612 0.013017387 0.0044704922 -0.00055605255
000230 56 a4 a5 bb 25 e2 83 bd 8a 2e 61 bd a2 d5 6a 3b
       -0.0050549908 -0.06439618 -0.054976024 0.0035832901
000240 7e 2d 2e bd 8b 02 60 bd 9d 5a 8e bd bd 0b 8b bd
       -0.042523853 -0.054689925 -0.06950877 -0.06789348
000250 29 95 c6 bc 63 83 e6 bd cd 8c 15 3d 3a 1c d0 bc
       -0.024241047 -0.11255529 0.03651123 -0.025404084
000260 fb 77 fa bb 4d 59 8f bc b5 b4 8f bc 85 28 17 bc
       -0.0076436973 -0.017498637 -0.017542223 -0.009225969
000270 67 08 a0 bd 74 a8 77 bd c5 1d 05 bd ed 56 12 3d
       -0.078141026 -0.060463384 -0.032499094 0.03572743
000280 bd 8d 06 bd e4 9e 70 bd f4 ce fb 3b 0b 37 6a 3c
       -0.032850016 -0.05874528 0.007684583 0.01429535
000290 9a 00 d2 bd 60 39 38 bd 75 de 87 3d 0f 51 b9 3c
       -0.10254021 -0.044976592 0.06634227 0.02262166
0002a0 fa 1e 5b bd 58 5a c2 3c 13 be 76 3c a8 b0 37 bd
       -0.05349634 0.02372472 0.015059966 -0.044846207
0002b0 87 59 ac bc 45 5c 85 bd 76 dc 98 bd 72 b4 dc bc
       -0.021038784 -0.0651174 -0.074639246 -0.026941512
0002c0 e6 f1 a9 3c 8c 73 7b bd 3d c5 03 bd 0c 01 0c bc
       0.020745229 -0.06138949 -0.032170523 -0.0085451715
0002d0 ec 22 8a bd 18 d9 b0 bb d1 a7 4f bd d5 85 8f bd
       -0.06744942 -0.0053969733 -0.05069715 -0.07007948
0002e0 21 d6 d3 3c 16 ad 16 bd 44 96 0c 3d ff f8 3c bb
       0.02585894 -0.03678616 0.034322992 -0.0028834937
0002f0 b3 47 6b bb 70 81 bf bc a0 52 b9 bc 7a 5f 9a bc
       -0.003590089 -0.02337715 -0.022622406 -0.018844355
000300 eb 70 7d 3c 57 8b a5 bc dd fa 85 3c 57 14 24 bd
       0.015468816 -0.020208044 0.016354972 -0.04005846
000310 e6 a1 95 bd 38 bd b1 bd a5 3f 83 bd 56 5b 94 bc
       -0.0730627 -0.08678669 -0.064086236 -0.018109959
000320 ca 68 50 3d a5 3d 94 bc 16 74 13 bd b0 53 b7 bd
       0.050881185 -0.0180958 -0.03599938 -0.08951509
000330 cf f3 ba 3c f1 77 4b bd b4 ef 01 3d 52 dd dd bd
       0.022821335 -0.049674932 0.03172274 -0.10833229
000340 da 3f ee 3b 32 15 d0 bd ab 82 60 bc 2a b8 d5 bc
       0.0072707953 -0.10160293 -0.013703029 -0.026088793
000350 5b 5c fc 3c 63 7f ef bd 78 a5 b6 bc ae 4b 17 bc
       0.030805757 -0.11694219 -0.022295699 -0.009234352
000360 10 57 38 bd 1d 01 06 bd 38 0b 20 bd 18 dc 3c bc
       -0.045004904 -0.032715905 -0.0390732 -0.011527084
000370 86 4d 95 bd 57 01 23 bd 2e 3e 93 bd 0f ab 2a bd
       -0.07290177 -0.0397962 -0.07189594 -0.04166704
000380 4c aa 75 bd 60 02 bd bc 97 ab 29 bd 75 9c 12 3d
       -0.05997686 -0.023072422 -0.041423406 0.03579374
000390 75 00 13 3c b0 de 3d bc 6b f4 65 bd a8 d0 3a bd
       0.008972277 -0.011588737 -0.0561413 -0.045609146
0003a0 05 9c 8a 3c 80 97 32 bc 47 bb 23 bd 77 cc bc bc
       0.016920099 -0.010900378 -0.039973523 -0.023046715
0003b0 cc 4a 87 3c 07 18 00 bc 3d c5 9c 3c fd 1f ef 3c
       0.016515158 -0.007818229 0.01913702 0.029190058
0003c0 5d 3a 8a bd de b4 19 bd 28 ff c5 3c cc 89 89 3b
       -0.06749413 -0.037526004 0.02416952 0.004197335
0003d0 6d 70 14 3d 29 f8 42 bc 7d 38 8f 3c d0 3f bf bd
       0.03624003 -0.011899986 0.01748299 -0.09338343
0003e0 81 a3 44 3d 7d 02 98 3c 8d cd 05 bd ff 7c 27 bd
       0.048007492 0.018555874 -0.03266673 -0.04089069
0003f0 5c 21 8a bc e6 b6 9e bd a2 b9 de bd fa fc 68 bb
       -0.01686161 -0.07749729 -0.108752504 -0.0035551176

l2.bias f4 [300]
000000 5d 38 82 bd 5a 13 52 be b8 b3 3d bd 2a 74 d8 bd
       -0.06358407 -0.20515195 -0.04631397 -0.105690315
000010 9b 11 64 bd 28 4d 96 3e 88 49 37 bf 01 34 c8 bd
       -0.055680852 0.2935574 -0.71596575 -0.09775544
000020 16 5b 93 be 59 37 4c be 4d 3d 03 bf 1c e4 75 bd
       -0.2878043 -0.19942988 -0.5126541 -0.060031995
000030 ad bc 80 bf ad d1 89 bd 1e dd ec 3e 09 d1 c8 bd
       -1.0057579 -0.067294456 0.4626245 -0.09805495
000040 7f d8 2e 3f 33 05 a4 be ec fd 72 bd e5 3b 8d bd
       0.68299097 -0.32035217 -0.05932419 -0.068961896
000050 d7 fb a5 bd c8 69 8d be 29 04 41 bf bc 51 77 bd
       -0.08104675 -0.27619767 -0.7539697 -0.060380682
000060 8e f6 93 bb 03 c4 e2 bd 91 6d c7 bd 92 3e 53 bd
       -0.0045154756 -0.110725425 -0.09737695 -0.051573344
000070 0f 33 a5 bb b5 82 0f bf f6 0b 28 bd 6e 4d 1e bd
       -0.005041487 -0.5605882 -0.04102703 -0.03864806
000080 a6 18 96 be 64 c5 74 bd c4 65 22 3f 54 75 ff bd
       -0.2931568 -0.05975856 0.6343653 -0.124735504
000090 14 f6 75 bd d0 04 b4 bd e7 8d a9 bd 8d 07 8d bf
       -0.06004913 -0.087899804 -0.08279019 -1.1017929
0000a0 38 a9 2e bf 24 d3 79 bc 6f 1e 2a be 6b f3 e4 be
       -0.6822696 -0.015248094 -0.16613172 -0.44716963
0000b0 93 83 ed bd e4 60 72 bd c7 f1 7b bd 53 0a 63 bd
       -0.115973614 -0.059174433 -0.061509874 -0.055429768
0000c0 ae 98 1f be 1b 82 64 bd 95 a7 00 be ac f4 ff bd
       -0.15585586 -0.05578814 -0.12563927 -0.12497839
0000d0 0c 72 75 bd 9d d1 0f be 0f 4c 25 be 19 c1 4d be
       -0.059923217 -0.14044805 -0.16142295 -0.20093192
0000e0 a9 57 ca bd 66 2e 22 bf d8 a9 3b bd e6 7b af bd
       -0.09880001 -0.6335205 -0.045816272 -0.085685536
0000f0 6c 9a 74 bf a4 d1 73 bd ee 94 10 bd 98 91 3e bd
       -0.9554813 -0.0595261 -0.03529828 -0.046525568
000100 1e 84 1e bc f9 c7 45 bf 5f 54 a7 bd ee 39 9b bd
       -0.009675054 -0.7725826 -0.081703894 -0.075794086
000110 28 ac be bd 26 e6 93 bf d8 78 bf bd e9 b6 8d 3f
       -0.0931018 -1.1554611 -0.09349221 1.1071445
000120 37 cf ae bd 51 fe 4b bd 0d 7e 0c bd ef 55 74 be
       -0.08535617 -0.049803082 -0.0342999 -0.23860906
000130 23 8f e3 bd c6 1f 5e bf 27 31 ad bd 20 f9 b0 bd
       -0.111112855 -0.8676723 -0.08456641 -0.08641267
000140 9e e1 9d bd a9 63 c8 bd 2a 11 dc bd 76 40 19 bc
       -0.07709049 -0.09784634 -0.10745461 -0.009353748
000150 1d 97 86 bd 84 53 06 c0 c9 fb c4 bd cc dd 7b bf
       -0.06571791 -2.0988474 -0.09618337 -0.9838531
000160 e3 aa ee bd 6e 92 1f bd e0 b6 ba bd 0d af 08 bf
       -0.11653688 -0.038958006 -0.09116912 -0.53392106
000170 57 13 20 bf 3f e9 af be ca 84 dc be 8b 50 6c be
       -0.6252951 -0.3435764 -0.4307006 -0.230776
000180 87 dc ab bf df cc 2e bf 5d 4b 83 be 71 78 b8 3e
       -1.3426675 -0.6828136 -0.25643435 0.3602939
000190 f9 c1 fe bf 25 8d 8d bf 55 40 8c bd cf 6c ab bc
       -1.9902946 -1.1058699 -0.06848208 -0.020925907
0001a0 75 6c 81 bd 80 10 b7 bd 7e 9f 9b bd 97 00 00 be
       -0.06319515 -0.08938694 -0.0759878 -0.12500225
0001b0 84 81 84 3c 1a bf 5e bd 2a a0 52 be 44 2d f8 bd
       0.01617504 -0.054381467 -0.2056891 -0.12118009
0001c0 02 58 5b bd 99 8e cb bd 60 88 c1 3e d6 cc 98 be
       -0.053550728 -0.09939308 0.37799358 -0.29843777
0001d0 7e 93 9d bf eb 06 65 3e 14 03 f8 be f0 b6 34 bc
       -1.2310636 0.2236592 -0.48439848 -0.011029944
0001e0 4b f0 61 bd 90 49 34 bf e7 40 21 be 5f 59 22 bd
       -0.0551608 -0.7042475 -0.15747415 -0.039636012
0001f0 17 de ab bd b6 9e c0 bf d2 30 14 c0 54 1b f5 bd
       -0.0839197 -1.5048435 -2.3154798 -0.11968103
000200 6d 3c 8c be b9 88 40 bd 2e 0e 1b bf 8a 6f d2 bc
       -0.2738985 -0.04700539 -0.6056851 -0.025687952
000210 d3 8f 6c be d8 81 b1 bd 13 f8 e4 bd f5 3d 8f bf
       -0.2310174 -0.08667344 -0.11180129 -1.1190783
000220 fd 36 09 bd d8 2e 85 bf 66 b0 1d bd 74 6a f9 bd
       -0.033499707 -1.040492 -0.038498305 -0.121785074
000230 0f dd aa bd 5d 22 8e bd 41 de 4e bd 10 db bb bd
       -0.08342945 -0.06940148 -0.050504927 -0.09172642
000240 7e 77 59 bf d7 67 2d bf 39 0e de bf fa cb d3 bd
       -0.84947956 -0.6773657 -1.734809 -0.1034164
000250 86 55 9c bd 77 1a b0 3d 19 e7 07 3f 00 f3 3d be
       -0.076335 0.08598798 0.53087 -0.18549728
000260 8a 18 d4 bc e1 92 c0 bd 2c c9 e1 bf 67 d3 ac be
       -0.025890607 -0.09403015 -1.7639518 -0.33755037
000270 d2 4c da bf 8a 0b d2 bd b2 31 f8 3c 9b f1 e0 bd
       -1.7054694 -0.10256107 0.030297134 -0.109835826
000280 a8 f3 b0 bd e3 1c 75 bd f5 3b 07 bf e9 e1 cd bc
       -0.08640224 -0.059842 -0.5282586 -0.025132136
000290 aa 54 d7 bd f1 82 c5 bc f0 a5 bb bd 1e 10 90 bd
       -0.10514195 -0.02411029 -0.091625094 -0.07034324
0002a0 19 28 41 bf 64 eb 6d bd ca ad ea 3a 3e d8 9d bd
       -0.7545181 -0.058085814 0.0017904576 -0.077072605
0002b0 2e e8 18 bd b6 b8 1f bf 46 9e 13 be 45 ce d6 bf
       -0.0373308 -0.6239122 -0.14415845 -1.6781698
0002c0 9d 6d 8f be a2 ea da bd 95 db 08 bd 9a 21 59 bd
       -0.28013316 -0.10689284 -0.033412535 -0.05301056
0002d0 e6 ef 08 be f0 97 b5 be c3 ad ed be f0 4e bd bf
       -0.13372764 -0.35467482 -0.46421632 -1.4789715
0002e0 98 52 bc bd 15 73 0f be 47 b6 a8 bc 29 50 45 bd
       -0.09195441 -0.14008744 -0.02059473 -0.04817215
0002f0 4c 5e f1 bd 9d a2 82 bd 40 44 98 3e e8 9c 4a 3f
       -0.11785564 -0.06378672 0.2973957 0.7914567
000300 e5 ab 8b bd 7e 7d 10 bf 9f e2 a1 bc a1 a1 49 3e
       -0.06819896 -0.56441486 -0.019761382 0.19690563
000310 32 05 92 bf 1d 28 8c be c2 9a d3 bd d8 d5 3c bd
       -1.1407835 -0.27374354 -0.10332252 -0.046102375
000320 b6 44 11 bd a8 2b b0 bf 70 84 32 be 6d 4d 05 be
       -0.03546592 -1.3763323 -0.17433333 -0.13017817
000330 ea 11 5f bc 75 09 85 bd 67 02 21 bd 91 bf 4a be
       -0.013615111 -0.064959444 -0.03930893 -0.1979964
000340 b8 c0 3f be bd af 11 bf d6 66 10 bd fb 1b 68 be
       -0.1872586 -0.5690878 -0.035254322 -0.22666924
000350 b3 4b e2 bd 8e 0a 99 bd 3f 2c 29 be 90 2a 2e 3f
       -0.11049595 -0.07472716 -0.16520785 0.68033695
000360 4f c2 a3 bd c9 45 41 bd 08 df b5 bd b6 b3 8a bc
       -0.07996046 -0.047185693 -0.088804305 -0.016931396
000370 7f 0b 23 bd 49 d6 44 be e0 0c b5 be 3c 4c fa bd
       -0.039805885 -0.19222368 -0.35361385 -0.12221572
000380 2b 6a e2 bd 1f 6e aa bd 1e c2 9c bd 2d cb 88 bf
       -0.11055406 -0.08321785 -0.076542124 -1.0687004
000390 6f 52 c8 3e c7 b0 ab bd 66 e4 68 bf 09 6e 4c bf
       0.39125392 -0.08383327 -0.9097351 -0.798554
0003a0 98 e0 35 bc 2c d9 75 be 6e 20 19 40 35 a5 9c bf
       -0.011100911 -0.24008626 2.3926044 -1.2237917
0003b0 2d 16 89 bd ca 07 dc bd 88 a2 bd bd b1 83 c8 bc
       -0.06693683 -0.10743673 -0.09259516 -0.024476858
0003c0 21 3e 4b be b8 81 05 bf 1c 7c fe bc 5d b0 07 be
       -0.19847919 -0.5215106 -0.03106504 -0.13250871
0003d0 df ab a7 bc 3a 11 56 bf 48 7a b2 bd ea 23 5c bd
       -0.020467697 -0.83620036 -0.087147295 -0.053745188
0003e0 91 bc 1e be 0c 99 7b bf 7e 97 14 bf fc fe f0 be
       -0.1550162 -0.98280406 -0.5804366 -0.47069538
0003f0 ef 05 ac bd b8 dd b6 bd 8c 91 dd bf ca c5 7e 3e
       -0.08399569 -0.08929008 -1.7310042 0.24880138

l3.weight f4 [4, 300]
000000 16 fc 26 bd 1e e3 23 3e 42 77 db 3c 3c 12 73 bc
       -0.04076775 0.16004607 0.026790265 -0.01483589
000010 77 16 80 3b 05 af 02 c0 71 09 53 bf b0 d5 cb 3d
       0.003908928 -2.0419323 -0.8243628 0.09952867
000020 51 73 5e bd a8 12 b0 bc d8 c9 be be 01 9f cb bb
       -0.054309193 -0.021493271 -0.3726337 -0.006214023
000030 46 11 9e bd d4 e3 f7 3c 6a 05 45 3e 05 51 8a bc
       -0.077181384 0.030260004 0.19240347 -0.016884336
000040 b3 19 7b 3f 67 e9 70 bd 7e 95 25 bd e5 94 93 bc
       0.9808609 -0.05881634 -0.04042577 -0.018015334
000050 3f c3 2d 3d 89 ae 54 3f 12 66 5b 3f b8 e9 b4 bc
       0.04242253 0.8307882 0.8570262 -0.022084102
000060 f8 6c ce 3b 5e 18 18 3d e9 57 cb 3c bd f0 82 bd
       0.006299611 0.037132613 0.024822192 -0.063935734
000070 97 3f a2 3c 66 11 ab be 28 47 3a 3e 19 e1 50 3c
       0.019805713 -0.3341171 0.18191206 0.01274898
000080 af 17 a8 bf 4d fe 99 bc ff 69 26 c0 7a 8e 57 bd
       -1.3132228 -0.018798018 -2.6002195 -0.05262611
000090 c8 e4 b3 3d 14 4c f0 3c 6c 51 fc bc ce 00 24 bf
       0.08783871 0.029333152 -0.030800544 -0.6406373
0000a0 d2 f1 64 3e 90 2b b9 3b fe aa 97 3d fe d8 4b bb
       0.22357872 0.005650945 0.07405661 -0.003110468
0000b0 04 f4 0c 3d 6b 59 ea bc ab 28 f8 3c 1f 9e 3b bc
       0.0344124 -0.028607091 0.03029283 -0.011451273
0000c0 08 90 3e 3d 9d e3 0c 3d 90 5e 3d 3d 47 58 27 bc
       0.046524078 0.034396756 0.04623276 -0.010213918
0000d0 7e a3 ab 3c 37 68 a2 3e 9f 8b 23 bc 33 6a f8 3e
       0.020951983 0.31720135 -0.009982019 0.48518524
0000e0 49 b5 d6 bb b9 9a 56 bf cf c9 a8 3d 32 70 86 3c
       -0.0065523726 -0.8382984 0.08241617 0.01641092
0000f0 a6 be a4 bf b3 1d 72 3d e6 62 93 bc 0b ac e3 ba
       -1.2870681 0.059110355 -0.017991494 -0.0017369998
000100 72 dd ea bc 08 2f 5c 3e 9e ae 19 3d 5b 59 70 bd
       -0.028670046 0.21502316 0.037520044 -0.058678966
000110 38 09 b6 3c 45 ea 97 3e ee 59 1e 3d 67 b4 bf 3c
       0.022221193 0.2967092 0.038659982 0.023401452
000120 e6 77 1c 3c 6c 68 8d 3c 3f 49 80 3b 66 77 23 c0
       0.00955007 0.017261706 0.0039149816 -2.5541625
000130 1d 06 9a bc ec a9 5a 3b 69 f4 4c bd 59 52 54 bc
       -0.018801743 0.0033365441 -0.050037775 -0.012959086
000140 a7 d9 2c 3d c6 14 13 ba f8 50 42 3c f0 23 c0 bb
       0.042199757 -0.00056107005 0.011860125 -0.005863659
000150 a3 56 62 bd a6 d3 a1 3c 6e 13 17 3c c6 d9 20 3e
       -0.055258404 0.019754242 0.009220941 0.15708074
000160 ce 08 92 bc 91 7d 55 3e 38 aa 30 3c be 6e a0 bf
       -0.017826464 0.20848681 0.010782771 -1.2533796
000170 ad cd 12 3e 05 42 99 3f 22 88 80 be 74 6f 0d 3f
       0.14336272 1.1973273 -0.2510386 0.5524819
000180 d6 ab aa bf e8 0e ba 3d 78 e6 40 bd 7e 76 a6 bf
       -1.333369 0.090848744 -0.047094792 -1.3004911
000190 fe cb 0e 40 02 31 6e be f9 7f 4f bd 28 c9 4e 3c
       2.2312007 -0.23260882 -0.050659154 0.012621202
0001a0 c7 31 a3 3d 7d a7 89 3c e5 f0 8c bc 50 55 4a bc
       0.07968479 0.016803497 -0.017204711 -0.012349442
0001b0 c2 07 5f 3b b8 58 48 3d 69 cb 01 3d ee 24 2b be
       0.0034031724 0.048912734 0.031688128 -0.16713306
0001c0 f7 d1 a0 3c aa 54 57 bc 18 0d 05 bd 93 6d e0 bd
       0.019631369 -0.013142744 -0.03248319 -0.109583996
0001d0 d0 fe 4d 3f 10 31 36 40 9c a1 fe 3e ab 89 fc 3b
       0.8046694 2.8467445 0.49732673 0.007706841
0001e0 08 26 3f bc da 89 51 40 f5 38 94 bd a0 0e 3c 3d
       -0.011666782 3.2740388 -0.07237426 0.045912385
0001f0 90 9b 37 3d 97 d4 07 bd 6f 90 59 bc 06 56 9e 3a
       0.04482609 -0.033161726 -0.013279065 0.001208008
000200 3f 11 a1 3f 11 02 42 bb e8 2c ce 3d 24 97 03 bd
       1.2583388 -0.0029603282 0.10067159 -0.03212656
000210 0c a1 02 3e 4a dc dc 3c 31 bc c9 3d 43 31 6f bf
       0.12756747 0.02696051 0.09850348 -0.9343454
000220 e9 69 48 bc 3d d8 5b 3f 8c b2 7d 3d b9 6c cd bc
       -0.012232282 0.8587683 0.061937854 -0.025076257
000230 3b 40 63 bd 75 56 0d bc 79 ac 52 bd f0 39 34 bd
       -0.055481177 -0.00862657 -0.051434014 -0.044000566
000240 e0 2f cf 40 c5 49 9f be ab 2b 9b 3d 68 2e 3b 3c
       6.474594 -0.3111097 0.075766884 0.011424638
000250 ce f4 a5 bd ca 70 57 be 83 b2 83 bc 8f ad b4 3d
       -0.081033334 -0.2103912 -0.016076332 0.08822166
000260 68 b7 b9 b9 e5 50 16 3c b9 8f cc 3d 24 ef 85 be
       -0.00035422598 0.00917456 0.099883504 -0.26159012
000270 ca c7 6e 3f 9a 67 5e b9 95 65 57 3b 16 fe 15 3c
       0.93273604 -0.00021210164 0.0032866944 0.009154817
000280 45 7c 88 3b f7 b3 a5 3d 99 07 55 3f e7 c9 b8 3b
       0.0041652047 0.08090966 0.8321472 0.005639303
000290 05 70 89 ba 66 f1 27 3f 1c 1b 8a 3e 37 1c b7 3b
       -0.0010485655 0.6560272 0.26973808 0.0055880803
0002a0 91 01 40 3f ce 84 81 be f4 db 7d 3c e9 26 4f 3d
       0.7500239 -0.25296634 0.015494335 0.050574217
0002b0 c6 81 9e 3c 02 02 e1 bf f4 79 85 3d 33 c8 ba bc
       0.01934899 -1.7578738 0.06517401 -0.02280054
0002c0 8c b9 80 bd 73 96 e1 bc 8c a7 83 bc a6 a6 28 3e
       -0.0628539 -0.02753756 -0.016071104 0.16469821
0002d0 e6 49 13 3d fe cc a2 c0 81 8f d8 be 24 1c 8b bf
       0.035959147 -5.0875235 -0.42296985 -1.0867963
0002e0 8c d3 04 bd e8 64 34 bd 2e 53 9c 3d 6a 55 5a 3d
       -0.03242831 -0.044041544 0.07633053 0.053304113
0002f0 6c 60 86 3c 68 cf ce bc c3 a4 88 3b 3c 7a bf 3d
       0.0164034 -0.025245383 0.0041700318 0.09349486
000300 21 16 da bc ce b0 28 bf 18 8a b9 bc dd 0c 9c 40
       -0.02662188 -0.6589478 -0.022648856 4.87657
000310 f1 f4 20 3c b0 1d c0 bd 26 14 1d 3d f6 1b 9d 3c
       0.009824024 -0.093806624 0.038349293 0.019178372
000320 ac 0c 7c bd b8 ed c4 bc 62 8f e4 3c 3c a2 f4 3b
       -0.061535522 -0.024039134 0.027900402 0.007465629
000330 96 7c 1c 3c f0 d3 c4 3c 77 9f 37 3d 4e 06 a1 b9
       0.009551188 0.02402684 0.044829812 -0.0003071301
000340 0e c4 91 3c a5 fa 81 3e 2f d8 23 bd d6 22 ac 3f
       0.017793681 0.2538654 -0.04000109 1.3448131
000350 d8 c7 b6 bb 5d 18 98 bb 7d b1 98 bd d5 cb 38 40
       -0.0055780225 -0.004641576 -0.07455728 2.887441
000360 40 99 cd bc ef 73 bb 3c ca 62 6a bc 9d ec 97 40
       -0.02509749 0.02288243 -0.01430578 4.7476335
000370 10 e0 36 bd e6 0a 11 3c 06 56 1e bd e2 6f 63 bd
       -0.044647276 0.008852696 -0.038656257 -0.05552662
000380 13 a3 ee bc 56 eb 95 3a 9e f1 12 3d 7c 83 0f be
       -0.029130494 0.0011437933 0.035874955 -0.14015001
000390 41 48 0d 41 cb 69 6d 3c fd 1a 1a bd be 4f a1 bf
       8.83014 0.014490555 -0.037623394 -1.260246
0003a0 24 3f 81 bc d7 71 a3 3d a1 aa 3c 3c 84 a9 75 3c
       -0.015777178 0.079806976 0.0115152905 0.014994029
0003b0 b8 f1 3b 3d bf 4b 2a bb 2e ed 2c bc 65 14 85 3d
       0.045884818 -0.002598509 -0.010554595 0.064980306
0003c0 07 13 be 3c 20 18 00 bf 52 35 00 3d 76 fd 9f 3d
       0.023202432 -0.5003681 0.03130085 0.07812016
0003d0 53 22 78 3c b9 32 46 bd 5b 43 7c bd 64 cc 77 bc
       0.015144902 -0.048388217 -0.061587673 -0.015124414
0003e0 51 b3 92 bc 6e 09 a1 3e 4c 77 8a be 08 6f 37 bf
       -0.01790777 0.31452507 -0.2704414 -0.71653795
0003f0 22 2a df bb ef 72 37 3d c6 21 15 3f 00 21 1a be
       -0.0068104425 0.044787344 0.5825466 -0.15051651

l3.bias f4 [4]
000000 de 2d e2 be b6 23 12 3f 2d 49 a8 bf 68 56 67 bd
       -0.4417562 0.5708574 -1.3147331 -0.056478888
