TD3_control/dir_Walker2D_002/biped-v4-2d-2_actor_t.pth (torch, 531841 bytes, 6 tensors)

l1.weight f4 [400, 24]
00000000: 596a b43e bc1d 7e3f f2a2 493d 0a3a 113e
00000010: 2a3c 2ebe e09f de3e d5ad 5dbd 30b0 d73d
00000020: 8e0e 34be 84cc f5bd 20e1 c83d 6928 d13c
00000030: 02d5 b43c b37b 23be ac00 6f3d a907 593d
00000040: 65bc 153e 53d7 433e 1070 76bf e595 a7bd
00000050: ecf2 f5be 8535 153e f1fd 9ebe 040d b93e
00000060: a431 d33d 7c74 b93e cfec dcbe e8ec 53bf
00000070: 180a 55bc 3cbd a6be 09c6 3fbe 965e e7be
00000080: ebed a6be 87a0 9e3e 804a 27bf afc0 e73d
00000090: f7dc 2f3c cee7 d2bc f9e5 d63e 3293 973b
000000a0: 0157 e33d d7a5 ba3d 0cc6 eb3d 01e1 7cbd
000000b0: e842 c73c 9d74 413e 5dcf 6ebe 210b 8f3e
000000c0: 4eca 69be ba54 8f3d 1136 123e b04c d8bf
000000d0: c1d0 57bc 18e1 18bd 7b37 b8bd 99e7 2bbf
000000e0: b3ef 08be 8071 4d3e 6d42 a1be 616c 123d
000000f0: 3060 503e baff 53bc c909 163f b14e 0d3d
00000100: f6bb 223e 900f 50bd baca 27be 9e66 6b3d
00000110: f6c7 4a3f 686d 4c3b 624e ae3e fb20 b3bd
00000120: b3bc 903d 9880 7ebe 052a cfbe d7d8 c33e
00000130: d646 15be a539 2bbe 8a8f d5bc 46c1 57be
00000140: 106c f03d 8212 313f 2c16 b63e 8485 90be
00000150: 76ef a5bc 112d 75be d86c 9c3e a8f3 4dbe
00000160: 2b4e b23d bd07 03be 68fd 0bbe b0c0 83be
00000170: 40af 8bbe d691 eebc 69dc 0fbf f05e 9cbd
00000180: 90c9 c63e 38c5 ce3e f688 68be 7a31 44bd
00000190: 83a1 3bbe 4f6b ac3d ecc7 383e f640 6ebd
000001a0: ea96 b0be 4e40 7bbe c906 97be 4495 cf3d
000001b0: 44bf 7cbe a57a 233e 9149 cbbd b92f babe
000001c0: 284f 153f e76a ab3e 00aa e6bd 794f 2fbe
000001d0: b2e9 92be c928 c7bd 0dcc efbe 805d c03e
000001e0: ab9b 603e f940 cd3e 9a47 5bbe ddf2 173f
000001f0: c930 6e3b f76a 2d3f b1fc 2ebe 4ac6 683e
00000200: 9a16 dfbe cfc2 25be bd63 8dbd 9101 593d
00000210: 7772 32be df20 ba3c b560 1d3e 7a93 eb3b
00000220: 0925 54bc 2a25 e139 1b4c 6dbe f88f c43c
00000230: fe20 2ebc d576 1e3d c810 35be b58b 01be
00000240: 003c 4abe 605a 0e3f a523 69be 562f c2be
00000250: 6593 4ebe 1b41 ee3e b714 dc3d 5d0c 13bf
00000260: 48f8 12be 1548 afbe 0363 5f3f 59fa 413e
00000270: 4554 f83d 5b1a bebd 097a 133e c9c8 dcbc
00000280: 15f2 8dbe 06c7 a0bc 00b1 df3d e434 4cbe
00000290: 71d0 33be d891 b9bd 29cb 92bc 3641 ecbd
000002a0: 2617 6e3e f9fa c73d 8388 6ebe 3ba6 6b3d
000002b0: 28ae 4fbe b30d 643e 2249 ab3b 2a33 673e
000002c0: 6d31 92be edb5 17be 88d8 cdbd 0186 cb3c
000002d0: 8d06 89be 0931 523d 3556 0c3d 4970 d5bb
000002e0: f46d 07bb ffd4 a93c 0a60 dfbe 1ff3 b13c
000002f0: cdde 983d 33f5 fe3d fa6e d6be 7a7d debe
00000300: 93c8 ee3b b0ef b63e 855e 8ebe 14c5 f93d
00000310: c6f8 2c3e 94c9 723e 6ae6 353e 7af5 e33d
00000320: 4a63 d3be d674 16be 4d04 19bd 680c 49bd
00000330: 79d4 5cbe ac98 06be 0609 963d f10a c0bb
00000340: 5afa d13e 9df8 95bc 9610 aebe b5af 14bc
00000350: 1f72 a13d 8f00 23ba 01ef c6be 498c c8be
00000360: fbc3 7e3e bc90 eabe 5030 b4bd 5862 0d3f
00000370: f2ec 3dbe 40f4 bebd b183 463d b007 263f
00000380: 29ab 5f3e 0d28 023f 7b2c 273c 77fb 9e3c
00000390: 3f67 7dbe e8dc a13d 8f78 d83e 13b3 ab3e
000003a0: 3b44 d13c 2c9d a6bd 571a 66bc a1ca cb3c
000003b0: d7c0 ea3d a60c 18bd b820 17bf 712e a63d
000003c0: c00c d8be b5b2 833e 53df dabe f317 a0bf
000003d0: 980f 35bc 2ebb 2ebe 242a b6bd 8980 20bf
000003e0: 9191 a83d fd52 01bf 5293 18be 2a5a 9b3d
000003f0: 33d6 90bd a42f 323e 9cf5 b63e e579 a4be
0.35237387 0.9926412 0.049227662 0.14182296 -0.17015138 0.4348135 -0.054120857 0.10531652
-0.17583677 -0.12001899 0.09808564 0.025531964 0.022074226 -0.15965156 0.05835025 0.05298582
0.14622648 0.19125108 -0.96264744 -0.08182887 -0.48036897 0.14571197 -0.31053117 0.36142743
0.103122026 0.36221683 -0.4314942 -0.82783365 -0.013002895 -0.3256625 -0.18727888 -0.4518935
-0.32603392 0.30981848 -0.6534805 0.11316048 0.0107338345 -0.025745299 0.4197233 0.0046257013
0.11100579 0.09113663 0.11512384 -0.061738018 0.024323896 0.1889214 -0.2332129 0.27938178
-0.2283108 0.06998582 0.14278437 -1.6898403 -0.013172329 -0.03732404 -0.08994957 -0.67150265
-0.13372688 0.20062828 -0.3149599 0.03574789 0.20349193 -0.012939388 0.5860868 0.034498874
0.15892014 -0.05079609 -0.16385928 0.05747091 0.79211366 0.003119314 0.34044176 -0.08746525
0.070672415 -0.24853742 -0.40461746 0.38251373 -0.14577803 -0.16721208 -0.026069421 -0.21069822
0.11739361 0.69168866 0.3556379 -0.28226864 -0.020255785 -0.23942973 0.3055179 -0.20112479
0.087063156 -0.1279592 -0.13670886 -0.25732946 -0.27282143 -0.029122274 -0.56195694 -0.076352954
0.38825655 0.4038484 -0.22708496 -0.047898747 -0.1832333 0.08418905 0.18045014 -0.05816742
-0.34490138 -0.24536249 -0.29497364 0.10135892 -0.24682337 0.15964754 -0.09926141 -0.36364534
0.5832391 0.33479998 -0.11262894 -0.1712016 -0.2869392 -0.09724576 -0.46835366 0.37571335
0.21934383 0.40088633 -0.21414033 0.59354955 0.0036344996 0.6774134 -0.17088582 0.22731891
-0.4357193 -0.16187595 -0.06903789 0.05298001 -0.17426477 0.022720752 0.15368922 0.0071892114
-0.012948283 0.00042943034 -0.23173563 0.02399443 -0.010627983 0.038687546 -0.17682183 -0.1265095
-0.1974945 0.5560665 -0.22767504 -0.3792674 -0.20173414 0.46534047 0.107461385 -0.5744074
-0.14352524 -0.34234682 0.87260455 0.18943156 0.12125448 -0.09282371 0.14402021 -0.02695121
-0.27723756 -0.019626152 0.10922432 -0.19942051 -0.17559983 -0.090610206 -0.01791914 -0.115358755
0.23251018 0.09764666 -0.23294263 0.057531577 -0.20281279 0.22270851 0.005227224 0.22578111
-0.28553334 -0.14815493 -0.10051066 0.024844171 -0.2676281 0.051316295 0.0342619 -0.0065136296
-0.0020664902 0.020731447 -0.4362796 0.021722374 0.07464371 0.12449112 -0.41881543 -0.43455106
0.007287094 0.35729742 -0.27806488 0.12195793 0.16891775 0.23709708 0.17763677 0.11130805
-0.4128669 -0.14693007 -0.037357617 -0.049084097 -0.21565427 -0.13144177 0.0732594 -0.0058606793
0.41011316 -0.018307025 -0.3399703 -0.009075095 0.07883095 -0.000621804 -0.3885422 -0.3916953
0.24879448 -0.4581355 -0.087982774 0.55228186 -0.18547419 -0.09323931 0.048465434 0.6485548
0.21842636 0.5084236 0.010203476 0.019407017 -0.24746417 0.07903463 0.4227948 0.3353506
0.02554523 -0.08135447 -0.014044366 0.024876894 0.114625625 -0.037121437 -0.590343 0.08114327
-0.42197227 0.2572228 -0.42748508 -1.2507309 -0.011051081 -0.17063591 -0.088947564 -0.6269613
0.082308896 -0.50517255 -0.14899948 0.07585557 -0.07072105 0.17400986 0.3573426 -0.32124248

l1.bias f4 [400]
00000000: 82dc 25be 96f0 4cbe 27e5 943d 3213 c8be
00000010: b3ba c5be 058e 04be be23 07bf b72b aabe
00000020: 9b82 e6bd 789d d3be 0178 22be 3920 043d
00000030: d83a 403b 93f2 c1be 3cab 8fbe 1144 c53d
00000040: 7009 cdbe 9c0c c0be 47d0 273e e1d3 8e3d
00000050: 7e35 88be 1ee6 dbbe 0c9f 43bc 0afd a0be
00000060: 0dc7 04bf 3a5e 02bf ed3a ebbe 53ff 3ebe
00000070: 0c5c 9dbe 3ee6 07bf 3954 cdbd b0cc f2bd
00000080: a5f2 96be 9181 bbbb 1b74 2f3e f9a1 f03d
00000090: 8fc4 aebd 66a1 c3bd 8ef0 f1be 685c 92be
000000a0: 0c79 f8be fe99 82be 76da 5abb 23c4 41be
000000b0: 7d86 41be efaf 99be 0e15 34bd 5c13 05be
000000c0: cdb4 6abe b5c5 0abe 5216 fabe 3180 85be
000000d0: 51f9 cebe 5ceb 393d cab0 d93d 77be f4bd
000000e0: caf0 23be 530e a5bd 789c cbbe e076 78be
000000f0: 32a2 4a3c dfc9 02bf 7d40 0b3d 1d8b ba3d
00000100: bab3 7bbc 9c8a 68bd 42fd 06bf 9401 6dbe
00000110: c857 adbe d790 02be fdd8 edbd e671 85be
00000120: e7da 6dbd 8b80 69be 4315 c5be 9859 d4bd
00000130: 064e a9be 2900 77be 82fe ecbd 11bc 7e3d
00000140: 8627 f63d d298 8abe 89f1 4dbe 6603 8ebe
00000150: dba2 87be c693 e1be 604d c3be 86e4 99be
00000160: 54fc fabb aec7 c6be 2e21 82be 7bac 90be
00000170: a888 85be ecd2 eabd bd50 b2be ce3e 1b3d
00000180: 7832 f3be 6896 e2be 6c3f a6bd 0c37 733e
00000190: d01c d2be d59e bcbc fcc8 60be 9947 52be
000001a0: 922e 4ebe 5b09 aebe 449f a1be b608 86be
000001b0: 2fee bbbe 04f1 cfbd 911a 033e b9d5 65be
000001c0: c4d9 a9be 1111 55be 57f9 e5bd bdff 56be
000001d0: 27c7 b8be 92fd 84bd e5f2 6cbe 31d8 013b
000001e0: f0cd f4be e545 03bf 29d2 d93b 1381 67be
000001f0: c987 dfbd ad7c 42be 102f dbbe 5453 e1bb
00000200: 48f0 eabe 7348 a0be bafa eabe cdb9 0bbf
00000210: 34d1 b03d e19b a83d 5d5c afbe d5dc e2be
00000220: 1ff0 8ebe 9cb0 1b3d 770e 64be f39f 7ebe
00000230: c5a0 99be 866b 6dbe a740 b9be 96d4 df3d
00000240: a7c6 65be e891 aabe e336 5bbe 90e1 d7b9
00000250: 2162 60be 96bc 90be d1da a1be 935c f8bd
00000260: 7394 86bd 0590 d2bc c2f9 bebd 31f4 fbbd
00000270: 3985 01bf 07c4 00bf cebc 4cbe 3ab0 96be
00000280: b1e9 b1bd 1082 243e 8a11 6ebe 3f60 75be
00000290: b193 82bd 2fbe 74be 75f4 9bbe 07f2 a0be
000002a0: f9eb 37be 369a 92bc c69c d93b d4d0 fc3d
000002b0: b3ef 68be 4d32 3ebe aa08 a0be 5950 b5be
000002c0: 91dd aebe e928 0d3e eedf 22be 34a7 a8bd
000002d0: 7944 56be 4f17 5fbe 4175 4dbd 6b36 37be
000002e0: 5a57 adbd 665a 45bd abc0 76be 5155 f3be
000002f0: 9d6c 9fbe 8cd0 f8be fc60 01be 7573 80bd
00000300: 6d49 a3be c117 eebe f21c d6be 96f8 2abe
00000310: 41ff b2be d833 aabe 8f11 75be 506b 46be
00000320: 56a9 5dbe ede9 06bf 10bd 2c3d 9231 c8be
00000330: dde7 b9be 8477 57be 8e8e 3dbd a868 05bf
00000340: 0df1 eebe 87eb 2abe 5af0 bfbd 3717 20bf
00000350: 765e 77be f2c9 67be a7a3 0dbf af94 f03c
00000360: 7849 93be 6197 5cbe 4f9d 7dbe a98c 82be
00000370: 91c6 1ebe a9f8 54be f72a 9abd 05f2 56bd
00000380: f88a acbe a9c2 843c 5f80 d7be 0400 48bd
00000390: 331f 01bf 66a3 84bd e954 c0bd 7c0b f1be
000003a0: 867b b1bd 9f04 dfbe 6595 cabe 629f 81be
000003b0: d14b 64be ae80 8b3e 65eb d23d 7727 36be
000003c0: 6035 1ebf 1e30 eebd 1933 a83c e3d6 18be
000003d0: c99e ccbe 4536 fbbe adff d4be cb1a 9bbe
000003e0: 89ef a2be 58ff 33be 1738 5abe edff ccbe
000003f0: 1959 6abe ce10 7dbe 1f1c 7dbe 5fc7 89be
-0.16197398 -0.20013651 0.0727027 -0.39077145 -0.38619003 -0.12944801 -0.52788913 -0.33236477
-0.1125538 -0.41331077 -0.1586609 0.032257292 0.0029331949 -0.37880382 -0.2806033 0.09632123
-0.40046263 -0.3750962 0.16388045 0.069740064 -0.2660331 -0.42949003 -0.011939775 -0.31443053
-0.5186623 -0.5092503 -0.45943394 -0.18652086 -0.3073429 -0.53085697 -0.1002583 -0.11855447
-0.29481998 -0.0057222326 0.17134134 0.11749644 -0.08533584 -0.09552269 -0.4725384 -0.28586125
-0.4852985 -0.25508112 -0.0033394373 -0.18922476 -0.1889896 -0.3001704 -0.04396539 -0.12995666
-0.22920533 -0.13551982 -0.48845154 -0.26074365 -0.40424588 0.04539047 0.10629423 -0.11950391
-0.16009822 -0.08059373 -0.39767814 -0.24264097 0.012367772 -0.5108928 0.033997048 0.09108565
-0.015362674 -0.056772813 -0.5273019 -0.23145133 -0.33856034 -0.12750565 -0.11613653 -0.2606346
-0.05807009 -0.22802942 -0.38492784 -0.10368651 -0.3306734 -0.24121155 -0.11571981 0.062191073
0.12019257 -0.27069718 -0.2011167 -0.27736968 -0.26491436 -0.44058055 -0.3814497 -0.30057162
-0.0076594744 -0.3882422 -0.2541594 -0.28256592 -0.26080823 -0.114660114 -0.34827223 0.037901692
-0.47499442 -0.44255376 -0.081175655 0.23751467 -0.41037607 -0.023024956 -0.2195167 -0.20535125
-0.20134953 -0.33991513 -0.31566823 -0.2617852 -0.36705157 -0.10153392 0.12803103 -0.2244481
-0.33173954 -0.20807292 -0.112291984 -0.20995994 -0.3608944 -0.06493677 -0.23139532 0.0019812698
-0.47813368 -0.51278526 0.0066473675 -0.22607832 -0.10914571 -0.18992873 -0.42809343 -0.0068763886
-0.45886445 -0.31305274 -0.45894414 -0.54580384 0.08633652 0.082328565 -0.34250155 -0.44309106
-0.27917573 0.038010225 -0.22271143 -0.24865703 -0.3000547 -0.23185548 -0.36182138 0.109292194
-0.22439061 -0.33314443 -0.21407656 -0.00041176053 -0.21912433 -0.2826888 -0.31612256 -0.12127032
-0.06571283 -0.02570344 -0.09324981 -0.12302435 -0.50593907 -0.50299114 -0.19993898 -0.29431325
-0.08687151 0.1606524 -0.23248878 -0.23962496 -0.06375826 -0.23900674 -0.30459943 -0.31434652
-0.1796111 -0.0178958 0.0066410033 0.12344518 -0.22747688 -0.18573876 -0.3125661 -0.35412863
-0.34153417 0.13785137 -0.15905735 -0.082350165 -0.20924558 -0.21786235 -0.05016065 -0.17891853
-0.084639266 -0.048181914 -0.24096934 -0.4752603 -0.31137553 -0.4859661 -0.12634653 -0.06272022
-0.31891957 -0.46502498 -0.4181896 -0.1669639 -0.34960368 -0.3324268 -0.2393248 -0.19376874
-0.21646628 -0.5270069 0.04217249 -0.3910032 -0.3630971 -0.21041685 -0.04627853 -0.5211282
-0.46668282 -0.16691409 -0.09372015 -0.62535423 -0.24157128 -0.2263563 -0.5532784 0.029367773
-0.2876699 -0.21542121 -0.2476704 -0.2549794 -0.15505435 -0.20797981 -0.07527726 -0.0524769
-0.33699775 0.016206102 -0.42090127 -0.04882814 -0.5043823 -0.06476478 -0.09391195 -0.47079074
-0.08666138 -0.43558213 -0.39567104 -0.25316912 -0.22294547 0.27246612 0.10298804 -0.17788492
-0.61800194 -0.116302714 0.020532178 -0.14925723 -0.39964893 -0.49064842 -0.41601315 -0.3029388
-0.31823376 -0.17577875 -0.21310459 -0.40039006 -0.2288555 -0.24713442 -0.24717759 -0.2690992

l2.weight f4 [300, 400]
00000000: aa6d 1ebd f002 80be 799d c93d 18f3 80bd
00000010: e12d 18be e33a f0bc c31c 933e e48d f7bd
00000020: 8d8d 18be 4004 203e 2232 203e 8b80 6fbe
00000030: 39cb abbe 58cf 30bd af30 5e3d ced5 c93e
00000040: ac4d e33d e9df c63e 7e84 09bd 345f f8bc
00000050: 7a8c 2ebd aeaa 613c 0e56 66be f3df 55be
00000060: a73f b5bd 62e1 7dbc 0537 553e d53d 273e
00000070: 6499 6c3d 7a96 3f3e bfe5 a6bd 5e37 f93d
00000080: 1ea5 b3bd 4239 533d 8881 56bd 1dad dabd
00000090: cf57 ebbe 434e fdbe 299b 9fbe cdc0 6dbd
000000a0: 3984 c7bd 3bfe 1cbf 6b23 363d cba6 0cbd
000000b0: 6305 5c3e 5393 f8bd 4308 e53d a78b 143e
000000c0: 3f93 db3d 09e0 a3be 590a d83e 6285 963e
000000d0: 042b cc3e 5eea c3be c535 54bc 6e0c 2c3e
000000e0: 816b 5cbe bcfe b6be b198 703e 7621 b7bc
000000f0: cbb2 80be e1cc 983e d2e1 fd3d d68e 7abe
00000100: 74e8 5fbe 8bce c13d 5377 8e3e 87f7 17be
00000110: 03fc f13c 630f 83bc decc 0d3e 766a 6abe
00000120: 9aef f1be 0e15 a6be aadb 08bf 81b3 7dbd
00000130: 9c18 3abf 0ce9 e73c 88b5 a83e b48d a3be
00000140: ec04 e43d 0e4c ae3e c999 4c3d de4f f93d
00000150: 382f 9fbd ab4d 113e 1258 29be 0e27 27be
00000160: 2ce8 a73d f375 bb3e c8f4 c23a f016 f5bd
00000170: 3f50 80be a55d 0cbf d628 dfbb f54f 473e
00000180: cfbd 0c3e c957 193e d1d2 333e d1fd cfbd
00000190: 8280 833e 2b26 34be 56d4 e3be 5d40 e6bd
000001a0: 66b0 71be 878b 3a3e 36ec 95bd 0a86 343e
000001b0: c406 10be 6ac1 c4be fc43 babe a26c adbc
000001c0: 4d85 b5bd c78b 8b3e 16e2 38be 00f1 a03d
000001d0: 4035 9bbc eafb 0ebf 1038 723e f9b0 9bbe
000001e0: 68f3 bc3d 3347 e9ba 4819 2f3e 03ee aabe
000001f0: aac3 78be 5965 f03e 4600 8cbe c589 3e3e
00000200: 77d9 2bbe 389e 9bbc fea2 8f3d 10d9 c33e
00000210: d8b0 f43d 6d7a bcbe ce3b e2bd 9578 e03b
00000220: f558 873e ed98 0b3d 548e 9cbd d824 103e
00000230: 6b41 9a3d d118 00be 16c9 19be 5d3b bdbe
00000240: 3281 793e 251c d2bd 9a91 2d3e d1ec 46be
00000250: a06c aebc 35ca af3e d942 d3be 7eb3 d7be
00000260: aabc e7be 7e06 013e e098 02be 9cde 1dbc
00000270: f0d9 113e 851d eb3c 5a41 213e 169d cdbd
00000280: 8f12 4dbe 44c6 1dbe 4569 c53e dd3b e1bc
00000290: ee2d 3b3e 2eef 033e c72c babe 1d3b 9a3e
000002a0: bf0f 31be ce0e d73d ea50 84be 2905 b13d
000002b0: ef7a be3d 0515 09bd 8efb a4bd 4aa0 423e
000002c0: dade c83e 9447 b1be 44b8 9ebe 320e 093e
000002d0: f8f7 403e 9815 4a3e 9158 23bd f644 0abe
000002e0: 1e58 ae3c 3de4 adbd dca1 193b 6ad9 06bf
000002f0: e3ec 393e 8594 9ebd 1036 d03d 72bc b9be
00000300: cec3 3fbe 9b9c e2bc 24c2 00be 05e7 47be
00000310: a078 a73d c6fc a93e b0a9 bc3e 67d9 643c
00000320: 9888 aabe 7b65 623d d202 44bd 4b36 033e
00000330: 593b a13d da56 08bf c3dd dbbe 0ad3 b9be
00000340: a6e0 bd3e cfda 903d 035f 70be c490 003e
00000350: 27cf 9a3e 3126 fcbe 3e0c 853a e31d a3be
00000360: a409 37bd 1780 213e d391 453e 845c c53e
00000370: 7618 c6bd 4a1e dcbd 7c04 76bd 0a68 b63d
00000380: 4024 ddbd cf40 af3c 052f 75be e6da 893d
00000390: bfb5 39be 3353 36be f696 143e ad4e 8a3d
000003a0: 2a91 853d cd0b 14be af51 ddbe 204a abbb
000003b0: 45ef 94be cb0d c8be b0d1 8ebe a2a2 5bbe
000003c0: ad05 4e3e 4cba 173d 1bd6 813e 8348 803e
000003d0: 89f6 16bf 3abf 5b3d 673f 003d 40d4 36bd
000003e0: 9a1f 76be be0c 28be c9a4 213e f00d 3a3f
000003f0: 7500 acbe 7390 b93c 1d6f 923e a069 1dbe
-0.038678803 -0.2500224 0.09844489 -0.062963665 -0.14861251 -0.029324954 0.2873288 -0.1208761
-0.14897747 0.15626621 0.15644124 -0.23388879 -0.33553484 -0.04316649 0.054245647 0.39420933
0.11098799 0.38842705 -0.03357362 -0.030318834 -0.042614438 0.013773603 -0.22493765 -0.20886211
-0.08850031 -0.01549563 0.2082177 0.16332181 0.057763472 0.18709746 -0.08149289 0.121687636
-0.08771728 0.051568277 -0.052369624 -0.1067755 -0.4596543 -0.4947377 -0.31173065 -0.058045197
-0.09742016 -0.61325425 0.04446737 -0.034338754 0.2148643 -0.12137475 0.111832164 0.14506398
0.10721444 -0.32006863 0.42195395 0.29398638 0.39876568 -0.38264745 -0.012952273 0.16801617
-0.21525384 -0.35741222 0.23495747 -0.022354823 -0.25136408 0.2984381 0.123965874 -0.2446855
-0.21866018 0.09463223 0.27825412 -0.14840518 0.029539114 -0.015998548 0.13847682 -0.22892174
-0.47253114 -0.32437938 -0.5346018 -0.061938766 -0.726938 0.028309368 0.32950997 -0.31944048
0.11133751 0.340424 0.04995135 0.121734366 -0.07772678 0.14189784 -0.16537502 -0.16323492
0.0819858 0.36613426 0.0014873976 -0.119672656 -0.25061223 -0.5483039 -0.006810288 0.19464095
0.13744281 0.14974894 0.17560889 -0.101558335 0.2568398 -0.17592685 -0.44497937 -0.11242745
-0.23602447 0.18217288 -0.07320444 0.17629257 -0.14065081 -0.38428813 -0.36379993 -0.021169964
-0.08863316 0.2725508 -0.18054995 0.07858467 -0.01894629 -0.5585314 0.23654199 -0.30408457
0.092261136 -0.0017797708 0.17099488 -0.33384714 -0.2429339 0.46952322 -0.2734396 0.18607242
-0.16782175 -0.018996343 0.0701351 0.38251543 0.11947793 -0.36812153 -0.11046563 0.006850312
0.26435056 0.03408139 -0.076443344 0.14076555 0.07532009 -0.12509467 -0.15018114 -0.36959353
0.2436569 -0.102592744 0.16950074 -0.19426276 -0.02129203 0.3433396 -0.41261938 -0.4212913
-0.45261127 0.12600133 -0.1275363 -0.009635594 0.14243293 0.0287006 0.15747586 -0.100397274
-0.20026611 -0.15407664 0.38556877 -0.027494365 0.1827924 0.12884209 -0.36362287 0.30123225
-0.17291163 0.10500871 -0.25842983 0.08643562 0.093007915 -0.03346731 -0.08055793 0.19006458
0.39232522 -0.34624922 -0.3099996 0.13384321 0.18844593 0.197348 -0.039879385 -0.13502869
0.021282252 -0.084907986 0.0023442423 -0.526755 0.18156771 -0.077431716 0.101665616 -0.36276585
-0.18727037 -0.027662566 -0.12574059 -0.1952172 0.08177304 0.33200663 0.3684821 0.013967848
-0.33307338 0.05527256 -0.047854252 0.1281368 0.07872648 -0.53257525 -0.42942628 -0.36293823
0.37085456 0.070729844 -0.23473744 0.12555224 0.3023617 -0.49247888 0.0010150743 -0.3185874
-0.04468693 0.15771519 0.19293909 0.38547146 -0.09672634 -0.10747965 -0.06006287 0.089065626
-0.1079793 0.021393208 -0.23943718 0.06731205 -0.18135737 -0.17805175 0.14510712 0.067532875
0.065218285 -0.14457627 -0.43226382 -0.0052273422 -0.29088798 -0.39073023 -0.27894354 -0.21448758
0.20119353 0.0370429 0.25358662 0.25055322 -0.5896993 0.053649165 0.031310465 -0.04463601
-0.24035493 -0.16411111 0.15785517 0.72677517 -0.335941 0.022651887 0.28600398 -0.15372324

l2.bias f4 [300]
00000000: 4775 58be 270d 1fbe a805 82bb 3b3e b1be
00000010: 04bd 5abe 40d4 82be 465d bbbe 2fcc a5bb
00000020: 78ad 83be c6b2 9abc 8724 c63c 4eb4 2dbc
00000030: eefe 52bd c5b3 85bd 1d75 71bd a520 80be
00000040: fa82 2b3d 05c9 8fbd bfde 0b3d a73b 7dbe
00000050: bafa 4e3d 370b a5bd a7a6 28bd dd85 313e
00000060: 3deb cd3c 15f4 f6bd ce8a 623d f1c3 cfbb
00000070: 3e48 f0bd b978 a3be c0c9 bdbc 4ead f53d
00000080: 657f 08be 3f67 88be 4c1d 90be 11d6 40be
00000090: c035 a2bd 6647 b7bd 5a10 fcbc 949c 08be
000000a0: 4794 0cbd ff5c bebe b872 b3bd 6231 263e
000000b0: b41b f2bd 49e5 5cbe a050 92bd 6dfb 2d3e
000000c0: 9784 a3bd dc7a 79be 27d3 abbc d82b 9ebe
000000d0: f25e 573c 1669 0f3e a765 8fbe a083 753e
000000e0: 746c 6f3d 0436 31bd f7ae 24be 9c74 e4bd
000000f0: 40cd 3cbd de37 99bc 5ae8 54bd fabe 52be
00000100: 5c13 67bd cb67 bc3c 6ea9 3dbb 8ba5 62bc
00000110: 4bb3 67be 70a5 f7bd 17d5 aa3c b7a2 253d
00000120: 0da7 81bd 7f13 493e a6e8 9dbd 7f44 07be
00000130: dbde 12be fb1a 8bbe 3e81 1fbc 3b5c 6fbb
00000140: 9056 c4bd 5f8b a2bd 291e c5bc 0c58 71bd
00000150: d262 3ebe 7731 28bd edca 07bd db5c 65bd
00000160: 1342 14bf 6a9a a23d b37a 6fbd 4264 68bd
00000170: 14d2 69bd 6db2 09bd 5734 223e 0367 e5bc
00000180: d97b 4bbd 79e9 6bbd eb3c b33e 5726 a1bd
00000190: 3c0c 74be 8c77 11be 4fd6 81be 2ab9 59bc
000001a0: 51ce 68bc fe3b 9dbb 4f9d a5bd 5277 bc3c
000001b0: ecfd bebe a59f 8cbd d2f3 d3bd 0b68 66bd
000001c0: 3f0e 2ebc e9af 93bd 6814 cabc 3cc7 72bd
000001d0: e816 9abd f5f0 bb3d 4c6f 71bd cada 0dbe
000001e0: d40b 80bd aebb 2cbe 2ec4 9ebd d4ce 0fb9
000001f0: cc31 dcbd 554d 0ebe a032 dab7 e619 9bbb
00000200: c8ed 3ebd 4585 b5bd da1a 57bc 79ab 4ebd
00000210: b840 b2bd a801 83bc d6f4 a2bd 8e67 003e
00000220: 851c ddbe 112f c7bc 5929 46bc 5739 22bd
00000230: 1526 5ebe 3bc5 603d 2ec1 12bd 7bb7 65bc
00000240: 9aab 69bd 0cee d1bc 2f40 a0be 1951 4fbd
00000250: d04e 0cbe a424 7bbd 1467 02be 3a38 653d
00000260: 4e60 36bc 7bca adbd f5f8 0dbd ba2a 9b3d
00000270: 5b9d edbb 5d3b 0ebd be91 96bd 2984 053e
00000280: c56a c33c 2803 de3d 29ec 563e dad5 55bd
00000290: e591 77be 7522 85bd b5f6 84bd 28f9 0cbe
000002a0: 7f78 3cbe 6276 07bd d00b ba3d 8289 b8be
000002b0: f543 0ebd 8b30 d93d 71b8 6bbe cd6c b3be
000002c0: 6fe7 60be 6d09 88bc 5c79 55bc a283 433d
000002d0: a04b b6bc 3cfa f6be f4fe 73bd 9bbc dbbd
000002e0: 81a4 973b 08c3 5fbe 6243 b0be 024e b6be
000002f0: 3574 87bd 0ac1 b73d 0798 a8be 8399 79be
00000300: 1bca 503d a6ff 08bf 7b40 e4bc a877 34bd
00000310: 8a25 56be 6b2d 69bd c0b0 9e3d 3bb6 e0bd
00000320: dad5 d63c 2cc2 7c3c 1215 5cbe 2823 8abe
00000330: 4868 35be ee2a 11bc 3b68 033e d106 79be
00000340: 896e 4ebd 6d49 8ebd 9daa 09bd 9862 31be
00000350: 91d1 47bd 65d9 f13d f24a 5fbb d95d 9ebe
00000360: cb02 fa3c 59c3 cf3d 9c1f f0be 1aa4 843d
00000370: 31aa f7be 1766 06be dbee e23d 1432 acbc
00000380: ad12 03be b5ea 9f3b 176e adbd cb18 2bbd
00000390: 47c6 87bd 19ab ccbe 77c7 28bd b90b 76be
000003a0: a002 58ba e21b 58bd 3005 b5be ec3b 0cbd
000003b0: 20f4 35bd 39b2 90be 304c b2bd 2a9a 5abc
000003c0: 29df 42bd a6bc 9cbd 084e 4dbe 3f6c 5fbe
000003d0: 9207 083e d78d 22be f858 f73c d1be 4cbe
000003e0: 3e1d 9fbd ccfb 6abe 716b 3b3e 047c 8ebe
000003f0: 0cb1 14be e9eb 43be ab6a e4bc 7484 2bbd
-0.21138488 -0.15532361 -0.0039679594 -0.3461779 -0.21361166 -0.2555256 -0.365946 -0.005059741
-0.25718284 -0.018884074 0.02418734 -0.01060207 -0.05151265 -0.06528429 -0.05894958 -0.25024906
0.041872956 -0.07020763 0.034147974 -0.24729787 0.05053208 -0.0805878 -0.041174557 0.17336221
0.025136584 -0.12058274 0.055308156 -0.0063404967 -0.11732529 -0.31928042 -0.023167491 0.11995946
-0.13329847 -0.2664127 -0.28147352 -0.1883166 -0.07920408 -0.08949165 -0.030769516 -0.1334098
-0.034321096 -0.37180325 -0.08762115 0.16229776 -0.1182169 -0.2157184 -0.07144284 0.16990443
-0.07984274 -0.24363273 -0.020974709 -0.30892825 0.013145195 0.14004931 -0.28007242 0.23975992
0.05845304 -0.043264404 -0.16082369 -0.11155054 -0.04609418 -0.018703397 -0.0519794 -0.20580664
-0.056414947 0.022998711 -0.00289401 -0.013833414 -0.22626989 -0.120921016 0.020853562 0.04043838
-0.063306905 0.19636343 -0.0771039 -0.13209723 -0.14342825 -0.27169022 -0.009735404 -0.003652348
-0.09586823 -0.07936739 -0.024062233 -0.05892186 -0.18592384 -0.0410628 -0.03315251 -0.055996757
-0.5791332 0.079396084 -0.058466624 -0.05673624 -0.05708511 -0.033617426 0.15840279 -0.028003221
-0.049678657 -0.057595704 0.35007414 -0.07868641 -0.23832792 -0.1420576 -0.25358817 -0.013288775
-0.014209346 -0.0047984114 -0.08086645 0.023006115 -0.37303102 -0.06866387 -0.103492394 -0.056251567
-0.010623514 -0.072112866 -0.024667934 -0.059272036 -0.075239 0.09176818 -0.05894403 -0.13852993
-0.06252256 -0.16868469 -0.07752262 -0.00013714592 -0.107516855 -0.13896687 -2.60112e-05 -0.004733312
-0.046613485 -0.0886331 -0.0131289605 -0.050456498 -0.0870375 -0.015992 -0.07956855 0.12539503
-0.4318582 -0.024314435 -0.012094819 -0.039605465 -0.21694215 0.054875594 -0.03582876 -0.014020796
-0.057048418 -0.025626205 -0.31298968 -0.05061445 -0.1370194 -0.06131424 -0.12734634 0.055961825
-0.011131359 -0.08485886 -0.034661252 0.07576509 -0.0072514242 -0.034724582 -0.07352017 0.13038696
0.023854623 0.10840446 0.20988525 -0.052205898 -0.24176748 -0.06500713 -0.06492368 -0.1376692
-0.1840534 -0.033071883 0.09084284 -0.3604241 -0.034732778 0.10604962 -0.23019578 -0.35043946
-0.21963285 -0.016606057 -0.013029423 0.047732957 -0.022252858 -0.4823779 -0.059569314 -0.10729333
0.0046277647 -0.21851742 -0.3442641 -0.3560639 -0.066139616 0.08972366 -0.32928488 -0.24374966
0.050973993 -0.5351509 -0.027862778 -0.044059426 -0.20912758 -0.05692808 0.07748556 -0.10972258
0.02622502 0.015427154 -0.21492413 -0.26979947 -0.17715561 -0.008860333 0.1283273 -0.24319007
-0.050398383 -0.069475986 -0.033609975 -0.17322767 -0.048783842 0.11809043 -0.003407177 -0.30930975
0.03051891 0.101446815 -0.46899116 0.064766124 -0.48372033 -0.13124882 0.11080714 -0.021019973
-0.12800093 0.004880274 -0.084682636 -0.04177169 -0.06629615 -0.39974287 -0.04120585 -0.2402791
-0.0008240137 -0.052760966 -0.3535552 -0.034236833 -0.04442227 -0.28260973 -0.08705938 -0.01334242
-0.047576103 -0.07653169 -0.20049298 -0.21818636 0.13284138 -0.1587442 0.03019379 -0.19994666
-0.077692494 -0.22947615 0.18302704 -0.2782899 -0.14520663 -0.19132961 -0.027882895 -0.041874364

l3.weight f4 [7, 300]
00000000: e5c7 403e 1a24 3dbf 0ac0 47bf 5724 9a3d
00000010: 54a4 80bd 2fd3 45bf 45d6 ee3b ddfb 093d
00000020: a128 b73d bf62 a23d dea7 103d 8904 c5bb
00000030: 5a4b 2d3f 32a5 6a3c 0933 9e3e 64b3 59bd
00000040: 69b2 a33d 118f 50bc fbad 4ebd 6dd6 823e
00000050: 5f8e 7cbe 2eaf 153d 06f1 19bf 7911 d9bc
00000060: 9bb0 1dbe c08b d0bd da33 5e3e 4a31 ec3c
00000070: 6489 88be d12d b9be 1c4b fd3d 84a4 2e3a
00000080: 44a7 85bb 6436 0e3e 160b c1be 1b3d 7cbd
00000090: c531 86bd 8c05 88be 9362 d93e 86c8 50bf
000000a0: 9d4c 31be 7891 41be 814d 4abd b506 89be
000000b0: 7b0d d7bd e9fc a73a 0f59 a23c f8d4 433f
000000c0: 076d 2f3b 06b7 12be e304 f9bc 01e4 8e3d
000000d0: bba1 803d 54fa 6b3e 320f 79bd dc12 783f
000000e0: cfdf 14bf 0980 f43c d4fa 00bf a2f5 cb3e
000000f0: 3f3a af3c da63 683c 540d 08bb 3a97 7bbe
00000100: da6e 46bd 6fc7 a2be fea0 ef3d e656 95bc
00000110: d6d0 a8bd cef6 72be 7141 3f3f b773 1abe
00000120: 5e10 aa3d d7aa e3bd d2e9 ddbb d9c7 e1bd
00000130: 74a9 873d 429a 773b 9fad aebc 8745 27bd
00000140: 460f 863d 2611 aa3c 6df9 123d 2d68 0cbd
00000150: d80c 1abe e9d1 d8bc a4d5 03bd 7c69 8b3b
00000160: 9956 4bbe e0ac bdbe ef30 a93d b198 633f
00000170: b65a 8ebe 1dcc 12be 7db5 0e3f ddd0 0cbd
00000180: df29 2c3d 5061 89be 4e23 9a3f cf83 233d
00000190: 9b03 773c 958f 33be a119 03bc e2b9 dfbb
000001a0: cf89 98bd 5663 1b3d 13e9 f33c b43b 853e
000001b0: 1579 8a3e abc1 62bc dc66 f4bd 7cae 733d
000001c0: 7343 733d ef4c 853f 910c fe3d 4b99 63bc
000001d0: de2f 8a3d 598d a5be 2ca7 e3bd 959c 8338
000001e0: 0930 9e3d b1f3 973e 3981 543d e5ba 24be
000001f0: ecb3 19bd b02c b1bd aeb9 22ba 1df4 1c3c
00000200: 8449 053e 50c8 e1bd de2d 23bd 9135 48bc
00000210: 5a59 a23d 2ab7 20be f229 58bd 459b c3bf
00000220: 0de7 603d 2232 e6bb 5d2b 99bc 977e bdbc
00000230: 85fc 14be 43ab 5f3e e4f8 7abc 9d95 993c
00000240: 781c 3ebe cc96 743c 03ce 2e3f b0c6 41bd
00000250: 1ab6 a13e 703a 363c 68ae 90be 5539 cbbe
00000260: 7704 273e 8399 2b3e 7495 0f3c ffbc 193d
00000270: 57be 29bc 7b1a fbbb 17e6 32bc b423 d6bd
00000280: f14f c5be 4eac 38bd 5014 68be 551a 8abd
00000290: 06a9 4abd 6e28 20bd 4cbc f23a cc9b c1ba
000002a0: 46ea cb3d 16d0 ac3e adee 363f a5d7 b63c
000002b0: 159c 1d3c efdb 5fbf 1c8b a13d cb6f 683d
000002c0: 49a6 28be e325 e73c 752d 1d3e 28cc f3bf
000002d0: 8a5d 55bc 47c8 a53e 6c47 06bb 65ac 343d
000002e0: 87ba 01be 1d00 893d 2ee4 853e 2821 4b3f
000002f0: d132 56bd 328c 96be 8a61 eb3e 7964 433f
00000300: 8b4c ad3e 697f 933e 4b10 7ebc cfa6 323d
00000310: e66e 11be 6100 cebc 982a 06be 158e 173c
00000320: b498 6b3f 1001 433e bf87 393e 4cbf e63e
00000330: fb9d fc3c 1c75 7b3c 4ba7 0d3e 744a 86bd
00000340: d400 88bc 0879 c6bd dfa6 2cbd 9605 1b3f
00000350: 2f55 bd3c 1614 90bd 8e1b 123d 8cfc aa3e
00000360: 0a60 5f3d 6fba a43e 8bfc ebbc 5005 f63e
00000370: 25bc 2e3d 887c 5fbb 4f68 263d e379 553d
00000380: 9dc7 01bf 6018 b1b6 3d86 01bc 732b 053f
00000390: ac0a 11bf f3c9 a03e 41c6 d23c a951 2a3d
000003a0: 162d fbbe cfaf 24bd db93 833e f92b 893e
000003b0: 662c 1a3e f46a 0fbd dde8 083c 51db d53c
000003c0: 9017 34bd 453e 0abd 29fa f23d d94b adbc
000003d0: c071 983e 8b8a b43e bb9c 84be bdc3 253e
000003e0: cdaa 10bd 8928 7e3c d5d3 833f 95f1 20bd
000003f0: fe30 bd3d d734 a9be c5e5 9ebb 442a 413e
0.18826254 -0.7388321 -0.78027403 0.075264625 -0.06281343 -0.77275366 0.0072887265 0.03368746
0.08943296 0.079289906 0.03531634 -0.0060125035 0.676931 0.014321612 0.30898312 -0.053149596
0.079930134 -0.012729422 -0.05045889 0.2555422 -0.24663685 0.036544017 -0.601334 -0.02649759
-0.15399401 -0.10182905 0.21699467 0.028832097 -0.2666732 -0.36167768 0.123678416 0.0006662088
-0.0040787775 0.13887936 -0.3770377 -0.061581712 -0.065524615 -0.26566732 0.4245802 -0.81555974
-0.17314382 -0.18903148 -0.04939032 -0.2676293 -0.10500618 0.0012816462 0.019817857 0.7649684
0.0026767866 -0.1432763 -0.030397838 0.06977082 0.06280848 0.23044711 -0.060805507 0.9690378
-0.58154005 0.029846208 -0.50382733 0.3983584 0.021390079 0.014183963 -0.0020759897 -0.24569407
-0.04844556 -0.3179278 0.11700629 -0.018229913 -0.08242957 -0.23726961 0.7470923 -0.15083204
0.08303903 -0.111165695 -0.0067722583 -0.11024446 0.066241175 0.0037781154 -0.021323023 -0.04083779
0.06545882 0.02076013 0.035882402 -0.034279037 -0.15043962 -0.02646728 -0.032186165 0.004254518
-0.19857253 -0.37045956 0.082612865 0.88904864 -0.27803582 -0.14335676 0.5574568 -0.034378875
0.04203212 -0.26832056 1.2042024 0.039920624 0.015076543 -0.17535241 -0.008001716 -0.006827579
-0.0744816 0.03793653 0.029774224 0.26022112 0.27045503 -0.013840119 -0.11933681 0.059492573
0.059390496 1.0414103 0.124047406 -0.013891528 0.06747411 -0.32334402 -0.1111587 6.2757324e-05
0.07724006 0.2967811 0.05188105 -0.1608692 -0.037525102 -0.086511016 -0.0006207478 0.0095796855
0.13016325 -0.11024535 -0.039838664 -0.0122198025 0.07927199 -0.15694872 -0.052774377 -1.528176
0.054907847 -0.0070250193 -0.018697435 -0.023131652 -0.14549454 0.21842675 -0.015318129 0.018748099
-0.18565547 0.014928531 0.682831 -0.047308624 0.31584245 0.011122331 -0.2825806 -0.39692178
0.16310297 0.16757779 0.00876366 0.037533756 -0.010360322 -0.007663069 -0.0109191155 -0.104560286
-0.38537553 -0.045086198 -0.22663999 -0.06743304 -0.0494776 -0.039101057 0.0018519252 -0.0014771163
0.099567935 0.33752507 0.7145794 0.022319624 0.009619732 -0.8744497 0.07887861 0.05674724
-0.16469683 0.028216308 0.15349372 -1.9046679 -0.01302279 0.32379362 -0.0020489348 0.04410972
-0.12668811 0.06689475 0.2615065 0.7934747 -0.052294556 -0.29403836 0.45972854 0.76325184
0.3384746 0.28808144 -0.015506814 0.043616112 -0.1420246 -0.025146665 -0.13102186 0.009250184
0.9202988 0.19043374 0.1811819 0.45067823 0.03083705 0.015347745 0.13833348 -0.065571696
-0.016601957 -0.09691054 -0.04215133 0.605554 0.023111908 -0.07035081 0.03567081 0.33395803
0.05453495 0.32173488 -0.028806945 0.48050928 0.042659897 -0.0034101326 0.04062682 0.052118193
-0.5069521 -5.2778487e-06 -0.00790554 0.52019423 -0.5665691 0.31404075 0.0257293 0.041581783
-0.49057835 -0.040206727 0.25698742 0.2679136 0.15055999 -0.035014108 0.0083563 0.026105555
-0.043967783 -0.03375079 0.118641205 -0.021154331 0.29774284 0.3526195 -0.25900826 0.1618795
-0.03531914 0.015512594 1.0299021 -0.03929289 0.0923786 -0.33048126 -0.004849168 0.1886378

l3.bias f4 [7]
00000000: f0bb dcbc 2226 81bd 0b4d 2abd a16a 0cbe
00000010: f27e debc 98c4 963d 0dee 093d
-0.026945084 -0.063061014 -0.04157738 -0.1371255 -0.027160142 0.07361716 0.03367429
