TD3_control/dir_Walker2D_002/biped-v7-2d-9_actor_t.pth (torch, 527895 bytes, 6 tensors)

l1.weight f4 [400, 24]
0.9528229 1.3788595 -0.22208264 -0.2538356 0.40818194 -0.3310654 -0.054120857 0.027617885
-0.9621808 -1.6394751 2.0071883 0.021108447 -0.531823 -0.07420562 -0.11702983 -0.009402901
-0.2907726 -0.037593056 0.73934263 0.03992733 -0.034705013 -0.024497356 -0.33433765 -0.26464188
1.0978743 0.82846236 -0.5899195 -1.157247 -0.97432363 0.2552787 -0.18727888 0.01475678
-1.3453149 -0.07737285 1.1073887 0.26898393 0.38901407 -0.46192235 -0.09657164 0.17347161
-0.14794391 -0.35476655 -0.24050428 -0.16850701 0.083831884 -0.12591445 -3.4789715 0.58489174
-0.87929523 0.25645664 0.35269 -0.2506743 -0.70124304 -2.835698 -0.08994957 0.091357015
-1.023862 -1.0574824 7.852981 0.4349219 -0.374865 -0.04349031 0.161169 0.12703577
0.17474869 0.6521658 1.7021595 0.3943046 0.1581201 0.19033426 1.1288568 0.26526067
0.65640765 -0.95011586 0.055733614 -3.7635856 0.11050915 0.7314476 -0.026069421 -0.080645196
-0.7586968 -0.109866224 -0.90026337 -0.0557989 -0.59741104 0.15242364 0.027737679 -0.1445266
-1.6894376 0.74569154 -1.9392638 -0.2335421 0.13679281 -0.049708877 -0.8497672 -1.1841025
-0.8656413 0.82336724 0.7365076 -0.4069444 1.6082118 -0.9809603 0.18045014 -0.05354218
-0.97735655 -0.23045321 -0.0006842537 0.0968258 -1.9500793 0.3117752 -0.021647198 -0.19812225
0.4139767 0.28749037 0.56652576 -0.41126847 -0.105343446 -0.09313641 -1.9219166 0.2312564
3.3236647 0.13475041 0.00946591 -0.92449003 -0.5414353 0.674772 -0.17088582 -0.11013019
-1.7141767 -0.75937724 1.4443038 0.28016946 0.28925127 -0.043674674 0.1328276 0.08440674
-1.9782099 -0.03778117 -1.3944261 -0.5368597 -0.026143786 0.1910271 0.115119055 -3.2965453
0.85917634 1.2040756 0.63534766 -0.2067439 -1.2267271 1.1104659 0.107461385 -0.1915078
-0.082689084 -0.0998421 1.3152357 -0.012703464 -0.52754843 0.5593271 -0.09635519 -0.11089582
-2.3561494 -1.1842343 -0.922992 -0.6183447 0.056380976 0.14316541 -1.5676029 1.0159307
-0.04301262 -0.18824208 -0.14167592 -0.058421176 -0.15612409 -0.02884104 0.005227224 -0.16048765
-0.09553517 -0.043964803 0.041186474 0.005696486 -0.14687045 0.056057103 -0.14276518 -0.10970868
-0.04804698 -0.0005633168 -0.3547761 0.004290374 -0.010342879 -0.15525088 -0.30764073 -0.30500025
3.9229994 0.8201125 0.62112343 -1.9780946 2.122658 2.0986552 0.17763677 -0.07923974
0.0056877406 -0.31162494 1.2223014 -0.0011108033 0.63811445 -0.055079818 -0.17427477 -0.08396643
0.2925658 0.41365618 -4.9110265 -0.053906314 -0.011683971 -0.07823547 -0.00506527 -0.35537055
1.8455716 -0.48527214 0.22560555 -0.5262065 -0.604612 3.1960425 0.048465434 0.11898473
-1.0344863 -0.07870631 0.9435742 0.34892708 -1.4425801 0.93780243 0.07071589 0.16337219
0.9354801 -0.06970668 -0.09553447 -0.122841924 0.074805304 -0.062757544 0.5841715 -0.044332985
3.1108298 -0.023716757 -0.102773644 0.04180905 -0.7376334 -8.079125 -0.088947564 0.11788274
-0.00703027 -0.09286817 -0.82041335 0.13918726 -0.33995348 -0.10511166 0.0802753 -0.018703721
00000000: 34ec 733f 787e b03f a269 63be bdf6 81be
00000010: 39fd d03e 6781 a9be d5ad 5dbd e73e e23c
00000020: 7b51 76bf 52da d1bf c675 0040 9feb ac3c
00000030: 8d25 08bf 1ef9 97bd 56ad efbd a00e 1abc
00000040: 25e0 94be 2dfb 19bd 8f45 3d3f d78a 233d
00000050: d826 0ebd aeae c8bc 4e2e abbe 247f 87be
00000060: 2587 8c3f 1c16 543f f704 17bf ab20 94bf
00000070: 466d 79bf e4b3 823e 09c6 3fbe 6cc6 713c
00000080: 4733 acbf a875 9ebd eabe 8d3f 43b8 893e
00000090: da2c c73e 1681 ecbe 5ac7 c5bd 8ba2 313e
000000a0: 9c7e 17be f6a3 b5be c146 76be 1a8d 2cbe
000000b0: 0db0 ab3d b8ef 00be 78a7 5ec0 77bb 153f
000000c0: 7e19 61bf 494e 833e c993 b43e 6258 80be
000000d0: aa84 33bf 137c 35c0 7b37 b8bd 6319 bb3d
000000e0: e90d 83bf 955b 87bf 9f4b fb40 15ae de3e
000000f0: 4eee bfbe e522 32bd 7d09 253e aa15 023e
00000100: 52f1 323e 56f4 263f 5de0 d93f 4be2 c93e
00000110: 3cea 213e fce6 423e 617e 903f 3fd0 873e
00000120: 550a 283f cb3a 73bf ee48 643d 96de 70c0
00000130: 9f52 e23d 2640 3b3f 8a8f d5bc 4f29 a5bd
00000140: f439 42bf 8b01 e1bd a977 66bf 638d 64bd
00000150: eeef 18bf f114 1c3e 213a e33c c8fe 13be
00000160: 7e3f d8bf a4e5 3e3f cc39 f8bf a925 6fbe
00000170: 6a13 0c3e 899b 4bbd 588a 59bf ac90 97bf
00000180: ab9a 5dbf 32c8 523f c38b 3c3f 045b d0be
00000190: e2d9 cd3f 3720 7bbf ecc7 383e 0c4f 5bbd
000001a0: 0a34 7abf edfb 6bbe 7d5f 33ba 9b4c c63d
000001b0: 339c f9bf 00a1 9f3e 7755 b1bc 8fe0 4abe
000001c0: c1f4 d33e f031 933e d507 113f c891 d2be
000001d0: 4ebe d7bd 4dbe bebd 5d01 f6bf 7ace 6c3e
000001e0: ecb6 5440 03fc 093e e716 1b3c 61ab 6cbf
000001f0: 819b 0abf dcbd 2c3f b1fc 2ebe f08b e1bd
00000200: 246a dbbf 8c66 42bf f2de b83f 5f72 8f3e
00000210: be18 943e 37e4 32bd f503 083e 71dd ac3d
00000220: fb35 fdbf 6ec0 1abd 8e7c b2bf a36f 09bf
00000230: 7e2b d6bc 9c9c 433e 8ac3 eb3d 99fa 52c0
00000240: fbf2 5b3f 261f 9a3f 25a6 223f acb4 53be
00000250: 6505 9dbf bf23 8e3f b714 dc3d 9f1a 44be
00000260: e558 a9bd 047a ccbd a559 a83f 3122 50bc
00000270: 6a0d 07bf 1030 0f3f df55 c5bd 591d e3bd
00000280: 27cb 16c0 fd94 97bf 3449 6cbf d74b 1ebf
00000290: bdef 663d f499 123e 36a7 c8bf 040a 823f
000002a0: 002e 30bd 88c2 40be 7e13 11be 0b4b 6fbd
000002b0: fede 1fbe 0b44 ecbc 2249 ab3b e056 24be
000002c0: f1a7 c3bd 7014 34bd 26b3 283d 97a9 ba3b
000002d0: 3565 16be 229c 653d 0931 12be f2ae e0bd
000002e0: e9cc 44bd 8dab 13ba 37a5 b5be 4496 8c3b
000002f0: 2e75 29bc 16fa 1ebe 1683 9dbe fe28 9cbe
00000300: 6c12 7b40 e5f2 513f f201 1f3f 3432 fdbf
00000310: a1d9 0740 5e50 0640 6ae6 353e 7248 a2bd
00000320: 3a60 ba3b 4e8d 9fbe 5f74 9c3f 6098 91ba
00000330: 785b 233f 609b 61bd 1675 32be 97f6 abbd
00000340: 2fcb 953e beca d33e 2127 9dc0 decc 5cbd
00000350: 206e 3fbc eb39 a0bd 90fa a5bb 21f3 b5be
00000360: b13b ec3f 9775 f8be 2405 673e 78b5 06bf
00000370: dac7 1abf f68b 4c40 b183 463d 44ae f33d
00000380: 0c6a 84bf c630 a1bd 148e 713f 92a6 b23e
00000390: 77a6 b8bf d213 703f 7ed3 903d 0a4b 273e
000003a0: a07b 6f3f 60c2 8ebd 94a7 c3bd 8c94 fbbd
000003b0: 8633 993d 0787 80bd 438c 153f 8196 35bd
000003c0: d617 4740 a549 c2bc fd7a d2bd f73f 2b3d
000003d0: 8bd5 3cbf 1944 01c1 242a b6bd 826c f13d
000003e0: 2e5e e6bb ab31 bebd 9c06 52bf 1b87 0e3e
000003f0: 620e aebe c844 d7bd 6067 a43d 8c38 99bc

l1.bias f4 [400]
-1.3381612 -0.22347139 -0.0123804165 -1.0086836 -0.46958226 -0.6312138 -0.06821658 -0.24109954
1.2582023 0.17346907 -0.023071216 1.4834089 -0.9170923 0.027145034 -0.8527269 0.072296016
-0.97064954 1.067946 -1.021608 0.31966132 -0.6419217 -0.9405252 0.56449425 -0.9885458
-1.7710584 -0.72929406 -1.3895272 -0.3025505 0.27419376 -0.9899801 -0.67259586 -1.5873188
-0.38145065 -0.2945564 -0.90167016 -1.4352932 -0.5130806 -0.36966768 -0.7048659 -0.853593
-0.9636003 0.458653 -1.2830226 1.18124 -0.9145117 -1.5341206 -0.522827 -0.09441009
-1.0108296 -0.4072205 -0.7736305 -1.1531723 -0.5711305 -1.2813454 0.88294303 -0.6404933
-0.68978 0.5345406 1.3972386 -0.8187355 -0.38322386 -1.4179463 -0.5953004 -0.37114358
-0.88037443 -0.4447554 -1.5545164 -0.57567674 0.018204113 -0.2853707 -0.22566843 -0.9180094
0.14612693 -0.32144147 -0.20556828 1.4350631 -1.3257874 0.45683977 -0.78638995 -0.18328659
0.33415583 -0.86670727 1.2397308 0.07305596 -0.99063706 -1.4429464 -0.24737266 -0.65186304
-0.4117046 -1.1248795 -0.9616148 -0.90434045 -0.22872855 -1.5190259 -0.24392022 -1.4565468
-1.1472356 -0.28618217 -0.50873226 0.002865225 0.24518298 -0.95630383 -1.0818998 -0.66338897
-0.2894323 1.3475183 -0.7677423 0.22146633 0.6568317 -1.4084711 0.05795049 -1.4304906
-0.64321226 -0.45782858 -1.0954108 -0.33381787 -1.3184918 -0.12265263 -0.9155499 -1.2017484
-1.763535 -0.9605484 -0.982582 -1.1221479 -0.8366842 -0.13359502 -0.7106107 -0.25604704
-0.9082669 0.007194026 0.86896014 -0.78960687 -0.42992184 -0.13868071 -1.2737803 0.96325487
-0.91145724 -0.61241084 0.7333993 -0.65802425 0.40994743 -1.0752475 -1.3373481 -1.0739441
0.9006846 -1.3428582 -0.30115813 -0.6303138 -0.8800933 1.066432 -0.23655936 0.28994727
-0.4089782 0.66380197 -0.4202221 0.093317226 -0.8531175 0.2183123 -0.9176026 0.5669104
-0.7712617 -0.41937113 -1.185632 -1.1850576 -1.3503445 -0.009470675 -0.44142458 -1.0292588
-1.512827 -0.37034163 -0.4968024 -0.1358772 -0.94629025 -0.09397013 -0.81388396 -0.4903337
-1.098969 -0.041898735 -1.0993611 -0.3478216 0.14171009 0.00047417195 0.92123425 1.0863086
-0.6754497 -0.49146843 -0.17066625 -1.0863752 -1.2615675 0.35912713 -0.27874386 -0.6144325
-1.0403116 -1.0974296 -1.2961203 -0.85474133 0.03386301 -0.33811226 0.12990901 -0.70991653
0.14785093 -0.9368369 -0.31944844 -0.87854475 0.58803046 0.09873064 -0.21288194 -1.0139834
-1.2413234 -1.2689368 -0.79267895 -1.1907747 -0.9523995 0.28043136 -0.5696463 -0.5175135
-0.11409384 -1.3952389 -0.47687358 0.86164093 -0.766865 -0.42832148 -0.6869143 0.91907024
0.32492352 0.6145758 -0.48172528 -0.7810378 -1.4651548 -1.1293619 -0.24978009 -1.0211864
0.013046779 -0.5471607 -1.2570037 -0.12586828 -0.4896679 0.5806337 1.15317 0.92720693
-0.7158391 -0.7553527 -0.5952197 -1.3095617 -0.3837108 -1.3532958 -0.94799495 -1.1052551
-0.75782686 -0.35581776 0.11033943 -1.4542475 -1.1102146 -0.43467635 -0.37724355 -1.0090016
00000000: de48 abbf afd5 64be 3bd7 4abc 8b1c 81bf
00000010: 166d f0be 3a97 21bf 22b5 8bbd cce2 76be
00000020: c60c a13f e0a1 313e d9ff bcbc 58e0 bd3f
00000030: 90c6 6abf 435f de3c 4f4c 5abf ef0f 943d
00000040: 7d7c 78bf 74b2 883f 0dc4 82bf a6aa a33e
00000050: fb54 24bf 42c6 70bf b282 103f 5611 7dbf
00000060: 0bb2 e2bf 04b3 3abf 07dc b1bf e6e7 9abe
00000070: 2063 8c3e 566f 7dbf 3e2f 2cbf 432d cbbf
00000080: 804d c3be 19d0 96be dbd3 66bf b0b7 b7bf
00000090: 4059 03bf 1545 bdbe 1772 34bf 1285 5abf
000000a0: 82ae 76bf 91d4 ea3e 163a a4bf df32 973f
000000b0: 701d 6abf 105e c4bf fed7 05bf 145a c1bd
000000c0: dd62 81bf 357f d0be a60c 46bf 269b 93bf
000000d0: 9c35 12bf 2003 a4bf 8e08 623f 5ef7 23bf
000000e0: 6c95 30bf a7d7 083f b7d8 b23f a698 51bf
000000f0: eb35 c4be 447f b5bf 9b65 18bf 8806 bebe
00000100: 3860 61bf fbb6 e3be 65fa c6bf 8d5f 13bf
00000110: cb20 953c 1c1c 92be a015 67be aa02 6bbf
00000120: 4ca2 153e fa93 a4be 7e80 52be 26b0 b73f
00000130: 67b3 a9bf e7e6 e93e da50 49bf 7baf 3bbe
00000140: 7916 ab3e 87e0 5dbf 80af 9e3f 5d9e 953d
00000150: 649a 7dbf 78b2 b8bf 424f 7dbe 7fe0 26bf
00000160: f2ca d2be 0dfc 8fbf 632c 76bf db82 67bf
00000170: d137 6abe 716f c2bf 39c6 79be 2070 babf
00000180: 9ed8 92bf 7886 92be 473c 02bf 80c6 3b3b
00000190: 3f11 7b3e 54d0 74bf b17b 8abf dcd3 29bf
000001a0: 7830 94be 7b7b ac3f c28a 44bf 12c8 623e
000001b0: 1f26 283f c848 b4bf 7e5d 6d3d 511a b7bf
000001c0: 8fa9 24bf 8268 eabe 6c36 8cbf 2dea aabe
000001d0: 57c4 a8bf 4d31 fbbd 7a61 6abf e4d2 99bf
000001e0: 84bb e1bf 80e6 75bf 7e8a 7bbf 8ba2 8fbf
000001f0: f030 56bf 22cd 08be 95ea 35bf 9918 83be
00000200: 2e84 68bf ddbb eb3b 2c74 5e3f ad23 4abf
00000210: b71e dcbe 5102 0ebe 3c0b a3bf df97 763f
00000220: 4355 69bf f5c6 1cbf 0ec0 3b3f 4774 28bf
00000230: a1e4 d13e b6a1 89bf 392e abbf 0077 89bf
00000240: 4493 663f c7e2 abbf 6631 9abe 3f5c 21bf
00000250: cb4d 61bf d880 883f 9e3c 72be f873 943e
00000260: 9765 d1be edee 293f 5a27 d7be 1a1d bf3d
00000270: e965 5abf 428d 5f3e 01e8 6abf 0a21 113f
00000280: 6871 45bf d0b7 d6be cac2 97bf f8af 97bf
00000290: 17d8 acbf e42a 1bbc 6702 e2be c1be 83bf
000002a0: 51a4 c1bf 6b9d bdbe e25c febe 6523 0bbe
000002b0: 1440 72bf 6973 c0bd b35a 50bf 050d fbbe
000002c0: 04ab 8cbf 029e 2bbd ddb7 8cbf ac15 b2be
000002d0: 731c 113e 489a f839 02d6 6b3f 290c 8b3f
000002e0: 46ea 2cbf c0a1 fbbe 22c3 2ebe 580e 8bbf
000002f0: 0b7b a1bf 83df b73e 84b7 8ebe 734b 1dbf
00000300: ee28 85bf 9378 8cbf 45e7 a5bf 54d0 5abf
00000310: f1b3 0a3d 0d1d adbe de06 053e 17bd 35bf
00000320: 3c66 173e 8bd4 6fbf bf8e a3be 4fe8 60bf
00000330: 2a89 163f 4a33 ca3d b9fd 59be 35ca 81bf
00000340: afe3 9ebf 856c a2bf 02ed 4abf 4e6b 98bf
00000350: 74d0 73bf b394 8f3e 57d4 11bf c47b 04bf
00000360: 08aa e9bd 3097 b2bf c628 f4be 8094 5c3f
00000370: 4451 44bf f44c dbbe 9ed9 2fbf 3048 6b3f
00000380: 605c a63e d754 1d3f b2a4 f6be 18f2 47bf
00000390: 318a bbbf ee8e 90bf 5ac6 7fbe 3cb6 82bf
000003a0: 28c2 553c b912 0cbf 7fe5 a0bf 9de3 00be
000003b0: c0b5 fabe 69a4 143f 139b 933f 6f5d 6d3f
000003c0: 3b41 37bf cb5e 41bf 5160 18bf b89f a7bf
000003d0: be75 c4be cc38 adbf ccaf 72bf 0079 8dbf
000003e0: f100 42bf bf2d b6be a4f9 e13d c824 babf
000003f0: 831b 8ebf e68d debe 1126 c1be f726 81bf

l2.weight f4 [300, 400]
0.02914465 -0.07210158 -0.028204387 0.036068667 -0.00014901321 -0.08563035 0.018954853 -0.019794164
-0.05543424 -0.03752526 -0.051693298 -0.04774523 -0.035916675 -0.048345003 -0.019530037 -0.08096777
-0.04303646 0.048718076 0.027179183 -0.04228991 0.005487218 -0.05084393 -0.07158004 -0.019021165
-0.071887 -0.019125098 -0.0667297 0.034619525 -0.05422873 -0.024109544 -0.07004223 -0.0794717
-0.07210456 0.0022625804 -0.051109172 -0.0744053 -0.0825473 -0.026147652 -0.07906043 0.025992306
0.018932873 0.007091143 0.02441241 -0.037177317 0.011519632 0.01922084 -0.08999491 -0.0627388
-0.050621156 0.022570996 -0.04452285 0.0038877863 -0.023536967 -0.04679379 -0.013870294 -0.087919176
-0.019293856 -0.031636316 -0.05982487 -0.031655688 -0.0013946686 0.004422436 0.006537006 -0.062353596
0.015499177 -0.005519815 -0.084663264 -0.0023091002 -0.043334484 -0.03787767 -0.040793832 0.006959827
-0.059924707 -0.08652592 -0.058183502 -0.0017044733 0.042768236 -0.088793874 0.048700396 -0.04659486
-0.036380105 -0.0744798 -0.03594946 -0.03890138 -0.014207619 0.030510714 -0.049171273 0.009317798
-0.055041593 -0.035583638 -0.0088201 -0.06170763 -0.005372945 0.029222135 -0.008105216 -0.04714844
0.010816484 -0.021186678 -0.029325701 -0.092544496 -0.040838536 -0.07096462 -0.033695657 0.022711067
0.007176266 0.032659277 0.0035184235 -0.029974647 -0.012933569 -0.034264136 -0.07098399 -0.04473221
0.012122199 -0.03081917 -0.0033987483 -0.010598368 0.00039310288 -0.021204932 0.00048539706 0.062633745
-0.008114714 -0.04159775 -0.046445847 -0.04185703 -0.019495394 -0.03549572 -0.04931954 -0.03899824
0.024684355 -0.043663055 -0.008299117 -0.03530573 0.03502558 -0.08379155 -0.014325525 -0.09040916
0.004770937 0.044527322 -0.101163335 0.026405813 -0.06943873 -0.091766655 0.04099574 -0.017735194
-0.03670048 -0.04307893 -0.061917737 -0.024818094 0.02463369 -0.012977341 0.03099165 -0.011047825
-0.012698875 -0.0072352192 -0.051261906 -0.006387715 -0.0889101 0.01115325 -0.023319036 0.0099620875
-0.05599601 -0.060217515 0.004275473 -0.021857977 -0.01832118 0.006379426 -0.029251194 -0.043213785
-0.040472712 0.04009571 -0.03224801 -0.04082587 0.025698753 -0.03342669 -0.021474643 -0.0017077096
-0.048462722 -0.0006842492 0.011705711 0.010678088 0.017375328 0.020934846 -0.023538085 -0.04500863
0.047214005 -0.025044592 0.031599805 -0.0057237744 0.010847404 0.0008856362 -0.019840358 0.0022424173
-0.05731998 0.01763759 0.011607922 -0.04084971 -0.062642686 -0.024952205 0.014302054 -0.059221372
-0.018875504 0.03208931 -0.053935178 -0.021093916 -0.018970128 0.03942516 -0.078647666 -0.04715887
-0.025540058 -0.070399866 -0.0062278067 -0.025500942 -0.037493967 -0.005599256 -0.07054441 -0.0854113
-0.07918113 -0.011933699 -0.08608037 -0.028943857 0.029826751 0.00888883 -0.020905046 -0.023206532
-0.0728973 -0.063177265 -0.040015247 -0.010567262 -0.046512898 -0.002280229 0.022046102 0.010451218
-0.07801734 -0.025408927 0.07318638 -0.055068415 -0.07729314 -0.055169743 -0.076688156 -0.032618303
-0.041495677 -0.07879668 -0.09133154 -0.015694758 -0.07290326 -0.010513804 -0.048456017 0.012926676
-0.09166831 -0.050569747 -0.051881798 -0.043157905 -0.014569531 0.01794828 -0.037014894 -0.04942757
00000000: c3c0 ee3c fea9 93bd e30c e7bc bdbc 133d
00000010: 6e40 1cb9 f75e afbd 3547 9b3c 5f27 a2bc
00000020: 030f 63bd 16b4 19bd 5abc 53bd 8190 43bd
00000030: 5d1d 13bd 6905 46bd 75fd 9fbc 6ed2 a5bd
00000040: 0047 30bd 9b8c 473d e1a6 de3c 2f38 2dbd
00000050: 1fce b33b ba41 50bd 8e98 92bd 46d2 9bbc
00000060: 7e39 93bd 3dac 9cbc 95a9 88bd 34cd 0d3d
00000070: f21e 5ebd 6181 c5bc 4d72 8fbd 0fc2 a2bd
00000080: 8eab 93bd cd47 143b da57 51bd ce61 98bd
00000090: 8f0e a9bd 9a33 d6bc 6fea a1bd d1ed d43c
000000a0: 1d19 9b3c d25c e83b 89fc c73c 3e47 18bd
000000b0: d7bc 3c3c 0675 9d3c 404f b8bd 337d 80bd
000000c0: 2158 4fbd cfe6 b83c 985d 36bd 3bca 7e3b
000000d0: 99d0 c0bc d8aa 3fbd 3b40 63bc f80e b4bd
000000e0: 260e 9ebc 1595 01bd ec0a 75bd 65a9 01bd
000000f0: 50cd b6ba 15ea 903b 6134 d63b 7c66 7fbd
00000100: 43f0 7d3c 90df b4bb ef63 adbd 4654 17bb
00000110: 807f 31bd 9e25 1bbd 6f17 27bd 430f e43b
00000120: 9c73 75bd 8034 b1bd d351 6ebd a268 dfba
00000130: bf2d 2f3d 90d9 b5bd 117a 473d 40da 3ebd
00000140: 4e03 15bd de88 98bd be3f 13bd 0e57 1fbd
00000150: 13c7 68bc 9bf1 f93c d167 49bd ada9 183c
00000160: 4b73 61bd 26c0 11bd 2e82 10bc 24c1 7cbd
00000170: 880f b0bb 4263 ef3c bdcb 04bc b91e 41bd
00000180: 9f37 313c af8f adbc 743c f0bc f887 bdbd
00000190: 4f46 27bd e655 91bd 7504 0abd 8f0c ba3c
000001a0: e226 eb3b bcc5 053d 5a95 663b 648d f5bc
000001b0: 52e7 53bc 8d58 0cbd 0e60 91bd 1f39 37bd
000001c0: 309c 463c 7c78 fcbc 89bd 5ebb c7a4 2dbc
000001d0: 6019 ce39 f7b5 adbc e47c fe39 1f46 803d
000001e0: 94f3 04bc 6762 2abd 003e 3ebd 4772 2bbd
000001f0: ceb4 9fbc f663 11bd 4903 4abd 9ebc 1fbd
00000200: d836 ca3c 08d8 32bd 05f9 07bc be9c 10bd
00000210: fc76 0f3d e79a abbd 9bb5 6abc 7028 b9bd
00000220: 8555 9c3b 4862 363d b92e cfbd 0151 d83c
00000230: e535 8ebd 28f0 bbbd 26eb 273d 6649 91bc
00000240: 3e53 16bd 8873 30bd 749d 7dbd 514f cbbc
00000250: 98cc c93c ea9e 54bc 33e2 fd3c f001 35bc
00000260: f10e 50bc 6b15 edbb 01f8 51bd 0a50 d1bb
00000270: 8016 b6bd 1fbc 363c 9007 bfbc 0638 233c
00000280: 125c 65bd a4a6 76bd 4419 8c3b 800f b3bc
00000290: 4d16 96bc 810a d13b 33a0 efbc f000 31bd
000002a0: b7c6 25bd 663b 243d 7d16 04bd 0739 27bd
000002b0: 3186 d23c 6dea 08bd 97eb afbc 3ad5 dfba
000002c0: d980 46bd 305f 33ba 4fc9 3f3c 26f3 2e3c
000002d0: b456 8e3c 8e7f ab3c f1d2 c0bc f85a 38bd
000002e0: 7963 413d 512a cdbc cc6e 013d 808e bbbb
000002f0: 4fb9 313c 0a2a 683a 3f88 a2bc 85f5 123b
00000300: 5bc8 6abd b57c 903c 272f 3e3c 0752 27bd
00000310: cf4a 80bd 9168 ccbc 2a53 6a3c 1c92 72bd
00000320: cda0 9abc 1570 033d 22eb 5cbd 26cd acbc
00000330: 3e67 9bbc 477c 213d 0712 a1bd a929 41bd
00000340: 6239 d1bc ce2d 90bd a112 ccbb 5ae7 d0bc
00000350: 4693 19bd f779 b7bb 9679 90bd 1fec aebd
00000360: b729 a2bd 9085 43bc e84a b0bd ab1b edbc
00000370: 3b57 f43c 75a2 113c 0f41 abbc a01b bebc
00000380: 2e4b 95bd 1563 81bd 07e7 23bd 4f22 2dbc
00000390: 4f84 3ebd e56f 15bb 079a b43c 963b 2b3c
000003a0: 8ec7 9fbd 6226 d0bc bee2 953d 6b8f 61bd
000003b0: de4b 9ebd abf9 61bd ae0e 9dbd c59a 05bd
000003c0: 5ff7 29bd 2760 a1bd 080c bbbd 4b92 80bc
000003d0: 4e4e 95bd 1742 2cbc d179 46bd 69ca 533c
000003e0: 98bc bbbd 3922 4fbd 0282 54bd 58c6 30bd
000003f0: 0bb5 6ebc 4508 933c ee9c 17bd 9074 4abd

l2.bias f4 [300]
-0.08231335 -0.4434615 -1.5227928 -0.81899846 -0.080946915 -0.09707148 -0.06481788 -0.012803184
-0.09103799 0.27078533 -0.019581823 -0.5503791 -0.030436955 -0.83350617 0.106931575 -0.054413505
-0.11330929 -0.08497023 -0.063168325 -0.065868415 0.0011504522 -0.06081803 -0.022138491 -0.317857
-0.019224469 -0.8681557 -0.032910366 -0.039172586 0.0354078 -0.06647191 -0.0626561 -0.027501425
-0.014799569 -0.36200023 -0.018603187 -0.11068817 -0.08967453 0.19024517 -0.26852527 -0.06492219
-0.03786277 -0.5440896 -0.11171337 -0.42067507 -0.54176503 -0.17309654 -0.7151313 -0.018300693
0.45353925 -0.16222464 -0.021545053 -0.15757845 -0.082879595 -0.38407782 -0.080815785 0.86384773
-0.3809081 0.009681572 -0.24677433 -0.074363574 -0.08041494 0.029640486 -0.0377078 -0.07781766
-0.23309585 -0.15350148 -0.21623543 -0.011626549 -0.20925346 -0.03988635 -0.07485532 -0.23645991
-0.9397099 -0.3712803 0.039942972 0.01815168 -0.5884368 -0.08085025 -0.30934542 -0.031094097
-0.48721778 -0.16154216 -0.30566642 0.03316626 -0.09776289 0.5182502 -0.006476843 -0.09550835
-0.069455124 -0.5402034 -0.050897576 -0.41740277 -0.051995046 0.8424093 1.273655 -0.00071192114
-0.43508154 -0.035686456 0.018241832 -0.049663756 -0.066516615 -0.012477779 -0.05337266 0.59569985
-0.13426705 -0.36395976 -0.113847055 -0.062312618 -0.08038663 -0.12304273 -0.03703948 -1.3363017
-0.053500064 -0.019963665 -0.09130174 -0.10677959 -0.28610557 -0.044545203 0.016408987 -0.108749524
-0.27746883 -0.051117368 -0.10332997 -0.045340925 -0.08195125 -0.08270376 -0.20041634 -0.29373497
-0.05978538 -0.4859843 -0.023684861 0.016508453 0.18377768 -0.026452009 -0.093298495 -0.05790038
-0.6956525 -0.043938726 -0.030672766 -0.065108456 -0.015691219 -0.073204264 -0.8537956 -0.46632633
-0.93775487 -0.08380198 -0.16285942 0.023269363 -0.07251583 -0.38302878 -0.07020316 -0.20997992
-1.0221432 0.22371247 -0.013693157 -0.72929335 -0.60855806 -0.18379784 -0.027784176 -0.04775127
-1.5071527 -0.26757446 -0.039080944 -0.4123543 -0.057752114 -0.48988807 0.045331236 -0.037321113
-0.007018873 -0.062403515 -0.16974674 -0.07689528 -0.054142304 -0.0355516 -0.101018794 -0.10353561
-0.089577675 0.1036861 -0.15517637 -0.10174896 -0.022541193 -0.11544015 -0.76388794 -0.13844533
-0.4599247 -0.07570319 -0.05740566 -0.15005633 -0.076539144 -0.034553964 -0.04245382 -0.60569704
-0.028481549 -0.09661848 -0.03423061 -0.2818796 -0.052652188 -0.067395784 -0.19934432 -0.32332274
-0.11082824 -0.044320732 -0.082235865 -0.17113851 -0.84889615 -0.010022882 -0.600714 -0.06938211
-0.22227935 -0.10814305 -0.6056553 -0.46614754 -0.1005956 0.310676 0.16866924 -0.12588961
-0.07884585 0.7085686 -0.0788682 -0.05962296 -0.31947225 -0.014402079 -0.017509812 -0.3808532
-0.09729483 -0.2572092 -0.06358258 0.03223683 -0.07847481 -0.03026224 -0.0342619 -0.059102163
-0.850279 -0.055273306 -0.10678555 -0.0407685 -0.07253371 -0.45542914 -0.21776429 -0.26403394
-0.040122535 -0.8436062 -0.26465976 -0.23161046 -0.05971907 -0.06977848 -0.099486955 -0.039434846
-0.068721585 -0.08332514 -0.020100756 -0.10392533 0.0035040812 -0.065500356 -0.052965112 -0.17457473
00000000: e793 a8bd 630d e3be e0ea c2bf e2a9 51bf
00000010: 7fc7 a5bd 69cd c6bd 3dbf 84bd 72c4 51bc
00000020: 2072 babd 60a4 8a3e 0f6a a0bc a5e5 0cbf
00000030: ec56 f9bc a960 55bf f1fe da3d b2e0 5ebd
00000040: b30e e8bd df04 aebd 655e 81bd 05e6 86bd
00000050: c5ca 963a 541c 79bd c85b b5bc 27be a2be
00000060: a27c 9dbc 743f 5ebf 05cd 06bd 6f73 20bd
00000070: c507 113d 6d22 88bd d751 80bd ab4a e1bc
00000080: e479 72bc 1858 b9be b665 98bc 7bb0 e2bd
00000090: 48a7 b7bd a1cf 423e 257c 89be edf5 84bd
000000a0: fe15 1bbd 7549 0bbf fbc9 e4bd b962 d7be
000000b0: 1db1 0abf 3840 31be d812 37bf 56eb 95bc
000000c0: 4c36 e83e 371e 26be 407f b0bc 3f5c 21be
000000d0: c7bc a9bd d9a5 c4be bf82 a5bd 2025 5d3f
000000e0: 6306 c3be 759f 1e3c 69b2 7cbe ee4b 98bd
000000f0: 97b0 a4bd 9bd0 f23c 7e73 1abd de5e 9fbd
00000100: aeb0 6ebe 7e2f 1dbe d26c 5dbe 487d 3ebc
00000110: 8a46 56be df5f 23bd bf4d 99bd 8c22 72be
00000120: d490 70bf 7418 bebe 3e9b 233d d5b2 943c
00000130: cba3 16bf d194 a5bd 8662 9ebe 0cb9 febc
00000140: 9c74 f9be 4f6b 25be 4f80 9cbe 58d9 073d
00000150: e937 c8bd 0cac 043f b23b d4bb e299 c3bd
00000160: 7d3e 8ebd c54a 0abf fa79 50bd d1b5 d5be
00000170: c2f8 54bd 23a8 573f 2107 a33f 38a0 3aba
00000180: 02c3 debe f62b 12bd e56f 953c 396c 4bbd
00000190: dd39 88bd 996f 4cbc 4a9d 5abd c97f 183f
000001a0: 4d7d 09be ef58 babe a528 e9bd 843b 7fbd
000001b0: bfa1 a4bd d4fd fbbd b6b6 17bd ef0b abbf
000001c0: e222 5bbd d78a a3bc 68fc babd 42af dabd
000001d0: 6e7c 92be 0875 36bd 246c 863c 12b8 debd
000001e0: 6510 8ebe 7260 51bd aa9e d3bd 68b7 39bd
000001f0: 0fd6 a7bd 9760 a9bd f139 4dbe 6e64 96be
00000200: 84e1 74bd efd2 f8be c106 c2bc bc3c 873c
00000210: 3730 3c3e e2b1 d8bc 4813 bfbd f328 6dbd
00000220: 4816 32bf 18f9 33bd 7445 fbbc 9557 85bd
00000230: df8a 80bc 1eec 95bd 5992 5abf 53c2 eebe
00000240: b410 70bf 5fa0 abbd 9fc4 26be 649f be3c
00000250: 2e83 94bd 591c c4be adc6 8fbd fa04 57be
00000260: 97d5 82bf e214 653e 4359 60bc f8b2 3abf
00000270: 76ca 1bbf 8035 3cbe a49b e3bc d696 43bd
00000280: 61ea c0bf 85ff 88be 5713 20bd 1a20 d3be
00000290: 7b8d 6cbd 9cd2 fabe 3fad 393d 06de 18bd
000002a0: 93fe e5bb d49a 7fbd 17d2 2dbe 467b 9dbd
000002b0: 52c4 5dbd 8e9e 11bd f1e2 cebd 7a0a d4bd
000002c0: 8074 b7bd 6159 d43d 8ee6 1ebe c261 d0bd
000002d0: 4fa8 b8bc e36b ecbd 298e 43bf 9dc4 0dbe
000002e0: 407b ebbe 460a 9bbd 3322 6bbd 5ea8 19be
000002f0: 8ec0 9cbd 7588 0dbd 0fe4 2dbd f60e 1bbf
00000300: 2352 e9bc e9df c5bd 6535 0cbd 8652 90be
00000310: d2a9 57bd cd06 8abd eb20 4cbe 8f8a a5be
00000320: ebf9 e2bd a889 35bd 476b a8bd ef3e 2fbe
00000330: 4251 59bf 0437 24bc 65c8 19bf 3518 8ebd
00000340: 339d 63be 1a7a ddbd 3a0c 1bbf e4aa eebe
00000350: 1105 cebd ed10 9f3e a1b7 2c3e 35e9 00be
00000360: ef79 a1bd c064 353f a785 a1bd 3437 74bd
00000370: de91 a3be b3f6 6bbc bd70 8fbc 31ff c2be
00000380: 8342 c7bd edb0 83be 9537 82bd c40a 043d
00000390: 67b7 a0bd 84e8 f7bc 3556 0cbd 1c15 72bd
000003a0: e2ab 59bf 4366 62bd 62b2 dabd dffc 26bd
000003b0: 8e8c 94bd 022e e9be 9afd 5ebe 752f 87be
000003c0: 8757 24bd 93f6 57bf 7c81 87be 4b2b 6dbe
000003d0: fc9b 74bd 05e8 8ebd d1bf cbbd 6f86 21bd
000003e0: e7bd 8cbd 5fa6 aabd 57aa a4bc ced6 d4bd
000003f0: baa4 653b 0d25 86bd f2f1 58bd b8c3 32be

l3.weight f4 [4, 300]
-0.0343297 -0.0087904 0.007811336 -0.5563562 -0.013203839 0.0252845 -0.03450553 -0.02198352
-0.0016652179 2.151299 -0.030371763 -0.12660012 0.046083745 -0.9492585 -0.027402703 0.17199981
-0.34367174 0.009602038 -0.08493595 0.1478301 0.013518998 0.03880825 -0.06866983 -0.35991403
1.5817385 -1.1065567 -0.022096766 0.053224392 -0.0154915415 -0.010866962 -0.010919488 -0.04147109
0.09951377 -0.8634754 -1.5075102 -0.010151519 0.02996049 -1.0793254 -0.44799232 -0.02060553
-0.0021319622 -0.27155602 0.05635513 -0.25667274 0.83978856 -0.19355883 1.2207638 0.022466315
0.037961524 -0.23589306 -0.028258774 0.102461234 -0.004475615 0.07252328 -0.00037477328 2.1971545
-0.03926104 0.39347744 -0.0052199075 -0.024255201 0.026247118 0.008261863 -0.015876643 0.012730541
-0.123366386 0.33204883 0.188105 0.10642941 0.2816924 -0.017576493 0.17024742 0.2882471
0.16798243 0.023385437 0.84990937 0.012378314 0.15863526 0.049902894 -0.5026524 -0.007687749
1.0367523 0.295946 0.21213113 0.14546803 0.014312114 -0.053095043 0.013565377 -0.015741045
-0.0128477 0.44122082 0.04785699 -0.53611445 -0.07859104 -0.24918455 0.25019783 0.012048624
-0.14850958 -0.0016834951 0.03762435 0.052477844 0.0279045 -0.0075021363 0.029297387 2.957066
-0.7195539 0.17748351 -0.022932207 -0.002953576 -0.03129117 0.023624884 -0.056624092 -0.04750681
0.04275557 0.016159395 0.0014067059 0.02464226 0.21082035 0.03027416 0.84648806 1.9523042
0.3448579 -0.01629015 0.07207028 0.018074194 0.0065709995 -0.041912165 1.7944949 0.24274462
0.045548793 0.03472559 0.008936515 -0.06857446 -2.072503 0.003517539 -0.016570294 0.045223206
-0.3245148 0.039993644 0.008837609 0.0054643075 0.08460961 0.12146767 -0.6460375 0.7508464
0.44042808 -0.015273053 0.23108593 -0.004212111 -0.026220668 0.20317902 -0.041030016 0.1965003
-0.8712906 -0.036889516 0.008726779 0.29926032 -0.702352 -0.1468266 -0.011777423 -0.32830217
0.06259127 0.05750699 -0.03268983 -0.11202182 -0.016531551 0.3387663 0.31522244 0.003289411
0.009451163 -0.016078556 0.76125336 -0.015008558 -0.0058703646 -0.00089335453 -0.053224392 -0.028709535
0.010536714 -0.056673266 -0.060967788 0.021897092 -0.3799472 0.03073833 0.2835664 -0.01944361
1.6265289 0.009058518 0.08227311 0.12704891 -0.04862514 -0.029636763 0.00737408 -0.350723
-0.021607263 0.010531871 -0.061537012 0.33464167 0.009374237 0.004349793 0.0320156 0.17220245
0.115337335 -0.06577737 -0.026783185 0.6567663 1.3723505 0.06283804 -0.43946743 -0.01598505
-0.14588697 -0.30650228 -0.27320403 -0.0067088353 -0.018664282 -0.27202582 0.10915266 0.030849718
0.079641566 -0.03276789 -0.022799358 -0.0057151127 -0.21625033 -0.019389967 -0.040208958 -0.35416222
0.037538163 -0.4046533 0.0014008618 0.072402574 0.0021207866 0.032922283 0.04816246 -0.12168971
0.12494709 -0.0341941 0.018172542 0.030801289 0.018685143 -0.031940125 -0.13366503 0.47148216
-0.0024808827 0.11819146 0.21470061 -1.6745702 -0.5571788 0.073298134 0.02485423 -0.036886
-1.514936 0.007838159 0.24347477 0.036371764 -0.056925844 0.037308447 -0.0016840075 0.26697242
00000000: 4d9d 0cbd 9c05 10bc 3cf6 ff3b 5c6d 0ebf
00000010: ea54 58bc 7121 cf3c ac55 0dbd c816 b4bc
00000020: 7143 daba e2ae 0940 34ce f8bc 76a3 01be
00000030: 4fc2 3c3d 9b02 73bf a27b e0bc b820 303e
00000040: bef5 afbe de51 1d3c e6f2 adbd c660 173e
00000050: ca7e 5d3c 66f5 1e3d c5a2 8cbd a746 b8be
00000060: 6876 ca3f a6a3 8dbf 4704 b5bc d201 5a3d
00000070: 3cd0 7dbc 580b 32bc a7e7 32bc 97dd 29bd
00000080: e0cd cb3d b90c 5dbf 18f6 c0bf 8f52 26bc
00000090: b46f f53c 5627 8abf 405f e5be eecc a8bc
000000a0: 64b8 0bbb 6409 8bbe a3d4 663d 9c6a 83be
000000b0: 62fc 563f 4934 46be fd41 9c3f 470b b83c
000000c0: 8b7d 1b3d f38d 71be f27e e7bc 32d7 d13d
000000d0: 2ea8 92bb 1687 943d 387d c4b9 2e9e 0c40
000000e0: 2fd0 20bd e075 c93e c20b abbb d8b2 c6bc
000000f0: 3204 d73c c45c 073c bc0f 82bc c293 503c
00000100: 84a7 fcbd 4e02 aa3e 999e 403e aaf7 d93d
00000110: fc39 903e 94fc 8fbc 5755 2e3e 2095 933e
00000120: 9603 2c3e d192 bf3c a993 593f 69ce 4a3c
00000130: 4871 223e fa66 4c3d d4ad 00bf 83e9 fbbb
00000140: 4db4 843f 3c86 973e e738 593e 92f5 143e
00000150: 5b7d 6a3c 307a 59bd 5141 5e3c 5df3 80bc
00000160: 297f 52bc b2e7 e13e b105 443d cc3e 09bf
00000170: 57f4 a0bd 3c2a 7fbe ee19 803e 9867 453c
00000180: e512 18be b9a8 dcba fe1b 1a3d 02f3 563d
00000190: fa97 e43c 7bd4 f5bb 1301 f03c 9240 3d40
000001a0: af34 38bf 3dbe 353e 53dc bbbc c890 41bb
000001b0: 2b2b 00bd f988 c13c aaee 67bd 8096 42bd
000001c0: 7720 2f3d b560 843c 3861 b83a 91de c93c
000001d0: 4ae1 573e 8401 f83c 71b3 583f 1be5 f93f
000001e0: 3791 b03e ec72 85bc 9599 933d 5510 943c
000001f0: 8a51 d73b 17ac 2bbd 02b2 e53f 0c92 783e
00000200: 5f91 3a3d 6c3c 0e3d 766a 123c c470 8cbd
00000210: e4a3 04c0 8386 663b 6dbe 87bc f83b 393d
00000220: ce26 a6be 60d0 233d 9ecb 103c ef0d b33b
00000230: ce47 ad3d 0bc4 f83d b762 25bf 7837 403f
00000240: ca7f e13e d43b 7abc caa1 6c3e bf05 8abb
00000250: bacc d6bc 290e 503e 170f 28bd 6037 493e
00000260: e70c 5fbf 7619 17bd c4fa 0e3c a638 993e
00000270: 57cd 33bf b659 16be 18f6 40bc 3917 a8be
00000280: da2f 803d 738c 6b3d c5e5 05bd b26b e5bd
00000290: 2d6d 87bc c772 ad3e d664 a13e 2993 573b
000002a0: 0dd9 1a3c 2db7 83bc 80e1 423f 74e6 75bc
000002b0: 305c c0bb 0230 6aba d201 5abd 4230 ebbc
000002c0: 2fa2 2c3c 3a22 68bd 5cb9 79bd 8861 b33c
000002d0: 7088 c2be f3ce fb3c 9d2f 913e 3548 9fbc
000002e0: 1932 d03f 2e6a 143c ce7e a83d 1c19 023e
000002f0: 282b 47bd ccc8 f2bc 44a2 f13b f791 b3be
00000300: b701 b1bc de8d 2c3c 3c0e 7cbd 2756 ab3e
00000310: 6696 193c b588 8e3b ca22 033d d755 303e
00000320: fb35 ec3d 49b6 86bd 6968 dbbc d621 283f
00000330: 2ea9 af3f 3bb1 803d e001 e1be 14f3 82bc
00000340: 6563 15be deed 9cbe 66e1 8bbe cad5 dbbb
00000350: d6e5 98bc f846 8bbe 6e8b df3d 8cb8 fc3c
00000360: 1e1b a33d 9f37 06bd b8c5 babc d745 bbbb
00000370: ba70 5dbe b5d7 9ebc 26b2 24bd c054 b5be
00000380: 9ec1 193d b82e cfbe 1f9d b73a cd47 943d
00000390: e5fc 0a3b 84d9 063d 0046 453d 7438 f9bd
000003a0: 43e4 ff3d 1d0f 0cbd 95de 943c fc52 fc3c
000003b0: 9611 993c a6d3 02bd 7cdf 08be 1c66 f13e
000003c0: 4e96 22bb 5d0e f23d 7ada 5b3e 5158 d6bf
000003d0: 45a3 0ebf 551d 963d 199b cb3c c615 17bd
000003e0: 6ce9 c1bf 9f6b 003c 7351 793e 8ffa 143d
000003f0: 132b 69bd bed0 183d eab9 dcba 9cb0 883e

l3.bias f4 [4]
-0.31701574 -0.52350754 0.577496 -0.51311135
00000000: e34f a2be 9704 06bf c7d6 133f 445b 03bf
