TD3_control/dir_Walker2D_002/biped-v8-2d-5_actor_t.pth (torch, 527895 bytes, 6 tensors)

l1.weight f4 [400, 24]
00000000: 275b a63f 4757 233e 0706 3cbf cf53 abbf
00000010: 8f45 3d3e 1cd6 083f 619c 46be ef7f 32be
00000020: dd59 8bbf 999f 44bf 1dcd 1640 963c 2fbe
00000030: 29df 5bc0 942c 883d 9763 35bf f734 363e
00000040: e6cd af3f 5e51 9b3e 2faf aebf 9778 253e
00000050: 49cf 41bf 5b66 723e 36a3 14c0 9395 6abe
00000060: a7a7 9540 d617 143e 0cc3 26be 640a 49c0
00000070: 49fb 01bf 32c9 f43f 4d79 16be 7ae2 203e
00000080: f99d 3fc0 d894 e4bd 6aaa eabf 046f 553e
00000090: b5fe a5bf 2474 ab3e 3f75 9f3f 8ddc 1b3e
000000a0: 7e08 4dbf ba38 493f af8c 3dbf 2879 dd3e
000000b0: 5c48 1d40 684f 2a3f cc96 6fbf 10e4 7c3f
000000c0: 9fab 3e40 abaf 1b3f 6346 6b3e ef48 8b3f
000000d0: a27e c53d 76ea a7c0 834b 0cbe 0a60 f2bd
000000e0: d536 0d3f 1b50 293d 147b 853f f649 c1bd
000000f0: 095e 843d ba1d 06be f7c1 7d3f aefa 823e
00000100: 841f 613f 3d20 de3d af0e 503f 611a 9d3e
00000110: e2b9 20c0 936a bcbd 878f 66be 8741 febd
00000120: 14c3 65c1 a7b9 a0bf 06b0 2ebd 8478 a7bf
00000130: 7b64 cabf a728 73c0 84c8 13be 15f0 623d
00000140: 8599 74bf 7bea 07bd af84 d4bf dfb9 f43e
00000150: 28d6 2ac0 d98d 693e 4337 593e 51d1 003d
00000160: e997 153f 0990 17bf f2b5 38bf babf 09be
00000170: 711b 493f 5743 e53d 74eb 1ebf b94d 993d
00000180: c36f 99c0 6e88 e2be 6a0a 7ebe f3de 2fc0
00000190: ed66 a6bf 98f1 40c0 2445 293e 3d7f 343e
000001a0: 94cf 1dbf bc48 87be 2a47 a4be 9e96 a1be
000001b0: e260 aac0 d9f5 0ebf c858 1440 6c6c 0e3e
000001c0: 7367 533d 8ea8 39bf 388d be3e bcd5 53bd
000001d0: 1fc1 11bf 0571 893e 1cb5 81bf e826 eebf
000001e0: 495e 09bf f436 193e 6843 ecbe 12fa d0bf
000001f0: 6d70 abbe 8af4 70bd 54b4 aa3d 8034 df3d
00000200: ad59 ccbf 9452 2cbf 0e02 2d40 ee7c 39bd
00000210: 65f0 afbf 152b 0fbf 7d4e aa3f 0418 f7be
00000220: a30f e0be 1484 113f c467 26bf 2e4a 843d
00000230: 04f4 09bf 5fbc 80bd db6e 70bf 1e5d 5bbf
00000240: 16d2 94bf 4e93 afbf d18c 47bf 38ae c0bf
00000250: b87e 313f 847f fcbf d7e4 2dbc c683 373e
00000260: 6833 4fbf 0e1f a0bf c59a 853f 053a 923d
00000270: 70b7 cfbf 3f51 273e 0d8e 0140 2af5 e8bd
00000280: 6968 423f 35b1 1abc 04f9 07bf e9d4 4b3e
00000290: 9b07 6ebd 5bfb eebc 902d c1bf 9efb a1bd
000002a0: 1843 2ac0 b501 5a3e 7969 55be 77bf 93c0
000002b0: 3213 9640 895b dc3f 6d1d 193e 52b7 f53d
000002c0: aa85 17c0 b6eb bdbf 832b 073f df12 843f
000002d0: f4c4 c4bf 115a 44be 7dee b73f 0db6 85be
000002e0: ecea fb3f 7940 373f 4c4b 0abf 52be 27bf
000002f0: 8c81 1d3e 1220 10bf 33b7 9abe 8a5f 18bf
00000300: 3cca 0b40 d70e 06c0 bc98 103e 371e 75bf
00000310: d63a 6a3f 21f8 023f bee6 87bd 665b 1f3e
00000320: 2094 9fbf f324 063e 57be 2440 1abb 9abd
00000330: 41ac 86c0 d5d7 58bf b604 e0be 7009 73bf
00000340: 81a4 223f 9257 0ebf a249 17be d9b1 6c3e
00000350: 8344 3a3f 7af4 2abe 57a0 97bf c89a 24bf
00000360: 7c9e c0c0 5052 333e 6336 8f3d 3672 92be
00000370: a37d 3fbf 3d4a 9bc0 9b5f 2cbe 27a1 1a3e
00000380: 12af 0cbf 1b83 a7bc 8d82 16be 4c20 df3e
00000390: 2765 24c0 ec6f 563f f94d 3140 ee55 9ebe
000003a0: 6211 fd3e cd75 15be f327 93be 46ea aa3d
000003b0: 3d81 773f b88e 3dbe 33e2 8bbe b193 89bd
000003c0: ec5d 9c3f c048 2c3e 8030 d6bd 5fc1 ddbf
000003d0: d39d c2be 7e9f 3140 931b 30bd 6bae c7bd
000003e0: c070 29bf 5088 1b3e b01e 7740 7db3 a23d
000003f0: da79 48bf 9a16 953f 00dc 1640 3c92 533e
1.2996567 0.15951262 -0.73446697 -1.3384951 0.18483566 0.53451705 -0.19395591 -0.17431615
-1.0886799 -0.76806027 2.3562691 -0.17112955 -3.4354956 0.066491276 -0.7085509 0.17793642
1.373471 0.30335516 -1.3647212 0.16159283 -0.7570692 0.23671858 -2.3224616 -0.2290862
4.6767154 0.14462218 -0.16285342 -3.1412592 -0.50774056 1.91239 -0.1469471 0.15711394
-2.994017 -0.11161202 -1.8333256 0.2084313 -1.2968355 0.33487046 1.2457656 0.15220852
-0.80091083 0.7860218 -0.7404279 0.43256497 2.4575415 0.66527414 -0.9358947 0.98785496
2.979225 0.60814923 0.22976069 1.0881633 0.09643294 -5.2473707 -0.1370068 -0.11834724
0.5516179 0.04133616 1.0428185 -0.09437935 0.06463248 -0.13097277 0.9912409 0.25581878
0.87938714 0.10845993 0.81272405 0.30684188 -2.5113454 -0.09200015 -0.22515689 -0.12414842
-14.3601265 -1.2556657 -0.042648338 -1.3083653 -1.5811914 -3.7993562 -0.1443196 0.05540474
-0.9554675 -0.033182602 -1.6602992 0.47798058 -2.669321 0.22808017 0.21212487 0.03144962
0.5843492 -0.59204155 -0.72152627 -0.13452044 0.785575 0.11194485 -0.6207802 0.074855275
-4.794893 -0.44244713 -0.2480866 -2.7479827 -1.300016 -3.0147457 0.16530281 0.17626663
-0.61644864 -0.2642268 -0.32085544 -0.31560224 -5.3243265 -0.55843884 2.3179188 0.13908547
0.05161233 -0.7252282 0.37217116 -0.051717505 -0.56935304 0.2684404 -1.0133395 -1.8605623
-0.5365949 0.14962369 -0.46145177 -1.6326315 -0.33484212 -0.05882696 0.08335176 0.108986855
-1.5964867 -0.67313504 2.7032504 -0.045285158 -1.3745238 -0.5592511 1.3305203 -0.4826051
-0.4376193 0.5684216 -0.65002084 0.06459461 -0.53887963 -0.06285929 -0.9391915 -0.8568896
-1.1626613 -1.3716829 -0.77949244 -1.5053167 0.6933398 -1.9726415 -0.010613642 0.17921361
-0.80937815 -1.2509477 1.0437857 0.071399726 -1.6227856 0.16339587 2.024295 -0.11374886
0.7594057 -0.0094416635 -0.5311434 0.19905438 -0.058112722 -0.02917259 -1.509203 -0.0790932
-2.660345 0.21289714 -0.20841016 -4.617122 4.689843 1.7215434 0.14952631 0.11997856
-2.3675332 -1.4837558 0.5280077 1.0318259 -1.5372605 -0.19174983 1.4369656 -0.26115456
1.9681067 0.7158275 -0.54021144 -0.6552478 0.1538145 -0.56298935 -0.30217895 -0.5952078
2.1842184 -2.0946558 0.14120764 -0.9574923 0.91496027 0.51159865 -0.066358075 0.1556221
-1.2467079 0.13100033 2.5741174 -0.07555218 -4.208527 -0.84704334 -0.43753594 -0.94936275
0.63532263 -0.5560237 -0.14774182 0.23114718 0.7276079 -0.16694823 -1.1845807 -0.6429868
-6.019346 0.17511868 0.06992795 -0.2860276 -0.7480108 -4.8528123 -0.16833346 0.15100537
-0.54954636 -0.020448258 -0.14698239 0.43579328 -2.5686738 0.8376453 2.770384 -0.30924934
0.49427325 -0.14595719 -0.28741416 0.08345465 0.96681577 -0.18511474 -0.27321014 -0.06717623
1.2216163 0.16824627 -0.104584694 -1.7324637 -0.38011035 2.7753596 -0.042995047 -0.097500645
-0.6618767 0.15188718 3.861248 0.07944391 -0.7831093 1.1647522 2.3571777 0.20661253

l1.bias f4 [400]
00000000: 0296 d9bf b64b 8a3f 9946 d3be 7049 bfbf
00000010: 4661 08c0 0047 30c0 14ff 00c0 bd15 debf
00000020: e3fd abbf cf69 dabf 703d 0ac0 9877 1bc0
00000030: 9276 8ebf 6cd3 99bf 542d 88bf fcfe fcbe
00000040: 87c2 8ebf 1ddb 73be d2dd 1ac0 c281 d3bf
00000050: 1ae3 06c0 c47f d6bf 6235 babf da19 08c0
00000060: 6e52 19c0 8a53 73bf e4ee eebf 61a0 9fbf
00000070: cacb e7bf 0a09 e3bf 3303 bb3f 871a f6bf
00000080: 649f ccbf c3b5 b6bf fa08 01c0 fbae 893f
00000090: 4b39 00c0 f3e8 05c0 2be7 03c0 0d84 6ebf
000000a0: b32b 563f e3bb 2ac0 1975 9cbe df22 d83f
000000b0: 5c4f 47bf 27e2 0ac0 7dd6 17c0 9961 c6bf
000000c0: de5c 9f3e 4344 20c0 c65f 13c0 12d5 91bf
000000d0: 54db c2bf fa8f ddbf 1735 f9bf a721 94bf
000000e0: 559b 01c0 0e66 0dc0 ddc5 99bf cae1 fbbf
000000f0: 8f40 86bf 5070 e2be c803 b3bf 04fb a9bf
00000100: cef7 ccbf 6377 e8bf 140e d9bc 1597 92bf
00000110: b0d3 b4bf 7a0e a9bf 7330 bbbf bc07 0640
00000120: 6af4 d7bf aa90 543f bde1 c1bf a8d5 b5bf
00000130: 7019 d9bf 4ba8 0e40 62cb 89bf 8c86 acbf
00000140: e131 fdbf 0bae ebbf 9575 bbbf 6cdc 84be
00000150: a585 ddbf e3c1 aebe 1c55 9f3f 5e0d dfbf
00000160: 9cc7 07be ebb7 f1bf 1487 7bbf 3767 07c0
00000170: 24b5 90bf 0d0e 49bf ada5 b7bf e117 90bf
00000180: 2e03 88bf 85f7 c53f 37c0 32bf e5d6 73bf
00000190: c507 3540 cbdd 62bf dd7d 85bf c396 abbf
000001a0: 7969 53bf ee31 16bf d04d c0bf f0c6 eabf
000001b0: 3387 f8bf 65f3 4f3f 48c0 a73e 471b 03c0
000001c0: 76b7 dd3e 10c2 3bc0 a189 ce3f 38e6 01c0
000001d0: 1c53 34c0 292e 01c0 84b0 f8bf f105 94bf
000001e0: 0313 8abf 78b6 47bf 1d6e 09c0 e06f e3bf
000001f0: 1517 7ebf b4b5 1ec0 a5ec 44bf 64c5 80bf
00000200: 528d fbbf 5311 8dbf 3294 d8bf 1a93 043f
00000210: 42c1 c8bf d399 1fbe 2def 0ac0 c6d3 febf
00000220: 44da abbf 687a c4bf 99ed 07c0 2c9c fbbf
00000230: 033d d7bf aa11 05c0 a233 08c0 42d8 f0bf
00000240: 521e 23c0 2e1f c9be 5d40 09c0 3d03 02c0
00000250: c129 8ebf e3b0 e0bd da1f febf 8daf 06c0
00000260: c1cb cbbe 304f 47bf f731 11c0 ade5 8ebf
00000270: 631e 963e 4750 a5bf 410c 07be 22c7 e1bf
00000280: 090d ecbf e7f6 16c0 e0f4 ad3f 9d29 6a3f
00000290: 6c8e f6bf 1935 43bf 8fb4 e4be 42a3 dcbf
000002a0: bc24 cebf 3b78 49bf 3031 00c0 8a79 c9bf
000002b0: b609 bebf 34de 3fbe 4471 d5bf 30ec e1bf
000002c0: 27cb f3bf 36da 8bbf 619d 6dbf 2465 59bc
000002d0: 604f bebf 5d1f 02c0 56fc 82bf c616 0340
000002e0: 0c41 8bbf aab1 793f 8db9 08bf 1b5c 2cbf
000002f0: e020 343f d85e 9cbe dace d2bf 760f 07bf
00000300: e535 b3bf afcd 92bf 5225 fcbf 18b1 92bf
00000310: 4796 0bc0 be31 a4bf b450 0fc0 1ec1 18bf
00000320: 6737 923f bbe2 7cbf 1a56 a2bf 31cd dabf
00000330: 3a12 28c0 bf72 843e b970 78bf 65f3 c4bf
00000340: 9da0 1fbe ac78 c2bf 0d8b 4cc0 3605 18c0
00000350: ead1 f1be 7283 96bf 1159 1dc0 4fb6 6ebf
00000360: 872e 7fbe a705 9abf 31b0 a1bf b825 dfbf
00000370: 6cc7 a6bf c502 9abf e03e 703d 6356 62bf
00000380: acbc e1be c960 95be 264b 98bf a67c cbbf
00000390: e038 f2bf 2a3f d6bf ce72 96bf 4433 5ebf
000003a0: e947 70bf 6d51 bdbf f1db a2bf 6ad8 c7be
000003b0: fc78 7ebf 6f33 ddbf f471 f7bf 49e9 ffbf
000003c0: 5acd 0ac0 3489 b7bf fe94 78bf 58ce 93bf
000003d0: 67eb 0fc0 b3a5 ecbf 8e7a 00c0 7f18 55bf
000003e0: f105 10c0 afdb af3d fef6 1bc0 0e37 2dc0
000003f0: 60b0 a5bf 045a 0ac0 ce93 6dbf b91d 97bf
-1.6998904 1.0804355 -0.412648 -1.4944286 -2.130937 -2.7543335 -2.0155687 -1.7350384
-1.3436855 -1.706354 -2.1599998 -2.4291744 -1.1129935 -1.2017646 -1.0638833 -0.49413288
-1.1153115 -0.23814054 -2.4197888 -1.6523974 -2.1076112 -1.6757741 -1.4547541 -2.1265779
-2.395656 -0.95049345 -1.8666654 -1.2470819 -1.8109066 -1.7737134 1.4610351 -1.9226846
-1.5986142 -1.4274219 -2.016173 1.0756525 -2.003497 -2.092343 -2.0609844 -0.93170244
0.8366043 -2.6677177 -0.30558088 1.6885642 -0.7785547 -2.1700532 -2.3724663 -1.5498534
0.3112554 -2.5041664 -2.3027205 -1.1393149 -1.5223184 -1.7309563 -1.9469327 -1.157277
-2.0251057 -2.209354 -1.2013508 -1.967828 -1.0488452 -0.44226313 -1.3985529 -1.3279729
-1.6013124 -1.8161434 -0.02649597 -1.1452357 -1.4127102 -1.3207543 -1.462416 2.094222
-1.6871464 0.8303324 -1.5147015 -1.4205828 -1.6960888 2.2290218 -1.0765193 -1.347856
-1.9780847 -1.8412489 -1.4645258 -0.2594942 -1.730641 -0.341323 1.2447848 -1.7425954
-0.13259739 -1.8884252 -0.9825299 -2.1156747 -1.130528 -0.78537065 -1.4347435 -1.1257287
-1.062597 1.5466162 -0.69824547 -0.9524978 2.8285992 -0.8861968 -1.0429035 -1.3405384
-0.82582814 -0.58669937 -1.5023746 -1.8341961 -1.941626 0.81230766 0.32763886 -2.0485399
0.43304032 -2.9337196 1.6135751 -2.0296764 -2.8175726 -2.0184424 -1.9428868 -1.1564313
-1.0787052 -0.780128 -2.1473458 -1.7768517 -0.9925397 -2.4798403 -0.7692359 -1.0060239
-1.9652503 -1.1020912 -1.6920226 0.5178696 -1.5683978 -0.15586023 -2.1708481 -1.9908378
-1.3425984 -1.5349855 -2.1238768 -1.9657035 -1.6815494 -2.0792031 -2.1281514 -1.8815997
-2.5487256 -0.392816 -2.1445534 -2.0314476 -1.1106492 -0.109712385 -1.985347 -2.1044648
-0.3980389 -0.77855206 -2.2686746 -1.1163841 0.29320058 -1.2915124 -0.13188268 -1.7638896
-1.8441478 -2.3588197 1.3590355 0.91469747 -1.9262214 -0.76252896 -0.44669005 -1.7237322
-1.610496 -0.7869908 -2.0030022 -1.5740216 -1.4846714 -0.18737108 -1.6675191 -1.7650204
-1.9046372 -1.0925968 -0.92818266 -0.013268743 -1.4867973 -2.0331643 -1.0233257 2.048265
-1.0879226 0.9753672 -0.5340813 -0.6732804 0.70362663 -0.3054111 -1.6469376 -0.52757967
-1.4000822 -1.146902 -1.9698889 -1.1460295 -2.1810472 -1.282768 -2.2393007 -0.59669673
1.1423157 -0.98783463 -1.2682526 -1.709387 -2.6261125 0.25868794 -0.97047 -1.5386778
-0.15588613 -1.5193076 -3.195987 -2.375318 -0.47230464 -1.1758864 -2.4585612 -0.9324693
-0.24920093 -1.2032975 -1.2631894 -1.7433386 -1.3029609 -1.2032095 0.058653712 -0.88413066
-0.44089258 -0.29175404 -1.1897933 -1.5897415 -1.8923607 -1.6738026 -1.1753786 -0.86796975
-0.93859726 -1.4790474 -1.2723371 -0.39032298 -0.9940336 -1.7281321 -1.9331651 -1.9993068
-2.1687837 -1.4338746 -0.97102344 -1.1547346 -2.2487428 -1.8488067 -2.0074801 -0.83240503
-2.2503626 0.08586823 -2.4369502 -2.7064853 -1.294445 -2.161744 -0.9280366 -1.1805946

l2.weight f4 [300, 400]
00000000: 85d3 073e 2389 343e 5fec c33e 6748 17bf
00000010: daab 5cbf 9509 e83e b5e5 0b3f 5406 1140
00000020: 1a4c 033e b8e3 873f bf43 1fbf cd23 81bf
00000030: 0e67 2dbf 48cf 413d f42f 70bf c302 6abe
00000040: d58a 8abf 3c1e fa3e 0688 e3be e132 d0be
00000050: 74fc 02bf fced 33bf 5631 a13f d890 3bbf
00000060: b416 083f fe74 dbbc 1f91 20be 5ebc 80bf
00000070: ce2b 063f 91c0 aa3e 7ad3 02c0 b155 d8be
00000080: 3a42 ebbe 1140 40bf d0a4 22bf 4328 a2bf
00000090: fcea 1fbf 9953 fe3e 3cd9 543f 9fdf a23e
000000a0: 169a dd3d 32a2 a83e 2d8d 0abf 8636 1dc0
000000b0: cff6 adbf 8f8e 35bf 27b2 bdbd 14b3 7c3d
000000c0: f0fe 41bf 21aa 93bd f782 29be f407 12bf
000000d0: 7fc4 32be 46e9 ac3e 2c3c 1cbf d360 f8bb
000000e0: 86a1 80bf 46d4 cebe 3760 15be a34e 903f
000000f0: 81fc 4abe 3ebb 263f 101b c2be a3d0 6fbf
00000100: 65e3 88bf bfcd a53f 3f5f e3be 13b3 2ebf
00000110: eb66 0e3f 4175 893f 5ab7 fa3f 8f5c 3ebf
00000120: bfa4 363d 692e 54bf a88e 333f 48ee 403f
00000130: 51b4 e0bd 1031 b6bf fb08 673e 385a 47bf
00000140: d940 013e 5031 b73d 13c5 843f 90aa 41bf
00000150: 8418 a3bd 39f1 1e3f 8d2b 14bf 989f 6e3f
00000160: 539d dd3e 1913 3ebf 1e9e a23d 91be 463e
00000170: 6989 1040 7a8f 9c3d 9300 6e3f 7795 a83d
00000180: 43be e4bf 0f09 2cc0 1eab a43f 705a edbf
00000190: 23e9 8cbf 8ce4 fd3a f556 0fbe c315 31bf
000001a0: 9f25 723f 9d4d 0cbe b66e 85be 9727 a6bf
000001b0: c577 0fbe 509c 8fbe 0cf2 813e 8b12 3d3d
000001c0: 3686 9dbf 1e2f a83d 77e0 28bf 8f11 fb3e
000001d0: 4ff1 68be 9307 85bf 51bd c1be 2599 c43f
000001e0: ccb0 d1be 00fb 29be 5c5e 843f dbc2 5dbe
000001f0: 2e67 46bc f6db 163d 5253 dabe 28e8 cd3e
00000200: b9bb 0e3f 4601 42bf 59c3 563f 01b2 ccbd
00000210: 5203 003f 425e 5bbf c323 48bf 0dee 0abe
00000220: 50e8 503c 6b77 653f f549 1bbf 6b9e eb3c
00000230: 9fa7 0c3c 7cca d8be 84b2 743e f8f9 c3bf
00000240: 38ae c03e b65d d43d 3f5f 2dbf 66bd 1fbe
00000250: 0b5b 9e3e cf6f dfbe 81a5 37bd de2c 9f3e
00000260: cc68 02bf ab05 9d3e 125e 9c3e c68a 103e
00000270: c6d7 c4bf 2862 ab3f 52a3 97bf df5f bc3f
00000280: 3c95 3f3f 18da 343f 3019 47bf 7d99 4ebf
00000290: 24b1 873e 6527 06bf e9c4 683e 5ab5 e93e
000002a0: 6b4b da3e 72db f33e be43 22bf 4d25 87be
000002b0: 147b ad3f 5f4c a0be 519a 4bbf e0fe d93f
000002c0: 3558 05bf 8d33 8ebf 8d48 523e bc62 a0bf
000002d0: 1ac7 39bf 3c7d 8f3e 8e13 e0be 0983 2e3f
000002e0: 674b b23d 100e b1bf 67d1 c1be 3d29 9dbd
000002f0: c6ec 43bf 1ff8 2cc0 d23a 5dbd f1ce 6a3e
00000300: 75ec 0dbf d485 adbe 5989 cfbe b41a ffbe
00000310: b751 2cbf 480a 9fbd e2bc febe dcbd 0b3c
00000320: faec dabf 8ec8 a33e 013c cfbe 2402 3d3f
00000330: f596 d1be 10cd 2ebd fad8 8a3e 4c16 7dbf
00000340: 35ef 78be 1bbb 253f 38b9 babf dc01 89be
00000350: 0680 973d 0444 ecbd 6bbe b0be 5a6e 60bf
00000360: 7845 71bf 7dbd 96bf 5ace e53c e177 17bf
00000370: 9218 51bd 4c8a 0bbf 7d77 363f c50b 61bf
00000380: 4edd 92be a6d3 ad3d c81b c8be f347 d2bf
00000390: 361c 653f cf6a c93e 50c5 103f e99b 613e
000003a0: 3d9a 98bf 34a3 b7bf 3cdd c3be eb59 5a3e
000003b0: 99b9 48be 61c3 8a3f d567 a83d 9b2b 68bf
000003c0: c34f 1ebf 46c9 903e c5ac cc3e 76d2 a2bf
000003d0: 118f 1abf c642 1cbe d7e4 a8bf 86f8 183d
000003e0: c2a2 16be ceb1 ac3d 3a1c e93e e236 06bf
000003f0: b338 253f 63d8 f5be 82de 513f aa41 823d
0.13264282 0.17630439 0.38266274 -0.5909485 -0.86199725 0.4531981 0.5464738 2.2660112
0.12821999 1.0616369 -0.6221275 -1.008905 -0.67735374 0.04731682 -0.9382317 -0.22852616
-1.0823618 0.48851192 -0.44439715 -0.40663818 -0.5116646 -0.7028501 1.2593181 -0.7326789
0.5315964 -0.026789185 -0.1568036 -1.0057485 0.5241059 0.33350042 -2.0441575 -0.42252877
-0.45948964 -0.7509776 -0.63532734 -1.2668537 -0.6246793 0.49673155 0.83143973 0.31811234
0.10820405 0.32936245 -0.5412167 -2.4564528 -1.3590945 -0.7092065 -0.092624955 0.06169422
-0.7577963 -0.07210184 -0.16553865 -0.57043386 -0.1745777 0.33771724 -0.61029315 -0.0075799017
-1.0049293 -0.40396327 -0.14587484 1.1273998 -0.19822885 0.6512946 -0.37911272 -0.9367773
-1.0694395 1.2953414 -0.44408605 -0.68241996 0.5562579 1.0738908 1.9587204 -0.74359983
0.044590708 -0.82883316 0.7013955 0.7536359 -0.109718926 -1.4233723 0.2256202 -0.7787204
0.12622394 0.089449525 1.0372642 -0.7565088 -0.0796366 0.62086827 -0.57878953 0.9321227
0.4328409 -0.7424789 0.07940315 0.19408633 2.2583869 0.076445535 0.92969626 0.08231633
-1.7870563 -2.688053 1.2864721 -1.8543224 -1.1008648 0.001937048 -0.13998015 -0.6917383
0.94588655 -0.13701482 -0.26061028 -1.2980832 -0.14010532 -0.28048944 0.2537998 0.046160262
-1.2306583 0.08212112 -0.65967506 0.49036834 -0.22748302 -1.0392936 -0.3783975 1.5359236
-0.40955198 -0.16599655 1.0341296 -0.21656363 -0.012109561 0.036830865 -0.42641693 0.40216184
0.5575519 -0.75783193 0.83891827 -0.09994889 0.50005066 -0.856907 -0.7817957 -0.13567372
0.0127507 0.8963534 -0.60659724 0.028762063 0.008584886 -0.42341983 0.23896223 -1.531066
0.37632918 0.103694364 -0.6772346 -0.15599594 0.30928835 -0.4363999 -0.04483557 0.31088918
-0.5094116 0.30668387 0.3054052 0.14115438 -1.5378349 1.338933 -1.1846716 1.4716758
0.7483709 0.70645285 -0.7777281 -0.80702955 0.26502335 -0.5240386 0.22731365 0.45646173
0.42635664 0.4762836 -0.63384616 -0.26395646 1.3553185 -0.31308267 -0.79532343 1.7030907
-0.5208772 -1.1109482 0.20535488 -1.2530131 -0.7256943 0.28025234 -0.4376492 0.68168694
0.08705788 -1.3832417 -0.37855074 -0.07673881 -0.7653316 -2.702644 -0.054011174 0.22930504
-0.5543893 -0.33891165 -0.40534475 -0.4982506 -0.67312187 -0.07765633 -0.4975348 0.008529153
-1.710357 0.3198895 -0.40475467 0.7383139 -0.40935484 -0.04267603 0.27118665 -0.9886215
-0.2431 0.64738625 -1.4587774 -0.2675923 0.073974654 -0.115364105 -0.34520277 -0.87668383
-0.94246626 -1.1776577 0.028052498 -0.59167296 -0.051048823 -0.545079 0.71276075 -0.87908584
-0.28684467 0.08487634 -0.39083695 -1.6428207 0.8949617 0.393393 0.56551075 0.22032131
-1.192207 -1.4346681 -0.38254726 0.21323363 -0.1960205 1.0840875 0.082229294 -0.90691537
-0.61840457 0.2827856 0.39975563 -1.2720478 -0.6037455 -0.15259847 -1.3194836 0.037346385
-0.14710525 0.08432351 0.45529348 -0.52427495 0.6453964 -0.48016652 0.81980145 0.06360181

l2.bias f4 [300]
00000000: 771e 2d3f 6259 d4bd e626 1dbd e38b 6fbd
00000010: 9b68 7b3d 64ab 0b3f 2749 da3d 4981 4ebe
00000020: 02ba eb3c dee4 11bf 8a5d d5bd cbdd 62bd
00000030: a795 afbd c39b e43e 65f7 8dbd aa2a debe
00000040: 82cf 26be 642b bb3e 3579 02bf a94d e03f
00000050: eda4 86bf 8757 36bf 7a45 5fbe db5d 69bd
00000060: a8d0 babd de91 dcbe 2731 2dbd af4f 27bf
00000070: be64 91bf 8804 b6bd a470 ffbb 4620 f93f
00000080: b6ae 90be 41c5 cebd d44c 73bd febe 9cbd
00000090: 826e c1bf 797c c1bd 3ac4 adbe 16e2 9b3e
000000a0: e404 79bd fb16 6dbd 80ca 31be 91f2 4ebd
000000b0: 14c3 71bf 3aa0 a83f 93ce edbe 3c5d 73bd
000000c0: a4ab f1bd 661f 9f3f a1fa cfbd 2baf e3bc
000000d0: 7d44 8dbe 8504 84bd a01d 463e 0a83 d5bd
000000e0: 35bf 07be d28a d8bd c464 f5be 4061 1dbf
000000f0: 6d05 4c3d 706f efbe bcfc 80bf 910e c2bf
00000100: e68d 90bd 47c9 6dbf e724 aebe a24f 5fbf
00000110: e690 ba3d 5611 98be 4c73 6ebf 1b2b e6bd
00000120: 56ad 17bf 160c 9cbe e228 5abe 700e b5be
00000130: 2b0d e5bd 97fc 28bf 3746 ad3e bdc7 8dbe
00000140: 0b5d a0bf 76f6 31bf 2186 ae3f 0275 0ebf
00000150: 7c7a 843f be8b 17bf 6342 f53c 1306 d4be
00000160: 257e 9cbe 2b91 68be cd94 3ebe 361a d0bf
00000170: 39ab cdbd 7ffa 29bf cf90 25bd 4851 3dbf
00000180: 87cb b2be 8bd7 62bf 6e65 9abe 2395 62be
00000190: b2f0 d3bf de89 9cbd 1b81 fabe bf46 afbd
000001a0: 2385 c0be 17c6 2fbd 1da8 98bf 142a febd
000001b0: 6e33 1abd d2b4 51be 29ae 46bf b242 d7bd
000001c0: 8621 bcbf d408 f6bd 891c 4bbd 9c5c fdbc
000001d0: 3e53 2f3f b56d 86bf 8ffd 2fbe a8f4 8a3e
000001e0: 0c26 f1bf 2ff3 abbd 144b 013f 1f0a 883c
000001f0: 6ed6 1cbf 89d5 5a3e 8f52 26bd 1bc6 61bf
00000200: 4ba6 e5bd 119f 983f f328 6dbd 873d a0bd
00000210: 58b4 b3bd ab28 6fbe d058 afbd cc99 febd
00000220: 8151 c1be dbd9 cbbf 7afd 4c3f 349b f4bd
00000230: f14f 41be 476a a4bd 3df9 0bbe 836c 62bd
00000240: b197 4dbb 1323 62be 489d 23c0 10cd 173e
00000250: 6f81 a6be f196 cabd 077f acbd 0d76 85bd
00000260: 2256 c7bc 41b2 cdbd 50ce babd 0f5e a2be
00000270: 8a6f 52bd dd28 0fbe ff3c 683f 8524 87bd
00000280: bf6a a9bf 0201 21be ef15 a1bc 09ac 4abd
00000290: 5b65 eebd ab15 6ebd 53d7 4fbf 63b8 b2bf
000002a0: d117 cebd c2ec 56bf a5ca 89be 3a9c 5cbe
000002b0: 2978 bf3e ea8d 5bbd 6560 09be 03f7 5b3f
000002c0: 2ce6 f7be be83 29bf 3a11 d6bd 382e b4bf
000002d0: 69fb cfbd d7a2 38bd 2ad7 d4bd 19f6 d9bc
000002e0: 7615 843d cd71 0dbd 760c 91bd a0aa 3bbd
000002f0: 52ef 38bf f512 593f 1707 21bf 0934 45bd
00000300: 725c 1a3f 78be 08c0 fc83 f8be 6bd5 66bf
00000310: 2274 dbbd 8d33 8ebf c584 d73f 20b3 44bf
00000320: 4dae 05bf 15d7 0fbf c659 14be de82 19be
00000330: 3868 bbbd e40f f3bf f9c8 47bf 1081 b1be
00000340: 144c 70bf 0ede aebf 481e b9bd 43e3 e2bd
00000350: d4e2 f3bc f05e cb3d 2e7a e7be 3882 3fbd
00000360: b023 3fbe 1a26 6b3f 41d0 48bf 4c2f fdbd
00000370: c5e5 05bf ba58 61bf b50a 0abe 6581 90be
00000380: b953 cdbe b08d bebd c0ba bdbd 08e8 403d
00000390: 6d44 4c3f eff8 29bd 5037 36bf c4eb 133e
000003a0: a97c c8bd 04fa 72bf 02cc 50be c732 27be
000003b0: f817 3fbe 9651 1fbe d56a 07be 94fb f2bc
000003c0: 52d1 dfbc d068 b4bd 8f84 a6bd d92e 43be
000003d0: ef56 abbf 41aa c6bd be1f 90be cbd8 e7bd
000003e0: b77b 25be a351 e7bd e8b7 bbbd d196 d63d
000003f0: 18ef 3dbe 0baf 6fbd d196 d63c 978b a6bd
0.6762461 -0.10368611 -0.038367175 -0.058483016 0.061379056 0.54558396 0.10658484 -0.20166506
0.028775219 -0.5698985 -0.10418232 -0.0553873 -0.08573466 0.44650087 -0.069319524 -0.43391925
-0.16290095 0.36556542 -0.509662 1.75237 -1.0519081 -0.71227306 -0.21803847 -0.056974273
-0.09121829 -0.43080038 -0.042283203 -0.6535596 -1.1358869 -0.08887583 -0.00779541 1.9462974
-0.28258294 -0.10096217 -0.05939944 -0.07653616 -1.5111849 -0.094475694 -0.3393877 0.30445927
-0.06079568 -0.057883244 -0.17362404 -0.050524298 -0.9443829 1.3173897 -0.46446666 -0.059415087
-0.11800316 1.2431457 -0.101552255 -0.027793488 -0.27591315 -0.064461745 0.19347239 -0.10425384
-0.13256533 -0.10573353 -0.4792844 -0.61476517 0.049809862 -0.46764708 -1.0077128 -1.5160695
-0.07058315 -0.9288525 -0.3401253 -0.87230885 0.091096684 -0.29700726 -0.9314468 -0.112386905
-0.59248865 -0.3047797 -0.21304658 -0.35362577 -0.11184152 -0.6601042 0.33842632 -0.2769145
-1.2528394 -0.69516695 1.3634683 -0.5564729 1.0349879 -0.59197605 0.029938882 -0.41410884
-0.3056499 -0.22711627 -0.1861145 -1.6257999 -0.10042424 -0.6639785 -0.040421303 -0.7395215
-0.34920904 -0.8861014 -0.3015551 -0.22127204 -1.6557829 -0.076434836 -0.48926625 -0.085584156
-0.37601575 -0.042913523 -1.1926304 -0.124103695 -0.037646703 -0.20479134 -0.776095 -0.10510768
-1.469773 -0.120134026 -0.04958776 -0.030927949 0.6848639 -1.050223 -0.17186569 0.27139783
-1.8839736 -0.08395993 0.50505185 0.016606389 -0.61264694 0.2137052 -0.040606078 -0.8819291
-0.112133585 1.1923543 -0.05790038 -0.078242354 -0.08774632 -0.23355357 -0.085618615 -0.12431678
-0.37757495 -1.5925859 0.80074275 -0.11943665 -0.18878151 -0.08028083 -0.13669296 -0.055279266
-0.0031370933 -0.22083692 -2.5564747 0.14824319 -0.32520625 -0.09892071 -0.08422666 -0.06516657
-0.024333064 -0.10043765 -0.09121382 -0.31712386 -0.051375903 -0.13980432 0.9071807 -0.065987624
-1.3235701 -0.1572304 -0.019663779 -0.04948047 -0.11640426 -0.058126133 -0.81187934 -1.396252
-0.10063136 -0.83955014 -0.26912418 -0.2154397 0.37396362 -0.053602137 -0.13415678 0.85923785
-0.48417795 -0.6621665 -0.104525045 -1.4076605 -0.101553746 -0.04507717 -0.10392602 -0.026606606
0.06449406 -0.034532357 -0.07082455 -0.045817018 -0.72240174 0.8479455 -0.62901443 -0.048145328
0.6029731 -2.1366253 -0.48538196 -0.901694 -0.1071551 -1.1109482 1.6837393 -0.76835823
-0.52219087 -0.56187564 -0.14487371 -0.14991328 -0.091507375 -1.8989224 -0.78041035 -0.3466878
-0.93866086 -1.3661516 -0.09038979 -0.11078503 -0.029771246 0.09930217 -0.45210403 -0.046755046
-0.18665957 0.91855013 -0.7844277 -0.12362537 -0.52303725 -0.8802601 -0.13480647 -0.2822372
-0.40102938 -0.093043685 -0.09264135 0.047096282 0.7979191 -0.041497167 -0.7117815 0.14445406
-0.09789402 -0.94912744 -0.20390323 -0.16327964 -0.18661487 -0.15558466 -0.13224347 -0.029660977
-0.027321491 -0.08809054 -0.08130752 -0.1906084 -1.3385905 -0.09700442 -0.28149217 -0.11320647
-0.16160475 -0.11294868 -0.09165937 0.10477985 -0.18548238 -0.058516543 0.026194962 -0.081320934

l3.weight f4 [4, 300]
00000000: 4985 f03f c88c 4a3d f2b6 e6bd 8e58 25bb
00000010: e990 cebd 8582 4abe b8d0 cdbe 3f23 b7bd
00000020: 975f 0140 7d33 14bf 359c 113c 723b 6cbc
00000030: 725b 56bc 4351 3b3f 3c75 883d 6845 b33f
00000040: 397d e93f ff07 3fbf 593b dcbf fb73 0ac0
00000050: edff 93be 6dc0 1040 d1b0 c1bd 648b 863d
00000060: 397d ddbd 3227 7ebd 35de 9fbb ca28 fcbe
00000070: 3409 043f 08cc cdbc b8ad bebc daa3 4abf
00000080: ee59 9e3c b7e9 343c 1916 5dbd 30f7 bbbc
00000090: 86d5 933d bccb 043f c9e0 ab3f 8521 fbbf
000000a0: 62e3 ef3c d120 c0bc 98fb 3d3e c2da d9bd
000000b0: ee9c 173f a80d fdbe 82e6 d6bf 80ce c13d
000000c0: 2cff f73c fb8a d7be aeff 923d 85b0 113f
000000d0: 7007 b2bd 0aba d0bc 01ea cb3e e635 a73c
000000e0: 777b bd3d 1ee6 2fbb 1d22 0dbf cfaa 1abf
000000f0: 7a61 153e fa1f e83d 79f4 5fbe 7eec a33e
00000100: ebd1 f13b b2eb d3bd 0eb3 98bc 051d 9b3f
00000110: e031 b3bf e876 4abf d056 cd3e b7a0 233d
00000120: 5697 a3be ab93 f23e 54b1 0ebf 20af 4d3b
00000130: 4342 683d 42a7 d3be 7536 4140 201b bc3f
00000140: a5f6 c4bd c8f1 e43d fbab 873d 2bf9 393f
00000150: 0df3 05c0 05fc 133d b46f 8ebf 7ce3 d63f
00000160: 100e 40bf 0568 1bbf 948c a0bf c67f f63d
00000170: 014c c4bc 22af e6bf 672e 223d a0df 473e
00000180: cb9c f13d f0c9 4ebe 2e4a aa3c 0d24 1bbe
00000190: d736 b1bf bab4 5abd 0606 dc3c 49fc 5f3c
000001a0: e3fd 8fbd f801 4b3c c68d 1cbf b58c 05be
000001b0: c2ba 6fba b699 00be 6c2e 0640 48cd 39bc
000001c0: 37c7 c83e 7203 6dbd fd45 933c 049d 753c
000001d0: 7140 cebf 36cc 223f 7b01 e2bc 2211 ae3d
000001e0: 8a66 60be 847c f0bc a157 cdbf 649b 00be
000001f0: 64a6 0e3f 6c94 8ebe df98 a6bd a522 8c3f
00000200: 4077 42bf 5dab 65bf c1e9 cabb 0f91 bfbd
00000210: 41a5 4bbd 1d87 113c 32ce 9fbe 6f68 263d
00000220: cbb2 653d 3db4 6dbc 30d7 b03e 90ee 3e3c
00000230: 2641 223e 74a0 89bd 90ff b73c 6231 e3bc
00000240: 1538 843c 656b 833d 3847 1e3c 2ad6 30bf
00000250: f703 a13e 7579 1c3c 3100 47bc 9fd6 23bd
00000260: 9a5b 60be 487e c23d 95a8 9dbe e70c b2be
00000270: e7da b13d d80a 49be 70a0 07be 7f2c aa3d
00000280: d28a d8be 9adc debd 8984 5bbd 2918 c63b
00000290: efde 253c bec7 a6bd f98e 8cbd 3ad3 26bf
000002a0: 8a24 52bc 62a9 68be fcb4 8d3e 17d4 353d
000002b0: 1b90 aabd a658 9cbc af61 bd37 c668 28be
000002c0: 8cb5 893e c988 d33f d846 bf3c 7e1a 143e
000002d0: eead 10bd 4410 81bf 6835 3e3c 09e3 debc
000002e0: c001 3f3e ca27 5fbd 8246 e039 5a47 dabc
000002f0: 6886 af3d d707 5cbd b876 43bf c1f4 44bd
00000300: b0ee f0bf e92d ccbd 55e1 06bf b700 adbf
00000310: 9198 44bc 383f c6bd 379d 623e 94ed 05bf
00000320: ca11 6b3e d0ca c5bf e200 503e 8d6f 9dbe
00000330: e06a 363d 44b9 023e ba29 ed3e 45c0 9e3d
00000340: 2eb3 a5be d2b6 59bf 011a 443e 0e62 99bc
00000350: 3d8d 9d3c 3f18 3dbf 7f2c 003e e987 433b
00000360: edd8 0dbc c404 853f fc7f 81be 31bd 4dbc
00000370: 3b76 f3be 916e cbbe aac3 eabd 3658 143e
00000380: 0bfe 7f3d c2bf 6abd 57ff b33d b6de 21bf
00000390: 034e 91bc a181 463c 97a9 a13e 23a2 d63e
000003a0: 0e16 ae3c 8338 f3bd f36d 6ebb 8df9 1f3a
000003b0: 7da3 923f 1fb3 ab3d d08c 473e 4a19 d7bb
000003c0: 6051 b43d 5373 773c 0b86 fabc 668b 9fbd
000003d0: a4e7 80bf 7f86 34bc 3f2e 31be 41a1 54bb
000003e0: db4d f43c c4f1 03bd cf3e a2bc 926a 6d3e
000003f0: 5a2c 6bbe 600c 33bd 151c 913e 6543 92be
1.8790675 0.049450666 -0.11265363 -0.0025229785 -0.10086233 -0.19776352 -0.40198302 -0.089422695
2.0214593 -0.57891065 0.00888734 -0.01441847 -0.013083326 0.7317087 0.06662986 1.4005556
1.824134 -0.74621576 -1.7205611 -2.163329 -0.28906193 2.2617447 -0.09457553 0.065695554
-0.108149 -0.0620491 -0.004878784 -0.4924987 0.5157654 -0.025121704 -0.023276195 -0.7915627
0.019329991 0.01104205 -0.053976152 -0.022945017 0.07218461 0.51873374 1.3427974 -1.9619604
0.02928323 -0.023453148 0.18553007 -0.10637428 0.5922383 -0.4942448 -1.6789095 0.09463215
0.030273043 -0.4209822 0.07177673 0.5690997 -0.08692825 -0.025479335 0.39826968 0.020411443
0.09252065 -0.0026840041 -0.5513018 -0.60416883 0.14587966 0.11334224 -0.21870603 0.32016367
0.0073797605 -0.1034769 -0.018640067 1.2118231 -1.3999596 -0.79087687 0.40105295 0.03994819
-0.31951398 0.47378287 -0.5573933 0.00313849 0.056703817 -0.41338545 3.0189488 1.4695778
-0.09617356 0.111789286 0.066245995 0.72645825 -2.0929596 0.036129016 -1.1127839 1.6788173
-0.7502146 -0.60705596 -1.2542901 0.120360896 -0.023962023 -1.8022196 0.039595034 0.195189
0.11797484 -0.2019422 0.020787325 -0.15150471 -1.3844861 -0.05339501 0.026858341 0.013670989
-0.07030847 0.012390606 -0.6115383 -0.13041957 -0.00091449555 -0.12558636 2.0965834 -0.011340447
0.3921449 -0.057864614 0.017977709 0.014991049 -1.6113416 0.6359285 -0.027588597 0.084993616
-0.21914116 -0.029356249 -1.6042367 -0.12559277 0.5572264 -0.27847612 -0.081346266 1.0948073
-0.7596321 -0.89714605 -0.0061924164 -0.093538396 -0.049718145 0.008882311 -0.31212002 0.04062694
0.056078713 -0.014508304 0.34539175 0.011653557 0.15845165 -0.06720057 0.022460729 -0.027733508
0.016140023 0.06416968 0.009660535 -0.6907679 0.31448337 0.009550442 -0.012146042 -0.0399996
-0.21909943 0.094967425 -0.3079268 -0.3477547 0.086843304 -0.19633043 -0.13244796 0.08309268
-0.42293411 -0.1088192 -0.053593192 0.0060453606 0.010123952 -0.081435665 -0.06863207 -0.65166056
-0.012826094 -0.22720864 0.27677143 0.044391718 -0.08328267 -0.01908524 2.2576043e-05 -0.16446218
0.26896322 1.6526119 0.02334921 0.14463231 -0.035322122 -1.0083089 0.011609413 -0.027207868
0.18653011 -0.054481305 0.00042777142 -0.026645351 0.08570558 -0.053718414 -0.76353025 -0.048084978
-1.8822842 -0.09969694 -0.5268758 -1.3515843 -0.011999265 -0.09680027 0.22130285 -0.5231564
0.22956005 -1.5452518 0.20312837 -0.3074917 0.044535518 0.12765986 0.46320897 0.07751516
-0.32363266 -0.85044587 0.19150545 -0.018723514 0.019232387 -0.7386512 0.12516974 0.0029835647
-0.008657676 1.0392079 -0.25292957 -0.012557314 -0.4755114 -0.39732793 -0.11463101 0.14486775
0.062498134 -0.05731178 0.087889366 -0.63230455 -0.017737394 0.012115867 0.315747 0.41920575
0.02125075 -0.11876013 -0.0036381453 0.00061025546 1.1456143 0.08383774 0.1948731 -0.006564294
0.088045835 0.015103179 -0.030581495 -0.0779026 -1.0070691 -0.0110183945 -0.17302798 -0.0032444748
0.02982228 -0.032212988 -0.01980534 0.23185185 -0.22966138 -0.043712974 0.28341737 -0.28567043

l3.bias f4 [4]
00000000: 264e 2dbe 3e42 713e fef3 073e 8552 c3bc
-0.16924343 0.23560426 0.1327667 -0.02384306
