TD3_control/dir_Walker2D_002/biped-v8-2d-6_actor.pth (torch, 527895 bytes, 6 tensors)

l1.weight f4 [400, 24]
00000000: b665 4e40 fcc8 0abe 6dda d7be 7f98 4dc0
00000010: 02f6 1040 a5bf 5040 0082 973d b629 1e3d
00000020: 0339 91bf e675 873f 222a 883e 2fee 8e3f
00000030: 9552 9dbe 2873 40bf af72 dc3f 99fd fb3e
00000040: aca3 8e3f e1dd 6cbf f97c b0c0 4719 9dbe
00000050: 0f16 12be ae9d d7be 32aa b9be bb92 9fbf
00000060: 5834 0240 e0ff a03d 487e 60be 641a 4fc0
00000070: 3acb 3dbe 863e c7bf a41a 4dbe 66f1 2abe
00000080: e404 3fc0 547b 16bd dfc9 77bf 7982 21bf
00000090: ab67 7abf bddb 233e f239 a83f b575 a7bd
000000a0: 2462 f5be b67c 8c3d 67a9 a5bf 8408 413f
000000b0: 48ee 0abf cf1a 343d ad6b 9bc0 2058 fb3e
000000c0: f11c 973e 8a9c 1cbd 403a 88be 8985 1ebe
000000d0: 073f b8be 003c 883d 01ff fabd 2ba1 a03c
000000e0: 135f aebe 18ce acbe 426b 933e eb06 16ba
000000f0: d06c c5be 3867 a33a d853 99bd 0615 4dbd
00000100: 0892 463e 7a01 933c a1eb 92be 6435 a9bd
00000110: 73f5 c13e e0b5 953c ee99 03bf 06eb b8be
00000120: ae7c aa40 9cec 543f 8893 c73d 4f59 afbf
00000130: 9f03 95bf 3f0d eabf de63 80bd 081e 8d3d
00000140: 67b7 89bf b325 31bf 324c 5f3e 5b51 abbe
00000150: 4022 cebf b1be 3ebe 25ed f1be c800 8abd
00000160: 5a47 90bf 31c3 4d3f d68d 9bbe f783 2d3f
00000170: 9623 ab40 3a68 273f 8149 e7bf 4698 b6be
00000180: 53a4 4640 25c0 f7be 9b3e 8a3e 2ff6 e4bd
00000190: 20f0 a23f 1b05 06c0 8629 063e db87 cebd
000001a0: 3979 9f3f 7244 493e c882 8440 258a d73e
000001b0: d397 44bf 7709 803d b304 8a3e e50b 853d
000001c0: a38e 07c0 36ba 8a3f 8d81 86c0 d6ee 91bd
000001d0: 5e3b 44c0 95cd bdbe 6101 c9bd aa94 59bf
000001e0: e513 0e40 35d5 fb3e 4f70 e2be 1b84 dc3d
000001f0: 7199 c03f 7492 08c0 4ca1 e03d 6373 22be
00000200: faed d8bf 0173 6dbe e680 4640 d9a7 913f
00000210: 108d bbbf 3d31 15bb 379b 6ebf 3a3c 67bf
00000220: e0f7 c03e 4e7c 6d3f fb9d 31c0 c511 763e
00000230: b148 60bf aa3a d13e c897 b7be d214 f2be
00000240: 3897 e83d e8a5 3f3e e5a2 f93e a6c8 31c0
00000250: cb4f b43f f04c aec0 c79d 43bc b14b 3d3e
00000260: 5e18 c83e 6d37 fdbd a930 91c0 11e4 edbe
00000270: cb67 f9bf 94a4 d1bd a176 50bf 6fc7 55bb
00000280: 599e 283f 0eb4 9c3e 3aaf 983f 32f0 ca3e
00000290: 606b fcbf 51c9 473c b491 c83a 0679 5abe
000002a0: e9d7 b83e 6182 863f 1014 af3d 9d84 7ebf
000002b0: 920a 92bf 6c5b dd40 8ebd 403e de3c 1d3e
000002c0: bb65 85be 5986 64be 9d5b bb3f b567 94bf
000002d0: 14db b3c0 36ce 073e 67f8 97bf 7ff4 183f
000002e0: b258 edbf 026b da3e 0195 e43e 3192 39bd
000002f0: dba3 9a3f 8f29 413e b24a 643a 3c23 33bf
00000300: 677f 85c0 1cce a33f eeca 48be 91d1 efbf
00000310: 4ffc d4be 5540 85c0 6dad 85bd db89 0d3e
00000320: 89e5 c63f 9f34 6e3e 8421 02c0 a5ad c83d
00000330: f3d4 a7bf 3c8c 323e ffc4 a53e 026d 40bc
00000340: 3553 ecbc 520d 8bbf e3ef aabf 2ff9 ec3e
00000350: ba99 7a3f 1c57 c43e 02ce 93bf cacc 21c0
00000360: 8c87 06bf 00e9 123f eb8a b5bb e780 e73f
00000370: e24f cb3f de9f 2140 30a9 1d3e 239f 0a3d
00000380: 9243 19be f77e e83e c638 4740 4916 fe3e
00000390: 3b3e f5be 8483 f93e 6625 b1c0 b2cd e73c
000003a0: 3b36 39be e94e 603c 2acd b6bf d70f f9bd
000003b0: e9dc 513e 5a1b 9d3b 46b2 9e3e 7d26 28bf
000003c0: d06d 29c0 7a1d 2dbf fb2d 3f3f 1f18 b6c0
000003d0: 524e be3f 5e7c 5bc0 5433 453e 091a 46bd
000003e0: e027 69bf 8e4a f6be e192 3940 7a59 b73b
000003f0: 4db2 85bf 0ddf ec3c 1852 033f e264 fabc
3.224958 -0.13553232 -0.42158833 -3.2124326 2.2650151 3.261697 0.073978424 0.038613997
-1.1345524 1.0582855 0.26594645 1.1166438 -0.30727068 -0.75175714 1.7222499 0.49216917
1.1143699 -0.9252606 -5.5152555 -0.30683348 -0.14266227 -0.42112488 -0.3626266 -1.2466654
2.0344448 0.07861304 -0.21923172 -3.2359858 -0.18534556 -1.5565956 -0.20029694 -0.16693649
-2.9846735 -0.03673871 -0.96792406 -0.6308971 -0.97814435 0.16001792 1.3142684 -0.08176748
-0.47926438 0.06859724 -1.2942322 0.7540362 -0.5426984 0.04397088 -4.856894 0.49090672
0.29514268 -0.038235225 -0.2660694 -0.15480627 -0.35985586 0.06652069 -0.122556694 0.0196081
-0.3405691 -0.33750987 0.2879277 -0.0005723077 -0.3855958 0.0012466675 -0.07486695 -0.050068878
0.19391644 0.01794504 -0.28695396 -0.082621366 0.37882575 0.018275201 -0.51406753 -0.3611681
5.3277197 0.8317354 0.09744936 -1.369913 -1.164173 -1.8285292 -0.06269048 0.06890494
-1.0759095 -0.6919815 0.2180641 -0.33460507 -1.6104202 -0.1862743 -0.4725124 -0.0673843
-1.1271775 0.80375963 -0.3038165 0.6777949 5.348094 0.6539341 -1.8069307 -0.3566305
3.1037796 -0.48388782 0.2700089 -0.11179768 1.272953 -2.0940616 0.13101777 -0.10084506
1.2458869 0.19655016 4.1409645 0.42097583 -0.76794165 0.06251805 0.2695671 0.06496409
-2.1180809 1.0838077 -4.2033143 -0.071256325 -3.0661235 -0.3707091 -0.09814716 -0.8499247
2.2199643 0.49186102 -0.4422631 0.107673846 1.5046827 -2.1339388 0.10968265 -0.15864329
-1.6947625 -0.23188402 3.1016173 1.1379348 -1.4652424 -0.0022764944 -0.9320559 -0.90326273
0.37689114 0.927678 -2.7752674 0.24030216 -0.8761092 0.4086507 -0.35857987 -0.4728151
0.11356968 0.18715632 0.4875709 -2.7778716 1.4086851 -5.446892 -0.0119394725 0.18485905
0.3908109 -0.12364087 -4.53719 -0.46463063 -1.94848 -0.10236469 -0.81431013 -0.0032620092
0.6586662 0.3060612 1.1928475 0.3963638 -1.9720268 0.012193994 0.0015302212 -0.2133523
0.36102226 1.0508538 0.085487485 -0.994211 -1.1409476 6.91741 0.1882231 0.1535525
-0.26054177 -0.22316875 1.4637333 -1.1594149 -5.620493 0.13262257 -1.1872681 0.5974807
-1.8542693 0.42659765 0.4464493 -0.045305435 1.2081255 0.1886351 0.000870864 -0.6997564
-4.171802 1.2797275 -0.19608662 -1.873583 -0.41598746 -4.164103 -0.06527219 0.13822119
1.5538799 0.23262261 -2.0332956 0.09798745 -1.3111862 0.17436308 0.3237686 -0.0117447395
-0.02884827 -1.086344 -1.3354458 0.46283862 0.9789082 0.3834771 -1.1547244 -2.5281243
-0.5255058 0.5738678 -0.005540242 1.8086213 1.5883753 2.5253825 0.15396571 0.03384317
-0.14967182 0.45409366 3.1128402 0.49626377 -0.4789904 0.4873315 -5.5358152 0.028296325
-0.18087094 0.013690689 -1.4281361 -0.12161224 0.20494427 0.0047945203 0.30995387 -0.6568373
-2.6473274 -0.676231 0.74679536 -5.6904445 1.4867651 -3.4294658 0.19257861 -0.048364673
-0.9107647 -0.48103756 2.8995898 0.0055953832 -1.0445038 0.028914953 0.5129714 -0.030565683

l1.bias f4 [400]
00000000: 8e7d 91bf 6cec c3bf bbb2 ecbe d728 d9bf
00000010: 776d fcbe 8415 c8bf 1d46 e4be b274 463e
00000020: 6854 dfbf 6773 36be 9860 babe 2b54 c1be
00000030: acd6 0bc0 7324 81bf 0573 d0bf 668a 09c0
00000040: e6d8 17c0 b3b5 91bf da4d 92bf 8e7e c2bf
00000050: 942c fabf 3415 c3bf 289a 673f a56e 78bf
00000060: 81e6 debf 3ed6 26bf 2e17 ecbf 4e90 10c0
00000070: da19 8cbf ddc3 8ebe 6f45 9abf 2ad8 b4bf
00000080: 0291 8abf 1dfe ffbf e2c7 a5bf 9839 60bf
00000090: 33e1 1abf de9f e93e 3cf0 c9bf 99d9 a6be
000000a0: 4a7e 89bf 3cfd 413e 8365 89bf 8e56 febf
000000b0: 1157 56bf 512c bebf 3058 d6bf 3472 b3bf
000000c0: 22b6 aebf 309f 66bf aba8 8fbf 0935 f4bf
000000d0: b888 2dbf 684f 833f f577 a3bf 196f a9bf
000000e0: 797f c5bf a50c 0bc0 0eb4 5bbf acc9 83bf
000000f0: f48b 04c0 0599 25bf 34c6 82bf 5d8c 85bf
00000100: 89e2 343e 730c 60bf 4a8b debf 1510 a1bf
00000110: 8708 f1bf 4b9c 55bf fc77 22c0 2c97 dabf
00000120: 65da 3bbf aa24 d0bf e9c4 e6bf cb22 a0bf
00000130: d8ba 99bf 3b44 9cbf 9d4d 5f3f 072a b93d
00000140: 36f4 73bf 7630 b1bf 79e8 eabf 1d11 bbbf
00000150: c065 84bf 5d12 7dbf 1439 7dbf 5bab b9bf
00000160: 3d97 bbbf cf90 c9bf f37c 93bf 9a29 c9bf
00000170: 7f40 a1bf ef0a a9bf 6f89 90be 6f48 d1bf
00000180: 8d8f 81bf 6a07 c8bf cd58 1e3e c565 e5bf
00000190: 0438 9d3f e680 373e 0383 a5bf a4ec 9fbf
000001a0: a921 cabf b2d6 0ebf 0322 9cbf fa94 59bf
000001b0: 9cfa b1bf 0931 cfbf 62c4 04be 55a3 09bf
000001c0: 7624 3d3e 229f a0be 7a09 e1bf 1e82 e3bf
000001d0: 5a4d d6bf 907d b9bf e766 1bbe d5ed b4bf
000001e0: c26d ccbf 4bae 1e3f 91c7 d2bf b8fb 8dbf
000001f0: ca7d ad3f 1da8 c4bf e326 0b3f cf8d f5bf
00000200: 1484 44c0 7e5d 10c0 0b23 b1bf 3136 babf
00000210: 94f0 acbf a531 babe 4805 b4bf d2b6 30bf
00000220: 3145 94bf e984 f2bf 3e38 a7bf 9581 8dbe
00000230: c69d debf 0bcc c5bf 717b 0ac0 d058 e4be
00000240: fd42 e0bf f10e d9bf e1a4 023f a2e5 ecbf
00000250: f0b8 babf 3462 d8bf 671a 82bf 8d4a 19be
00000260: b5a6 c5bf ef85 f2bf 4e2e b7bf 57ca b4bf
00000270: 095c 473e 8a31 8abf 34ff 9dbf cb92 e0bf
00000280: 6c51 a4bf 99a0 49bf 91d8 c43e 4f8e a6bf
00000290: 1439 f4bf 7aad 03c0 d81a e4bf e1c0 cabf
000002a0: 25ad 25bf cb17 97bf 069e d5bf 74b5 15c0
000002b0: 22b1 e2bf 9b7b 63be fbf4 09c0 1b50 1dbf
000002c0: 5126 00c0 d684 febe 6ad3 fcbf 9480 adbe
000002d0: f5a6 c8bf 7e83 67bf fb2d d0bf 48b5 9fbf
000002e0: 1ec5 94bf be0c 92bf 7c2e d1bf e380 47bf
000002f0: b94e 0940 d85d 03c0 5416 b33e d889 1bc0
00000300: 9efb a1bf 286b aebf a282 f7bf b508 88bf
00000310: 8a28 8dbf 5cd6 90bf 740b 7bbf 6a80 a23f
00000320: 2432 d1bf 69e0 d9bf 3054 b2bf 6ff2 383d
00000330: 07b7 3fbf f209 cfbf 0a19 dabf 83c9 6abf
00000340: 1160 01c0 58df 95bf 2a22 65bf 25ad 93bf
00000350: 2791 cebf 9e30 31c0 010a 8cbe 7ab5 5a3d
00000360: a284 f1bf 1bc5 10c0 7e76 89bf 4498 603f
00000370: c54a cebe 40c5 bdbf 44ad 8cbf a422 8ebf
00000380: de64 12c0 acbd a23e d895 bebf eaec 06c0
00000390: c3ae ecbf aab1 9dbf 3eb7 c9bf d977 84bf
000003a0: a2ef 8cbf bc31 fabe fc8e 34bf 9475 84bf
000003b0: 06c0 fabf 02b4 10c0 2505 19bf d877 b2bf
000003c0: 3eea 4abf 32f4 e5bf 68a5 23c0 e721 dabf
000003d0: 6720 5ebf c210 81bf 26d9 34bf 2a91 f4bf
000003e0: 8b44 a3bf 28a7 efbf 91cb 213f 4fae 84bf
000003f0: 8bed 9abf 7e78 e5bf b809 99bf 69bc 603f
-1.1366441 -1.5306525 -0.4623011 -1.6965588 -0.49302265 -1.5631566 -0.44584742 0.19380453
-1.7447634 -0.1781746 -0.3640182 -0.37759528 -2.1849775 -1.0089248 -1.6285101 -2.1490722
-2.3726134 -1.1383575 -1.1430008 -1.5194871 -1.9544854 -1.5240846 0.904696 -0.9704383
-1.7414094 -0.6517066 -1.8444574 -2.2588077 -1.0945389 -0.27883807 -1.205244 -1.4128468
-1.0825503 -1.9999424 -1.2951624 -0.8758788 -0.60499877 0.4562978 -1.5776439 -0.3258789
-1.0741665 0.18944257 -1.0734104 -1.9870164 -0.837266 -1.4857274 -1.6745663 -1.4019227
-1.3649333 -0.9008665 -1.1223348 -1.9078685 -0.6778674 1.0258608 -1.2770983 -1.3237029
-1.5429527 -2.1726468 -0.85821617 -1.029592 -2.071042 -0.64686614 -1.0216737 -1.043346
0.17664541 -0.87518996 -1.7386258 -1.2583033 -1.8830727 -0.8344161 -2.5385733 -1.7077384
-0.7338012 -1.6261189 -1.8028842 -1.2510618 -1.2010145 -1.2208322 0.87227803 0.09041219
-0.9529451 -1.3842914 -1.8352195 -1.4614598 -1.0343552 -0.98856145 -0.9891522 -1.4505419
-1.4655529 -1.5747317 -1.1522506 -1.5715821 -1.2597808 -1.3206462 -0.28229854 -1.635023
-1.0121933 -1.5627263 0.15463562 -1.7921683 1.228272 0.17920265 -1.2930607 -1.2494092
-1.5791522 -0.5579635 -1.219788 -0.84992945 -1.3904605 -1.6186839 -0.12965539 -0.5376485
0.1847094 -0.3137141 -1.7581017 -1.7774084 -1.6742356 -1.4491444 -0.15175973 -1.413508
-1.5970995 0.619847 -1.6467153 -1.1092443 1.3554013 -1.5363804 0.5435621 -1.9183902
-3.0705614 -2.2557063 -1.3838819 -1.4547788 -1.3510919 -0.36366 -1.4064112 -0.6902896
-1.1583616 -1.8946811 -1.3064039 -0.27637926 -1.7391899 -1.5452894 -2.1637843 -0.4459901
-1.7520443 -1.6957685 0.51032835 -1.8507578 -1.4587688 -1.6904969 -1.0164307 -0.14969845
-1.54415 -1.8947123 -1.4311006 -1.4124249 0.19468702 -1.0796368 -1.2343507 -1.7544798
-1.2837348 -0.7876068 0.38446477 -1.3012179 -1.9079919 -2.0574632 -1.7820692 -1.5840112
-0.6471732 -1.1804136 -1.668885 -2.3392 -1.7710307 -0.2221512 -2.1555774 -0.61450356
-2.0023386 -0.4971072 -1.9752018 -0.3388716 -1.5675951 -0.90435016 -1.6264032 -1.2477198
-1.1622655 -1.1410139 -1.6342311 -0.7793104 2.1454298 -2.0526028 0.34977973 -2.4302883
-1.2654912 -1.3626451 -1.9336741 -1.0627657 -1.1027997 -1.1315417 -0.9806435 1.2695439
-1.6343427 -1.702161 -1.3931942 0.045153078 -0.7488865 -1.617491 -1.7038891 -0.9171373
-2.0214884 -1.1708784 -0.89505255 -1.1537215 -1.6138047 -2.7685924 -0.27351382 0.053395726
-1.8868601 -2.2620304 -1.0739286 0.8773234 -0.4029142 -1.4825821 -1.0990376 -1.1104321
-2.2874064 0.31785333 -1.4889479 -2.10821 -1.8490833 -1.2319844 -1.5759046 -1.0349075
-1.101063 -0.4886607 -0.70530677 -1.0348382 -1.9589851 -2.2609868 -0.59773475 -1.3942823
-0.79263675 -1.7965147 -2.5569706 -1.7041596 -0.8676819 -1.0083239 -0.7064384 -1.91068
-1.2755293 -1.8722887 0.6320124 -1.0365695 -1.2103742 -1.7927396 -1.1956091 0.8778749

l2.weight f4 [300, 400]
00000000: 7e5d 00bf bd8c 10bf e632 ba3c 9a64 4cbf
00000010: 416b 70be 0cc9 c63e 8fb4 2b3f 2a48 9dbe
00000020: aa7e 253e 2c4e e13d acd5 74be b793 743e
00000030: 5232 213f 88ad a8bf 387d 9ebd 244a dc3e
00000040: 0e4c d63d 32c5 a9bd 34b5 b6be aa9f 093e
00000050: 2e06 debe 91c4 7b3e 49a0 60bf 6249 a9be
00000060: 3a7e 19be fb0d b03e 9c01 1f3f 433f 15bf
00000070: 4e62 d43b f182 cfbf 560b 7cbf 66ed 84bb
00000080: 50b5 45be 6cc2 7c3f 8e5c 333e 2e98 ed3d
00000090: 4a60 cb3e b218 babe 6091 79bf 1986 b9bf
000000a0: 081b 9c3e 3ff3 afbf 1440 37be 0db8 2d3e
000000b0: eee3 2dbd ada4 1c3e e199 7a3e 4f6e 48bf
000000c0: f5ca a83e 0ddf c33e cad5 dcbf 4f7e 95bf
000000d0: 4fa8 98bf 541f 74bf ecfa 203f 4ddb 84be
000000e0: 7b24 313f 199f 41be 61c3 6fbe 396e 21be
000000f0: 6a65 edbe e2e1 a5be d677 58be 4106 64bc
00000100: 505f 173f 2aac d9bc f43b ca3c d9db 73bd
00000110: 8cb0 a03e f8f6 5b3f b1ae 25be c542 023e
00000120: 92ad eabb 37a9 8d3e 0c65 9a3e 135f 873e
00000130: 2cdd 773e 1ab0 143f 8a95 1dbd 0895 e3be
00000140: f6c2 783f 932f 1c3f 1aeb d5be 99a0 32bf
00000150: d57b 3abd 5715 093d d299 fc3c 1ae0 fe3e
00000160: b4bb d73e b23d 44bd 6ba7 5f3f 5cc4 a03c
00000170: 0a15 283c 603a aa3e 2fac 87bc c8bf b6be
00000180: 1c48 143f fb9c 2d3f 6d76 aebe 0bea 083f
00000190: fa91 493d a723 b6bc 8382 0cc0 7370 433e
000001a0: e7f8 1239 3e4e 373e fa1a 07c0 db02 1f3f
000001b0: c077 513a 3214 cd3d c422 4dbd f4e0 373f
000001c0: 844a 59be b440 d23d 3f3e 74be f196 6f3f
000001d0: 7395 4b3d 344e 433f b330 74bf be2a a6be
000001e0: 5f00 27be 8d39 cfbe 8ff4 1a3f c507 32bf
000001f0: fa9a c83d 5021 dabe 52c6 2d3e 20db d7be
00000200: 95e2 983f 38aa b13d 49d6 08bd 06f5 113f
00000210: d23a 18bf ea7f 26bd 62a0 f0bd c4b7 543f
00000220: fa71 2fbf 8555 253c f24d adbd 9b32 773e
00000230: 0f0b a73e 94dc efbe 7b46 0240 277b 04bf
00000240: 4790 173f 0549 113f 87ae 92be 0ed1 89bf
00000250: b24a a43d 3fd3 033f f923 59be d724 21be
00000260: 669a 503f 882e 213f c6cb e2bd 594f b23d
00000270: 3ead e0be 754c f33e 4c54 443f f678 ec3e
00000280: cf01 b7be 422c 1dbf 3656 43bf e858 8e3d
00000290: d6d1 17bd e8fa bdbe 90e3 863e 6cf3 65bf
000002a0: 5514 4f3e 5a22 c63e f48b 3cbd 132e cf3f
000002b0: 8148 453f 09d7 cebf b803 f63e 8178 9bbe
000002c0: 0738 c3ba 71a1 423e c608 9fbe 356e 8a3e
000002d0: 08c4 f1bb a78b 503e 4d7c 2e3f e55d 21bf
000002e0: 53d0 3a3f f6fd 9e3e 3fb1 17bf 0895 75bf
000002f0: 1bfe 3ebd 4292 6cbd 9fdb b63e 35bd 21bf
00000300: a348 9f3e e109 eebc 2ad4 30bf 8fc7 26bf
00000310: 19b3 583e 815d e2be 59c8 953f ab4a 72bd
00000320: 1506 b13d 6f95 543f 6af0 98be 01b6 c9bf
00000330: 0a7d eb3f 9dba b3bf ce35 f43e dad9 dfbf
00000340: eafb 073d cef4 513e fb38 e2bd 1b7c 62be
00000350: 933b 09bf 4b2b 713f d4d3 84bf 4e72 703e
00000360: 254c 5d3d fbfc 053f a7cb 09bf 408c ea3d
00000370: 0a58 a43c 536e 43bf 5375 823f fb8c 5b3e
00000380: 735d d1bd 23ef 293c 2c02 853e 9fdf b93d
00000390: 0371 a53f 899b c8bf e0cf 473e 30d3 483f
000003a0: 6b77 40be ab17 a83e 68a2 303f 0ec7 113f
000003b0: 1845 983d 7327 ad3d 641c d63e 6ad4 553e
000003c0: 6bd0 b83f 32bf 173f 8fa6 683f 760e 2b3e
000003d0: 72b9 643f 546f fb3e 6d9e 883b 2e4b 3cbe
000003e0: e065 d3be 370c a53c fe4a f13c e48e 1cbe
000003f0: 8bea 633e 810d c2be 839d 54bf b1e1 23bf
-0.5014266 -0.5646475 0.022729348 -0.79841006 -0.23478414 0.38825262 0.67072386 -0.3071912
0.161616 0.11001238 -0.23909634 0.23884474 0.6296741 -1.3177958 -0.07738727 0.43025315
0.10463725 -0.08289565 -0.35685122 0.13439813 -0.4336409 0.24586703 -0.87744576 -0.330638
-0.14989558 0.34385666 0.6211183 -0.58299655 0.0064814454 -1.6211835 -0.984548 -0.0040566204
-0.19307446 0.98734164 0.17515776 0.116012916 0.397219 -0.36346966 -0.9748745 -1.4494048
0.30489373 -1.3746108 -0.17895538 0.16964741 -0.0424537 0.15297194 0.24472763 -0.7829332
0.32967344 0.38256112 -1.7252743 -1.1679171 -1.1926364 -0.953603 0.62882876 -0.25948563
0.6919629 -0.18908347 -0.23414375 -0.15764703 -0.46366435 -0.32398897 -0.21139464 -0.013917507
0.5912981 -0.026571352 0.024686791 -0.059535835 0.31384695 0.8592372 -0.1617992 0.12720783
-0.0071618045 0.27668163 0.30155218 0.26439723 0.24205464 0.5808121 -0.03847269 -0.4444964
0.97172487 0.6101009 -0.4178093 -0.697763 -0.04552825 0.033467617 0.030835066 0.4978035
0.42135394 -0.0479104 0.87364835 0.019624881 0.010258922 0.33247662 -0.016561596 -0.35693192
0.5792253 0.6781766 -0.34074727 0.5348212 0.04921148 -0.022233797 -2.1954658 0.19085865
0.00014016368 0.17900941 -2.1110215 0.6211373 0.00079905614 0.100136176 -0.050081983 0.71827626
-0.21219832 0.102662474 -0.2385187 0.93589693 0.049703073 0.76291203 -0.9538681 -0.32454485
-0.16308735 -0.40473595 0.60529417 -0.69543105 0.097951844 -0.4260354 0.16970184 -0.42159367
1.1944147 0.08675045 -0.033407483 0.570145 -0.5946475 -0.040649332 -0.117493406 0.83092904
-0.6853329 0.01009119 -0.084621325 0.24140398 0.32625625 -0.46847975 2.0355518 -0.51750416
0.59204525 0.56752044 -0.2864878 -1.0766923 0.080220595 0.5149421 -0.21205129 -0.1573671
0.81485593 0.62961626 -0.11074023 0.087065406 -0.43882173 0.4751927 0.76691127 0.46186036
-0.35743567 -0.6139566 -0.7630342 0.06950551 -0.03706535 -0.3710549 0.2634549 -0.8982456
0.202226 0.38698083 -0.046031907 1.6185936 0.7706376 -1.6159374 0.48049712 -0.30365375
-0.0014894017 0.19006898 -0.3106138 0.27037206 -0.007378105 0.20365773 0.6815842 -0.63033897
0.7297413 0.31053132 -0.5925483 -0.9593053 -0.046629053 -0.05775667 0.35714433 -0.6317933
0.31110105 -0.029057445 -0.69073737 -0.6514825 0.2116207 -0.44211963 1.1701766 -0.05915324
0.08643738 0.8304052 -0.2987092 -1.5758668 1.8397534 -1.4041325 0.476973 -1.7488358
0.03319923 0.20503542 -0.110460244 -0.22117655 -0.5360653 0.94206685 -1.0377145 0.23481104
0.054027695 0.5233914 -0.53826374 0.11452532 0.020061512 -0.76340216 1.0192055 0.21440499
-0.10222902 0.010371956 0.2597822 0.090758555 1.2925113 -1.5672466 0.19512892 0.78447247
-0.18795554 0.32830557 0.6899781 0.5694436 0.074350536 0.0845479 0.41818535 0.20881811
1.4438604 0.59276116 0.9087915 0.16704735 0.8934547 0.49108374 0.0041692764 -0.18388054
-0.41288662 0.020147426 0.029454704 -0.15288883 0.2225744 -0.37900928 -0.83052844 -0.6401625

l2.bias f4 [300]
00000000: e738 903e 1794 0abf 7772 08be f327 99bf
00000010: 38eb fbbf 3892 85bf b204 19bf 107e ccbd
00000020: b7bc 433f 3219 94bd db84 d5be c176 2c3f
00000030: 5316 15be 484f 10bf db23 88be ea87 31bd
00000040: 7086 d7bd 6535 62bf c392 a9bd 41ff 93be
00000050: 0c75 97bf 85da 3e3e bd39 25bd e0f9 82bf
00000060: 8123 a0be f70c 9dbd 0d16 71bf de8d e4bd
00000070: d49e 1bbf 1b3a 0fbf ca28 40bf 2194 d9bd
00000080: c654 32bd d84e cebd f1cf b13d 90be 9bbd
00000090: b628 e7be 3c37 24be b082 bfbf 57d0 3cbd
000000a0: 6b22 99bd 40a7 3cbf e02f b5bd 0ded 9ebd
000000b0: 7dcb 92bd bc87 27be 49e4 bebd 8a49 83be
000000c0: c378 49bf 9f1b 5abc 6e8b adbd 0b3b 1f40
000000d0: 333a 0fbe 0616 c3bd 180f c2bd decd b1bf
000000e0: beb5 bcbd c3bb 793e e413 b8bd 6041 9dbf
000000f0: 329a bb3d 7aab 04be 1c5c 3b3e d186 213f
00000100: 8c11 d7be e162 a7bf 1b62 c8bd b3d4 7cbe
00000110: 218e 5dbf 8cf2 97be 873b 98bf 3368 06bf
00000120: 84e9 03be 40a9 0ebe 62ea cbbc 4ef8 b7bf
00000130: 8cac 6fbd d2c1 3f3f 0554 29be a62f aabd
00000140: d677 48be 8fe3 07bd 8a3b 01be bd54 1abf
00000150: a3b4 c2be 4484 83bf c0c4 ecbe dd94 57bd
00000160: 4bcd 5fbd 6676 12bf df58 a1bc 320e 31bd
00000170: 892a 13bf ea06 bfbd 3fbf 02bd 7887 383f
00000180: 9ce9 3abd bc9d 94be 061d 67bf 8530 9bbf
00000190: b190 7abe d1c7 b2be 1ae5 d4bf 943b 9dbd
000001a0: b0af 9abd 4505 6bbe 1729 cabf 1409 09bf
000001b0: 87c8 8abf 68aa 0cbf f9bf cebe fc30 a7bd
000001c0: 850e 25bf 7240 293d 3869 a5bd 6ab4 4bbd
000001d0: 1fcf 1dbf 2341 91be ea6c 3dbe e3fe 5dbd
000001e0: 2339 29bd 04cc d03f 4c03 eabe abaf c3bd
000001f0: 664b 34bf 6645 8ebd ca9f 20bd 01c1 debe
00000200: d3f9 5cbd ff29 1fbe ab86 0abe 0b5e 00bf
00000210: b0ba 9cbd 73d8 0bbe d6b1 a5bd 1560 03be
00000220: 7cce 1abe 1090 65be c61b 0fbd 5503 03bd
00000230: 4c4b 203f 43f6 b93f 2e71 e9bc f362 f93e
00000240: cc33 c5bd c9df 9cbe 6e31 1bbb bd91 5ebf
00000250: 492f 91be 9743 1bbe 1473 ddbd fabb 22be
00000260: ab21 38bd 8733 b8bd 6cf6 acbf 1d6f f5bf
00000270: 8190 b93f 8f65 05bd bbc8 adbd 0c8c 1ebd
00000280: 0645 bbbd 8582 74bd bc97 d7bd 59e3 7bbd
00000290: de8b a9bf 8ba8 a3bd 4880 77bd 241b 45bd
000002a0: a9fb cebd 0002 7fbf afa8 d9bd a627 d2bd
000002b0: a258 05bc b54d f4bd 0391 05c0 063e a63e
000002c0: 5df9 cbbf a61f c7be ba8f 25be eaa2 42be
000002d0: d589 1dbd ae60 ddbd 910c 37bf 70fe 663f
000002e0: 7fd6 0dbe c6b5 d5bf 367a 2bbe 4846 0dbf
000002f0: 5cfe b5bd 65e4 6cbd 46a8 edbd 2dec 0bbf
00000300: 030e bfbe b46d 01bf 023f b8be 0ac1 93bd
00000310: 8e4d d3bd 04c4 04bf b6a6 7dbf 3ea4 a8bb
00000320: 680d 63bd 324e 88bd 6d50 90bf a41b 22bf
00000330: 58b7 aabe 7625 6bbe 9e3d 5cbb 1cc6 2abe
00000340: 253f 49be 8da6 66bf a77a 9dbd 55a5 0ebd
00000350: 4256 4abd b920 24be a28b eebd ac4a 39bf
00000360: 48ce 71bd ef2c 4abf 3ad7 82bd 12cb 943f
00000370: fb26 1dbd 0d0e ebbe 8ed7 83bd 8236 79be
00000380: 9d19 fbbc ac9a 12be 5aa2 81bd 03b1 99bf
00000390: 863a f3bd 772c 84be 2642 753f 2fe3 73be
000003a0: a148 d0bd 812c 2cbe c8b2 02be 0dfa 39be
000003b0: 3c52 7dbf f14c f7bd fe35 15be e054 edbf
000003c0: 054b 8dbf ece7 bebf e9ad 95bf ed19 4ebe
000003d0: d90f 03be 2379 56bf 3b9e e0bd ec78 1abd
000003e0: c994 34bf e35c b7be d1a9 84be 615c ccbd
000003f0: c2a7 b9bd 724d c3bd 3456 c9be 4a02 17bf
0.28168413 -0.5413222 -0.13324915 -1.1965317 -1.9681158 -1.0435247 -0.5977279 -0.09984982
0.7645983 -0.07231368 -0.41702923 0.67368704 -0.14559297 -0.56370974 -0.26589856 -0.04334251
-0.10523689 -0.88362724 -0.08279946 -0.2890568 -1.1832595 0.18638046 -0.040338267 -1.0232506
-0.31277087 -0.076684885 -0.9417427 -0.111598715 -0.6078923 -0.55948037 -0.7506224 -0.106239565
-0.043537878 -0.10073632 0.0868224 -0.07604706 -0.45148247 -0.16036695 -1.4961758 -0.046097126
-0.07477268 -0.73692703 -0.08847022 -0.077600576 -0.071677186 -0.16360372 -0.09320886 -0.25642043
-0.7869989 -0.013312249 -0.0847386 2.4879787 -0.13987045 -0.09525685 -0.09475535 -1.3890951
-0.09214352 0.24388032 -0.08988169 -1.2285576 0.0916027 -0.12956038 0.18296856 0.6309634
-0.42005575 -1.307705 -0.09784337 -0.24690513 -0.86544997 -0.29677236 -1.1893166 -0.52502745
-0.12882048 -0.13931751 -0.024892036 -1.4372652 -0.058514163 0.7490512 -0.16535957 -0.083098695
-0.19576964 -0.033176 -0.12620369 -0.6028555 -0.3802844 -1.0274739 -0.46243858 -0.0526322
-0.054639142 -0.5721191 -0.019695697 -0.04322643 -0.5748678 -0.09327491 -0.031920668 0.7208171
-0.045632944 -0.29026592 -0.9027866 -1.2124182 -0.24469258 -0.34918073 -1.6632416 -0.07677379
-0.07553041 -0.22951229 -1.579379 -0.5352948 -1.0842446 -0.5494752 -0.4038084 -0.0816364
-0.6447528 0.041321225 -0.080767095 -0.049732603 -0.61644167 -0.28370008 -0.18498579 -0.054198157
-0.041314255 1.6312261 -0.4570564 -0.095549904 -0.7042755 -0.069468305 -0.039214887 -0.43506625
-0.05394919 -0.15543364 -0.13527934 -0.501435 -0.07652795 -0.13656788 -0.0809056 -0.12829621
-0.1511783 -0.22418237 -0.034938596 -0.0319856 0.62614894 1.4528278 -0.028496351 0.48708305
-0.0962902 -0.30639485 -0.0023680585 -0.8694113 -0.28356388 -0.15162502 -0.10812965 -0.1589202
-0.044953983 -0.08994203 -1.3512702 -1.9174534 1.4497224 -0.032567557 -0.08485552 -0.038707778
-0.091440246 -0.059694786 -0.10526988 -0.061496112 -1.3245809 -0.079911314 -0.060425073 -0.048121586
-0.10106594 -0.99612427 -0.10627877 -0.102614686 -0.0081388075 -0.11928884 -2.0869758 0.32469195
-1.5935475 -0.38891333 -0.16168109 -0.1900746 -0.038461525 -0.10809456 -0.7150355 0.9023199
-0.13851355 -1.6696098 -0.16745839 -0.55185366 -0.08886406 -0.057835 -0.11604361 -0.5465725
-0.37315378 -0.5055802 -0.3598557 -0.07214554 -0.10317527 -0.51861596 -0.99082506 -0.0051465323
-0.055432707 -0.066555396 -1.1274544 -0.63323426 -0.33343005 -0.22963509 -0.0033606063 -0.16677135
-0.19652994 -0.90097886 -0.0768941 -0.03482564 -0.049398668 -0.16028108 -0.116477266 -0.72379565
-0.059034616 -0.78974813 -0.063887075 1.1624472 -0.038367253 -0.45909157 -0.06437598 -0.243372
-0.030651862 -0.14316815 -0.06329794 -1.2007145 -0.11876397 -0.25815174 0.9580406 -0.23817132
-0.10170103 -0.16813852 -0.12763512 -0.18161793 -0.98953605 -0.12075222 -0.14571378 -1.8541527
-1.1038519 -1.4914527 -1.1693698 -0.20127077 -0.12799014 -0.8377859 -0.1096768 -0.037712976
-0.7053953 -0.35813054 -0.2591081 -0.099785574 -0.090652004 -0.09536256 -0.3932358 -0.5898787

l3.weight f4 [4, 300]
00000000: f6b7 22bf d27a 863f 7beb b6bc 2ded a23e
00000010: aa82 08bf ced1 e9be 6e42 2a3f fc0e 983c
00000020: b3ee b5bf e63f 9ebc 776b 183e cd5d 4b3d
00000030: 6c18 843d 093b d4bf 2b41 92bf c263 92bd
00000040: 491e 9dbb df97 4c3f 4919 d1bf a416 35bf
00000050: dc7e b13f fa69 94bf b439 b9bd a5ce 403f
00000060: a058 003f d030 d43b e18b 3840 b65e 8b3d
00000070: d1ff 213d e691 54bf ee66 0dbf 589a 57bd
00000080: 83d4 4dbd a71f 03b9 44aa 44bf 57d8 ee3c
00000090: a524 cabe ce07 6bbc 8508 22bd d117 243d
000000a0: 8cb2 3f3c dded 2c3f c21f 2f3d 09d6 4abd
000000b0: 85f5 9f3c 9572 99bd c517 a9bc 0795 e1bf
000000c0: 1493 98be 2690 2cbc eea3 c23c 6edd 71be
000000d0: c1e9 1cbd b13c 4abd 1d03 efbc cca7 19c0
000000e0: b10b fabc 7cbd 733f 1953 413d 464f 08bf
000000f0: a1ee 063e fc85 d8bc 3c17 8d3f 2792 553f
00000100: 311a d43e b8bf 2d3f 90cc 083c 7545 4cbd
00000110: ecde 09bc 29a3 07bb 6854 1fbf 61c7 9cbf
00000120: aedd 7abd 37dd 243e 17fc 63bf e07e 4b3d
00000130: 385f 27bd a625 9bbf f41f 103d 6941 883c
00000140: 000e e93d cc41 2cbc 1db7 fcbd 3b56 a13f
00000150: dd35 b1bf 1afd bdbe c4f6 43be 3bc2 153d
00000160: 3972 933c 6b91 34bd e031 403d 938c 803c
00000170: 1289 41bd 11f4 65bc d95e 06bd 627a 89be
00000180: a5c2 a2bd 6c3f 043e 1529 11bf adb4 c0bc
00000190: e146 9fbc c9a7 773e 05b9 25bf cdde 4b3d
000001a0: f94b d4bd c49e 65be 11af 8dbe 0a32 1cbf
000001b0: f6df a73f c443 c13c ff6e 123f 2345 81bd
000001c0: 76a9 da3f 1a04 2b3e a4b9 d0bd 86fb 6b3c
000001d0: fdad 80bf 46cd bb3d d3c5 39bf a58e f8bc
000001e0: a885 90bd a8e1 b4bf ab41 d5be ba72 d2bc
000001f0: 10a5 583f 7954 9dbc 8d9f 1abc 0a6a 0140
00000200: 17aa cebc eb9b ccbe 3c51 20bf 548e 02bf
00000210: 7e75 383b f28d 2a3b e7c7 3e3d ab6e 9ebd
00000220: 2b8d 843d bbda 03bd 19a3 86bd 835d 8cbc
00000230: fb28 873f b59f 97bf f719 09be d388 1240
00000240: 532a 1bbe e1fb 70bf 96cc 42bc 35ef fa3e
00000250: 44f7 453d b5bd b5bd ddad 1bbc 2096 233c
00000260: 8c15 8a3d 0501 c3bd b056 0cbf f767 2e3d
00000270: 9727 ea3e 1103 91bc f944 22be ef4b 8ebd
00000280: d1ea 9e3b 58a5 543b 993f 0a3f b39f b0bd
00000290: e16c adbe b16a 873c 52fb 8abd 7eb6 0e3c
000002a0: e541 263c 1db6 873b b4e9 583d ebed 0fbc
000002b0: 1de0 86bd 2340 a03c d0df 1d3e 4475 473f
000002c0: 6367 b5bc a5f9 5ebe cd55 27c0 e444 aa3d
000002d0: eeae 073c 331e 0abf 0d60 0cbf 8224 ee3e
000002e0: 57fb 93bd 185f 30bf c8b4 a6bf 5741 8cbf
000002f0: d812 323b b97c 823c f25a 7fbc facf 193f
00000300: 7003 3d3f 8b65 e1bd d2e9 b03e 7526 98bc
00000310: e408 3dbc 2226 33be 594a 85bd 678c 63bd
00000320: e511 6dbc 746e 183d b9ba 833f 4576 043f
00000330: ec93 b43c 7b89 8a3d 9bdc 3b3d b5b3 273d
00000340: 8232 1abd f475 df3c 2024 46bd 8b77 463d
00000350: f406 b73c a942 3b3c 3573 08bd 1f4e 4bbf
00000360: 3f37 fabb f999 a53f b531 e5bc 2b32 67bd
00000370: 3e1e a43c 777c 08be ccea 18bc 8af1 a83f
00000380: 69e2 d0bc 248e 0dbd 6c6a c4b9 db69 b93f
00000390: 9ba8 afbc bb1c 513e 2cf5 4ebe 906b 0640
000003a0: 904c e2bc 9a5a 383e b890 fb3b be03 38bd
000003b0: d1bc f33d 87c2 a43c af8f 463d a352 643e
000003c0: f3b9 edbd 35de 673f d900 30bf a0c4 b4bd
000003d0: b345 f8bc 9806 ebbe 2cfc 703a 831b e93c
000003e0: 45a4 8abf bfd7 cd3d 50b2 db3d 2f24 ce3c
000003f0: afbb d1bb 3e0a 5e3c ea59 203f cf7f 0e3d
-0.6356195 1.0506232 -0.022329083 0.31821576 -0.5332438 -0.4566788 0.66507614 0.018561833
-1.421347 -0.019317579 0.14884745 0.049650002 0.064499706 -1.6580516 -1.1426138 -0.071479335
-0.00479487 0.79919237 -1.6335841 -0.7073767 1.386684 -1.1594841 -0.09044209 0.75315315
0.5013523 0.0064755455 2.8835375 0.06805174 0.039550606 -0.83035123 -0.55235183 -0.052637428
-0.050251495 -0.00012504925 -0.76822305 0.029155893 -0.39481083 -0.0143451225 -0.039558906 0.040061776
0.011700284 0.6755045 0.042754896 -0.049520526 0.019526253 -0.07492558 -0.020641217 -1.7623605
-0.29799712 -0.010532415 0.023759808 -0.23619625 -0.038308863 -0.049374286 -0.02917629 -2.4008665
-0.030523153 0.95211005 0.04719839 -0.5324596 0.13176967 -0.026431076 1.1022716 0.83426136
0.41426232 0.67870665 0.008349553 -0.049870927 -0.008414965 -0.0020696616 -0.6223817 -1.2248346
-0.061246566 0.16100012 -0.89056534 0.049681544 -0.040862292 -1.2120864 0.035186723 0.016632752
0.113796234 -0.010513734 -0.123396136 1.260444 -1.3844563 -0.37107164 -0.19137102 0.036562186
0.017998802 -0.044083994 0.046922565 0.015692031 -0.04724986 -0.014035241 -0.032805298 -0.26851183
-0.07947282 0.12914819 -0.5670331 -0.023523653 -0.019442977 0.24185099 -0.6473544 0.049773026
-0.10366053 -0.22423846 -0.27672628 -0.61013854 1.3115222 0.023591883 0.57200617 -0.06312015
1.7082965 0.16700783 -0.10191658 0.01440323 -1.0053097 0.09170012 -0.7256748 -0.030341456
-0.07056743 -1.4131365 -0.41651663 -0.025689472 0.84626865 -0.019205319 -0.009437454 2.022097
-0.02522759 -0.39962706 -0.62623954 -0.50998425 0.0028146203 0.0026024547 0.04657736 -0.07735952
0.06472238 -0.03219102 -0.06574077 -0.017134434 1.0559381 -1.1845614 -0.13388811 2.289601
-0.15152864 -0.94134337 -0.011889597 0.49010625 0.048331514 -0.08874074 -0.009501901 0.009984523
0.06742391 -0.09521679 -0.54819775 0.042579617 0.4573333 -0.017701657 -0.15846623 -0.06948077
0.0048497696 0.0032447185 0.5400329 -0.0862421 -0.3387213 0.016530367 -0.06786217 0.008710502
0.010147546 0.0041415826 0.05295725 -0.008784751 -0.06585715 0.019561833 0.15417409 0.7791331
-0.022144025 -0.2177492 -2.6146119 0.08313921 0.008281453 -0.5395233 -0.5483406 0.46512228
-0.07225674 -0.688951 -1.302392 -1.095744 0.0027171876 0.015928613 -0.015585648 0.6008297
0.7383337 -0.11005696 0.3455339 -0.018573025 -0.011537764 -0.17495015 -0.06508321 -0.05555382
-0.014469598 0.03721471 1.0291358 0.51742965 0.02204319 0.067645036 0.045864683 0.040942866
-0.037645824 0.027277924 -0.048374295 0.04845385 0.022342183 0.011429467 -0.033312995 -0.7941608
-0.0076359804 1.2937614 -0.027977804 -0.05644433 0.020033952 -0.1332873 -0.009333324 1.3198712
-0.025498586 -0.034559384 -0.00037463324 1.448543 -0.021442702 0.20421116 -0.20210713 2.100315
-0.027624398 0.18003312 0.007677164 -0.044925444 0.11901248 0.02011229 0.04847687 0.22297148
-0.116077326 0.90573436 -0.68751293 -0.08826566 -0.030306673 -0.45903468 0.000919285 0.028455501
-1.0831381 0.10050916 0.1072737 0.025163738 -0.0064005475 0.013552247 0.626372 0.034789857

l3.bias f4 [4]
00000000: 7995 84be df90 53be 484f 883e 5327 2bbd
-0.2589529 -0.20660733 0.26622987 -0.04178555
