TD3_control/dir_Walker2D_002/biped-v7-2d-20_actor.pth (torch, 527895 bytes, 6 tensors)

l1.weight f4 [400, 24]
00000000: 1837 f93f deba 7bbf 66b3 123f c22a bdbf
00000010: aa0d 00bf c12f 55bf 06b1 c13a 84df a53d
00000020: c5f9 093e 06fe 58bf 2963 a3bf ead8 d13d
00000030: 3a91 3bc0 63da 273f 8c93 08be 4681 4b3e
00000040: fb11 3d40 9f36 653f e6dc 18c0 405b 36bf
00000050: 3e07 78bd 5e10 1e3e 311f b6bf d006 d2be
00000060: 1f1d 95c0 2600 1c3e fea6 2b3f bcd0 5cbf
00000070: aa7c 5bc0 47b0 0341 9dbb 813d 20d5 29be
00000080: 1d4f 78bf 35a2 633e e02e b73f afe8 86be
00000090: 178c d8bf 11c0 443e 00bc 88bd b3dd 3d3e
000000a0: 7c57 7bbf c8d8 7dbf d1a3 f4bf 483e c43e
000000b0: 1d48 4f3a 6d0c 0e3e 298e c5bf 0c93 3640
000000c0: 35c1 a0bf 9c91 e1c0 8dcf 5b3f c91a a83f
000000d0: 5e19 ae40 0829 9dbf 995c 88bc d72d 44be
000000e0: 9961 d23f ce3c a5be b14e c03f 7cb7 3a3e
000000f0: a8e0 bebe e7a0 15bf 4bc3 78bd ed88 d8bd
00000100: d304 9040 f770 db3e c447 213f cc5d aabe
00000110: b40c a63c 8cd2 9dbc fbcf afbf a5e4 e83e
00000120: 83bd 8840 2df4 14bf 1b63 29be bb72 89c0
00000130: 1ec6 3840 5ea4 473f 2f52 093d 920e 8dbd
00000140: 8790 7fbf 1ee3 2c3e 85d7 4ac0 4a44 8ebf
00000150: 7a00 073f 8e36 06be bae7 fdbd f5ea c5bd
00000160: 55df fc3f a109 aebc 6259 05bf 9d63 a13e
00000170: 1ff8 b4bd 1b38 2c3e ee24 853f 50dc 85c0
00000180: 66cb a03e 9299 0cc0 3ceb 233f 70b6 d63f
00000190: 39d1 4a3f f11d 2140 e703 33be 8411 7bbd
000001a0: bb86 42bf 2d94 8bbf c1fc bbbf e626 9c3d
000001b0: cee9 cabf 4cfd bfbd 4c59 bd3d aa2b 2bbe
000001c0: a221 833e e80d a13d 3b87 98be 7aea 6e3e
000001d0: b2bf 0ebe e7bf 373c b3ca d2bf b185 f13d
000001e0: 4a2b 9540 8919 293e 1359 a93e a6b2 0d3f
000001f0: ebad 47bf 941f 1ac0 5920 303e 8885 eebd
00000200: 6aa3 45c0 3318 c73e fe01 533f 6959 2ebe
00000210: fa09 abc0 a0e7 11bf 1cc2 9fbd 26e1 b73d
00000220: 251a 2ebf c1e0 8b3f ea88 9fbe dcab 4c3f
00000230: c71a 1bbe 2831 f1bc 2031 76bf 06e0 1ebf
00000240: ab09 6d40 9887 2c3d bd1a d5bd 2daa 5a3f
00000250: 71b5 3abe 78d6 6bbf 1180 c73b 5e7c a2bd
00000260: 7bde 543f 6f57 f4bd 455e e93f d408 173e
00000270: 83e7 26bf 46c8 b2bc 1c70 3f3e af75 90bd
00000280: b571 fb40 6c73 403f fb10 ae3f 407b 503d
00000290: e974 273e d802 60bd d3ae b7bf 9b9f d13f
000002a0: de01 2cc0 91dc 483f c68d adbf 2d03 97bf
000002b0: 7724 11be 9064 98c0 05ca 713d 9bbb e7bd
000002c0: efdf 7ebf c310 abbf 4d84 5940 9286 7a3e
000002d0: 04e4 93be 251c 0dbf c79e cbba 13e0 ca3d
000002e0: 9256 9240 8e9e c33e 754e 15bf afca fcbe
000002f0: a359 b13d 5cae ed3d 5a19 7ebf 4ed3 b03e
00000300: a7e4 8740 6a32 0fc0 e3f0 ef3e bb6f 69c0
00000310: c11e b7bf 2ab9 b33f eb20 ffbd 4276 073e
00000320: 2cf1 9cbf 36e1 92bf 6b92 f1be e5b1 31bf
00000330: 4dff 25c0 378c 12bf 9091 0a3e 2d5f 31be
00000340: 2120 9840 0613 01bf 9d7e 35bf f215 a73e
00000350: 518a 6f3d 71c8 f0bc 99a5 be3e 5193 2e3f
00000360: 5f7b c240 d549 71be 8302 db3e d26c e9bf
00000370: 4edc 7e3f 949b 1840 b00e 2c3e 6f33 903d
00000380: 353c aebf 7dff 3c3e b871 f7c0 1bde 413e
00000390: 0dfc 3a3e 3022 56be c76b b2bd cf13 7c3c
000003a0: 879a 3740 ac27 5bbe 38fb 65be e9fa 963e
000003b0: c406 2ebe 1fe4 d73d 00cf 09be 5e1b 45bf
000003c0: 4e05 b240 df0b 68c0 fa9e bc3f 3cd4 26c0
000003d0: ebaf ffbf e629 85c0 affa e639 cdcc 393e
000003e0: 0bd5 debe cabc efbd 2f1d ff3f a667 833e
000003f0: fd0f eabf b265 2e3f b307 9ebd 9fc4 4bbe
1.9469938 -0.9833201 0.5730499 -1.4778674 -0.5002085 -0.8327599 0.0014777489 0.08099273
0.13474186 -0.8476261 -1.2764636 0.10246451 -2.930739 0.65567607 -0.13337535 0.19873533
2.9542224 0.8953647 -2.3884826 -0.71232986 -0.06055378 0.15435931 -1.4228269 -0.41020823
-4.659805 0.15234432 0.67051685 -0.86256003 -3.429484 8.230536 0.063346125 -0.16585207
-0.9699572 0.22229846 1.431118 -0.26349398 -1.6917752 0.19213893 -0.06676483 0.18541603
-0.98180366 -0.99158907 -1.9112493 0.38328767 0.0007907169 0.13871928 -1.5434009 2.852725
-1.2558962 -7.0490246 0.8586357 1.3133174 5.4405966 -1.2278147 -0.016645717 -0.19158112
1.6436034 -0.32272953 1.5024015 0.18234056 -0.37280774 -0.5844864 -0.06073312 -0.105729915
4.500589 0.42859623 0.6300013 -0.33274686 0.02026973 -0.019265436 -1.3735346 0.45486942
4.2731338 -0.5818508 -0.16541712 -4.295255 2.887092 0.7798518 0.033525642 -0.06887545
-0.99829906 0.16883513 -3.1694043 -1.111459 0.527351 -0.13106748 -0.12397714 -0.09663955
1.9755656 -0.021244826 -0.5208951 0.3152131 -0.08836388 0.16818278 1.0401895 -4.1831436
0.3140518 -2.1968732 0.64030814 1.6774426 0.792255 2.5174525 -0.17481957 -0.061296
-0.7598683 -1.0904595 -1.4686509 0.07624607 -1.5852602 -0.093744844 0.09245548 -0.16715875
0.25611597 0.078639805 -0.29790673 0.23331633 -0.13940313 0.011215187 -1.6468109 0.11793078
4.6615343 0.16513647 0.3307577 0.5535072 -0.7799975 -2.4081774 0.1719984 -0.11646563
-3.088099 0.3888565 0.82424915 -0.17026295 -5.344968 -0.56994057 -0.07800695 0.089784905
-0.68008643 1.0927964 -0.31159145 0.79949737 -0.15146933 -0.029442385 -0.9616871 -0.6206058
3.703715 0.0421215 -0.104054905 0.8541592 -0.18233277 -0.9212413 0.0060882648 -0.079338774
0.8315198 -0.11930739 1.8231894 0.14749461 -0.6519701 -0.021824013 0.1869511 -0.07053696
7.8576303 0.7517612 1.3598932 0.05089879 0.16353191 -0.054690212 -1.4350227 1.6376833
-2.687614 0.7846156 -1.3558891 -1.1797844 -0.14174066 -4.7622757 0.05903055 -0.1131508
-0.99560446 -1.336449 3.3987 0.24465397 -0.288849 -0.5512107 -0.001553499 0.0990602
4.5730677 0.38206905 -0.5832284 -0.49373385 0.08659675 0.11605522 -0.99257433 0.34536213
4.2466617 -2.237452 0.4686347 -3.6474445 -1.430626 1.4040883 -0.124574505 0.13228706
-1.22611 -1.1474979 -0.4718202 -0.6941207 -2.5937073 -0.572452 0.1353209 -0.17321463
4.753922 -0.5041965 -0.7089632 0.3263393 0.05848152 -0.029392453 0.37235716 0.68193537
6.07756 -0.23563321 0.42775354 -1.8236334 0.9955491 2.3844957 0.16802478 0.0704106
-1.3612124 0.18456836 -7.7326317 0.18932383 0.18260212 -0.20911479 -0.08711963 0.015385582
2.8688066 -0.21401852 -0.22459114 0.29488304 -0.16994768 0.105415575 -0.1345787 -0.76994884
5.5631475 -3.6257246 1.4736016 -2.6067038 -1.9975561 -4.1613646 0.00044055792 0.18144532
-0.43521914 -0.117059305 1.9930781 0.25665015 -1.8286129 0.68123925 -0.07716312 -0.19899224

l1.bias f4 [400]
00000000: 4aff 9cbf 6e02 1bbe 58fc e5bf 267c 1d3f
00000010: cbc3 16c0 e899 98be d85b 37bf 63f2 febe
00000020: e6ac 4bbf 68b2 d8be 88b5 a7bf 3ee5 bdbf
00000030: 547d 05c0 220d 97bf 99b6 ecbf 599f 27c0
00000040: fcae 1bc0 4515 503d 54e0 53bf 9606 8ebf
00000050: d56c 49be e51d 403f cb41 89bf 7d89 e6bf
00000060: 173c e7be a4df 8a3d 1150 20c0 7d27 1ac0
00000070: 5e2d debe e9cc 183e 76de c1bf d836 eebf
00000080: 7c2b d4bf 702b 043f 6872 8cbe df44 fabe
00000090: 7527 8cbf e0c9 efbf d5bc 9a3e 4588 e1bf
000000a0: 6792 27c0 e97e 82bf 57d4 0ec0 299f 83bf
000000b0: 856f 48bf 1718 af3e ada7 f6bf d833 82bf
000000c0: 4de2 9cbe 6ac5 fbbf b5cc d5bf 7335 cfbf
000000d0: 7b6b 62bf dad1 15bf d225 a3bd 126d 81bf
000000e0: 0915 fcbe 8865 c1bf 0069 d9bf 2055 25bf
000000f0: 3e95 d8be da73 1abf 8c01 a1bf cf60 18c0
00000100: 3d7e 41bf 5699 b1bf 7f8c 04bf cb84 a63f
00000110: 7c18 c0bf 6050 edbe 6198 aa3e 2634 6fbf
00000120: 446d eebf eb6c eabe 0ed7 743e 4fbb f5be
00000130: 1391 35c0 e5af 7bbe 1174 e1bf 5cc8 b3be
00000140: dc54 08c0 b291 8dbf b107 43bc 0810 4e3e
00000150: 5bb2 dcbe c0cc babf 0ef6 87bf b8ca 2fbf
00000160: 8185 39bf 02cf 96bf 5fb9 ecbf f3cd b9bf
00000170: e8d2 de3d cb13 c83f 5fde d4bf 109e a6bf
00000180: 3128 a5bf 6fae aebe 7b8b a8be 9cfb c33c
00000190: 3750 49bf 2b6d 07c0 5cff a5bf 4e4b 23bf
000001a0: cc35 1ec0 9326 a8bf ca06 343d 9841 d1bf
000001b0: 82e8 acbf b304 ca3e 6f93 dcbf d179 a4be
000001c0: 685e 44bf 9aec e4bf f985 18c0 e9c3 abbf
000001d0: 733d 07c0 af1d 49bf f549 323f 64c2 6fbf
000001e0: 762e b3bf fd07 0fc0 2521 c1bf aabf 58bf
000001f0: dfd4 16bf b667 09c0 f9ab 483f 774c 343f
00000200: 4ec6 04c0 e254 f9bf 7e0d 10bf 53b2 a8bf
00000210: aabe fbbf 436c 53bf 33aa 0abd 11a0 9cbc
00000220: 1700 d8bf 023f 40bf 38ff aebf bfc2 ffbf
00000230: 45d7 c8be f1f2 09c0 0d4a c43f 819a bcbf
00000240: 5fde 76bf 7902 88bf f95c f7bf cc31 cbbf
00000250: eaab d2bf 31e3 f3be 30f3 edbe e264 b73f
00000260: 66a0 8abf a32c 7dbf f91b b5bf 72c2 f0bf
00000270: aa04 9dbf 3969 a4bf 07bd 2fbf faaa 11c0
00000280: 5ea8 b2bf e20e c8bf 42aa 843f bfdf e13e
00000290: 0c1f 10c0 b76a a8bf a390 213f 632b 473f
000002a0: 546b e9bf 9187 e4be e844 67bf 2b8c 053f
000002b0: cd6b c5bd 22a6 1bc0 92a0 a4bf d308 1bc0
000002c0: c2e1 f9be f040 b4bf dccb e1bf 45aa 0abe
000002d0: 4ba6 dbbe dfbc 9abf 9beb 64bf 4181 cdbf
000002e0: 0559 8fbf 0892 b6bf f293 77bf 042a 14bf
000002f0: d2f7 8abf 69cd a7bd 095e ccbe b195 53bf
00000300: 50cc b9be 275e 8a3f 94ee f9bf c909 ef3f
00000310: 0c7b d9bf c6fa 433f b59f 77bf b1c5 d4bf
00000320: 66f5 12c0 2f2b 05bf 533a 35c0 1399 25bf
00000330: 4f85 e7bf 7481 03c0 fb1a 65bf 1c2e 67bf
00000340: bf62 28bd 5fb0 00c0 4200 6abf 9ad7 e2bf
00000350: f200 b6bf b5cd 0bc0 d561 28bf 8f26 e1bf
00000360: 1f12 d3bf a6a4 b7bf aefe cabf 5760 95bf
00000370: 3b96 59bf 6ea6 52bf d22f 84bf 7569 f4bf
00000380: 1c12 d8bf 1b0f 79be 385b a3c0 2e75 debf
00000390: c77c 9abe 2022 9fbe 16c1 ccbe d97d f0bf
000003a0: 16ce 0ac0 748e 52be b9f0 67bf c543 5a3f
000003b0: 3b82 91bf 5df8 d4bf 44a7 dabe 3811 0fc0
000003c0: cf2d 1abf 891a b3bf 0804 3fbf e94d 10bf
000003d0: 0721 7c3c e494 5bbe 3d29 513f 02d5 85bf
000003e0: 8ca9 03bf 6b48 c9bd 8090 21bf 099d 843f
000003f0: 0856 b1be a833 a6bd c733 9ebf 6fb9 cabd
-1.2265408 -0.15137646 -1.7967634 0.6151756 -2.3557003 -0.2980492 -0.7162452 -0.497943
-0.795607 -0.42323613 -1.3102274 -1.4835584 -2.0857744 -1.1800883 -1.8493224 -2.6191008
-2.4325552 0.050801534 -0.8276417 -1.109576 -0.19670422 0.75045615 -1.0723203 -1.8010708
-0.45163032 0.06780937 -2.5048869 -2.4086602 -0.43393987 0.14921917 -1.5146015 -1.8610487
-1.657577 0.5162878 -0.27431035 -0.4888067 -1.0949541 -1.8733482 0.30222192 -1.7619711
-2.6183107 -1.019498 -2.2317102 -1.0282947 -0.78295165 0.34198067 -1.926992 -1.0172071
-0.30641404 -1.9669621 -1.6703097 -1.6188186 -0.8844525 -0.58523333 -0.07966198 -1.0111411
-0.492348 -1.510911 -1.6985168 -0.64583015 -0.42301363 -0.60333025 -1.2578597 -2.3809087
-0.7558325 -1.387492 -0.5177688 1.3009275 -1.5007472 -0.46350384 0.3331938 -0.9343895
-1.8627095 -0.45786223 0.23910162 -0.47994468 -2.8369796 -0.24578817 -1.7613546 -0.351138
-2.1301794 -1.1060088 -0.011903689 0.20123303 -0.43104824 -1.4593735 -1.0621965 -0.686687
-0.72469336 -1.1781924 -1.8494071 -1.4515976 0.10880071 1.563104 -1.6630362 -1.3016987
-1.290289 -0.34117457 -0.32918915 0.023923688 -0.78638023 -2.116038 -1.2968554 -0.6378678
-2.4720335 -1.3136772 0.043951787 -1.6348143 -1.3508456 0.3945671 -1.7232493 -0.3212419
-0.7670655 -1.7884705 -2.383177 -1.3419162 -2.1131256 -0.7856092 0.696441 -0.9365599
-1.3998554 -2.2348626 -1.508824 -0.84667456 -0.58918566 -2.146955 0.7838741 0.70429176
-2.0746036 -1.9479029 -0.5627059 -1.317942 -1.9667561 -0.8258707 -0.03385372 -0.019119294
-1.6875027 -0.7509614 -1.3671637 -1.9981307 -0.39226738 -2.155453 1.5335099 -1.4734651
-0.9643306 -1.0625755 -1.9325248 -1.5874572 -1.6458714 -0.4763427 -0.464746 1.4327662
-1.08302 -0.98896235 -1.4149162 -1.880934 -1.2267048 -1.2844611 -0.6864781 -2.2760606
-1.3957632 -1.5629542 1.0364459 0.44116017 -2.251895 -1.3157567 0.63111323 0.7780058
-1.8235879 -0.4463468 -0.9033952 0.52167004 -0.09639702 -2.432015 -1.2861502 -2.4224136
-0.48805052 -1.4082317 -1.7640338 -0.13541515 -0.4290031 -1.2088889 -0.89422005 -1.605507
-1.1199042 -1.4263315 -0.9671012 -0.5787661 -1.0856879 -0.08193476 -0.39915493 -0.82650286
-0.3628869 1.0809983 -1.9525933 1.8674861 -1.6990676 0.76554525 -0.9672807 -1.6622831
-2.296228 -0.5201902 -2.8316848 -0.646867 -1.8087558 -2.0547762 -0.89494294 -0.9030473
-0.041109797 -2.0107648 -0.91406643 -1.7722046 -1.4219038 -2.1844304 -0.6577428 -1.7589892
-1.6489905 -1.4347122 -1.5858972 -1.1670026 -0.8499486 -0.822852 -1.0327094 -1.9094683
-1.6880527 -0.24322169 -5.104885 -1.737951 -0.30173323 -0.31080723 -0.39991063 -1.8788406
-2.1688285 -0.20562154 -0.9060169 0.8525966 -1.1367868 -1.6638294 -0.4270574 -2.235426
-0.6022615 -1.3992473 -0.74615526 -0.5636888 0.015388734 -0.21443516 0.8170355 -1.045563
-0.51430583 -0.09828266 -0.63111115 1.0360423 -0.3463595 -0.081153214 -1.2359551 -0.0989865

l2.weight f4 [300, 400]
00000000: 80a8 e33d 778f 35bf d2ec 60bf 28b4 95bf
00000010: 2f5a 89bd 7046 ab3d 19a1 35bf dd60 a8be
00000020: 88e6 883d 5b97 5bbf e521 963f 29b8 29bd
00000030: 9eeb 4ebe 83c8 45be ef25 733c c166 013f
00000040: 75de 7ebf 9195 e3bd 3e8b cfbd 4665 e5be
00000050: c5f4 d73c 1560 05bf 8826 eabf 9ce6 b63d
00000060: 8887 03bf e3f7 1ebe 44d2 ad3e d812 f2be
00000070: 092b 75be 290c c8bd 85fa 8a3e 8d86 44bd
00000080: 64fe ddbe 35a4 9ebf 30ee 38bd 9687 0dbd
00000090: ea82 f8bc f841 b6bc e6e9 03bf 6901 e7bc
000000a0: 3920 7a3c ba6c 933c a780 6ebe 8789 013e
000000b0: 507d 943c f2a2 3c3e 932d cf3b 0c0e d73d
000000c0: eb5d 91bc a007 f7bc cfa1 0fbe 0e8d 1b3f
000000d0: 4a2a ab3f b0f0 0f3e 4c2a 173e 64f5 8fbe
000000e0: 3112 4abf 973d f1be b33c 09bf a740 a9be
000000f0: 990c b53f 6c30 fcbe 3c4b 31bf 04b0 c43c
00000100: 4fba 4ebd 889c 65be 8425 97be 4ecd dfbe
00000110: 8ffc 933f 6e2f 99be eb25 a63d b057 66bf
00000120: 87de 85bf d814 f3be 99f1 30bf 0e18 2abc
00000130: 9e20 59bf 965f 92bf d1f5 a33c 0e67 123d
00000140: b664 2dbe ee0f 01bf b8d3 b4be 3c00 09bd
00000150: 695e 9abf 28b4 b1bd 09d3 0cbf e688 d2bd
00000160: 9543 63bd 260d e8be c378 d9be 8ced 7b3d
00000170: bffb 913e 608d cdbe 0ca6 02be 2a7b 123f
00000180: 5b29 923e 5978 e7bc e4e2 05bc 4719 ae3f
00000190: e620 e7bb d3f0 f7be c549 713d 20bf 343c
000001a0: 026f a2bf ea02 04bd 6461 f7bd 5ae5 ac3b
000001b0: 2de5 c63e e031 783e 2c94 903c 7a4b 103d
000001c0: cd3e e63f 848b 0dbf 3b1b fabe cf94 abbe
000001d0: 2012 b2bb 7102 3dbd c501 20bf fb2b 79be
000001e0: db0f b6bd 7bb2 aa3f 8be0 80be d610 c5be
000001f0: d493 133c 7e6d 6cbf 21ee 5abf d975 7e3f
00000200: dfb0 1bbc 3620 6cbe c957 943a 458d ccbd
00000210: 8eb0 d53d ed13 b5bf 6363 e9be c002 2abf
00000220: 1d55 ddbe 4c24 c5be 8890 36bf a40a 54bd
00000230: 35c6 abbe a4c9 d33e 3fa6 72c0 ed85 3e3f
00000240: d55d 62bb 64cd 84bf 3371 173c 9f72 f33e
00000250: 77af 38bd 356c e03d 1757 f03e 859d 83be
00000260: abb8 56bf 9c93 04bf c882 4abd 81f9 9a3e
00000270: 18da 823e 1455 3bbc 9a4d 5bbe 9b84 71bd
00000280: 3a89 133f b7ea 62bd d8dc 6ebf 957a a4bf
00000290: 2a44 1bbf 32de 12bd 1a90 2fbe f2f6 ca3e
000002a0: e60f 09bf ba60 b0be 0769 183f 299f efbd
000002b0: cb86 a1be 8e60 c0bd ce41 57bf 8351 5bbf
000002c0: 2b0e c4bd 192d 0ebe 6f5b 09bd 3f3d e9bd
000002d0: 8256 a53d 34ea 07be c536 35bf 6f7a c0be
000002e0: 5d34 66be 14a0 abbf 7576 933d 30d2 d5be
000002f0: 7d02 8b3e 114f 443f 3fc5 79bd f520 f9bd
00000300: 8062 6cbf 0fe2 e3be 3168 34bc 28c3 19bf
00000310: e99d 1a3f 8756 a8bd 33c8 17bd 49b8 e1be
00000320: fde3 b3bd c455 9c3c 1207 803e 56f7 1ebe
00000330: d6ca cb3d f1b3 d2bd 8834 283f fb1a abbd
00000340: 9005 a53f b6d5 e2be 93ab ccbd e752 9d3d
00000350: 8b90 703f 871f 11bd 606f c6be 48f0 dcbd
00000360: 09f5 0ebc c810 d13c 16dc 2ac0 4111 74be
00000370: 96f5 e3bd 8003 6dbe 1339 f5bf 076b 01be
00000380: 5f22 e3be 145d 1dbf c622 853e dde1 463f
00000390: 1473 323d ebab 14bd d5d1 ebbc e3b5 223d
000003a0: 99db 9d3d efb5 2dbf ee7e bdbe e4d1 283e
000003b0: 1aeb 453e 4be2 f93e d224 533d 17b5 bfbf
000003c0: 594f 23be befa d63b c21d 003d 6290 b7bf
000003d0: 7a72 3f3f 3b07 22bf 4aff 49bf 4e41 d4be
000003e0: 1384 063c d811 55be 3423 043e de63 81bf
000003f0: 1e37 0ec0 9f22 1abf 24d4 22bd ffb9 08bf
0.11116123 -0.70922035 -0.8786136 -1.1695604 -0.06706654 0.08363044 -0.7094894 -0.328864
0.06684595 -0.85777825 1.1729094 -0.041435394 -0.20207068 -0.1931477 0.014840587 0.50547415
-0.9955819 -0.11112512 -0.1013398 -0.44803828 0.026361832 -0.52099735 -1.8293009 0.08930704
-0.5137868 -0.15524249 0.33949482 -0.47280002 -0.23942198 -0.09767944 0.27144256 -0.04797988
-0.43358147 -1.2393862 -0.04514903 -0.034553133 -0.030335862 -0.022248253 -0.51528776 -0.028198915
0.015266472 0.01799618 -0.23291264 0.12650119 0.01812616 0.18421534 0.0063225715 0.10500726
-0.017744979 -0.030155003 -0.14026569 0.6076211 1.3372281 0.14056659 0.14762229 -0.28116906
-0.7893401 -0.47117302 -0.53608245 -0.33057138 1.414447 -0.49255693 -0.69255424 0.024009712
-0.050470646 -0.22422993 -0.2952081 -0.43711323 1.156145 -0.29918998 0.08112701 -0.8997755
-1.0458535 -0.4747684 -0.6911865 -0.010381712 -0.84815395 -1.143542 0.020014675 0.03574281
-0.1693295 -0.5041493 -0.3531778 -0.03344749 -1.2060062 -0.0867694 -0.55009514 -0.102800176
-0.055484373 -0.4532253 -0.42474946 0.06150584 0.2851238 -0.40146923 -0.12758654 0.57219183
0.28547177 -0.028255628 -0.008171771 1.3601464 -0.0070534823 -0.48425922 0.058908243 0.011031896
-1.2690127 -0.03222934 -0.12079123 0.0052763643 0.38846722 0.24237776 0.017648779 0.03522823
1.7987915 -0.5529101 -0.488489 -0.3351197 -0.0054342896 -0.046144906 -0.625027 -0.24333183
-0.08889743 1.3335718 -0.25171313 -0.38489407 0.009007413 -0.9235457 -0.85519606 0.9939857
-0.009502619 -0.23059162 0.0011317666 -0.099878825 0.10434066 -1.4146706 -0.4558364 -0.66410446
-0.43229 -0.38504255 -0.7131429 -0.05176796 -0.33549657 0.41364777 -3.7913969 0.74423105
-0.0034540792 -1.037518 0.009243297 0.47548386 -0.04508921 0.10958139 0.46941444 -0.25706115
-0.8387553 -0.51787734 -0.04944113 0.3026848 0.25557017 -0.011433858 -0.21416321 -0.058964353
0.57631266 -0.055399623 -0.9330573 -1.2849909 -0.60650885 -0.035856433 -0.17144814 0.3964153
-0.53539884 -0.34448797 0.5953526 -0.11700279 -0.3154815 -0.09393416 -0.84084785 -0.8567125
-0.09573015 -0.13884391 -0.033534463 -0.11388635 0.08073141 -0.13272935 -0.70786697 -0.3759341
-0.22480913 -1.3408227 0.07200328 -0.41761923 0.27150336 0.76683146 -0.060979124 -0.12164489
-0.923378 -0.44508407 -0.011011169 -0.6006341 0.603972 -0.08219629 -0.03705616 -0.4408591
-0.0878372 0.019083865 0.25005394 -0.15524039 0.09950797 -0.10288227 0.65705156 -0.083547555
1.2892323 -0.44303674 -0.09993663 0.07681828 0.93970555 -0.035430457 -0.38756847 -0.107880175
-0.008725413 0.025520697 -2.669683 -0.23834707 -0.11130826 -0.23145866 -1.9158043 -0.12638484
-0.4436216 -0.6147015 0.26003093 0.7768839 0.04356678 -0.036296766 -0.02878658 0.039724242
0.077079006 -0.67855734 -0.37010902 0.16486317 0.19327965 0.4880546 0.051548786 -1.4977139
-0.15948237 0.0065606525 0.03127838 -1.4340937 0.7478405 -0.6329228 -0.78905165 -0.41456074
0.0082102 -0.20807588 0.12904054 -1.0108602 -2.222114 -0.6020908 -0.039753094 -0.5340881

l2.bias f4 [300]
00000000: 78fd f8bf 762b 17be 1ea1 05bf 1d37 8ebe
00000010: dabb 243c 8740 5abf cded abbd 0f53 3cbd
00000020: 16f9 68bf 0b67 0b3d 1094 20bf 4067 0fbd
00000030: 5004 ccbd ea74 b3bd 1533 7ebe 5950 f3be
00000040: 46c1 81bd 0ad0 84bd 29de a7bc 2db6 cdbd
00000050: 0907 683e 587c 23bf 54f0 04be e33e e1bf
00000060: ceee aabe 9a75 aebe 4b9d b2bc 9654 4cbf
00000070: 019f e5bf 9700 32bc 779a 77bf 64e1 02be
00000080: 26df c63c f3eb a5bd 3a02 50be 9ed5 a4bf
00000090: c1a7 46be b75f 6cbd 1eee 9dbd ede0 06be
000000a0: bb9f 8ebd 1503 a7bd 4f48 c4bd b1db bebd
000000b0: 9025 0fbe b97e cf3e e619 86be 4d38 d5bd
000000c0: 8ed5 89bd 2fdc f1bd 54b1 30bd 2130 adbe
000000d0: 1136 f3bd c9cf 89bd c4ce 24be 8e23 09bf
000000e0: b351 07bd 23d3 b0bd 0aba 97bd 98eb d4bc
000000f0: f13a a5bf b75b fabe 6405 13bd a9bf 7ebe
00000100: 4c9c 5fbd acef 4cbe 0de7 c6be 36fd 6fbd
00000110: 365e 3bbc c9f3 76be e83a 9bbe 23c9 cfbd
00000120: 13f7 c4bd 3a18 1d3c d7bd ae3d 9c29 06bf
00000130: a0cd 15be 5775 b5bd 74d9 b0bd c098 82bf
00000140: ad05 a1be 592d 69bd 2e68 41bd a485 4abe
00000150: b9d3 06bd ae92 d0be c117 6bbe dd53 f0bc
00000160: 13ba cebd 6a2d 2fbc fe20 03be cd29 f5be
00000170: 8422 5ebd fb4b 8bbc 8d85 8ebe ada8 25be
00000180: 4adf 22be b218 8ebb b828 38bd 7e61 56bf
00000190: 0626 31bf 4beb 05be af11 6abe 47b3 30bf
000001a0: 0bae bcbd f4d7 7abd f00a 00be ffa5 2fbf
000001b0: 09bc a7bd d9dd a43d 1c47 2fbf 1fa7 c8be
000001c0: 4985 cbbd 2c97 babd 7752 d7bd b9ad 88bd
000001d0: 6186 87be 9008 f0bd 7393 28bc 8793 1f3f
000001e0: 87fb a4bd 7aff a3be 4dd4 43bd 69cc 3dbf
000001f0: fb8c a5bd 1d5c 86bd 6d77 f4bd d0e6 dfbe
00000200: d467 cbbd 95fb 52be 2d2e febb fa9c f6bd
00000210: c8bf 89bd 5182 b1ba 9546 0abd 319c a1be
00000220: a9c3 00bf 6c4c 50bf 5d97 c43e eb1c a7bd
00000230: 3c0d eabd d69b 6e3e 35dc bbbe e8e7 903e
00000240: b41d 51bf f078 fb3d 81ef 903d e446 36bd
00000250: 65a5 0bbe e174 7abd 0555 9cbe dc63 e2bd
00000260: a5a3 adbf aa14 84be 88ce 4cbd cb4c 63bd
00000270: 4301 55bf ba99 37bf a20a 58bf e103 01bd
00000280: f8f7 7cbe 4eeb 80bd 2f2c 973e e04f 59bf
00000290: e3b6 8cbd 442c 19bd 8e3e cd3c 3a2c 45bf
000002a0: a7f9 f6bf 16cc 8abf 2993 6abe c38f 0cbc
000002b0: 0eb5 f5bd 274d 8140 e883 43be 7b44 96bf
000002c0: 2ed6 62bd 3b43 443c c091 edbe 7fff dabd
000002d0: dab7 11bd f6c9 f4bc fdd3 74bf 4d3b f2bc
000002e0: 088c a5bd 583e 083f 0f67 a7bd f8a8 2bbd
000002f0: a0b8 90bd c0b6 47be 4359 56bd 723f 57bf
00000300: da8e aebd 1fca 93bc 69cd 4a3f 0e95 efbe
00000310: 84ee c5bd 4496 24bf cc1a e2bd bc2e 89bd
00000320: 12f0 03bf 53fa 8dbe 57f0 c53e e78f 9dbe
00000330: 27eb 89bd b707 f83b c12a 6bbd 04fd a0bd
00000340: 8cbc 6bbf 2293 38bd 2f4f f8bf 443d 89bd
00000350: 991a 1ebe 7bc6 c1bd 97ee a5be 7e55 82be
00000360: 7b5b 57bf 6efa ccbb de0d 21bf 87ee 483c
00000370: 0342 9e3d a46a 92bd d528 a0bd 31ea 4abd
00000380: 24b1 82be ddbc 9dbf 237f 463c 2d92 f2bd
00000390: 43fd 7cbd c402 fbbe 20e6 a4bd 59b8 6c3c
000003a0: b12d 0fbc ef0a c9bd 7507 debd aca9 46be
000003b0: 6a13 a7bf 3baf c8bd 931d dcbe 77cf 843e
000003c0: 97aa 76be 22c6 cebd 5fe0 37bf 40fe 99bd
000003d0: 1666 53bf 85d7 0dbe 3fc8 12bf b7df 52be
000003e0: 4b90 ae3e 3f27 b9bf 9b44 aabe 5834 18bf
000003f0: 3c2a ddbc 7973 543b 7545 0dbd 03b9 e6be
-1.9452353 -0.14762673 -0.5219897 -0.27776423 0.010054553 -0.8525471 -0.08394966 -0.04597765
-0.91005075 0.034033816 -0.62725925 -0.035010576 -0.0996176 -0.08762534 -0.24824174 -0.47522238
-0.06335692 -0.06484993 -0.020491676 -0.10044513 0.22658934 -0.6386161 -0.12982303 -1.7597317
-0.3338532 -0.34074098 -0.021803519 -0.7981657 -1.7939149 -0.010864398 -0.9672007 -0.12781292
0.024276327 -0.08101644 -0.2031335 -1.2877691 -0.1939993 -0.05770847 -0.07711433 -0.1317174
-0.0696406 -0.08154885 -0.09584104 -0.093192466 -0.13979173 0.4052637 -0.26191634 -0.10411129
-0.067301854 -0.11809575 -0.043137863 -0.33825782 -0.11875547 -0.06729085 -0.160945 -0.5356988
-0.0330369 -0.08634021 -0.07408531 -0.025991246 -1.2908612 -0.48898098 -0.035893813 -0.248778
-0.054592416 -0.20013303 -0.38848153 -0.05859109 -0.011436036 -0.24116434 -0.3031838 -0.10145786
-0.09617438 0.009588296 0.08532303 -0.5240724 -0.14629221 -0.088602714 -0.08635226 -1.0202866
-0.31449643 -0.056928013 -0.047218494 -0.19777542 -0.03291676 -0.40736908 -0.2295828 -0.029336864
-0.100940846 -0.01069198 -0.12805554 -0.47883454 -0.054232135 -0.017004004 -0.27836266 -0.16177626
-0.1590549 -0.00433644 -0.044960707 -0.8374251 -0.69198644 -0.13078038 -0.22858308 -0.69023556
-0.092128836 -0.061241105 -0.12504172 -0.68612665 -0.08190162 0.080501266 -0.6846788 -0.39190003
-0.099375315 -0.09110865 -0.10513776 -0.0667376 -0.2646971 -0.11720383 -0.010289061 0.62334484
-0.080557875 -0.3203085 -0.047809888 -0.7414003 -0.080835305 -0.06560538 -0.11936841 -0.43730783
-0.09931913 -0.20603783 -0.0077569694 -0.1204166 -0.067260325 -0.0013542866 -0.03375872 -0.31564477
-0.50298554 -0.8136661 0.3839673 -0.081598125 -0.114283055 0.23301634 -0.36691442 0.2830193
-0.8168595 0.12278926 0.07076932 -0.0445012 -0.13637312 -0.06114662 -0.30533615 -0.11054203
-1.3565565 -0.25797015 -0.05000165 -0.055493157 -0.8320505 -0.71718943 -0.84391224 -0.03149784
-0.24703968 -0.06294881 0.29525897 -0.84887505 -0.068708204 -0.03739573 0.025054242 -0.7702061
-1.9294938 -1.0843532 -0.229077 -0.008579197 -0.11997424 4.040668 -0.19093287 -1.1739649
-0.05538004 0.01197892 -0.4640026 -0.10693263 -0.035575725 -0.029881459 -0.9563597 -0.029569292
-0.080833495 0.5322013 -0.08173954 -0.041909188 -0.070664644 -0.19503307 -0.05233122 -0.84081185
-0.085233405 -0.018040715 0.7921968 -0.46793407 -0.09664634 -0.6429179 -0.11040267 -0.06698367
-0.51538193 -0.27730045 0.38659927 -0.3077385 -0.06734305 0.007569279 -0.05741382 -0.07860759
-0.92084575 -0.04506219 -1.9399165 -0.067011386 -0.15439834 -0.09461685 -0.32408592 -0.2545585
-0.84123963 -0.0062554395 -0.62911785 0.012263901 0.077274345 -0.07149246 -0.07820288 -0.04953975
-0.25525773 -1.2323261 0.012115273 -0.11844287 -0.061764967 -0.49025548 -0.08051705 0.014448249
-0.008738921 -0.098165385 -0.10841266 -0.19400662 -1.30528 -0.097990476 -0.42991313 0.25939533
-0.24088512 -0.100963846 -0.7182674 -0.075191975 -0.82577646 -0.13851745 -0.573368 -0.20593153
0.34094462 -1.4465102 -0.33255467 -0.5945487 -0.026997678 0.003241746 -0.034490068 -0.45063028

l3.weight f4 [4, 300]
00000000: 5710 a540 3b7c 4ebd d295 df3f 552d 9ebd
00000010: 4847 7abc 1e56 df3e eff9 cb3c 010f 033d
00000020: 48d1 47bd 42dc 403f e298 1b3d f9b8 4abd
00000030: 6e8a 4c3f f328 043c 2031 a13e c5ee 993e
00000040: 17a7 9abb 9200 0a3c e3cf 4bbf cd4f 993e
00000050: abeb 1a3e 6800 c83d e869 5fbe 6737 9c3e
00000060: 9804 29be c3fc 89be d1df fabb 6813 53bf
00000070: 385b 873c be87 a23c b994 b33d 69fd b7bb
00000080: d5a1 9f3f 0dd3 01bd e7b2 1d3e 3549 e23b
00000090: efb7 e0bc f844 8abd cc0b b9ba 6765 13bd
000000a0: e01c b53d 66f3 59bc bf19 803a 5a8c 51bd
000000b0: 2c3f d33d eabc 9abd 50ff b6be 68a6 98bc
000000c0: 6451 32bc 723d 00be ae18 7ebc 4c13 cbbe
000000d0: f43d d13c 731a ba3c f6cf 85bb 7412 153f
000000e0: a35c 0cbd 8b26 333c 45d8 ac3e 5ba0 cd3c
000000f0: afa2 43be c322 d83e a2fc cb3c 2d5f 54bf
00000100: 12e1 713c c874 c23c 2224 8b3c 21fc 0d3d
00000110: f31a adbc 44e6 f1bb 7473 273f be9e 0ebd
00000120: 4719 50bf 9d31 223e 876c 953e 4d4e 8abf
00000130: fcda ae3d 5649 533c 00fd 583b c48f 39c0
00000140: 62ce 1cbf 4cc7 ccbb e9fa 3a3d 59bd 3b3e
00000150: 46ab 763c 0f73 ca3e e391 193d 9408 c23d
00000160: f556 463c a3d8 633d 1933 583d 06d9 db3d
00000170: 1f69 5f3d b37f 843c 6970 443e 4bf4 953e
00000180: b57a d83d ab95 94bc 7489 8fbc 45c7 513e
00000190: e3b2 85be b32f 473e 34b1 d83d dd10 1d3f
000001a0: bfaf 8cbc 9b6b 1bbd 5eae 003d 2ebe ecbe
000001b0: 7f52 c53c 48bc 833c 3fd2 b1be 97a9 11be
000001c0: 4960 1b3d 74f8 cf3b c90b 74bc 4b9b 713c
000001d0: 4c35 e93e 3af3 113d c709 28bc 625d 3540
000001e0: 6790 1d3c 66e5 303e 0abf 38bc 3aa8 6fbd
000001f0: d772 a23c ba3a b4bc 2875 d03c 7c1e 403f
00000200: 18f3 f0bc eb06 fb3d d234 9dbc 588d 203f
00000210: 72d8 42bd c35a 573d 533e 8ebc 38d8 37bd
00000220: 8bcc f1bf a252 5d40 11fc 16bf 703e b1bb
00000230: fadf 093d 47c5 bdbc 0a0c be3e 3ebe d33e
00000240: b794 a63d a43e 73bf 8ead ce3f d911 81bf
00000250: f6c8 ddbd 8c39 a1bb f23d 66bf 048d cebe
00000260: 2764 9abe e394 91be 1721 273a 4a69 813c
00000270: 0bb9 40be 5fa2 c03b dfc7 833e 6c7d c5bb
00000280: 6e6d ff3b 0a60 8f3c c171 aa3f 1a6e 6dbf
00000290: 99e6 493d f653 8a3d 3373 5c3f 4948 5cbd
000002a0: 5b24 033f e906 953a 4b9e 01be cfcb 6f3c
000002b0: 96d2 bb3c 5a9c d5bd ea55 b1bd fd58 0abb
000002c0: 334d f93b a506 88bc 8be6 65be bca4 adbb
000002d0: 5087 bebc 53c2 3bbd bb36 543b d2a9 9f3b
000002e0: 288d 3bbc 9c0a 5140 95e3 39bf dc04 adbb
000002f0: dd41 24bb ffbd 96be 230e 9f3d e3d1 543f
00000300: 29ad 1a3d d6b4 ae3b 1a5f 2840 003c e4ba
00000310: 3c77 66ba 674f a3bf 5429 b8bc cd5c fbbc
00000320: 1e7c 0fbf 3ce1 613d 0370 bdbf dd45 883e
00000330: b417 28bd fc18 16bb 0b10 1cbc 063e 8b3a
00000340: d8d7 d9be f5fc f33b c069 073f d151 bebc
00000350: ee23 b3bb 2046 8fbc d367 48bf a0be 8fbc
00000360: a1cc 99bd 37ec 8639 b42d 7ebf c09f ab3b
00000370: a20e cd3e 6f6a 1fbc b77d a23c 6018 633e
00000380: 6bf5 4d3c 42c3 053e b6d5 c83a 0743 8bbd
00000390: 010c 0e3b 59d0 aa3f 9e69 2a3d 741d 0b3e
000003a0: 6645 18bc 8263 65bd 04c9 4b3d 834a 8e3c
000003b0: 9521 2dbe 1763 c6be e964 3a3b 9ace 50bf
000003c0: e298 68bd 5ffb acbb 9b1e 203f d2db d83c
000003d0: ea51 c7bf 7503 d7be 4ada 89bf 1140 8dbe
000003e0: 3093 8ec0 fb4b a33c d8d3 9cbd 70d9 1d40
000003f0: bc37 e2bb b74d 823b fb8b 47bc 8c2e 82bd
5.1582446 -0.050411444 1.7467597 -0.0772349 -0.015275784 0.4362039 0.024899451 0.03199673
-0.04878357 0.75336087 0.037987597 -0.04949281 0.79898727 0.008066404 0.31482792 0.3006498
-0.0047196257 0.008422988 -0.79614085 0.29943696 0.15128963 0.097657025 -0.21817744 0.3051102
-0.16505659 -0.26950654 -0.0076560755 -0.82451487 0.016522989 0.019840118 0.08768601 -0.0056149256
1.2471262 -0.031695414 0.15400277 0.0069056996 -0.027431456 -0.06751436 -0.0014117896 -0.035985377
0.08843398 -0.01330266 0.0009773298 -0.05115924 0.103147835 -0.07555564 -0.35741663 -0.018634036
-0.010883663 -0.1252344 -0.015508814 -0.3966316 0.025542237 0.02271769 -0.0040836288 0.5823128
-0.034268033 0.010934482 0.3375875 0.025100878 -0.19105028 0.4221402 0.024900738 -0.82957727
0.014763134 0.023737326 0.016985003 0.034664277 -0.021131014 -0.007382186 0.6541054 -0.034819357
-0.8128857 0.15839238 0.29184362 -1.0805146 0.08537862 0.012895903 0.0033109784 -2.8993998
-0.61252415 -0.006249344 0.045649443 0.18333949 0.015055483 0.39540908 0.037492644 0.094742924
0.012105693 0.055626523 0.052783106 0.10734753 0.05454361 0.016174173 0.19183506 0.29287943
0.105702795 -0.018137773 -0.017521597 0.20486172 -0.26113042 0.1945179 0.10580674 0.61353856
-0.017173646 -0.037944417 0.03141629 -0.46238846 0.024087189 0.01608099 -0.34730718 -0.1422485
0.03793362 0.0063467566 -0.014895388 0.014746497 0.45548475 0.03563235 -0.010256237 2.8338246
0.009616948 0.17275009 -0.011276016 -0.058510043 0.01983015 -0.02200066 0.02544649 0.75046515
-0.029412791 0.12257179 -0.019190226 0.62715673 -0.0475697 0.05257679 -0.017363703 -0.044883937
-1.8890547 3.4581685 -0.5897837 -0.0054090545 0.033660866 -0.023165358 0.3711856 0.4135608
0.08133834 -0.95017457 1.6146715 -1.0083572 -0.10829346 -0.00492019 -0.8993827 -0.4034196
-0.30154535 -0.28433904 0.0006375475 0.015797276 -0.18820588 0.005878731 0.25738427 -0.0060269143
0.0077950275 0.01750185 1.3315965 -0.92746127 0.04929218 0.067542955 0.8611328 -0.053779874
0.5122735 0.0011369857 -0.1265804 0.014635994 0.022927564 -0.10430212 -0.08658965 -0.002111017
0.00760808 -0.01660473 -0.22451226 -0.005299179 -0.023257881 -0.04583962 0.0032381255 0.004872539
-0.0114472285 3.2662725 -0.7261289 -0.0052801203 -0.0025063672 -0.2944183 0.07766368 0.8313276
0.037762795 0.005331616 2.6308045 -0.0017412901 -0.0008791571 -1.2758607 -0.022480644 -0.0306839
-0.5604876 0.05514644 -1.4799808 0.266158 -0.04103823 -0.0022903075 -0.009525309 0.0010623343
-0.42547488 0.0074459263 0.52895737 -0.023232372 -0.0054669296 -0.017489493 -0.78283423 -0.017546952
-0.07509733 0.00025734465 -0.9928849 0.0052375495 0.40050226 -0.009729966 0.019835336 0.22177267
0.012570719 0.13062766 0.001532248 -0.06799894 0.0021674635 1.3344833 0.04160463 0.13585454
-0.00929389 -0.0560031 0.04975225 0.017369514 -0.16907342 -0.38747475 0.0028441495 -0.8156525
-0.056786425 -0.005278989 0.625467 0.026472006 -1.5571873 -0.41994825 -1.0769742 -0.2758794
-4.455467 0.019933691 -0.076575935 2.4663963 -0.0069036167 0.0039765495 -0.01217937 -0.06356534

l3.bias f4 [4]
00000000: 06fc bc3e 85ef e23e ec89 8bbf 4a87 fabe
0.3691103 0.44323364 -1.0901465 -0.48931342
