TD3_control/dir_Walker2D_002/biped-v8-2d-1_actor.pth (torch, 527895 bytes, 6 tensors)

l1.weight f4 [400, 24]
1.219375 -1.5407232 0.27357438 0.9786176 3.4377818 -1.497442 -0.054120857 0.027617885
-1.2229416 -1.0263674 3.4931483 0.8461127 -1.1624068 -0.14588164 -0.22817625 0.5497457
1.8551499 0.21087818 -1.2118436 -0.15800151 0.2647242 -0.39070812 -1.9672467 -1.0994942
-1.0523431 0.36333087 -0.036183536 -3.5425966 0.19524139 2.2794802 -0.18727888 0.01475678
2.2010808 0.1904675 -1.8334831 0.057200264 -0.20850408 0.18224335 0.032131914 0.00039121293
1.1862618 -0.24498434 2.6489558 -0.07653779 4.2984734 0.02446425 -0.22813214 0.10930284
0.8651051 -0.9995515 -0.6962702 1.1783739 0.44238386 2.148673 -0.08994957 0.091357015
-2.046481 -0.5430513 0.85506094 0.052118313 -0.63508874 -0.038082253 -1.2958415 -0.0028983601
-1.0016236 0.055402014 -1.611202 0.113063656 0.5986282 0.05460788 -0.57330126 -0.57678896
-0.26912728 -1.3596448 0.41061956 -2.5479374 0.6875727 -0.4100649 -0.026069399 -0.080645196
0.07221884 -0.8912664 1.1375974 0.1430752 -1.609381 0.18112229 4.1148615 0.20548654
-2.5776868 0.4203138 -0.9199182 0.6926404 2.8228564 -0.5478901 0.00981098 0.042633157
1.6839876 -0.28243747 0.92923284 -2.2048097 -1.7243819 2.923173 0.18045014 -0.05354218
-0.19586197 -2.1982987 4.157805 0.118239686 -1.7787277 -0.031235632 -1.3034295 0.24609426
1.2397944 0.4281264 -1.2818909 -0.09357556 0.48549008 0.21300344 -1.6003431 -0.4169895
-0.3685209 -0.28724664 -0.806589 -1.1188022 1.1639689 1.8699744 -0.17088582 -0.11013019
-2.8283818 -3.8718436 0.6909417 0.09891278 -0.26973116 0.21707217 0.9161372 -0.22449131
-3.159454 0.008138146 -1.7486553 0.05817141 4.205887 0.16124249 -1.348205 -1.3330545
1.2983185 -1.6154445 -0.26298326 -0.55684936 -0.06743373 1.4146998 0.107461385 -0.1915078
-1.6803486 -0.5529055 2.1149464 0.46685493 -0.9264926 0.35801843 1.0507096 0.14070287
-2.257752 0.1964714 -0.7443198 0.14081801 0.969461 0.010164547 -0.5522285 -1.5107038
0.66192037 0.42631638 -0.2025044 -3.9286537 -1.9926083 0.33621126 0.005227224 -0.16048765
-2.099983 0.86357254 -1.2400262 -0.26257488 0.619909 0.42918783 4.043575 -0.052342057
-1.4366779 0.10335199 -1.1851441 0.56588656 0.2621494 -0.4140061 -0.5325815 -1.3426713
0.52621156 -0.21343392 -0.22170106 -2.394666 0.83847535 6.826643 0.17763677 -0.07923974
-1.2422525 -1.7647096 -0.2801305 0.7991805 -0.43256953 0.23879245 -1.1540446 -0.058636136
0.79040545 0.36250183 -1.891297 -0.013657515 3.415956 -0.037115984 -2.3187892 -0.66884726
3.6494634 -0.27135596 -0.022717658 -3.6728973 -2.8206666 3.13967 0.048465434 0.11898473
-2.583919 0.563016 -1.7073429 -0.04886559 -2.831553 -0.009401291 0.40351793 0.13311581
1.0518601 -0.99156785 -1.7527854 0.9192497 0.3052456 0.474284 -0.3793601 -1.3857945
-0.88669676 -1.8861283 0.7721083 -0.85091627 5.3688817 1.6853117 -0.088947564 0.11788274
-1.5267581 -0.22074993 -1.2655814 0.13876036 -1.1926852 -0.35296333 -0.5921858 0.25387093
00000000: 7b14 9c3f 6b36 c5bf f111 8c3e af86 7a3f
00000010: 9e04 5c40 2eac bfbf d5ad 5dbd e73e e23c
00000020: 5a89 9cbf 0260 83bf be8f 5f40 d89a 583f
00000030: bfc9 94bf ff61 15be 09a7 69be 22bc 0c3f
00000040: 8d75 ed3f 73f0 573e b11d 9bbf 26cb 21be
00000050: ee89 873e e50a c8be bdce fbbf 3abc 8cbf
00000060: 2eb3 86bf 8106 ba3e 3035 14bd e7b9 62c0
00000070: 5ced 473e 01e3 1140 09c6 3fbe 6cc6 713c
00000080: 82de 0c40 ea09 433e 93af eabf d34a 6a3d
00000090: 1882 55be 009e 3a3e c19c 033d b61b cd39
000000a0: 6dd7 973f 2ddd 7abe 7e88 2940 d8bf 9cbd
000000b0: 188d 8940 4069 c83c 799b 69be 2bda df3d
000000c0: 8777 5d3f 9be2 7fbf c43e 32bf f5d4 963f
000000d0: 2380 e23e dc83 0940 7b37 b8bd 6319 bb3d
000000e0: 8bf9 02c0 6905 0bbf 46e5 5a3f 037a 553d
000000f0: 2d95 22bf 23fc 1bbd 22de a5bf 6af2 3dbb
00000100: 3435 80bf 39ed 623d de3b cebf eb8d e73d
00000110: b33f 193f 83ac 5f3d dfc3 12bf 71a8 13bf
00000120: 0dcb 89be d708 aebf ba3c d23e 6811 23c0
00000130: c404 303f 07f4 d1be 7e8f d5bc 4f29 a5bd
00000140: 79e7 933d 092a 64bf cb9c 913f 4e82 123e
00000150: 3200 cebf 1f78 393e f2ac 8340 106b 523e
00000160: d2f8 24c0 5f33 d73e c27f 6bbf e250 313f
00000170: aea9 3440 8742 0cbf 3cbe 203c 1ba0 2e3d
00000180: e88c d73f a59b 90be 34e2 6d3f 9a1b 0dc0
00000190: 8cb8 dcbf 4415 3b40 ecc7 383e 0c4f 5bbd
000001a0: 0a90 48be edb0 0cc0 bd0c 8540 a627 f23d
000001b0: 59ad e3bf dee1 ffbc c7d6 a6bf 2200 7c3e
000001c0: 95b1 9e3f 6233 db3e 0015 a4bf 8ba4 bfbd
000001d0: 2892 f83e 931d 5a3e 0bd8 ccbf a67f d5be
000001e0: c5ae bcbe fe11 93be 9e7c 4ebf e934 8fbf
000001f0: effc 943f 525b ef3f b1fc 2ebe f08b e1bd
00000200: 3504 35c0 49cc 77c0 8ee1 303f c992 ca3d
00000210: 341a 8abe 2b48 5e3e f887 6a3f 0de1 65be
00000220: 7f34 4ac0 dc55 053c f0d3 dfbf 2545 6e3d
00000230: a096 8640 c01c 253e fb91 acbf 88a1 aabf
00000240: 4d2f a63f e3c6 cebf bea5 86be ae8d 0ebf
00000250: b21a 8abd e214 b53f b714 dc3d 9f1a 44be
00000260: aa15 d7bf 378b 0dbf 485b 0740 9c07 ef3e
00000270: 9e2e 6dbf 314e b73e a77d 863f 6a14 103e
00000280: 027f 10c0 cc2f 493e be8b 3ebf 9932 103e
00000290: 992e 783f 3389 263c d95e 0dbf be5e c1bf
000002a0: 9d73 293f 2446 da3e 505d 4fbe 106f 7bc0
000002b0: ca0d ffbf e223 ac3e 2249 ab3b e056 24be
000002c0: 1f66 06c0 1713 5d3f 2eb9 9ebf 3770 86be
000002d0: 5bb2 1e3f 82be db3e f764 8140 a064 56bd
000002e0: 10e5 b7bf 35aa d33d cdb2 97bf f1dd 103f
000002f0: 7238 863e 9cf8 d3be 4357 08bf a7dc abbf
00000300: cdb5 063f 6c8e 5abe 9a05 63be 3542 19c0
00000310: 52a6 563f dc73 da40 6ae6 353e 7248 a2bd
00000320: 2102 9fbf 01e2 e1bf 446d 8fbe 1897 4c3f
00000330: c179 ddbe 0286 743e bcb7 93bf 722c 70bd
00000340: 0358 4a3f d799 b93e 0516 f2bf c5c3 5fbc
00000350: 069f 5a40 ee06 18bd 0b67 14c0 9339 2bbf
00000360: cf90 6940 2bef 8abe 621a babc c010 6bc0
00000370: cd85 34c0 5af0 4840 b183 463d 44ae f33d
00000380: ee5e 25c0 d121 103f 368a dabf 4927 48bd
00000390: 2a38 35c0 df07 1abc e799 ce3e 834f 083e
000003a0: 5aa3 863f 64d7 7dbf 465b e0bf f353 6b3f
000003b0: 2749 9c3e 5ad5 f23e 7d3b c2be b761 b1bf
000003c0: 8ffe 62bf a76c f1bf e4a8 453f a6d5 59bf
000003d0: e1cd ab40 4bb8 d73f 242a b6bd 826c f13d
000003e0: cf6c c3bf 450c 62be 92fe a1bf 3217 0e3e
000003f0: e9a9 98bf 9cb7 b4be 7d99 17bf 5ffb 813e

l1.bias f4 [400]
-1.0665995 -0.85726225 -1.0794555 -1.3804585 -1.2550564 -0.7885048 -1.2892761 -1.5043583
-1.2705479 -1.1969527 -1.3794777 -0.7486297 2.1329825 -0.40254843 -0.78717965 -1.3321064
-0.30171534 -0.21297677 -0.56596786 -0.6023885 -3.2645392 -0.7743469 -0.7212907 -1.5419719
-2.1914418 -1.2931648 -1.4265617 -0.50977623 -1.0867056 -0.43242815 -2.7354329 -1.5671432
-0.28579488 -0.4228422 -1.2227871 -0.9446872 -1.1565413 0.40223032 -1.6291009 -1.0869546
-1.9629836 -0.26009524 -1.0569425 -1.4394546 -1.1898507 -1.5164922 -2.1888454 -1.2370567
-2.213471 -0.784167 -1.3876143 -1.4722724 -1.406941 -1.1979523 0.5244467 -1.0151874
-1.6758844 -1.5105636 -2.3579242 4.413213 -2.410092 -1.6722041 -1.3992374 -0.93817216
-2.1842544 -1.8761425 -1.635759 -1.3034426 2.1999478 -0.95055336 -1.6592691 -1.4368279
-0.66242445 -1.2187889 -2.0680242 1.0149672 -1.4243103 -1.2155974 -0.2850194 0.007939211
0.20640697 -1.7411978 -1.4618448 -0.9922813 -0.86761266 -1.6615071 1.3550974 -1.1285961
1.345911 -1.4895693 -1.990479 -0.6832088 -0.61459583 -2.1319757 -1.6635163 -2.1108153
-1.4719422 -0.34894207 -0.48781973 -0.4935555 -1.8493985 1.969335 -1.6004779 -1.1834555
-1.605536 0.1770392 0.45658985 -0.34804493 -0.9453135 -1.1307905 0.08656637 -1.6344912
-1.6633515 -1.0674962 0.3272991 -2.0043442 -0.5352376 0.17947441 -0.03541582 -1.0987704
-0.9693442 -2.243911 -1.1217266 -1.061612 -1.0305259 -1.315459 -2.4511409 -1.0482574
-0.9428263 -2.3833778 -0.26469758 -1.2563972 -0.6501252 -1.5855457 -1.4950242 -1.324381
-0.9499683 -1.0025893 -1.5583922 -1.823732 -0.9279539 -1.9941568 -2.4337025 -1.4271754
-1.4639274 -1.8832178 -1.0174373 -2.0818918 -1.7441745 -0.47898263 -0.85319644 -1.3013654
-1.5255275 -0.41000062 -0.8387691 -2.225776 -0.037442856 -1.3350366 -0.38105893 0.32191184
-0.75671935 -0.66968 0.31658337 1.1970423 -1.2675204 -0.53189385 -0.9729961 -1.8138107
-1.1543627 -1.4800739 -0.73463917 -0.2616409 -0.8271912 -0.20906757 -1.6771394 -0.86266977
-1.8216536 -1.173707 -1.0683919 -2.52861 0.35146567 -1.4798019 -0.569398 1.4500548
-2.440999 0.220062 -0.658373 -1.2964656 -2.4642057 -0.9108028 0.022951467 1.0640686
-1.5563762 -1.2623281 -1.3033288 -1.4683495 -1.2188936 -0.30766824 -1.7116996 -2.315766
-0.6597361 -1.9790794 -0.26701358 -0.1219871 -0.71152216 -0.69293845 -1.2304101 -0.6311002
-0.92463094 -1.4629719 -0.046886265 -1.0302331 -1.5384784 -1.3050613 -2.159594 -1.1826134
-1.3134079 0.109249115 -2.3633447 -0.8635578 -0.85435086 -1.5052007 -1.655504 -0.48505026
-1.2263311 -0.063651726 -0.85408634 -1.4262649 -2.054584 -0.5567325 -1.8900847 -2.2539735
-1.1551498 -1.1994758 1.4393636 -2.075638 -0.34791958 -1.378215 -1.3138999 2.4201808
0.63030726 -0.9892349 -0.6622838 0.36895826 0.41105625 -1.5652844 -1.2331444 -1.1265231
-0.9047105 -0.36249846 0.6538173 -1.4760072 -0.7833408 -1.6372223 -0.8514188 -1.1217076
00000000: 5586 88bf 8a75 5bbf 992b 8abf ddb2 b0bf
00000010: b0a5 a0bf 73db 49bf 0007 a5bf d08e c0bf
00000020: 50a1 a2bf bf35 99bf ba92 b0bf 32a6 3fbf
00000030: c982 0840 d41a cebe 9b84 49bf 7682 aabf
00000040: 6f7a 9abe 9516 5abe 45e3 10bf 2236 1abf
00000050: 36ee 50c0 993b 46bf 82a6 38bf 565f c5bf
00000060: 9540 0cc0 6d86 a5bf 9399 b6bf b280 02bf
00000070: 2b19 8bbf 3967 ddbe 5511 2fc0 2698 c8bf
00000080: b553 92be c67e d8be 4a84 9cbf 05d7 71bf
00000090: 8c09 94bf 22f1 cd3e 6186 d0bf 5421 8bbf
000000a0: 0c43 fbbf 342b 85be e449 87bf 0c40 b8bf
000000b0: 074d 98bf 6b1c c2bf 0b16 0cc0 e057 9ebf
000000c0: 82a9 0dc0 2bbf 48bf 589d b1bf 6c73 bcbf
000000d0: a516 b4bf 8056 99bf 2442 063f a9f1 81bf
000000e0: 6183 d6bf 265a c1bf 3be8 16c0 0a39 8d40
000000f0: f33e 1ac0 c90a d6bf 361a b3bf 0d2c 70bf
00000100: d3ca 0bc0 7025 f0bf 8d60 d1bf 35d7 a6bf
00000110: f2cb 0c40 7757 73bf ee62 d4bf fae9 b7bf
00000120: a694 29bf 4601 9cbf 825a 04c0 72ea 813f
00000130: cd4f b6bf b298 9bbf 10ee 91be 7713 023c
00000140: 595c 533e 92df debf bb1d bbbf 2606 7ebf
00000150: dd1b 5ebf 44ac d4bf d573 ad3f d675 90bf
00000160: d046 ac3f 35aa bebf 04c8 febf c6e6 2ebf
00000170: 2756 1dbf 4a72 08c0 1aee d4bf 9917 07c0
00000180: 9a68 bcbf 89a8 b2be 82c3 f9be 4eb3 fcbe
00000190: 17b9 ecbf 2b13 fc3f 76dc ccbf 787b 97bf
000001a0: 3482 cdbf c449 353e 25c6 e93e f232 b2be
000001b0: 1100 72bf bebd 90bf b649 b13d 0237 d1bf
000001c0: b4e8 d4bf b7a3 88bf bf93 a73e 2d47 00c0
000001d0: 5505 09bf 24c8 373e 2e10 11bd 82a4 8cbf
000001e0: f126 78bf 3d9c 0fc0 bd94 8fbf e7e2 87bf
000001f0: 46e8 83bf f660 a8bf 7edf 1cc0 4c2d 86bf
00000200: 105d 71bf 4389 18c0 7186 87be a0d1 a0bf
00000210: 9b6e 26bf 29f3 cabf f45c bfbf 5185 a9bf
00000220: 1f31 73bf d954 80bf 6579 c7bf 0d70 e9bf
00000230: 638e 6dbf 8840 ffbf c8c1 1bc0 afad b6bf
00000240: f961 bbbf 480d f1bf 633b 82bf b73d 05c0
00000250: 1c41 dfbf 363d f5be 156b 5abf 2493 a6bf
00000260: 7c44 c3bf 9aeb d1be 92b9 56bf 1d73 0ec0
00000270: ae5d 19bd 7be2 aabf 281a c3be a1d1 a43e
00000280: 5cb8 41bf 2670 2bbf 3717 a23e af38 993f
00000290: 1c3e a2bf 322a 08bf 4616 79bf f32a e8bf
000002a0: 28c2 93bf 1073 bdbf 5011 3cbf ccf5 85be
000002b0: cdc2 53bf cf15 56be 81ac d6bf edd7 5cbf
000002c0: f22b e9bf 083c 96bf 11c1 88bf bfd4 21c0
000002d0: 4ff3 b33e 266a bdbf 11c4 11bf 659b b93f
000002e0: 5439 1cc0 ef57 613e 228b 28bf 96f2 a5bf
000002f0: 8cb5 1dc0 5f2a 69bf b704 bc3c 6633 883f
00000300: 5637 c7bf f893 a1bf 7ad3 a6bf e0f2 bbbf
00000310: b504 9cbf b186 9dbe f918 dbbf 8335 14c0
00000320: 77e4 28bf 7952 fdbf 01b6 88be 5fd4 f9bd
00000330: 5126 36bf 6a64 31bf 147e 9dbf c88f 21bf
00000340: 9db4 6cbf aa42 bbbf d00b 40bd aede 83bf
00000350: dcec c4bf 400c a7bf ca36 0ac0 e05f 97bf
00000360: c01d a8bf 00be df3d 0a41 17c0 2012 5dbf
00000370: bdb6 5abf 6baa c0bf 8ee7 d3bf 8258 f8be
00000380: 6bf8 9cbf d65b 82bd 67a5 5abf d98f b6bf
00000390: 4e7e 03c0 0586 0ebf 4cee f1bf 1a41 10c0
000003a0: f3db 93bf 6c88 99bf 113d b83f 41d7 04c0
000003b0: 8422 b2be 5969 b0bf df2d a8bf 3ee4 1a40
000003c0: d15b 213f 803e 7dbf 6e8b 29bf 19e8 bc3e
000003d0: f775 d23e 3d5b c8bf add7 9dbf e931 90bf
000003e0: 1b9b 67bf 6699 b9be 9260 273f ceed bcbf
000003f0: 0689 48bf 8090 d1bf 95f6 59bf 1d94 8fbf

l2.weight f4 [300, 400]
-0.06394045 -1.1359549 0.09364249 0.43111467 -1.0446198 -0.23029092 0.86000836 -0.01939027
0.36366332 0.21145272 -1.0385597 -0.49277174 -0.5163885 -0.5971027 -0.31581452 0.72654605
-0.48989904 0.15318483 0.052928854 0.053299297 0.008164249 -0.7120684 -0.70111537 0.10220698
-1.1771467 -0.14554745 -0.010094862 0.12475296 -0.1496005 -0.771742 -0.9033489 -1.4345785
0.19032307 -0.72677433 -0.6531916 -0.7410351 -0.6727211 -0.48506558 -1.1538666 0.13295451
0.8913816 0.4689429 0.13858533 -0.18031691 -0.35339606 0.32126313 -0.71315694 -0.2781823
0.7262093 0.99554193 -0.17386489 -0.17912161 0.5405248 -1.4479572 -0.19230811 0.13189267
-0.17594507 -0.47015008 -0.69111544 0.097279 -0.1077612 -0.5026643 -0.1816409 0.37767503
0.11336068 0.5451692 -0.59423625 -0.24925926 -0.15226856 -1.2276261 0.06540777 -0.85494244
0.13069132 -0.9775595 -0.40005156 0.2943681 -0.43999562 -1.7541002 -0.3620922 -0.33659765
-0.5796085 0.27444702 -1.1439182 -1.3528322 -0.2548899 -0.09739009 -0.58980185 -0.032934383
-0.042001765 -0.9621181 -0.43743575 -0.1863312 -0.54590935 -0.5756411 0.069575965 0.027420899
0.43252504 -1.3354646 0.6966308 -0.4084164 -0.67346543 -0.19244811 -0.8792884 -0.3388083
-0.27304867 0.18208171 -0.52599955 -1.1501223 0.13484284 -0.4882039 0.16148604 -0.24715245
0.6149041 -0.75031453 -1.7860528 -0.045620162 0.03565495 0.18261349 0.7932806 -0.8404766
-1.0693538 -0.57958186 0.13222784 0.5266805 -0.21331868 -1.1822052 0.31515595 0.045818154
-0.6980454 -1.682302 -0.55869544 0.6367916 0.019544192 -1.0409538 0.33862317 0.1802708
-0.25279403 -0.2889972 0.38852575 0.5743183 -0.3515312 -0.22359072 -0.39430866 -0.022180906
0.027584733 -0.10854692 0.2034203 0.42401537 -0.049092412 -0.07123304 0.033786256 0.56961614
-0.13813622 0.472723 0.08815935 -0.7715537 -0.16344929 0.09619716 -0.098917685 0.33536223
-0.2557469 -0.4559701 -0.094188586 -0.14673439 -0.19490618 -1.0976176 -0.40638733 -0.25295508
-0.78422457 0.86729085 0.07193171 0.42852363 -0.30440134 0.41081077 0.2114125 0.3064178
-0.41417015 -0.18979363 -0.16909513 -0.26008078 -0.08788121 0.77049863 -0.87063885 0.3730224
-0.35837325 -0.17207268 0.27306545 1.1123343 0.14074984 0.03215856 0.76359946 -1.0105984
-0.25278947 -0.46204957 -0.28378636 -0.37635237 -0.14236073 -0.9468009 0.17912804 0.6936968
-0.105629764 -1.2247075 -0.043590702 -0.7032447 0.10289438 -0.7903171 0.09897223 -0.36141434
-0.07980861 -0.26085827 0.43138722 1.1705428 0.4968028 0.30518463 0.113906644 -0.28863624
0.36755562 -0.05182385 -0.38608277 0.42416456 0.029820953 0.23881227 0.19675308 -0.685287
-0.07228527 -1.2215084 -1.9698418 0.35604662 1.0449209 0.19349068 -0.22065635 -0.9533921
-0.5049149 0.16286924 -0.23405729 -0.86177737 -0.44585344 0.41521588 -0.2811997 -0.03157648
0.20049702 0.61534137 -0.044693936 -0.18493952 -0.82944864 0.1981981 -0.38775578 0.32483718
-0.5377728 0.24315229 -0.13411747 -0.2523801 0.058148187 0.22789131 0.70211047 -0.4333499
00000000: 36f3 82bd f866 91bf a2c7 bf3d 10bb dc3e
00000010: 1ab6 85bf 62d1 6bbe 8229 5c3f 58d8 9ebc
00000020: 1432 ba3e 1087 583e 86ef 84bf 944c fcbe
00000030: 0932 04bf b9db 18bf 71b2 a1be ecfe 393f
00000040: 0cd4 fabe 7cdc 1c3e edcb 583d 5d50 5a3d
00000050: 58c3 053c 1d4a 36bf 4c7c 33bf e551 d13d
00000060: beac 96bf 640a 15be ec64 25bc 7b7e ff3d
00000070: e030 19be e290 45bf e041 67bf 45a0 b7bf
00000080: 0de4 423e e20d 3abf 9137 27bf 7ab4 3dbf
00000090: 7337 2cbf 845a f8be e7b1 93bf 3a25 083e
000000a0: 9631 643f 4919 f03e 50e9 0d3e ffa4 38be
000000b0: 54f0 b4be 9a7c a43e 7491 36bf e96d 8ebe
000000c0: dae8 393f d6db 7e3f a309 32be a86b 37be
000000d0: d55f 0a3f a956 b9bf 6bec 44be df0e 073e
000000e0: f22a 34be 83b7 f0be f1ec 30bf 363a c73d
000000f0: e7b1 dcbd 9cae 00bf 1200 3abe 9f5e c13e
00000100: a529 e83d 3590 0b3f de1f 18bf d23d 7fbe
00000110: 4aec 1bbe da22 9dbf 82f4 853d 82dd 5abf
00000120: f2d3 053e 5741 7abf 8fd3 ccbe 6ab7 963e
00000130: 1b47 e1be 5b86 e0bf 2664 b9be 8756 acbe
00000140: 3961 14bf 5284 8c3e e96b 92bf 9b29 adbf
00000150: ee80 82be 7574 c7bd 41fd 16bf 34e6 06bd
00000160: 0b0a 2cbd 5f4d 76bf 94f7 dfbe 9bcd 3ebe
00000170: b7c0 0bbf 375d 13bf d87d 8e3d cba1 e03c
00000180: ec73 dd3e 81f0 aabf 6556 323f f41b d1be
00000190: 3b68 2cbf 1e11 45be 0b19 61bf 4878 adbe
000001a0: 09cd 8bbe a173 3a3e e8a7 06bf 3537 93bf
000001b0: 3e14 0a3e ddf5 f9be 995c 253e 8815 7dbe
000001c0: 5b6a 1d3f 9d14 40bf 619d e4bf 35dc 3abd
000001d0: ed0a 123d 08ff 3a3e 7014 4b3f 7929 57bf
000001e0: 96e0 88bf 7a5f 14bf bc66 073e 89d4 063f
000001f0: 3670 5abe 8052 97bf 1f5c a13e d1ab 3b3d
00000200: 1ab3 32bf ac55 d7bf aa06 0fbf c604 233f
00000210: 241b a03c f93d 85bf 0460 ad3e e998 383e
00000220: 386e 81be 71f7 93be d9ec c63e 8606 133f
00000230: e6fb b3be f7f4 64be d3e2 c9be bbb4 b5bc
00000240: 61f9 e13c d94d debd 694d 503e 8b18 d93e
00000250: 2015 49bd a1e2 91bd 7563 0a3d 5dd2 113f
00000260: 9573 0dbe c008 f23e e48c b43d 8b84 45bf
00000270: 405f 27be 0403 c53d 5b95 cabd 99b4 ab3e
00000280: 42f1 82be ea74 e9be f2e5 c0bd 8a41 16be
00000290: 7c95 47be bc7e 8cbf 0012 d0be 5483 81be
000002a0: f1c2 48bf c606 5e3f ef50 933d 7367 db3e
000002b0: 7eda 9bbe ca55 d23e 857c 583e cbe2 9c3e
000002c0: 1c0e d4be 4359 42be 4627 2dbe 4f29 85be
000002d0: 10fb b3bd 663f 453f 30e2 5ebf cbfc be3e
000002e0: b37c b7be d233 30be 3ccf 8b3e f860 8e3f
000002f0: ba20 103e b2b8 033d 417b 433f 4a5b 81bf
00000300: 9f6d 81be c391 ecbe 724c 91be 42b1 c0be
00000310: 03c7 11be 8b61 72bf 576d 373e 1d96 313f
00000320: 6b54 d8bd 37c3 9cbf 2a8c 32bd d807 34bf
00000330: 4aba d23d 3952 4abf f4b1 ca3d 4d0b b9be
00000340: b272 a3bd 378f 85be c9de dc3e 59d4 953f
00000350: f05c fe3e 2941 9c3e e347 e93d 21c8 93be
00000360: 4030 bc3e 3f45 54bd a4ac c5be 192c d93e
00000370: 124b f43c 348b 743e a479 493e f86e 2fbf
00000380: 4d0a 94bd 635a 9cbf c723 fcbf be4b b63e
00000390: f8bf 853f 6c22 463e bdf3 61be 8111 74bf
000003a0: 1a42 01bf 32c7 263e b7ac 6fbe 719d 5cbf
000003b0: e746 e4be 2d97 d43e 68f9 8fbe 5756 01bd
000003c0: 174f 4d3e 0387 1d3f fd10 37bd c960 3dbe
000003d0: bf56 54bf 71f4 4a3e ed87 c6be 0f51 a63e
000003e0: 7aab 09bf eafc 783e 1756 09be f737 81be
000003f0: cb2c 6e3d 575c 693e 83bd 333f 0ae0 ddbe

l2.bias f4 [300]
-1.5849426 -0.14492375 -1.0448939 -0.19753416 -0.4746635 -0.08643512 -0.47955373 0.016762795
-0.12161977 -0.05392026 3.6139817 -0.033514824 -0.039461385 -0.37072125 -0.62602615 -1.0106266
-0.28570384 -0.12037551 -0.085570656 -0.96135396 -0.039989825 1.3932059 0.044021085 -0.29687408
-0.08767231 3.309265 -0.06603749 0.6836093 -0.35373807 0.022385802 -0.25005108 -0.097991556
-0.09303161 -0.8089833 0.08358573 -1.3086821 -1.5074002 -0.597059 -0.8619474 -2.1895523
-0.2840369 -2.6649644 -0.12501444 -1.5495722 0.25261256 -0.09233309 -0.13104974 -0.100559756
-0.13619186 -0.164829 -0.5994786 -0.27125603 0.75465775 -0.1086667 -0.099207826 -0.0043503484
-1.766723 0.28158772 -1.7518836 -0.11248522 -0.096227564 2.2550752 -0.08087628 -0.11787577
-0.09540213 -0.15086295 -0.09531003 -0.11652819 -2.7603586 -0.052363984 -0.55357254 -0.11053967
-0.114592366 -0.35523957 -0.58246326 -0.9039922 -0.14574218 -0.76018316 -1.53165 -0.22653832
-0.12421879 -0.1975202 -1.224129 -2.0459895 -0.872639 -0.08519561 -0.0036512092 -0.46495935
-0.015024765 -0.037232436 -0.109653905 -0.12885053 -0.92052865 -0.09400639 2.3909347 -0.15721677
-0.080065995 -1.6383687 -0.121135436 -0.088250615 -0.11929938 1.9032642 -0.096976034 -0.55234563
2.5281212 -0.06908237 -0.10072497 -0.29231265 -0.056975793 -0.13957486 -0.12337924 -1.1250421
1.1668358 -1.0740377 -0.09994446 -0.16787086 -0.94155234 -0.081928656 -1.2777607 -1.0893819
-1.4465752 -0.02712737 -0.11873828 -0.5313829 -0.7884243 -1.4567891 -0.15990557 -0.055473674
-0.12707925 -1.4101275 -0.096652165 -0.5025389 -0.5831336 -0.04433538 -1.2614399 -3.5992417
-0.08970763 -0.07380406 -0.9846666 -1.1373782 -0.20454037 -1.1898501 0.44547287 -0.083013825
-0.4883256 -1.4707894 -0.9542434 -1.2316592 -1.362309 -0.11604303 -0.6077166 -0.5308899
-0.86668557 -0.03654496 -0.55828357 -0.080921456 0.0015088716 -0.062269576 -0.09382442 -0.053586278
-0.14751907 -1.1819751 -0.6286338 -0.14017475 -2.1404233 -0.06461838 -2.6933417 -0.009240206
-0.07607015 -1.1678958 -0.03775132 -0.12828006 -0.08928141 -0.09473828 -0.12792909 -0.13854985
-0.09844525 -0.50656176 -0.7190126 -0.6863734 -0.43403944 -0.10705899 -0.28415614 -0.15439683
-0.633403 1.2859194 -0.36811352 0.09939796 -0.12321084 -0.09462357 -0.4648188 -0.14952771
-1.0083543 -0.14962792 -0.19386084 -0.07108427 -0.14506884 -1.1087765 0.16815014 -0.11647742
-0.11260634 -0.7610571 -0.15173298 -0.044093154 -0.87183255 -0.095793955 0.07026845 -2.2060924
-0.62291414 -0.0352053 -0.38022348 -0.13412502 -0.3712486 -0.06894344 -0.06326163 -0.37427318
-0.054028682 -0.3711869 -0.12658642 -0.16246277 -0.005565069 -0.11905161 -0.08552579 -0.111877576
-0.10489547 -0.6580012 1.7544729 -0.11058124 -0.48522592 -0.023619857 -0.16985495 -0.08516159
-0.3020304 -0.112815954 -0.37376565 -0.47929907 -1.0293729 -0.110154405 -1.0028702 -0.11626653
-1.5518708 -0.15887655 -0.08538283 -0.112835884 0.99025095 -0.22907196 -0.6426976 -0.072394446
-1.9513506 -0.70145226 0.6017409 -0.1327585 -0.058371127 -0.081808865 -0.600622 -0.045912392
00000000: 66df cabf e466 14be 15bf 85bf 6546 4abe
00000010: 1807 f3be e504 b1bd 1188 f5be 2152 893c
00000020: c913 f9bd 7edb 5cbd 7a4b 6740 d746 09bd
00000030: 43a2 21bd 2dcf bdbe 4043 20bf 365c 81bf
00000040: c647 92be 6f87 f6bd ab3f afbd 4b1b 76bf
00000050: 5fcc 23bd 9254 b23f 744f 343d e1ff 97be
00000060: 8a8d b3bd ffca 5340 aa3e 87bd 0501 2f3f
00000070: 281d b5be 6e62 b73c b206 80be ccaf c8bd
00000080: 5b87 bebd 8819 4fbf ff2e ab3d e582 a7bf
00000090: 7df2 c0bf dcd8 18bf 96a8 5cbf a021 0cc0
000000a0: 496d 91be c78e 2ac0 c903 00be 6258 c6bf
000000b0: 6f56 813e 2219 bdbd e731 06be 46f2 cdbd
000000c0: e175 0bbe efc8 28be 6e77 19bf 12e2 8abe
000000d0: 4031 413f a68c debd 792d cbbd 5e8d 8ebb
000000e0: fb23 e2bf 442c 903e b93d e0bf a75e e6bd
000000f0: f512 c5bd 2753 1040 77a2 a5bd da68 f1bd
00000100: 3162 c3bd d17b 1abe e831 c3bd 55a6 eebd
00000110: b7a9 30c0 9e7b 56bd eeb6 0dbf 9f62 e2bd
00000120: 67af eabd f6e1 b5be 501c 15bf 086c 67bf
00000130: 703d 15be 5d9b 42bf 1b0d c4bf a9f9 67be
00000140: 6c66 febd bc42 4abe 42b0 9cbf 7ef1 02c0
00000150: 4565 5fbf 097b aebd 2049 6fbb 270f eebe
00000160: 6f2a 76bc 0a81 18bd 3a92 e0bd 65f1 03be
00000170: c4a7 6bbf 6c86 c0bd 1305 1940 6ffd 20be
00000180: a4f9 a3bd 11b6 d1bf db15 f8bd bdbc b4bd
00000190: 3c53 f4bd 299e f33f 5f9b c6bd 8666 0dbf
000001a0: bdcc 2140 0f7b 8dbd e548 cebd 01aa 95be
000001b0: 735f 69bd b6ec 0ebe 41ae fcbd 6101 90bf
000001c0: e05a 953f 117a 89bf aeaf ccbd 57e6 2bbe
000001d0: 9309 71bf 36ca a7bd aa8d a3bf de70 8bbf
000001e0: 6029 b9bf 383a debc 0e2d f3bd b608 08bf
000001f0: 2dd6 49bf 1178 babf 49be 23be 5d38 63bd
00000200: 1021 02be 0f7f b4bf 92f1 c5bd 64a6 00bf
00000210: 3e48 15bf 0499 35bd dd76 a1bf fa59 66c0
00000220: a2b8 b7bd 9526 97bd 1c13 7cbf 9c95 91bf
00000230: 0873 51be 024d 98bf 0515 e43e 2703 aabd
00000240: d005 fabe d442 bcbf 4c49 74bf 02a7 9dbf
00000250: 2460 aebf f8a7 edbd 5193 1bbf 67e8 07bf
00000260: 1bdf 5dbf 2bb0 15bd aceb 0ebf 26ba a5bd
00000270: 54c5 c53a 620e 7fbd 0427 c0bd 497d 5bbd
00000280: 3d0f 17be f64a 97bf 25ee 20bf f889 0fbe
00000290: b2fc 08c0 a456 84bd b65f 2cc0 3c64 17bc
000002a0: abca 9bbd 9c7d 95bf 21a1 1abd d95b 03be
000002b0: 2cd9 b6bd 2506 c2bd d8ff 02be 03e0 0dbe
000002c0: aa9d c9bd 08ae 01bf 3611 38bf 2bb6 2fbf
000002d0: 6b3a debe be41 dbbd ea7c 91be 341a 1ebe
000002e0: b326 22bf 0299 a43f 6079 bcbe 2891 cb3d
000002f0: f755 fcbd 01ca c1bd bbfc edbe cb1d 19be
00000300: c111 81bf 1038 19be 7583 46be a194 91bd
00000310: ed8c 14be 63ec 8dbf 8d2f 2c3e b78b eebd
00000320: 279e e6bd a3d4 42bf e45f 1bbe 069b 34bd
00000330: 6b30 5fbf 9f2f c4bd e8e8 8f3d 9e30 0dc0
00000340: 4d77 1fbf 6f33 10bd a7ac c2be 1258 09be
00000350: 4c14 bebe 3832 8dbd 508f 81bd bca0 bfbe
00000360: 2e4d 5dbd 360c bebe df9f 01be a45c 26be
00000370: 2f5b b6bb 55d1 f3bd 2528 afbd 1220 e5bd
00000380: 70d3 d6bd c472 28bf 9192 e03f 6b78 e2bd
00000390: 886f f8be 6e7e c1bc 75ee 2dbe 3369 aebd
000003a0: bba3 9abe 0d0c e7bd 365e bfbe b066 f5be
000003b0: 7ec2 83bf a298 e1bd 0d5e 80bf 251d eebd
000003c0: b4a3 c6bf 89b0 22be 31dd aebd 8016 e7bd
000003d0: 1681 7d3f d791 6abe d487 24bf 8a43 94bd
000003e0: dbc5 f9bf 6092 33bf b10b 1a3f d8f1 07be
000003f0: 9016 6fbd 688b a7bd 5dc2 19bf a20e 3cbd

l3.weight f4 [4, 300]
0.1947228 0.056441966 -0.849501 -0.14298756 0.42318615 0.025348306 -0.6301149 -0.22690567
0.052004665 -0.06360911 -0.30545643 0.020938996 0.08387666 -0.6805559 -2.3605206 -0.788998
-0.22569783 -0.046312466 0.011313913 -0.9741219 0.006927523 -0.07371124 -0.021143034 0.6523958
-0.010083178 -1.9415841 -0.032332428 5.267328 -0.16339862 -5.9599476 0.35105157 0.023255138
0.07242294 -0.028347056 0.086493224 -1.5118935 1.254933 -0.12002706 0.6264346 0.21946572
-0.8139287 0.71613204 0.035906315 0.43208447 0.9565672 -0.04079006 0.04319676 0.032878034
0.05932265 -0.030417735 -0.49222657 0.018514343 0.074127614 0.081276506 -0.033306696 0.27329805
0.65050167 -0.034493037 0.0044496697 -0.0752887 -0.000878852 0.081241965 -0.03342713 -0.022223173
0.04547845 0.013206248 0.0034793497 0.19567418 1.0258173 -0.08076188 -0.19062294 -0.7016209
0.07650741 -0.09778643 -0.15083607 -0.084658556 -0.01869402 0.100967295 -5.094017 0.14531343
0.042679876 -0.005404485 -1.2634648 -0.41067755 0.010393954 -0.06754765 -0.029462805 -1.0746274
0.006944869 -0.024727618 0.07490619 -0.004441791 0.13961834 0.03570949 0.009469028 -0.09147275
0.021506034 -0.8539106 -0.024520794 -0.02775581 0.07647445 -9.748208 -0.014260696 0.10366973
1.386309 0.022541324 0.054552846 -0.19943121 -0.022643246 -0.023664964 -0.016782861 1.8317987
0.08347497 -1.5660841 -0.0183635 0.07523653 0.7243809 -0.011468552 2.1111116 -1.3488184
-0.3815191 -0.045037527 0.012385243 0.37244722 0.6083659 -0.057847854 -0.098456 0.026975254
0.05896675 -1.7077696 -0.010211198 0.2191827 0.27761784 -0.007684607 -0.15478903 0.5880588
0.054958075 0.009978284 3.9001377 0.19022165 0.0078124567 -0.92875916 -3.0381792 0.0390002
-0.09497589 -1.215905 1.4484578 0.8565076 -0.33405143 0.0010704149 0.25846305 -0.36133364
-0.34158882 0.061211135 0.35477135 -0.060526144 -0.12021436 0.0029417144 0.014740133 0.036939185
-0.011853899 1.7010849 0.05086101 -0.038448595 0.22856644 0.0065768524 -0.6332644 0.09230155
-0.0016149393 -0.97438717 -1.2035817 -0.020241126 -0.0004665163 -0.041751448 -0.008451737 0.036214724
0.011271544 0.020971453 0.39423984 0.62360704 -0.10594602 0.13485284 0.29780132 -0.018659737
-1.9870613 -2.6376967 -0.24645959 -0.46969768 -0.016994527 0.011285 1.2909302 0.113793574
1.0746465 0.0047013513 0.042217147 0.061603956 -0.06818103 -0.26942766 1.6272459 0.0062407106
0.00376454 -0.21502204 -0.00042439174 0.017929845 0.84089625 0.033402 0.09144977 -0.85960126
-0.1353083 -0.08900588 -2.4184852 0.09567637 0.38001865 0.035724316 -0.012771812 0.59299535
-0.017773105 -0.032838404 -0.0041334024 -2.045533 -0.024885958 -2.0351458 0.023182414 0.018109897
0.040897924 -0.7132249 -4.123943 0.08028933 -0.17408456 0.012310759 -0.2815706 -0.01562729
0.15742058 0.032841805 1.4777393 -0.1880685 0.47039536 -0.0036993695 0.2964132 -0.132515
-1.0393937 0.21012944 0.0017091327 0.015752753 -0.22193258 0.014636694 0.0698034 0.028782267
0.19495441 -0.2401402 0.06718592 -0.034924418 -0.0007007362 -0.002703216 -0.0055301366 0.046549134
00000000: 6a65 473e b12f 673d e678 59bf 556b 12be
00000010: dbab d83e 40a7 cf3c 364f 21bf f659 68be
00000020: d802 553d 7e45 82bd c964 9cbe 4288 ab3c
00000030: 87c7 ab3d e938 2ebf c512 17c0 c6fb 49bf
00000040: 551d 67be 24b2 3dbd fe5d 393c 0e60 79bf
00000050: 4600 e33b ebf5 96bd 2834 adbc 6903 273f
00000060: ea33 25bc d485 f8bf 026f 04bd f38d a840
00000070: f851 27be e4b7 bec0 08bd b33e 8f81 be3c
00000080: 7a52 943d 1638 e8bc 5c23 b13d ba85 c1bf
00000090: a5a1 a03f bfd0 f5bd 055e 203f 9fbb 603e
000000a0: a25d 50bf 6e54 373f 8012 133d 2d3a dd3e
000000b0: 97e1 743f 7a13 27bd 16ef 303d 1eab 063d
000000c0: 4ffc 723d 9d2e f9bc 1f05 fcbe 64ab 973c
000000d0: 38d0 973d 4c74 a63d 9a6c 08bd b9ed 8b3e
000000e0: 4787 263f 9248 0dbd 89ce 913b f630 9abd
000000f0: c262 66ba 3062 a63d e3ea 08bd 5f0d b6bc
00000100: 9c47 3a3d 055f 583c cd05 643b d05e 483e
00000110: fb4d 833f 7c66 a5bd a932 43be 6d9d 33bf
00000120: ebaf 9c3d 4044 c8bd c574 1abe 7761 adbd
00000130: 3424 99bc f1c7 ce3d 3002 a3c0 0bcd 143e
00000140: 18d1 2e3d 1b18 b1bb 37b9 a1bf 5444 d2be
00000150: 674b 2a3c 6c56 8abd fb5b f1bc 648d 89bf
00000160: c991 e33b 9391 cabc 6b68 993d 728c 91bb
00000170: 1cf8 0e3e 1d44 123d fb23 1b3c 1156 bbbd
00000180: 6c2d b03c e399 5abf d5df c8bc 2760 e3bc
00000190: a39e 9c3d a9f8 1bc1 b2a5 69bc cc50 d43d
000001a0: 9372 b13f 95a8 b83c ce72 5f3d b237 4cbe
000001b0: 547e b9bc 07dd c1bc 367c 89bc 6178 ea3f
000001c0: edf4 aa3d 7275 c8bf 0d6f 96bc 9c15 9a3d
000001d0: 0771 393f 98e6 3bbc 741c 0740 15a6 acbf
000001e0: 7956 c3be 4579 38bd 79eb 4a3c 67b1 be3e
000001f0: debd 1b3f dff1 6cbd 4da3 c9bd 35fb dc3c
00000200: 1e87 713d 3298 dabf de4c 27bc 6e71 603e
00000210: ed23 8e3e 28cf fbbb 0481 1ebe 068b 163f
00000220: b81b 613d f57b 233c db9b 7940 77c9 423e
00000230: a3ff ff3b 29c3 6dbf 8771 42c0 acbe 1f3d
00000240: b882 c2bd c6a2 9bbf 1167 b93f 1544 5b3f
00000250: ca08 abbe 2a4d 8c3a 4555 843e b900 b9be
00000260: bbe4 aebe 87b8 7a3d 97a4 b53e 43ea 77bd
00000270: f232 f6bd c7c9 403b 9980 713c 8b4d 173d
00000280: db36 42bc 26bd d93f a253 503d 467c 1dbd
00000290: 520d 6a3e a382 d73b 9e1d 22bf 9808 bd3d
000002a0: 5fac d3ba 7071 79bf f70e 9abf b8d0 a5bc
000002b0: c296 f4b9 9103 2bbd 2879 0abc e455 143d
000002c0: 48ac 383c 53cc ab3c ced9 c93e b6a4 1f3f
000002d0: 3afa d8bd dd16 0a3e 6a79 983e 4edc 98bc
000002e0: 0658 febf 06d0 28c0 e75f 7cbe 377c f0be
000002f0: 1b38 8bbc b8e4 383c 333d a53f 9b0c e93d
00000300: 048e 893f cb0d 9a3b e3eb 2c3d 6e54 7c3d
00000310: 7fa2 8bbd 6cf2 89be 9849 d03f e07e cc3b
00000320: 80b6 763b bd2e 5cbe e580 deb9 9ce1 923c
00000330: fa44 573f 89d0 083d 044a bb3d d40e 5cbf
00000340: 428e 0abe b748 b6bd 76c8 1ac0 f9f1 c33d
00000350: ce91 c23e a953 123d dd40 51bc 8bce 173f
00000360: e798 91bc 9081 06bd 7e71 87bb 03ea 02c0
00000370: a3dd cbbc d43f 02c0 0ce9 bd3c 355b 943c
00000380: 9584 273d e895 36bf 57f7 83c0 bb6e a43d
00000390: 3943 32be 11b3 493c 062a 90be cd04 80bc
000003a0: dc32 213e 2185 063d 9026 bd3f 0795 40be
000003b0: a9d7 f03e 1f71 72bb 79c3 973e 03b2 07be
000003c0: da0a 85bf 2c2c 573e fa04 e03a eb0b 813c
000003d0: 4b42 63be bfce 6f3c 16f5 8e3d cac8 eb3c
000003e0: 21a2 473e 50e7 75be c698 893d e80c 0fbd
000003f0: 9cb1 37ba 7028 31bb 2636 b5bb 4eaa 3e3d

l3.bias f4 [4]
0.92012805 0.0020789092 -0.30967006 -0.05133672
00000000: 838d 6b3f 4f3e 083b 138d 9ebe 7446 52bd
