TD3_control/dir_Walker2D_002/biped-v7-2d-19_actor.pth (torch, 527895 bytes, 6 tensors)

l1.weight f4 [400, 24]
0	0xbf3c0c56	-0.73456323
1	0xc010e455	-2.2639363
2	0x3c3b98d5	0.011450012
3	0x3f06c48a	0.52643645
4	0xc08c120d	-4.3772035
5	0x402521bd	2.5801842
6	0xbd000e50	-0.03126365
7	0xbe11d9a8	-0.14243186
8	0x3f45b482	0.7722856
9	0x3ddfded8	0.10931176
10	0xbfa797a7	-1.3093156
11	0xbf0e8c7c	-0.5568311
12	0x3f358965	0.7091277
13	0xbf07f5e2	-0.5310956
14	0xbe270c04	-0.16313177
15	0xbe33219b	-0.17493288
16	0xc030dd5c	-2.7635107
17	0xbe0668b4	-0.13125879
18	0xc00bc6be	-2.1840053
19	0x3fdf138f	1.7427844
20	0x3e380ba8	0.17973197
21	0xbdcf3852	-0.10118164
22	0xbf5a6acb	-0.85319203
23	0xbfa88ee8	-1.3168612
24	0x408e759d	4.451857
25	0xc0806bf6	-4.013179
26	0x3f960a4a	1.172189
27	0xbf2da1dd	-0.6782511
28	0x4003b2eb	2.0577953
29	0x3f803e39	1.0018989
30	0x3dcc074d	0.0996233
31	0xbe4f5c41	-0.20250036
32	0x3dbe88c2	0.09303428
33	0xbd4d6433	-0.050144386
34	0xbe1d42a2	-0.1535745
35	0x3ed5110f	0.41614577
36	0xbff9fec0	-1.9530869
37	0x3e829682	0.25505453
38	0x3dda9be7	0.10674267
39	0xbdae380e	-0.08506785
40	0xc03bcd1d	-2.9343941
41	0x3f8a5900	1.0808411
42	0x3e2d5f30	0.16930842
43	0x3ebe013d	0.3711032
44	0xbd41e99e	-0.047341935
45	0x3deaadc8	0.114589274
46	0x3ef3bc27	0.47604486
47	0x40205b1b	2.5055606
48	0xc058f378	-3.3898602
49	0xbfee4854	-1.8615823
50	0x3f8a0bd0	1.0784855
51	0xbf9da14b	-1.2314848
52	0x403f40f4	2.9883394
53	0xbfe77ecb	-1.8085569
54	0x3d6fbf22	0.058531888
55	0x3e09849b	0.13429491
56	0xc04a5ff3	-3.1621063
57	0xbf71f314	-0.9451153
58	0x3f3f315d	0.746847
59	0x3f2e7f43	0.68162936
60	0x3ba4d2ee	0.0050300276
61	0x3f1487d7	0.58019775
62	0xbcf1d21c	-0.029519133
63	0xbe23c2a3	-0.15992217
64	0x3e251aff	0.1612358
65	0x3f09ad2f	0.5377988
66	0xbf9d98d2	-1.2312262
67	0x3f4fb543	0.8113596
68	0xbd0fef79	-0.03514049
69	0xbe4c9363	-0.19978099
70	0xbf0ed031	-0.55786425
71	0xc034d14b	-2.8252742
72	0x40449a13	3.071904
73	0xbf49c994	-0.7882321
74	0x3e48172e	0.19540092
75	0xbfd0913b	-1.6294321
76	0x4035a181	2.8379824
77	0xc088a53d	-4.2701707
78	0xbdc327fc	-0.09529111
79	0x3de45d49	0.11150605
80	0xc0097c00	-2.1481934
81	0xbf0a7b3f	-0.5409431
82	0xbdeee5cb	-0.11664923
83	0x3f82deff	1.0224303
84	0xc0b555dc	-5.666731
85	0xbd1bbd77	-0.038022485
86	0x3c8f0d40	0.017462373
87	0x3c4e18e3	0.012579176
88	0x3e38fd14	0.18065292
89	0x3da85e9f	0.082211725
90	0xbfb0abce	-1.3802431
91	0x3f3f1ecd	0.74656373
92	0x3e41758c	0.18892497
93	0x3de33c90	0.11095536
94	0xc02743ce	-2.6135135
95	0xc03eafb6	-2.9794745
96	0xc0135381	-2.3019717
97	0xc09e1ff5	-4.941401
98	0xbf0a4e50	-0.54025745
99	0xbfa299c2	-1.2703173
100	0x407b5b93	3.9274642
101	0xbf95404a	-1.1660244
102	0xbe121906	-0.14267358
103	0xbdc27e35	-0.09496728
104	0xbe10182f	-0.14071725
105	0xbf65fa9b	-0.8983552
106	0xbf967b27	-1.1756333
107	0x3f08f2a3	0.53495234
108	0x40134c6a	2.301539
109	0xbe64c0fc	-0.22339243
110	0x3c1cc4bf	0.009568392
111	0xbe13d910	-0.14438272
112	0x3fd2bea6	1.6464431
113	0x3f57b31d	0.8425768
114	0xbf92bbb1	-1.1463529
115	0x3f5c6f7c	0.8610761
116	0xbd6fc408	-0.05853656
117	0x3e0fdaff	0.14048384
118	0xbf980817	-1.1877469
119	0x3edd4067	0.43213198
120	0x40ba08e1	5.813584
121	0xbf83c8a3	-1.0295604
122	0xbec36180	-0.38160324
123	0xbf9f9598	-1.2467527
124	0x403be33f	2.935745
125	0xc006d39e	-2.106666
126	0xbded5369	-0.11588175
127	0xbddb222a	-0.10699876
128	0xbdc8fd08	-0.09813887
129	0x3e7e9b02	0.24863818
130	0xbf7f0824	-0.99621797
131	0x3eec790b	0.46186098
132	0xc09a3ecf	-4.820167
133	0xbf330782	-0.6993333
134	0xbd30b977	-0.043145623
135	0xbe4f81e5	-0.20264395
136	0x3ff65b88	1.9246683
137	0x3e6e3794	0.23263389
138	0xbc74b4c5	-0.014935677
139	0x3ec29d5f	0.3801069
140	0x3d693ca3	0.056942593
141	0x3c873682	0.016505484
142	0xbfad3607	-1.3532113
143	0xbffa7627	-1.9567307
144	0x39e8d68f	0.00044410347
145	0xbfc2215d	-1.5166432
146	0xbf6a0887	-0.9141926
147	0xbf99e317	-1.2022427
148	0x3e964a15	0.29353395
149	0xc031ab28	-2.7760715
150	0xbe3a91be	-0.18219659
151	0x3e31791e	0.17331359
152	0xbf920dde	-1.1410482
153	0x3e014f6c	0.12627953
154	0xbf1d07d2	-0.6134006
155	0xbf0b2228	-0.54348993
156	0xbf11cb1c	-0.56950545
157	0x3ebe6764	0.37188256
158	0x3e38a419	0.18031348
159	0x3e0d9182	0.13825038
160	0xc10e1867	-8.880958
161	0x3e8decd2	0.27719742
162	0xbf531d58	-0.8246665
163	0x3f6a2bff	0.9147338
164	0xbe031a68	-0.12803042
165	0x3c317090	0.01083006
166	0xbf8e0583	-1.1095432
167	0x3f104f95	0.5637143
168	0xc07a1d41	-3.9080355
169	0x3e216510	0.15761209
170	0x3cbaef98	0.022819325
171	0x4007c6c8	2.1215076
172	0x3fa4e3a4	1.288197
173	0xbfa73467	-1.3062867
174	0x3bb3b447	0.005484137
175	0xbdcc0239	-0.099613614
176	0x3fc982ec	1.5743079
177	0x3e35ff09	0.1777307
178	0xbfcd27cd	-1.6027771
179	0x3eab08d2	0.33405167
180	0xc13b948f	-11.723769
181	0x3f26a094	0.6508877
182	0xbe3982e8	-0.18116343
183	0xbe4e1ef6	-0.20128998
184	0x401c3e3e	2.441299
185	0x3d9b84f3	0.075937174
186	0x3f785675	0.9700692
187	0xbd8af235	-0.067844786
188	0x3e39ddcb	0.18151014
189	0x3e358cba	0.17729464
190	0xbf662090	-0.89893436
191	0x3e931043	0.28723344
192	0xbdf00ddf	-0.11721396
193	0xbeabbb9e	-0.33541578
194	0x3e03bd5e	0.12865207
195	0xbf7372b6	-0.9509691
196	0x3f842807	1.0324715
197	0xc06cd30b	-3.700381
198	0x3d7b8c52	0.061413117
199	0xbdd75205	-0.10513691
200	0xbfc3306b	-1.5249151
201	0xbe36397e	-0.17795369
202	0x406d0060	3.703148
203	0x3d7acb02	0.06122876
204	0x401c0b96	2.4382071
205	0x3c1a63ff	0.009423255
206	0xbcf578a4	-0.029964752
207	0x3d3efa8b	0.046625655
208	0xc13437bd	-11.263608
209	0x3de1adfb	0.11019512
210	0xc0524a17	-3.285772
211	0x3c93c96b	0.01804038
212	0x3c704d1a	0.01466682
213	0xbe403a0e	-0.18772146
214	0x3ec4e691	0.38457158
215	0x3fd2b231	1.646063
216	0xc06498fa	-3.571837
217	0xbe06fadc	-0.13181633
218	0x3f38d941	0.72206503
219	0x3fb4a345	1.4112326
220	0x4000b731	2.011181
221	0x3f951af6	1.1648853
222	0xbdd8894f	-0.105730645
223	0xbe29a58f	-0.16567062
224	0xbe4d9036	-0.20074543
225	0xbf0791d8	-0.52956915
226	0x3f1aed1c	0.6051805
227	0x3e1c9c36	0.15293965
228	0x3ec2a7df	0.380187
229	0x3d924b5c	0.0714328
230	0xbe3ab2d6	-0.18232283
231	0x3dc1bcdd	0.09459851
232	0x3fba9592	1.4576895
233	0x3eb22e89	0.34801129
234	0xc0169fb9	-2.3534987
235	0xbef20fd9	-0.47277716
236	0xbe04f657	-0.12984596
237	0x3cfd86a7	0.030947996
238	0xbe255446	-0.16145429
239	0xc0a5d29f	-5.1819606
240	0x40053cf6	2.0818458
241	0x3f6465f1	0.8921805
242	0x3f1ee421	0.6206685
243	0xbf78165a	-0.96909106
244	0xbfb78629	-1.4337817
245	0xbf83e2bf	-1.0303572
246	0x3ba20e9a	0.0049455883
247	0xbe3cd6a2	-0.18441251
248	0x3f48a8d1	0.78382593
249	0xbf098c27	-0.5372948
250	0xbf8bae67	-1.0912598
251	0x3dec20ce	0.115296945
252	0x3d91f093	0.07125964
253	0x3e6e7cd0	0.232898
254	0x3d7f95f5	0.06239887
255	0xbdda4eae	-0.10659538

l1.bias f4 [400]
0	0xbeaa9368	-0.33315587
1	0x400b7915	2.1792653
2	0xc03833cb	-2.8781612
3	0xc01f308c	-2.487338
4	0xbff8f1b3	-1.9448761
5	0xbffa0fab	-1.9536031
6	0xbfc166e7	-1.5109528
7	0xbf2aab80	-0.6666794
8	0x3f837c05	1.0272223
9	0xbfb84173	-1.4394974
10	0xbfcb1597	-1.5865964
11	0x3e24a8fe	0.1608009
12	0xbf9417bc	-1.1569743
13	0xbf583fa0	-0.84472084
14	0xbf1d2629	-0.6138635
15	0x3eefec85	0.46860138
16	0xbf33885e	-0.70129955
17	0xc0196dce	-2.397327
18	0xbfc20090	-1.5156422
19	0xbee06371	-0.43825868
20	0xbfe2a221	-1.7705728
21	0xbc097ec5	-0.008392041
22	0xbfc0b3c9	-1.5054866
23	0xc000b33a	-2.0109391
24	0xbf72ae0c	-0.94796824
25	0xbea9df37	-0.33178112
26	0x3f3c5b5f	0.7357692
27	0x3eef46af	0.46733615
28	0xbf845768	-1.0339174
29	0x3ebf845f	0.3740568
30	0xbf7087fd	-0.939575
31	0x3ea4ffbe	0.32226366
32	0xbf8c7ff2	-1.0976546
33	0xbf0ca130	-0.5493345
34	0xbf95b125	-1.1694685
35	0xbee59365	-0.44839016
36	0xbf5c3e53	-0.860326
37	0x3f68f1d2	0.9099399
38	0xbde8f46e	-0.11374746
39	0x3dd446e3	0.10365083
40	0xbf955744	-1.1667256
41	0xc00bb097	-2.1826532
42	0xbeb3955b	-0.35074887
43	0xbfb59df8	-1.4188833
44	0xbe15508e	-0.1458151
45	0x3f3d8bbb	0.74041337
46	0xbffd6e76	-1.9799335
47	0xbfa2a8f0	-1.2707806
48	0xbfdaa916	-1.7082851
49	0xbfff3414	-1.9937768
50	0xbf419edf	-0.75633043
51	0xbf92d9d1	-1.1472722
52	0xbfe24fb8	-1.7680578
53	0xbed5bba3	-0.41744718
54	0x3e9805f7	0.2969205
55	0xbf2267e2	-0.6343976
56	0xbf452055	-0.7700246
57	0xbebc7187	-0.36805364
58	0xbf4a78d1	-0.790906
59	0xbf8faa1c	-1.1223788
60	0xbfe055a8	-1.752614
61	0xc02818aa	-2.6265054
62	0xbf56bdec	-0.8388355
63	0xbe6dfbd9	-0.23240604
64	0x3f958a6d	1.1682869
65	0xbf855353	-1.0416054
66	0xbfafdeca	-1.3739865
67	0x402725a7	2.611673
68	0xbf69076c	-0.9102695
69	0xbfd109ae	-1.6331079
70	0xbeb10842	-0.34576613
71	0xbf78e3cf	-0.9722261
72	0x3fff83c0	1.9962082
73	0x3e88a255	0.2668635
74	0xbe86710f	-0.26258132
75	0xbf0ea365	-0.5571807
76	0x3e9f4550	0.3110757
77	0xbf2dfa16	-0.67959726
78	0xbf87e593	-1.0616935
79	0x40025066	2.0361571
80	0xbf8f0cea	-1.1175816
81	0xbecd795a	-0.40131646
82	0xbe6a809a	-0.2290062
83	0xbf6c1577	-0.9222025
84	0xbe8a01b4	-0.26954424
85	0x40111a75	2.2672398
86	0x3fc9b147	1.5757226
87	0xbfc3befc	-1.5292659
88	0xbfc7bd7e	-1.5604703
89	0xbf34d5fc	-0.70639014
90	0xbf9031b1	-1.1265165
91	0xbf6ba458	-0.92047644
92	0x3ee35501	0.4440079
93	0xbe9cfd99	-0.3066223
94	0xc01eabc6	-2.4792342
95	0xbfdaf188	-1.710496
96	0xbf7cec38	-0.9879794
97	0x40044cfb	2.0671985
98	0xbfda77cc	-1.7067809
99	0xbf495c1b	-0.78656167
100	0x3f361f3f	0.7114143
101	0xc02ea9d4	-2.7291155
102	0xc02b61ef	-2.6778524
103	0xbecfebb0	-0.40609503
104	0xbfc9c9ca	-1.5764706
105	0xbeb5a1ed	-0.35475102
106	0xbfe7dc0e	-1.811403
107	0x3fb4ef3e	1.4135511
108	0xbf768fdf	-0.9631328
109	0xbf11643a	-0.5679356
110	0xbeb6afc3	-0.3568097
111	0x3d634068	0.055481344
112	0xbff01178	-1.8755331
113	0xbe22c8fe	-0.15896985
114	0xbffe767a	-1.9879906
115	0xc0072ea4	-2.1122217
116	0xbf66f130	-0.9021177
117	0xc0145803	-2.3178718
118	0xbf85e122	-1.045933
119	0xbf43b24e	-0.76443946
120	0x3f09450f	0.53621
121	0xbf76b721	-0.9637318
122	0xbfb40495	-1.4063898
123	0xbfc09ed8	-1.5048475
124	0xbf80e353	-1.0069374
125	0x3f1bdfff	0.60888666
126	0xc029f87d	-2.6557915
127	0x3fdf0ea3	1.7426342
128	0xbfae1ecb	-1.3603147
129	0x3e1dfd0d	0.15428562
130	0xbf816923	-1.011021
131	0xbe8a2b7a	-0.26986295
132	0xbda638ff	-0.0811634
133	0x3f6e632b	0.9312007
134	0x3f565bc5	0.8373378
135	0xbfe07e2b	-1.7538503
136	0xc016a934	-2.3540773
137	0x3e5696a2	0.209559
138	0xbfd840c1	-1.6894761
139	0xbea13fde	-0.3149404
140	0x3fe0d030	1.7563534
141	0xbf098ff7	-0.537353
142	0xbf902136	-1.1260135
143	0xbf96fc13	-1.1795677
144	0xc0224516	-2.5354667
145	0xbf6f7576	-0.93538606
146	0xbf56a0ab	-0.8383891
147	0x3f38ebd5	0.7223485
148	0xbfcf367a	-1.61885
149	0x3f15224b	0.5825545
150	0xbfc0100a	-1.5004895
151	0xbf1da15f	-0.6157436
152	0xc03d17e6	-2.9545836
153	0x3f854bee	1.0413797
154	0xbedfab05	-0.43685165
155	0x3ebc6982	0.36799246
156	0xbfb06e11	-1.378359
157	0xc01a534e	-2.4113345
158	0x3e3dc586	0.1853238
159	0xbf94e519	-1.1632415
160	0xc012f70e	-2.296329
161	0x3fb9e0c0	1.4521713
162	0xbed56e07	-0.41685507
163	0xbef817ce	-0.48455662
164	0xbfadf5c5	-1.3590628
165	0xbfc6f148	-1.5542383
166	0xbf6a210c	-0.91456676
167	0xbf9f0c2e	-1.2425592
168	0xbf9456e3	-1.1589016
169	0xc040bba9	-3.0114539
170	0xbf7aacda	-0.9792
171	0xbf55cf3d	-0.83519346
172	0xbf5e454d	-0.86824495
173	0xbebaa8ba	-0.36456853
174	0x3f52a645	0.8228496
175	0xbffb03de	-1.9610555
176	0xbf97b987	-1.1853493
177	0xbfc21367	-1.5162171
178	0xbf87c0c1	-1.0605699
179	0xbf2ed84e	-0.68298805
180	0xbfdbf1e2	-1.7183192
181	0x3fceea98	1.6165342
182	0xc0154010	-2.332035
183	0xbe5d082f	-0.21585153
184	0xc004d4a5	-2.0754788
185	0xbebb0d2b	-0.36533484
186	0x3f562966	0.8365692
187	0xbf658581	-0.89656836
188	0x3d17ed4d	0.037091542
189	0xbfcca155	-1.5986735
190	0xbf4f0b9c	-0.8087709
191	0xbf23cbe9	-0.6398302
192	0xbfa02d89	-1.2513896
193	0xc02f9916	-2.7437186
194	0xbff5f6cf	-1.9215945
195	0xc01df81c	-2.4682684
196	0x3efb039a	0.49026185
197	0xbf969622	-1.1764567
198	0xbf7fd23c	-0.9993017
199	0xbfe5fb51	-1.7967321
200	0xbfb6af17	-1.4272183
201	0xbfba22e5	-1.4541899
202	0xc038ce9e	-2.887611
203	0xbf9a0a8c	-1.2034469
204	0x3b957356	0.0045608683
205	0x4000a15d	2.0098488
206	0xc01f8353	-2.4923904
207	0xc0156c75	-2.3347447
208	0x3eb1e399	0.34743956
209	0xbf68b6cb	-0.9090392
210	0xbeb403eb	-0.3515924
211	0xbfbaf08f	-1.4604663
212	0xbfcd60f7	-1.6045216
213	0xbfa12788	-1.2590189
214	0xbf6aa38f	-0.9165582
215	0x3ec1b8bc	0.37836254
216	0xbf85f404	-1.0465093
217	0x3ed682d8	0.418967
218	0xbf2a113a	-0.66432536
219	0xbf3127b1	-0.6920119
220	0xbfcaefe3	-1.5854458
221	0xbf7f481d	-0.9971941
222	0xc0093a3b	-2.144179
223	0xbfd74fbc	-1.6821208
224	0xc00ce1d8	-2.2012844
225	0xbfb3d93f	-1.4050673
226	0xbfdb07ca	-1.7111752
227	0xbe67df90	-0.22643876
228	0xc018c987	-2.3873003
229	0xbf004f1d	-0.5012072
230	0x4010c632	2.262097
231	0xbea7e025	-0.32788196
232	0xbe8697b5	-0.26287618
233	0x3fdf2acc	1.7434936
234	0xc0124002	-2.2851567
235	0xbe435092	-0.19073704
236	0xc01001f8	-2.2501202
237	0xbf54f3fa	-0.8318478
238	0xbf912e6a	-1.134229
239	0xbeeae161	-0.45875075
240	0xc0200270	-2.5001488
241	0xc0120ff3	-2.2822235
242	0xbeb2ed45	-0.34946647
243	0xc00d6b7c	-2.2096853
244	0xbf60d984	-0.878319
245	0xbf144aaa	-0.5792643
246	0xbfa367c2	-1.2766039
247	0xbf9fb3dc	-1.2476764
248	0x3ec90b74	0.3926655
249	0xbf282f99	-0.6569763
250	0xc00f8b22	-2.242867
251	0x3e6f2eb9	0.23357667
252	0xbf70e0b0	-0.94092846
253	0xbfa687ef	-1.3010234
254	0x3cff678e	0.031177308
255	0x3fafbf07	1.3730172

l2.weight f4 [300, 400]
0	0x3c9a6fd0	0.018852144
1	0x3d0f6880	0.03501177
2	0x3b458bd0	0.003014315
3	0xbb3619cc	-0.0027786372
4	0xbdbf7c26	-0.09349851
5	0xbdf46ea9	-0.11935169
6	0x3d1b02b0	0.03784436
7	0x3cc8d7a4	0.024516888
8	0x3c6f4043	0.0146027235
9	0xbc242e45	-0.010020797
10	0x3b2d3d1e	0.0026434134
11	0xbd26c8a9	-0.04071871
12	0xbcb94649	-0.022616522
13	0xbcd0d932	-0.025494192
14	0xbd641d94	-0.05569227
15	0x3d47991c	0.04873
16	0x3d09ce56	0.033644043
17	0xbd02a70e	-0.031897597
18	0x3b7eed66	0.0038898825
19	0x3cfa6bca	0.030568976
20	0xbd77a925	-0.060464043
21	0x3cd6efdd	0.026237423
22	0xbc90cc34	-0.017675497
23	0xbc3424ff	-0.010995149
24	0x3d151e85	0.03640606
25	0x3afc97cf	0.0019271317
26	0xbd1f5d5c	-0.038907394
27	0xbc8adc70	-0.016950816
28	0xbd7320cd	-0.059357453
29	0xbd38ab02	-0.04508496
30	0xbd93b7f7	-0.07212823
31	0xbcdac4e6	-0.026705217
32	0x3bb0117f	0.0053731794
33	0x3bcb1741	0.0061978404
34	0xbd01e376	-0.031711064
35	0x3d79dfc0	0.0610044
36	0xba7e2df1	-0.0009696177
37	0x3d4ee11e	0.050507657
38	0xbc759e94	-0.014991421
39	0xbd5ca8cf	-0.053871926
40	0xbdbc1260	-0.09183192
41	0xbcdf6037	-0.027267559
42	0xbd3c9077	-0.04603621
43	0x3d619961	0.055077914
44	0xbcd5f329	-0.026116924
45	0xbd86525e	-0.06558679
46	0x3d2ee549	0.042699132
47	0x3cce575d	0.025188142
48	0xbd3e860d	-0.04651456
49	0x3b49ff73	0.0030822426
50	0xbb11215e	-0.0022145133
51	0xbd3e0ced	-0.046399046
52	0xbd0dc0e5	-0.034607787
53	0x3b7fa168	0.0039006118
54	0x3cfc7904	0.030819423
55	0xbd8439f5	-0.06456367
56	0x3b9621a7	0.0045816484
57	0xbd61faa4	-0.05517067
58	0xbd05eea7	-0.0326983
59	0xbd2b8c0d	-0.04188161
60	0x3c840fc5	0.0161208
61	0xbc4347e1	-0.011918993
62	0x3c5c7ddb	0.013457741
63	0xbd076deb	-0.03306381
64	0x3ad6532a	0.0016351689
65	0x3d1e5382	0.038653858
66	0x3d87e405	0.06635288
67	0x3cad263a	0.021136392
68	0x3d5f6a67	0.054544833
69	0xbc5e6bce	-0.013575507
70	0xbe07a966	-0.13248214
71	0xbcb840c5	-0.022491822
72	0xbc1b9de6	-0.009498095
73	0xbdefac9f	-0.11702847
74	0xbcb19759	-0.021678613
75	0x3c123e9a	0.008926058
76	0x3d325636	0.04353925
77	0x3c5fef16	0.013667842
78	0xbce144e3	-0.027498668
79	0xbbfc0f05	-0.00769222
80	0xbd6f65b0	-0.058446586
81	0xbdb8d776	-0.09025471
82	0xbc4cb933	-0.012495327
83	0xbd98d7ac	-0.07463011
84	0x3b9abd28	0.004722256
85	0xbd9e7618	-0.07737368
86	0xbb84407f	-0.004036009
87	0xbca2ff92	-0.019897256
88	0xbcf1f793	-0.029536998
89	0x3941d79d	0.00018486237
90	0xbc70bf72	-0.014694082
91	0x3d81cfcf	0.063384645
92	0xbda3c3dd	-0.07996342
93	0x3cb70d09	0.022345083
94	0x3d23e715	0.0400153
95	0xbd0ec25e	-0.03485333
96	0x3c356a6e	0.011072738
97	0x3bb0480d	0.005379683
98	0x3c81ddc6	0.01585282
99	0xbd11f193	-0.035630774
100	0xbd6f89e5	-0.058481116
101	0x3c93fe1a	0.018065501
102	0xbc4a3361	-0.012341351
103	0xbd8f7a36	-0.07005732
104	0xbd583a00	-0.052789688
105	0x3ce6f644	0.0281936
106	0xbc1e33de	-0.009655921
107	0xbcf34fa9	-0.02970107
108	0xbca75298	-0.020425126
109	0xbd441a3a	-0.047876574
110	0xbd059a9e	-0.032618158
111	0x3b0c3fe9	0.0021400398
112	0xbdbeec32	-0.093223944
113	0xbc94ee61	-0.018180074
114	0xbd0d59fa	-0.034509636
115	0xbd9c8ab7	-0.07643645
116	0xbcf04dee	-0.029334035
117	0x3cac1edb	0.021010807
118	0xbe0d279e	-0.13784644
119	0x3db08db4	0.08620778
120	0xbd614674	-0.05499883
121	0x3bd18c92	0.006394931
122	0xbdec51e1	-0.11539055
123	0x3c902751	0.017596873
124	0xbd4717db	-0.048606735
125	0xbd1fdaf7	-0.03902718
126	0xbce38b3e	-0.027776357
127	0xbd8f2c4f	-0.06990873
128	0xbc8e5615	-0.017375031
129	0xbdb7ab26	-0.08968191
130	0xbd90ca89	-0.070698805
131	0xbd981024	-0.074249536
132	0x3b3a0da7	0.0028389485
133	0xbca1af7b	-0.019736996
134	0xbd9a5a33	-0.075367354
135	0x3bcaa44e	0.0061841374
136	0x3d1763e0	0.036960483
137	0x3c6b8695	0.014375349
138	0xbd73fbe7	-0.059566405
139	0xbd89b668	-0.06724244
140	0xbc369ffd	-0.011146543
141	0xbdbc4388	-0.09192568
142	0xbcb1a7c7	-0.021686448
143	0xbd4fdab2	-0.050745673
144	0x3d27eabc	0.040995345
145	0x3c05f174	0.008175243
146	0xbdb13215	-0.086521305
147	0xbd1ae3b9	-0.03781483
148	0xbd93a173	-0.07208528
149	0xbd819156	-0.06326549
150	0xbd40cdf1	-0.0470714
151	0x3cda83cc	0.026674174
152	0x3c51925f	0.012791245
153	0xbb8e1e3f	-0.0043371017
154	0xbd2d3dd0	-0.042295277
155	0x3d7d3bfa	0.061824776
156	0x3c6f1b95	0.014593978
157	0xbd478a51	-0.048715893
158	0x3c084a10	0.008318439
159	0xbd873e82	-0.06603719
160	0xbd848080	-0.06469822
161	0xbd339d24	-0.043851033
162	0xbcf17504	-0.029474743
163	0xbd322f7c	-0.043502316
164	0x3ca95da5	0.020674536
165	0xbda2d1cd	-0.079501726
166	0x3d156abe	0.03647875
167	0x3cb5a307	0.022172464
168	0xbc32d116	-0.010914108
169	0xbd839f8e	-0.06426917
170	0x3d22f69c	0.039785966
171	0xbd0ea75f	-0.034827586
172	0xbc944222	-0.01809794
173	0x3c5f3a97	0.013624809
174	0x3d7ee604	0.06223108
175	0xbd37ab01	-0.044840816
176	0xbccc5976	-0.024945002
177	0xbc0b70d4	-0.008510787
178	0xbe23f2af	-0.16010545
179	0xb9fc1821	-0.00048083163
180	0xbcfa29bb	-0.030537477
181	0xbd673ddb	-0.056455474
182	0xbd8e73f6	-0.069557115
183	0xbcda1d59	-0.026625322
184	0xbcbf7654	-0.023371853
185	0x3ca23b7b	0.019803753
186	0xbd3d1b06	-0.04616835
187	0x3bb38f93	0.005479762
188	0xbd9eda9f	-0.077565424
189	0xbd149404	-0.03627397
190	0xbcd182d1	-0.025575073
191	0x3cb79a5f	0.022412477
192	0x3b24eec4	0.002516673
193	0xbd083f3a	-0.033263423
194	0xbcb5a508	-0.02217342
195	0xbd82ed36	-0.06392901
196	0xbd4a7d52	-0.04943592
197	0xbd3908fb	-0.04517458
198	0xbd95a9e0	-0.07307792
199	0xbdcabe83	-0.098996185
200	0xbd846343	-0.06464245
201	0xbd8cef1b	-0.06881543
202	0xbb1aa39d	-0.0023596056
203	0xbdbda2bd	-0.092595555
204	0xbc9eea3e	-0.019398805
205	0x3cb78ac4	0.022405036
206	0xbd6ede4e	-0.058317475
207	0xbcb69dfb	-0.022292128
208	0xbb40e6ad	-0.0029434368
209	0xbcb742e3	-0.022370761
210	0xbd2ba918	-0.041909307
211	0x3c1c6785	0.009546165
212	0xbc035080	-0.008014798
213	0xbcac6e9d	-0.021048838
214	0x3b8cc627	0.0042960825
215	0x3c0bbb2d	0.008528513
216	0x3c2ad6f1	0.010427223
217	0xbdb595b3	-0.088664435
218	0xbc04e276	-0.008110633
219	0x3cc20d21	0.023687901
220	0x3c0028a7	0.007822192
221	0xbc4f20f5	-0.012642135
222	0xbd18b57d	-0.037282456
223	0xbc858509	-0.016298788
224	0xbcf7a172	-0.03022835
225	0xbcfb3aa6	-0.030667614
226	0xbdf55a30	-0.119800925
227	0xbc3ba4dd	-0.011452881
228	0xbc29597f	-0.010336279
229	0x3b180b38	0.0023200046
230	0xbd8c87af	-0.06861817
231	0x3b9da40c	0.0048108157
232	0x3a08bcbe	0.0005216113
233	0xbd6dc497	-0.05804881
234	0xbd00f690	-0.03148514
235	0xbcf16bd1	-0.029470356
236	0xbb976369	-0.004620005
237	0xbcf39c9f	-0.029737769
238	0x3b48d34e	0.0030643526
239	0xbd57cbb3	-0.052684497
240	0xbd441c93	-0.047878813
241	0xbdd8c0e0	-0.10583663
242	0xbce03cf1	-0.02737281
243	0x3c038493	0.008027214
244	0x3d000466	0.031254195
245	0xbcffd2e2	-0.031228486
246	0x3c9e4f4a	0.019324917
247	0x3d1a7396	0.037707888
248	0xbcef5707	-0.029216303
249	0xbc6d34f3	-0.014477956
250	0xbd37af5a	-0.044844963
251	0x3db4e9b1	0.088336356
252	0xbca78ff8	-0.020454392
253	0xbcdfa2a3	-0.02729923
254	0xbd518291	-0.05114991
255	0xbd822643	-0.06354954

l2.bias f4 [300]
0	0xbdb25a68	-0.0870865
1	0xbdee2241	-0.11627627
2	0xbdbcae4e	-0.092129335
3	0xbce45ee1	-0.027877273
4	0xc00c9c1b	-2.197028
5	0xbd9ad064	-0.075592786
6	0xbdb001e8	-0.085941136
7	0xbfc872b6	-1.5660007
8	0x3f82f83f	1.0232009
9	0xbda02d1d	-0.07821105
10	0x3eb958eb	0.36200652
11	0xbee2a5b2	-0.4426704
12	0xbeeee3cf	-0.4665818
13	0xbda2ff99	-0.07958908
14	0xbd112c9a	-0.035442926
15	0xbde44588	-0.111460745
16	0xbd5128ce	-0.051064305
17	0xbe804aa7	-0.25056955
18	0xbddaf2f1	-0.10690869
19	0xbd8e019c	-0.06933901
20	0xbf9393ef	-1.1529521
21	0xbe23d2ec	-0.15998429
22	0xbde0d45a	-0.10978003
23	0xbebb865f	-0.36625955
24	0x3e8a188e	0.2697186
25	0xbfd03673	-1.6266617
26	0xbdc6c027	-0.09704619
27	0xbdb2de8b	-0.08733853
28	0xbdd72846	-0.105057284
29	0xbdee7de8	-0.116451085
30	0xbd74b15f	-0.059739467
31	0xbf1a2f5c	-0.60228515
32	0xbdcf5392	-0.10123362
33	0x3f861fd5	1.0478464
34	0xbd534bc6	-0.051585935
35	0xbde1d107	-0.11026197
36	0xbc29622c	-0.010338347
37	0xbfad5017	-1.3540066
38	0xbdb437f8	-0.08799738
39	0xbedc9fdd	-0.43090716
40	0xbd0f622c	-0.035005733
41	0xbdd6cd70	-0.10488403
42	0xbd999e7d	-0.07500932
43	0xbb138a6d	-0.0022512928
44	0xbf30ab9c	-0.69011855
45	0xbd95ae7c	-0.07308671
46	0x3aee7b07	0.0018194624
47	0xbff838a5	-1.9392287
48	0xbe23f945	-0.16013058
49	0xbef4dd2d	-0.47824994
50	0xbd9d5616	-0.07682435
51	0xbda5cbb5	-0.08095495
52	0xbc97aee0	-0.018516004
53	0xbd9da2ed	-0.07697091
54	0xbef80511	-0.48441365
55	0xbdd3407a	-0.10315032
56	0xbf91aa3f	-1.138008
57	0xbe0023ea	-0.125137
58	0xbf4b7a2e	-0.79483306
59	0xbe1fa1da	-0.15589085
60	0xbd69de84	-0.057096973
61	0xbdd8c238	-0.10583919
62	0xbde1a560	-0.11017871
63	0xbe124cff	-0.14287184
64	0xbe0662cc	-0.13123626
65	0xbd13e9f2	-0.03611178
66	0x3cfaeeb9	0.03063141
67	0xbdfb77bd	-0.12278698
68	0xbd4fc4fd	-0.050724972
69	0xbdabe5f3	-0.08393469
70	0x3d5d1e9c	0.05398427
71	0xbed7c783	-0.42144403
72	0xbe061600	-0.1309433
73	0xbe050afc	-0.12992471
74	0xbf3fb639	-0.74887425
75	0xbee5d779	-0.44890955
76	0xbd72125c	-0.05909954
77	0xbd0d29de	-0.034463756
78	0xbd93656e	-0.071970806
79	0xbd432393	-0.047641348
80	0xbe81777e	-0.25286478
81	0xbfd53e7d	-1.6659695
82	0xbd412b65	-0.047160525
83	0xbd8e0adc	-0.06935665
84	0xbf2fdacb	-0.68693227
85	0xbdc03f50	-0.09387076
86	0xbd929443	-0.07157185
87	0xbdd033b3	-0.10166111
88	0xbd504f68	-0.050856978
89	0xbd8385ad	-0.06421981
90	0xbe0ec995	-0.13944085
91	0xbe64ccea	-0.22343794
92	0xbe44c2b0	-0.19214892
93	0xbf085b41	-0.5326424
94	0xbddd2a8e	-0.10799132
95	0xbdfc6bf8	-0.12325281
96	0xbe895442	-0.26822096
97	0xbe8a93fe	-0.27066034
98	0xbd7b3161	-0.06132639
99	0xbe52c903	-0.20584492
100	0xbddc17e8	-0.10746747
101	0xbd9636fc	-0.07334706
102	0xbc1577e9	-0.009122827
103	0xbf9d07ca	-1.2268002
104	0xc0228886	-2.5395827
105	0xbd906b39	-0.07051701
106	0xbca28b7c	-0.019841902
107	0xbdbf3798	-0.093367755
108	0x3f361f54	0.7114155
109	0x3f00a0b1	0.50245196
110	0xbd20b525	-0.039235253
111	0xbe414045	-0.18872173
112	0xbdb2a5e2	-0.08723046
113	0xbdfae1ed	-0.12250123
114	0xbebe8d7f	-0.37217328
115	0x3d071aa3	0.032984387
116	0x3e1bab37	0.15202032
117	0xbdd17031	-0.10226477
118	0xbe7f6ddb	-0.2494425
119	0xbf5b7ccf	-0.8573732
120	0xbdebea78	-0.11519331
121	0xbefddb27	-0.49581262
122	0xbf3efb58	-0.7460227
123	0xbcb4ec36	-0.02208529
124	0xbe57c5d7	-0.21071564
125	0xbf24ed38	-0.6442447
126	0xbe0c091f	-0.13675354
127	0xbdd0d0a5	-0.10196046
128	0xbd17da9f	-0.037073728
129	0xbd98adfd	-0.07455061
130	0xbf493eeb	-0.7861163
131	0xbb990ee7	-0.004670966
132	0xbdb7059c	-0.08936617
133	0xbfadf377	-1.3589925
134	0xbc63fcee	-0.013915284
135	0xbdaed0f3	-0.08535948
136	0xbdc1cc1e	-0.094627604
137	0xbda2bb09	-0.079458304
138	0xbeaee14e	-0.3415627
139	0xbe230600	-0.15920258
140	0xbdf1df64	-0.118101865
141	0xbd9905b9	-0.07471795
142	0xbe72ee1c	-0.23723644
143	0xbd239a14	-0.039941862
144	0xbd5ee7b8	-0.054420203
145	0xbd7df03b	-0.06199668
146	0xbfef120b	-1.8677381
147	0xbd54f713	-0.05199344
148	0xbe681478	-0.22664058
149	0xbe8272f3	-0.25478324
150	0xbd60a734	-0.054846957
151	0xbf0c0c87	-0.54706615
152	0xbdefba25	-0.11705426
153	0xbe7f7808	-0.24948132
154	0x3ea42a61	0.32063583
155	0x3e488e73	0.1958559
156	0xbecfae28	-0.40562558
157	0xbe0b44c9	-0.13600458
158	0xbdca97f9	-0.09892268
159	0xbc82478f	-0.015903262
160	0xbed77f4d	-0.4208931
161	0xbea4b2b1	-0.3216758
162	0xbe210f6a	-0.15728536
163	0xbd80710d	-0.06271563
164	0xbe87cf76	-0.26525468
165	0xbf3f76fa	-0.7479092
166	0xbca2bf7a	-0.019866694
167	0xbc4c9763	-0.012487265
168	0xbfe01d21	-1.750889
169	0xc00f80ab	-2.2422283
170	0xbe94c66c	-0.29057634
171	0xbc59c554	-0.013291676
172	0xbd6cd65d	-0.05782162
173	0xbf88c3c5	-1.0684744
174	0x3f622979	0.8834453
175	0xbd90f2d7	-0.07077568
176	0xbde37950	-0.11107123
177	0xbe02e71d	-0.12783475
178	0xbf221ba7	-0.63323444
179	0xbddb10db	-0.10696574
180	0xbd3996c2	-0.04530979
181	0xbda4f419	-0.080543704
182	0xbdaa20ec	-0.083070606
183	0xbc4161cb	-0.011803101
184	0xbf9d00f6	-1.2265918
185	0xbd8398c0	-0.06425619
186	0xbe0f45ff	-0.13991545
187	0xbcc2ed50	-0.0237948
188	0xbf4c1a1d	-0.79727346
189	0xbd1255b0	-0.03572625
190	0xbf959a63	-1.168774
191	0xbdde4665	-0.108532704
192	0x3fd1c617	1.6388577
193	0xbf832ff3	-1.0249008
194	0xbd82774c	-0.0637041
195	0x3c0d27cc	0.008615445
196	0x3ef0564d	0.46940842
197	0xbd817747	-0.063215785
198	0xbdabf03b	-0.0839543
199	0x3f0a8199	0.54104
200	0xbdcbb38f	-0.099463575
201	0xbfa6bd6c	-1.3026557
202	0xbdea1897	-0.114304714
203	0xbf0d90f0	-0.5529928
204	0xbe98c918	-0.29840922
205	0x3aa73dc1	0.0012759493
206	0xbd1b5dfc	-0.037931427
207	0xbd0eaa5b	-0.034830432
208	0x3f4c98f8	0.7992091
209	0xbfbec22f	-1.490301
210	0xbcb3be34	-0.021941282
211	0xbcbdc5dd	-0.023165638
212	0xbd54ace1	-0.051922683
213	0xbde9057c	-0.11377999
214	0xbdb1b11c	-0.08676359
215	0xbf73a4ad	-0.9517315
216	0xbea82f51	-0.328486
217	0xbec01647	-0.37516996
218	0xbdc6e1c7	-0.09711032
219	0x3ea0b93f	0.31391332
220	0xbed011e9	-0.40638664
221	0xbcb93276	-0.02260707
222	0x3f7c2b20	0.98503304
223	0xbce36945	-0.027760157
224	0xbf42b70e	-0.7606057
225	0xbd1a40d2	-0.037659474
226	0xbf54912d	-0.8303402
227	0xbedc915c	-0.4307965
228	0xbdd67838	-0.10472149
229	0xbd487a1e	-0.048944585
230	0xbd6ae237	-0.05734464
231	0xbd80e9f2	-0.062946215
232	0xbfa7619d	-1.3076664
233	0xbd18ff91	-0.037353102
234	0xbeb9ba8b	-0.36275133
235	0xbe0e68af	-0.13907121
236	0xbdbad115	-0.091219105
237	0x3f4f1be1	0.80901915
238	0x3efe7ff9	0.4970701
239	0xbda36c73	-0.079796694
240	0xbe2797dc	-0.16366524
241	0xbdf3f5a2	-0.11912085
242	0xbf1a003a	-0.60156596
243	0xbddf184f	-0.10893308
244	0xbda633d1	-0.08115352
245	0xbdb50947	-0.0883966
246	0xbcf8c392	-0.030366693
247	0xbe478558	-0.1948446
248	0xbe254fb4	-0.16143686
249	0xbf97acfa	-1.1849663
250	0xbead3333	-0.33828124
251	0xbf36e190	-0.7143793
252	0xbf2bb55b	-0.670736
253	0xbea49993	-0.32148418
254	0xbdc7f1ad	-0.09762893
255	0xbf8fe3c0	-1.1241379

l3.weight f4 [4, 300]
0	0x3c9be2b2	0.019028995
1	0x3cc34865	0.023838231
2	0xbdb9aeeb	-0.09066566
3	0x3c9e40d3	0.01931802
4	0x3dbeccd7	0.09316414
5	0xbc9f3b52	-0.019437466
6	0x3ddcad24	0.107752115
7	0xc011cd0b	-2.2781398
8	0xbcfebf78	-0.031097159
9	0xbf28bc9c	-0.65912795
10	0xbd2a7bbc	-0.04162191
11	0xbc5f789e	-0.013639597
12	0xbdfd3f44	-0.123655826
13	0xbc0f3c79	-0.008742445
14	0xbd133fd0	-0.03594953
15	0x3c5fa5fc	0.013650414
16	0x3d796506	0.06088736
17	0xbea59c4f	-0.32345816
18	0x3ca1d434	0.019754507
19	0xbc87c523	-0.016573494
20	0xbf501d1c	-0.8129442
21	0x3d3a312e	0.045457058
22	0xbe6be501	-0.23036577
23	0xbf53d110	-0.8274088
24	0xbde861ae	-0.11346756
25	0xbd9e7c35	-0.07738534
26	0xbd1764fc	-0.03696154
27	0xbd42fbed	-0.047603536
28	0xbd7d6f73	-0.061873864
29	0x3cd22591	0.025652679
30	0xbcea130c	-0.028573535
31	0x3e6a4264	0.22876889
32	0xbdd0be10	-0.101925015
33	0x3f5b08f8	0.8556056
34	0xbd1778c8	-0.03698042
35	0xbd8341b8	-0.06409019
36	0x3d1aad46	0.037762903
37	0x3e978c71	0.29599336
38	0xbde7f875	-0.11326686
39	0xbf484fc7	-0.7824673
40	0xbcd09dc0	-0.025465846
41	0xbd9a273c	-0.075270146
42	0xbc93e470	-0.018053263
43	0x3e5861f4	0.21131116
44	0x3ec8af02	0.3919602
45	0x3d2bad32	0.04191322
46	0x3fb86b9e	1.4407842
47	0xbe65d95b	-0.22446196
48	0xbce7215d	-0.028214151
49	0x3ebfae4d	0.37437668
50	0x3c90ead0	0.017690092
51	0x3dbd5012	0.09243788
52	0xbcd20bb9	-0.025640355
53	0x3dbd15ef	0.09232699
54	0x3f7d93ed	0.9905384
55	0xbd4a11b5	-0.049333293
56	0x3f8dd048	1.1079187
57	0x3c5d00b0	0.013488933
58	0xbf617ed3	-0.88084143
59	0x3e3edf09	0.18639769
60	0xbd872b79	-0.066000886
61	0xbbe3c661	-0.006951139
62	0x3d4fe821	0.050758485
63	0xbd2c6cd6	-0.04209598
64	0x3b88b4ae	0.0041719293
65	0x3d3b8306	0.04577925
66	0x3fec0fce	1.8442323
67	0xbb7e3a6c	-0.0038792146
68	0x3d0f0266	0.034914397
69	0x3e4bd0f8	0.19903934
70	0xbf07074c	-0.5274551
71	0xbfb6b240	-1.4273148
72	0x3bbe60cd	0.0058098794
73	0x3e4492f2	0.1919668
74	0xbeacfa41	-0.3378468
75	0xbe4e9335	-0.20173343
76	0xbd176a2d	-0.03696649
77	0xbd6ac31d	-0.05731498
78	0x3dea0eb8	0.11428589
79	0x3da9c265	0.08289031
80	0x3fa05c9d	1.2528263
81	0xbe759352	-0.2398198
82	0x3d556f33	0.052108
83	0xbc8fc4f5	-0.017549971
84	0x3f8f5860	1.1198845
85	0x3d43c48e	0.04779487
86	0x3d4fca0e	0.050729804
87	0xba5afcd8	-0.00083537167
88	0x3d6b6e4d	0.057478238
89	0xbdd07709	-0.10178954
90	0x3d1ba522	0.03799928
91	0x3e10876a	0.14114156
92	0x3dcc3f1e	0.09972976
93	0xbde73430	-0.11289251
94	0xbd35fecf	-0.044432458
95	0xbd9a92a1	-0.075474985
96	0x3f4167e9	0.7554918
97	0x3f828088	1.0195475
98	0xbcc20a58	-0.023686573
99	0xbe3aa491	-0.1822684
100	0xbe3d8a32	-0.18509749
101	0xbde56eb6	-0.11202757
102	0x3ede91fe	0.43470758
103	0xbee19650	-0.44059992
104	0xbf18c9af	-0.59682745
105	0x3bf55b00	0.0074876547
106	0x3c98608f	0.01860073
107	0x3d94f09f	0.07272457
108	0x3f8711b0	1.0552273
109	0xbdecd5f9	-0.115642495
110	0xbd15ec0d	-0.03660207
111	0xbd326724	-0.043555394
112	0x3ca530e6	0.020164918
113	0xbd148e0a	-0.03626827
114	0xbd9abfff	-0.075561516
115	0xbd09718c	-0.033555552
116	0x3fcd712b	1.6050161
117	0xbce69ca8	-0.028150871
118	0x3da5ae81	0.080899246
119	0xbf17f887	-0.593636
120	0x3ba29216	0.0049612625
121	0xbf24e570	-0.64412594
122	0xbe2a44b6	-0.16627774
123	0xbc0e724a	-0.008694241
124	0x3d7b9bb7	0.061427798
125	0x3ef56d2f	0.47934863
126	0x3d87ad13	0.06624808
127	0x3a779abb	0.0009445359
128	0x3b2ff3c0	0.0026848167
129	0xbbb2dedd	-0.0054586963
130	0x3e652761	0.22378303
131	0x3b3d8499	0.0028918146
132	0xbe003877	-0.1252154
133	0xbdc95ed0	-0.09832537
134	0x3ce67b6b	0.028135022
135	0xbcaf1036	-0.021370035
136	0x3d0e7561	0.03477991
137	0xbc6784cc	-0.014130782
138	0x3f7d79c6	0.99013937
139	0xbd100ef6	-0.035170518
140	0xbcd21e16	-0.025649112
141	0xbd5a2d8b	-0.05326609
142	0x3ea59351	0.32338956
143	0x3c35a0d8	0.011085711
144	0xbd4647ef	-0.048408445
145	0x3c8186ba	0.015811313
146	0xbf8843cd	-1.0645691
147	0x3e120ed1	0.14263465
148	0x3df71751	0.12064994
149	0x3ebbfacb	0.36714777
150	0x3c00957e	0.007848142
151	0xbf386032	-0.7202178
152	0x3cae6f1c	0.021293215
153	0x3efa21e3	0.4885398
154	0x3f98ba46	1.1931846
155	0x3e25578f	0.16146682
156	0xbdc72112	-0.097231045
157	0xbd466368	-0.048434645
158	0xbf160aa0	-0.5860996
159	0xbd03baaf	-0.032160457
160	0xbe8a734a	-0.27041084
161	0x3dea2b3f	0.1143403
162	0xbe37d699	-0.17952956
163	0x3dd70fed	0.105010845
164	0x3de1393b	0.10997244
165	0x3fa90840	1.3205643
166	0x3a92845b	0.0011178361
167	0x3c9ed28e	0.01938751
168	0x3b8a589c	0.004221989
169	0xbea90819	-0.3301399
170	0xbd569825	-0.05239119
171	0xbc7e2960	-0.015512794
172	0xbc99e8f3	-0.018787837
173	0x3d2fd1aa	0.04292456
174	0x3eda3150	0.42615747
175	0x3c2ffbe6	0.01074121
176	0x3c079f5f	0.008277743
177	0x3d0614ca	0.03273467
178	0xc05537bd	-3.331527
179	0x3ad1b1e5	0.0015998451
180	0xbc6e9680	-0.014562249
181	0x3be23e27	0.006904382
182	0x3c9329a7	0.017964197
183	0x3e09569a	0.13411942
184	0xbdbbd389	-0.091712065
185	0x3e8483ed	0.258819
186	0x3cae83bd	0.021303052
187	0x3beccc03	0.0072264685
188	0x3e419457	0.18904243
189	0x3c68fd0e	0.014220489
190	0xbf9ac359	-1.2090865
191	0x3d149a76	0.036280118
192	0xbd1c5f11	-0.0381766
193	0x3fb722b7	1.4307469
194	0xbbbbb722	-0.0057286182
195	0x3f9ddde8	1.2333345
196	0x3f482305	0.78178436
197	0xbe27e944	-0.16397578
198	0xbd6b4513	-0.05743892
199	0xbd2146ef	-0.03937429
200	0xbdbabb9b	-0.09117814
201	0x3cf2d49a	0.029642392
202	0x3fac02b1	1.3438321
203	0xbf5ac739	-0.8546024
204	0x3e82e036	0.25561684
205	0x3b0ca609	0.002146127
206	0xbdb4b615	-0.08823792
207	0x3d36a86f	0.044594225
208	0x3eb3be87	0.35106298
209	0x3f20820e	0.6269845
210	0x3ddd04cd	0.10791931
211	0xbd1ba6d3	-0.038000893
212	0x3ba773ad	0.005110225
213	0x3d5f9253	0.054582905
214	0x3bf4f391	0.0074753244
215	0x3fbb127c	1.4615016
216	0xbdb603b8	-0.08887428
217	0x3f0678a5	0.5252784
218	0x3c4aab95	0.01237001
219	0x3fd1e5f6	1.6398304
220	0x3ea7439a	0.32668763
221	0x3c27753c	0.010220822
222	0xbee6a32c	-0.45046365
223	0xbcc90934	-0.024540521
224	0xbe820fe2	-0.25402743
225	0xbd2d1131	-0.042252723
226	0xbe4d9d17	-0.20079456
227	0x3e6c6460	0.23085165
228	0x3cdd68a6	0.02702744
229	0xbb9919fd	-0.0046722875
230	0xbcfa2814	-0.030536689
231	0x3d20e687	0.039282348
232	0x3dbe4c17	0.09291857
233	0xbc452eff	-0.0120351305
234	0x3e9cffa2	0.30663782
235	0x3ed1dd8f	0.40989348
236	0x3c4cbe89	0.012496599
237	0x3e169aa3	0.14707427
238	0xbedf9560	-0.43668652
239	0xbc03cf65	-0.008045052
240	0xbc4934ba	-0.012280637
241	0xbec15280	-0.37758255
242	0x3d8033aa	0.06259854
243	0xbce176f0	-0.027522534
244	0x3c88e4ed	0.016710723
245	0x3d4e4aef	0.05036443
246	0xbcf76bd8	-0.030202791
247	0x3c1f7424	0.00973228
248	0x3c6ebad8	0.014570914
249	0xbf07362b	-0.5281703
250	0xbf1056f1	-0.5638266
251	0xc0067643	-2.1009681
252	0xbf0d2d5a	-0.55147326
253	0x3f4bbeba	0.795879
254	0x3ebe542f	0.37173602
255	0xbf56ce12	-0.8390819

l3.bias f4 [4]
0	0x3f403bd2	0.7509128
1	0x3f66b2a3	0.9011633
2	0x3f0a3715	0.539903
3	0xc029b8e2	-2.6519094
