TD3_control/dir_Walker2D_002/biped-v8-2d-9_actor.pth (torch, 527895 bytes, 6 tensors)

l1.weight f4 [400, 24]
00000000: f655 1d40 9fce db3e 68d6 0b40 ec80 e6bf
00000010: 8b75 e53f f6f6 3440 06b1 c13a 84df a53d
00000020: 6e0f 7e3f 8808 22bd 77f6 9a40 40d1 113f
00000030: 4ce2 f7bd 7510 643e 747b 983f 5c89 133e
00000040: 8461 d23f 63ca ca3d 47b7 c9bd 4c97 1e3e
00000050: cfb6 19bf 9e53 78bc 9ce0 993f a274 5bbf
00000060: 62ee 95bf dc92 c63f 6d23 c5bf 57f7 9d3f
00000070: 2d61 50bf 1a39 4fbf 9dbb 813d 20d5 29be
00000080: c379 ae3e 5548 53bf 5a49 84bf d034 113e
00000090: 264d d4be a984 353f ae49 9c3f c600 95bd
000000a0: 225d 64bf c84c 203f 8e5a 6ec0 3309 243e
000000b0: 7ede 833e a69a b6be 3b79 323e ba83 8cbe
000000c0: a4d0 8d3f 636d e4bf 67b1 e8bc 9c38 59c0
000000d0: bd8b 1dc0 8190 ff3e 995c 88bc d72d 44be
000000e0: 6b91 47c0 5825 fe3e 1317 e7bf 9af4 0d3f
000000f0: a79e 3d3f 7282 9d3e ad6f ccbf dbfd 05bf
00000100: 0d32 1f40 8147 f2be d0f2 72bf 0c8d b6bd
00000110: ee89 0440 36f9 e0bc d2fb 97bf dfae 63bf
00000120: 5d59 813f 6673 623f 876c 4ebf bbb1 27bd
00000130: eafd 683f 9c04 1840 2f52 093d 920e 8dbd
00000140: c0b7 75bf 26d1 0a3e 4af7 4040 c74c ea3d
00000150: ed00 46bf dccd 5ebf 9b51 483f 10f9 cd3f
00000160: d78a a63f 6134 adbe fc80 eebf 55c0 a6bd
00000170: 54d6 ee3f 1abd 19be 61a5 84bf aebb 56be
00000180: 0dd8 a13e c23e c23e e5c9 08bf 96c6 253f
00000190: da49 44bd e644 f2bf e703 33be 8411 7bbd
000001a0: 183a 2d3e d04a 31bf a742 c83f f120 4d3d
000001b0: 5b3a 24bf e513 9fbd 5fde 8c3f 943b 8f3d
000001c0: 735f 0a3f 0196 9c3e 295e eabf 32bc 893e
000001d0: 8235 593e 3455 943b ba60 82bf 3937 83bf
000001e0: a0e2 303f 1521 2f41 55fc d43e 36de 2640
000001f0: 381e 3bc0 2d9f 1f3f 5920 303e 8885 eebd
00000200: bec1 cf3f 9ede dfbe 23de 733f defd c53e
00000210: 6dfb 92be 9c06 86be fc79 1a3f 52be 85bf
00000220: b4d0 97bf 0db0 e7bd 891c ca3f 3169 bb3a
00000230: 57e5 8fbc f8fe 6abd 0262 a0be cfb1 783e
00000240: 210b f03f d376 a03f c162 48bf 7605 363f
00000250: 8977 82c0 31cd 3140 1180 c73b 5e7c a2bd
00000260: f0e8 acbf 5c61 5d3e bb9a d5bf b632 d73e
00000270: e558 333d 3b36 2abf 7d7d 9e3f 5494 4abe
00000280: c7be 8840 7092 0abe af8a e1be 41ef 963e
00000290: c3e8 44c0 4ad0 1b3e 7b76 1fc0 4356 06bf
000002a0: d69b 193f c872 4cc0 2630 cd3f c06a 953f
000002b0: 415b 863f ece0 353f 05ca 713d 9bbb e7bd
000002c0: 858c 56bd 751b cd3e 3657 3a3f 6e32 1b3d
000002d0: b7ba 06bf 7ed3 963e 3046 a0bf 8df8 3cbf
000002e0: 3fbe f3bf 226f 833d 770c fabf 90df a63e
000002f0: d80b d93e bd6e 9c3d 8f61 41bf 7721 8ebd
00000300: a631 253f 6848 75bf 2c2b 9dbf 2c14 0ec0
00000310: f776 b23e 39ab aebf eb20 ffbd 4276 073e
00000320: 8609 1bbe 665c c5be f74f 503e 7747 3cbe
00000330: 0784 12c0 7f53 d6bd f2f8 703f 677c 533c
00000340: e8ad 17be c82c bd3d 65a0 e0bf 38bf 3abd
00000350: 017b af3e d235 9e3d 337e e2bf 6c63 89bf
00000360: 33d5 4640 d7b7 ebbf e602 00bf e546 2cbf
00000370: 9097 c2bf 9a63 b23f b00e 2c3e 6f33 903d
00000380: cf0a 02c0 133b a73e 4e56 653f f17a 34be
00000390: 0f1c 24be 73dc 5abe 1143 b03f 4857 eb3c
000003a0: f4f2 f43f b6f1 b53d f4fd 57bf 9a38 293e
000003b0: 1947 d7be 03c4 f5bc 9c67 ecbf 8d8a d1bf
000003c0: 264e cb3f a4b4 debf b348 98be d512 e1bf
000003d0: fb1d 873f 2d1a a93f affa e639 cdcc 393e
000003e0: c7ab 10c0 c4cb 88bf 3981 223f 401f 813f
000003f0: 33ec 8bbf 9f5b 203f 159d d43f 3fca 4c3e
2.4583716 0.42931077 2.1849613 -1.8008094 1.7926496 2.8275733 0.0014777489 0.08099273
0.99242294 -0.039558917 4.842586 0.56959915 -0.121037096 0.22271903 1.1912675 0.14407867
1.643601 0.099018835 -0.098494105 0.15487403 -0.6004457 -0.015156655 1.202167 -0.8572484
-1.1713374 1.5513568 -1.5401436 1.2341107 -0.8139828 -0.80946505 0.063346125 -0.16585207
0.34077272 -0.82532245 -1.0334885 0.14180303 -0.4146511 0.7090555 1.2209985 -0.07275538
-0.8920461 0.6261716 -3.724277 0.16019134 0.25755686 -0.35664862 0.17429058 -0.2744425
1.1079297 -1.7845882 -0.028404905 -3.3940802 -2.461654 0.49914935 -0.016645717 -0.19158112
-3.1182506 0.49637866 -1.8053917 0.5545136 0.7407021 0.30763584 -1.5971581 -0.5234048
2.4874299 -0.47320178 -0.9490175 -0.08913621 2.0709186 -0.027462583 -1.1873724 -0.8893871
1.0105397 0.88457334 -0.8063435 -0.04094098 0.9101244 2.3752813 0.033525642 -0.06887545
-0.95983505 0.13556346 3.0150933 0.11440425 -0.7734516 -0.87032866 0.7824952 1.6091633
1.301112 -0.33829024 -1.8633113 -0.08142153 1.8659158 -0.15013543 -1.036297 -0.20970032
0.31610146 0.37938505 -0.53433067 0.64756143 -0.047921993 -1.8927276 -0.17481957 -0.061296
0.16916692 -0.6925478 1.5645341 0.050080243 -0.64151543 -0.077674665 1.1005362 0.069937855
0.54051894 0.30583194 -1.8309985 0.26901394 0.21211818 0.0045267586 -1.0185769 -1.0251228
0.690958 10.945577 0.41598764 2.6073127 -2.9237194 0.6235226 0.1719984 -0.11646563
1.6231 -0.4372453 0.9526083 0.38670248 -0.28707448 -0.26176918 0.60342383 -1.0448706
-1.1860566 -0.11312876 1.5789958 0.0014298317 -0.017565412 -0.057372063 -0.31324774 0.24286579
1.8753396 1.2536262 -0.78275687 0.7110208 -4.0770917 2.778149 0.0060882648 -0.079338774
-1.3508587 0.21619171 -1.6687845 0.42030877 0.04378595 -0.66489 1.2382046 -0.19783145
4.2732882 -0.13532424 -0.4405112 0.2947941 -3.0767066 0.15216175 -2.4916065 -0.52475375
0.6000341 -3.1945057 1.6030319 1.1673203 1.0496598 0.7104633 0.05903055 -0.1131508
-0.052380104 0.4006001 0.72789323 0.03788989 -0.52628654 0.2945823 -1.252142 -0.7381676
-1.9042434 0.06417681 -1.9535054 0.3259244 0.4239185 0.07638309 -0.7553949 -0.06939977
0.6452888 -0.9581361 -1.22788 -2.2199812 0.34856388 -1.3646003 -0.124574505 0.13228706
-0.15140352 -0.38547057 0.20343004 -0.18386637 -2.2893083 -0.10465144 0.9412986 0.012908078
-0.14812434 0.09237057 -1.7548949 -0.045592517 0.34273532 0.07725109 -1.7694763 -1.0733466
3.1067626 -1.8415478 -0.5000442 -0.67295676 -1.5202503 1.3936646 0.16802478 0.0704106
-2.0319097 0.32662258 0.89584816 -0.17625023 -0.16026329 -0.21373157 1.3770467 0.028728142
1.9136643 0.08883993 -0.84371877 0.16525498 -0.4204643 -0.030000692 -1.8469119 -1.6370407
1.5883224 -1.7398877 -0.29742965 -1.7583872 1.0556024 1.3211113 0.00044055792 0.18144532
-2.2604845 -1.0687184 0.6347843 1.0087662 -1.0931457 0.626398 1.6610438 0.19999026

l1.bias f4 [400]
00000000: 7219 3340 ac29 efbe 4959 983e ce9c b3bf
00000010: 8232 8cbf dab8 b63e 4721 90bf 5598 733f
00000020: 684d bfbf 2469 03c0 60a9 18c0 2456 5b3f
00000030: c767 c2bf 8edb eabe fc9e be3e 6af7 d8bf
00000040: 6707 cdbf 062c 84bf a0ab edbf 8313 90bf
00000050: 07b8 1c3f 190a a6bf 2eba b3bf df7f e7bf
00000060: 5545 b5bf c715 97bf 13af abbf 64da c9be
00000070: c1b9 a7bf ec4f 98bf 4d0e 1cbf a49a d6bf
00000080: e331 86bf db3d 62bf afbd 163f 5a90 9cbf
00000090: 3fdf 0ac0 e13e abbf e3d5 b7bf 1f6b bbbf
000000a0: b4f5 70bf 85f4 cdbe fa2f 7f3f 9aa3 d5bf
000000b0: 0225 b1bf e63e c2be 418d 1dbf 4dc4 99bf
000000c0: fc5c 82bf 7899 fc3e f540 a4bf 7a04 8bbf
000000d0: 05be 973f bfc2 7dbe 0d0f 433e ecfa 4bbf
000000e0: 0602 24bf ad08 85bf 6abd 8ebf 5f5a c9be
000000f0: b169 8ebf 682a 8ebf 7ba6 78bf 4c4a ee3f
00000100: 7a71 39bf 1483 1cbf ab84 08c0 e705 f7bd
00000110: 28ae 8cbf 37a1 f9bd 3c32 9dbf f1ca 68bf
00000120: deb6 80bf aa33 a8bf 0dbd 49bf 3e0c 94bf
00000130: 01e9 fbbe 5522 9d3f f30b 8dbe 72be dabf
00000140: 9093 9a3f 75b1 1340 8e66 9ebf 4dfb b8bf
00000150: 38fc c1bf 2cc9 43bf 0e5e 12bf cb1e f5bf
00000160: d241 d1bf 60e3 37bf e76d 85be 7ba3 63bf
00000170: 97e1 24bf 80cd 06bd ede7 68bf 4396 58bf
00000180: da05 f7be 1300 a63e 6e54 e73d fe76 243f
00000190: 9222 a5bf 1abf a9bf c130 3dbf 66a6 6dbe
000001a0: c857 0dbf 6cbd f4bf 5bae b5be b5dd 863b
000001b0: 2a47 743f 030c c43f 5e4a adbd 4059 89bf
000001c0: 28f8 d9bf 19dd 05c0 4c71 983f 471e 663f
000001d0: 0901 f83c 6804 cbbf f06a 133e fe78 b53f
000001e0: 773c 1c3e 7a22 a0be bdcd bcbf b845 b6bf
000001f0: a7a1 b1bf f340 abbe bb5d 703e e40b d8bf
00000200: 2553 12bf 63c2 a1bf 4045 c2be b039 bebf
00000210: 24b6 a2bf f0df 963f 3580 b6bf 916f 71bf
00000220: 0c4f 93bf f6b0 babf 92ea 26bf 8a71 803f
00000230: 043f 373f 6d97 cf3e 06a7 aabf 540f d8bf
00000240: 09aa 57bf a819 86bf 6db7 82be fc0f 9cbe
00000250: 0799 a3be 1476 9dbf 2034 fb3b 2474 73bf
00000260: fa82 5dbe 5c29 33bf f91b 71bf 0a53 5ebf
00000270: c059 c7bf 549c 6dbf 2af5 60bf a68a 94bf
00000280: 8be3 4ebf 174c 2cc0 77fe 6abf 488f acbf
00000290: f1c2 603f c388 54be e442 94bf 7731 91bf
000002a0: f9ff c5bf e20a febe 41cd 01c0 1a2c 70bf
000002b0: 3a1f 67bf e425 87bf f6ac 013e 7b09 64bf
000002c0: 82a0 0bbf 1b3b bbbf 58a5 363f c337 67bf
000002d0: 0384 6fbf 038d cdbf 9d8e a0bf 9ed2 83bf
000002e0: 823d a8bf 65a1 5b3e ab2f 5dbf 87a6 3abf
000002f0: 62a2 7c3f 239e b1be 2a37 473e 9ab5 d6bf
00000300: 8f6d ce3e 66c0 d6be 7117 cebf dca4 54bf
00000310: 3045 dcbf 10a6 0bc0 bf63 4ebf 803f f5bf
00000320: 1591 8ebd a106 c8bf 2918 b9be 4b29 61bf
00000330: 9022 0fbf 303d 40be d6b1 c1bf a541 b7bf
00000340: ae00 01bf 9dc4 85bf 64ba 973e 535d ef3f
00000350: 8ece 42bf c4a3 9fbf 58e5 85bf 642e d8be
00000360: 27e3 c5bf 65ce 8cbe a323 b9bf 1e45 f3bf
00000370: 96a9 20bf 7bd6 cebf b785 b93f b158 fe3e
00000380: 14ed 58bf 7fd8 54bf a45b b0bf 7d57 4abf
00000390: a812 b0bf 95a0 d2bf 9c02 8dbd c012 aebe
000003a0: db8b dabf 385e 1ac0 f6d7 22bd 0b4d da3f
000003b0: 4b4a 6ebf 78b8 cabd aaff 943e af8c 86bf
000003c0: 5bef 133e 5e53 07bf c92f 32bf 0861 8dbf
000003d0: 0a96 99bf b64a 83bf 86fd 1e3f e33c acbf
000003e0: 94ff 843f bae9 98bf 5851 e1be 60c6 acbf
000003f0: 2654 98bf b8e3 9cbf 61a1 93bf d558 b9be
2.798428 -0.4671148 0.2975562 -1.4032228 -1.0952914 0.35687906 -1.1260155 0.95154315
-1.4945498 -2.0532923 -2.3853378 0.85678315 -1.518792 -0.45870632 0.3723067 -1.6950505
-1.6017884 -1.0325935 -1.8568001 -1.1255955 0.61218303 -1.2971832 -1.4041193 -1.8085898
-1.4161783 -1.1803521 -1.3412803 -0.3942443 -1.3103563 -1.189939 -0.6095932 -1.6765943
-1.0483974 -0.88375634 0.58883184 -1.2231553 -2.1698759 -1.3378564 -1.4362148 -1.4642066
-0.94124913 -0.40225616 0.9968258 -1.6690552 -1.3839419 -0.37938613 -0.6154366 -1.2013031
-1.0184627 0.49335837 -1.2832323 -1.0860741 1.1854864 -0.24781321 0.1904871 -0.7967975
-0.6406559 -1.0393273 -1.1151555 -0.3932676 -1.1126004 -1.1106691 -0.9712903 1.8616424
-0.72438776 -0.6113751 -2.1330974 -0.12061673 -1.0990648 -0.121889524 -1.2280955 -0.90934664
-1.0055807 -1.3140767 -0.78804094 -1.1566236 -0.49201205 1.2276102 -0.2754818 -1.7089369
1.2076283 2.307706 -1.2375047 -1.4451691 -1.5155096 -0.7647884 -0.57174766 -1.9150022
-1.6348212 -0.7183132 -0.2606041 -0.88921326 -0.6440672 -0.032910824 -0.9097889 -0.8460428
-0.48246652 0.32421932 0.112954006 0.6424407 -1.2901175 -1.3261445 -0.7390252 -0.23208007
-0.5521207 -1.9120307 -0.35484585 0.004115785 0.9542109 1.5316166 -0.0846145 -1.0730362
-1.7028856 -2.0916197 1.1909575 0.8988995 0.030273931 -1.586072 0.14396262 1.4177549
0.1525744 -0.31276304 -1.4750286 -1.4240026 -1.3877457 -0.3344799 0.23473255 -1.6878629
-0.5715812 -1.2637447 -0.3794346 -1.4861355 -1.2711835 1.178709 -1.4257876 -0.9431086
-1.1508498 -1.4585254 -0.65201676 1.0034649 0.7158053 0.40545216 -1.3332222 -1.6879678
-0.8424383 -1.047658 -0.25530568 -0.30480945 -0.31952688 -1.230166 0.007666126 -0.9509909
-0.21631995 -0.69984984 -0.9418331 -0.8684546 -1.5574265 -0.9281666 -0.8787409 -1.1604812
-0.80815953 -2.6921442 -0.9179453 -1.3481226 0.87797457 -0.20755295 -1.1582913 -1.134322
-1.5468742 -0.49617678 -2.0281527 -0.93817294 -0.9028202 -1.0558438 0.12663636 -0.89076966
-0.5454179 -1.4627413 0.71346045 -0.9031946 -0.9356081 -1.6058658 -1.2543522 -1.029865
-1.3143771 0.21448286 -0.8640086 -0.7291035 0.98685277 -0.3469096 0.19454637 -1.677417
0.40317962 -0.41943663 -1.6100904 -0.83064055 -1.7208614 -2.1820107 -0.8062095 -1.9160004
-0.06961266 -1.5627023 -0.36151245 -0.87953633 -0.55912113 -0.18773341 -1.5132396 -1.4316908
-0.5039166 -1.0450627 0.29634392 1.8700355 -0.7609643 -1.2471852 -1.0460615 -0.42222893
-1.5459946 -0.27501217 -1.4464 -1.9005468 -0.6275877 -1.6159204 1.4493932 0.4967704
-0.8473675 -0.83142847 -1.3777966 -0.79039747 -1.3755693 -1.6455256 -0.06885263 -0.3399868
-1.707393 -2.4120007 -0.039756738 1.7054762 -0.9308211 -0.09898466 0.29101306 -1.0511683
0.14446776 -0.52861583 -0.69604164 -1.1045237 -1.1998913 -1.0257175 0.62105596 -1.3456081
1.0390496 -1.1946328 -0.44007373 -1.3498039 -1.190068 -1.2256994 -1.1533624 -0.36200586

l2.weight f4 [300, 400]
00000000: 3798 3d3d d766 7cbc be99 14ba 26ba 7dbd
00000010: f679 43bd c87a e43c 1e95 d7bd 47de 5abd
00000020: 18d3 5dbd 6ed4 17bd 9701 c6bd bee6 86bd
00000030: 9847 05bd 0ca5 213d 35de a73c 2074 fabb
00000040: 4759 5dbd d477 4e3a fe75 0bbd d22b 03bd
00000050: a433 853a ffd0 c6bd 7a3f 94bd e3b0 4a3b
00000060: 7c54 4f3c ca08 9cbd 8121 b33c e119 0abd
00000070: 3cac 8c3c 5953 4bbd 6856 94bd 8e53 84bd
00000080: 637d 60bd 91cb 3bbd 3ed9 bfbd e6fa b7bb
00000090: 9754 6abd fd72 0abd 7c27 e839 e7ee 3cbc
000000a0: ab3b 233d 6a93 a5bc 0939 253c aee9 08bd
000000b0: e29b 15bd 13fb ef3b b14f 5ebd fca5 b0bc
000000c0: 19b9 89bc 2865 e13c b857 6fbd b577 78bd
000000d0: 779d bebc b7d9 a83c abda 1cbc 4c89 4a3b
000000e0: 735e 113a 55f5 123c 7754 6fbd d11d 5d3c
000000f0: 4eab 2a3c b321 d7bc 1d1e d03c 0cad 103c
00000100: ac28 99bd e4b2 30bd 1eab be3c 5020 ad3c
00000110: afc3 5c3c cc53 c4bd 791e 9cbc 5e30 d9bd
00000120: 0cc7 793d 547d 30bd b326 fbbb 9e4c 53bd
00000130: 07ab c1bd b02a 99bd 63c0 cebc cb9e de3b
00000140: 3737 3fbd cd47 063b 7fa7 52bd 9400 2cbd
00000150: cb24 99bc 5c04 3bbd 96ac 8ebd e6e5 9dbc
00000160: fe38 c1bd f58f bfbd fb79 e7bd a525 5cbd
00000170: bcbd 683c e56a 18bd 5159 05bd 76fa f6bd
00000180: f3e6 c0bd 7c7b 7dbb fbaf 9abb 76f4 65bd
00000190: 3db7 e23c 9dd8 4dbd 4085 e73b ef2e 0dbc
000001a0: 521e 13bd 35e6 c0bc c9e0 053c c8e0 eabb
000001b0: 111c 6cbd 5bfb 24bc ec08 1abd e7b7 c13c
000001c0: 0b1b c63a dcfc c83c 42fd f0bc bf8d 47bd
000001d0: 67e7 1b3c 6fae 62bd 34db 6dbd e1d2 9bbd
000001e0: 3899 653c 0525 67bd afbc c5bc ca15 16bd
000001f0: 3cb5 c83c 4642 61bd d8f1 ae3c cac8 9cbd
00000200: 5d5b 54bd 33fc 58bd 8eb7 b23b 4d40 8fbc
00000210: 9c9f adbc 8762 5fba 9dc7 9bbc 1567 aa3c
00000220: 0659 88bd 9f83 c7bd 7793 b4bc e2a8 96bc
00000230: e2b7 10bc 3161 373c 24a1 2b3b 7862 debc
00000240: 2c9a 203b 8ed2 33bd c150 19bc 5fd0 043d
00000250: e32c 8dbd e648 353d 3d98 42bd e227 fe3b
00000260: 03a1 a6bd ea5d 22bd 6d56 83bc 6bfc 6ebd
00000270: f886 5cbc 5ebf 5fbd f3a2 82bc 7fee 38bd
00000280: d227 56bd f905 093d 256c 23bc 1956 fdbc
00000290: 61b6 c83c 828c 93bd a3ce 873c 7cb4 0c3b
000002a0: 1a45 60bd 9f2c 263a 91e3 ae3c 14ab 89bd
000002b0: 2640 4d3d 8ab5 4cbd cf87 2f3b 995e 93bd
000002c0: 5edc 23bd 9ad6 91bb 2a67 80bd 56a8 0d3b
000002d0: 8985 95bc 03ea 7e3c 3cc6 7abd 0395 da3b
000002e0: 36b2 4dbd 2253 48bd 1c78 893c 0d38 23bd
000002f0: b5e8 023d bfa7 46bd c5d3 37bd 27d5 b5bc
00000300: 3c9a b1bc a2e9 80bc b19c 7b3c 5cb7 a0bc
00000310: c9e1 9cbc 169c 71bd 6faa 3cbd 4d5a 523d
00000320: 4ae5 e439 7b6b 01bd ea0a 2cbd f921 a43c
00000330: 05e9 09bb f7bc 26bd ed17 e8bc 4ba5 553d
00000340: 23aa cebc 7c4f 46bd 5be5 ccbb 7bd8 7abd
00000350: 13dc bc3c 332d c7bd 5961 aa3c 6192 aabc
00000360: 13ba 51bd c93e 3dbb b66b 6dbd d6a0 253b
00000370: 817d 47bd 4dde df3c c25b abbc 9c42 19bd
00000380: 104d 673c b1fd 3cbd fe93 7dbc e0fe a3bc
00000390: bd51 203d dfbe 16be f8fe 2fbd 3f27 fe3b
000003a0: f399 43bd d935 02bd 5a85 fa3c 41b6 193d
000003b0: 0c06 47bc 4dcf 24bd 1419 253d 9cbe a7bc
000003c0: 2041 0bbc b651 bcb9 0f8c 76bc ba2d 45bd
000003d0: b7d3 71bc 8956 57bc ec65 88bc 448b 2abd
000003e0: 2a97 dabc 74de 91bd ae4a 933c 4c98 89bd
000003f0: bfbf 2a3c 8037 c5bc 896b 6ebd 50d1 a3bd
0.04628774 -0.015405378 -0.00056686613 -0.061945103 -0.047723733 0.027890578 -0.10526489 -0.053434636
-0.054156393 -0.037067823 -0.09668272 -0.06586979 -0.03253898 0.03946404 0.020491699 -0.0076432377
-0.05404022 0.0007876132 -0.034048073 -0.032024212 0.0010162485 -0.097078316 -0.0723867 0.0030928187
0.01265442 -0.07618864 0.021866562 -0.033716086 0.017171971 -0.049640033 -0.07243043 -0.06461249
-0.054807078 -0.045848433 -0.093676075 -0.005614626 -0.057209577 -0.033801068 0.00044279906 -0.011531568
0.039851826 -0.020211894 0.010084399 -0.03342598 -0.036525615 0.0073236316 -0.05427522 -0.021563523
-0.016811894 0.027514055 -0.058433264 -0.060661037 -0.023268444 0.020611627 -0.009573619 0.003090459
0.0005545385 0.0089696245 -0.05843016 0.013495878 0.010416819 -0.026261186 0.025404984 0.00883032
-0.07478461 -0.043139353 0.023274954 0.021133572 0.013474389 -0.095862955 -0.0190575 -0.106049284
0.06098084 -0.043088272 -0.0076645254 -0.05158674 -0.09456449 -0.07478845 -0.025238222 0.006793832
-0.046683516 0.0020489574 -0.051429268 -0.04199274 -0.018694302 -0.045658454 -0.06966512 -0.019274663
-0.094346985 -0.093536295 -0.11302563 -0.053746838 0.014205392 -0.037211318 -0.032555882 -0.120594904
-0.0941905 -0.0038678339 -0.0047206855 -0.05614134 0.027675265 -0.050255407 0.007065445 -0.008617147
-0.035917588 -0.023547271 0.008171269 -0.0071679093 -0.057643954 -0.010069693 -0.037606165 0.023647262
0.0015114261 0.024534635 -0.029417638 -0.048719164 0.00951562 -0.055342134 -0.058070377 -0.07608581
0.014013581 -0.05643179 -0.024137823 -0.036641873 0.024500482 -0.054994844 0.021355554 -0.07655485
-0.051844943 -0.05297489 0.0054540103 -0.017486716 -0.021194272 -0.00085214566 -0.019016081 0.020801106
-0.06657605 -0.097419016 -0.022042973 -0.018391076 -0.008832904 0.011192606 0.0026188577 -0.027146563
0.0024505956 -0.043901972 -0.009357632 0.03242528 -0.06893327 0.044258974 -0.047508467 0.0077562192
-0.08136179 -0.039640345 -0.016032422 -0.058346193 -0.013459913 -0.05462586 -0.01594684 -0.045149323
-0.05228407 0.03345296 -0.009974514 -0.030924844 0.024501028 -0.07204534 0.016578024 0.0021469882
-0.0547534 0.00063390465 0.021348746 -0.06722084 0.050110005 -0.049977817 0.002678383 -0.071957774
-0.04000508 -0.0044506313 -0.06269677 0.0021615229 -0.018252151 0.015558722 -0.061224207 0.0066705956
-0.050218783 -0.048907407 0.016780905 -0.039848376 0.031960208 -0.04849982 -0.044879694 -0.022196366
-0.02167999 -0.015736405 0.015357182 -0.019618683 -0.019150632 -0.058986746 -0.046060976 0.05135565
0.00043658382 -0.031596642 -0.042002596 0.02003573 -0.0021043431 -0.040707555 -0.028331721 0.05215959
-0.025227612 -0.048415646 -0.0062529272 -0.061241608 0.023054158 -0.09725418 0.020798372 -0.020821752
-0.051202845 -0.0028876534 -0.05796405 0.0025272868 -0.048703674 0.027327681 -0.020917777 -0.03741704
0.014117494 -0.046140376 -0.015477179 -0.020018995 0.03914045 -0.14721249 -0.042967767 0.0077561433
-0.04775424 -0.031789634 0.030581165 0.037527326 -0.012147438 -0.04023676 0.04030712 -0.020476632
-0.008499414 -0.00035919034 -0.015048041 -0.04813931 -0.014759949 -0.01314319 -0.016650163 -0.04163672
-0.026683409 -0.07122508 0.017979946 -0.067185014 0.010421692 -0.024074316 -0.058208022 -0.079989076

l2.bias f4 [300]
00000000: 952c c4bd 30bd 9dbd 5df1 2fbc 3c59 86bd
00000010: 6d03 a8bf 9fcd bcbd 6f3f 96bd 0c53 99bd
00000020: 3027 86bf 0a99 d3bd a78e 1dbe 855c d93d
00000030: fed0 febe 7b5e 67bd d4fc cebd 90e9 85bf
00000040: 7251 a7bd 9a56 17be 291b d7bc 9123 a8be
00000050: 76d3 2dbe 599f 44bd 77c4 57bf c9ac c0bc
00000060: d4f3 a6bf dc55 02bf e92e 40bd b848 84bf
00000070: 6c10 96be f697 b1bd b810 4abd c077 dfbf
00000080: f24b e3be 8e41 47bd 1f96 52bd 6cb4 babe
00000090: 076e 09be dc08 7cbd face 61bd 220f 6bbe
000000a0: 0654 04bf 5f6a cdbd 2df8 d0bd 52c7 adbe
000000b0: 353f a8bf 2040 0bbd 0134 05be 3a97 b6bd
000000c0: e692 80bc bbf4 89bd 9018 a73e ec07 95bd
000000d0: ab85 fcbd c37e 84be bef3 10be 6628 e03c
000000e0: 6c14 87be b320 913f 988e 94bd 0455 22bf
000000f0: dc8b 89be a1d0 b6bd b56b 46bd 397e 7abd
00000100: 7da3 e3bd 0449 3dbd 2313 00bf f0da 7bbd
00000110: e7c6 b7be 55e2 1c3e dfb1 9cbe 673d 0fbf
00000120: bfa4 133d af3c e4bc caca 2cbd 57bc c1bd
00000130: 85f9 e8bd a5bc 92bd 337b 873e 79ea 72bf
00000140: 98bf 20bd 4af0 4c3e 856a e1bc dee5 38bd
00000150: 935a dabe 7fe6 8fbd fa92 7abe ccd1 ccbc
00000160: 7edf f9bd 937c 0fbd 19b3 27be 25e7 e9bd
00000170: 136e 14bd 02f7 89be c51c 2abe 675e 1fbf
00000180: a933 c6be 9731 b8bd 09ec 6dbd 57e7 91bc
00000190: 22fc 6cbd b25e bcbe ee81 c0be 0068 9bbd
000001a0: 5aa7 bfbe 2e93 573f efa6 a2bf 17c0 edbd
000001b0: 5b3f 4abe 5c77 f1be bce2 74bd 08fe a53f
000001c0: d1c4 7e3f 413b e1bd 8ba3 163f 1d49 a9bd
000001d0: e370 8cbd 1931 1fbf 33dd a9bc 05c7 cebd
000001e0: 3684 54bf 6b2d c6bd 3ee1 f4be fe18 4ebe
000001f0: ca4c 653e 3e66 b1bd 5707 80bd ba5d b5bc
00000200: ac73 853d dc05 a4be 4bbc 95bc 1ec0 a3be
00000210: d722 35bf baf4 8abd de91 b0bd 0fac 7bbf
00000220: 627f 983d 3bb0 6cbf 6a2f b4bd 2054 f9bd
00000230: 1bc0 03be 1986 b6be 1847 81be bed5 94bd
00000240: 16c0 3fbd fdfb afbe 80d1 e4bc a513 593e
00000250: 8135 a0bf 0ee6 1abf 2cb6 4dbd ac7a 55bf
00000260: 8bb8 a0bc f0e0 97bd f81a 01bc 1404 14be
00000270: a11c 63be 23ff 80bd fad0 4bbd 1399 82be
00000280: 72ee 44be 57e0 a0bd ddd3 dfbd fc56 65bd
00000290: 47ff efbd c073 4fbf cf98 e1bd 37a9 70bd
000002a0: e77b ae3e 8182 bbbd 697f 0fbe 318b bd3d
000002b0: 33d6 bfbd 4b58 d2bd 528c dcbb 5424 b2bd
000002c0: b702 babd a135 dfbc 38cf 78bd aa25 bdbf
000002d0: 701b 353e 91bc fbbe d663 e1be 5c19 bbbd
000002e0: 5f43 ecbd 3b7c d73c e5e0 b4bf 0fcc f3bd
000002f0: c2d5 c3bd 6330 0fbf ddca 4abe 395e 5abe
00000300: 2b16 96bd 232a a8be 879b bdbd 0b45 463f
00000310: 9c44 efbd dfbf fcbe 7bba a6bd 8cdc bebd
00000320: 0168 15bf a475 64bd 6ab2 abbd 5866 6fbf
00000330: 7887 1abf 49cc cabd e678 92bd 1839 d9bd
00000340: 8804 47be 428e 1abf ecc8 9bbe 4a97 a1bd
00000350: c7ba b8be 2b3c bfbd a053 dfbd f674 debc
00000360: ae3d 7dbe 740c 96be eb83 a6be 8909 3ebf
00000370: d2b0 27bd f87c e2bd a3d4 1fbd b408 b1bd
00000380: 1d52 75bf 4712 8bbb a045 63be 7309 86bd
00000390: a3d1 13bb a8ac 0fbe b307 01bf eaee 2fbf
000003a0: 08ef a7bf 75f6 edbd a62a bbbd 1669 33be
000003b0: 4c69 56bd 0495 45bd a119 b1bd 3a7a 85bf
000003c0: 1a20 13bf 9c3c e9bd 24b6 2dbf a4cb a2bf
000003d0: 8e85 1bbf 267e 99be aecd c9bd 9526 8abd
000003e0: b420 7cbe 82a7 823e 3704 20bf 8694 c0bd
000003f0: e3d7 02bf 6a52 11bb 2567 bdbe ba92 a0bd
-0.09578816 -0.077021 -0.010738698 -0.06559989 -1.3126045 -0.092189066 -0.07336318 -0.07486543
-1.0480709 -0.10331924 -0.15386449 0.1061335 -0.49768823 -0.056486588 -0.10106817 -1.0461903
-0.08169831 -0.1477913 -0.026258068 -0.32839635 -0.16975197 -0.04800353 -0.84284157 -0.02351989
-1.304316 -0.5091226 -0.046919737 -1.0334692 -0.29309404 -0.086715624 -0.04933235 -1.745842
-0.4439388 -0.048646502 -0.051412698 -0.36465776 -0.13420878 -0.061531886 -0.05512903 -0.22954991
-0.5169071 -0.10030054 -0.10203586 -0.33941132 -1.3144289 -0.0339967 -0.13008119 -0.08915563
-0.015695047 -0.06736132 0.32635927 -0.072769016 -0.12330183 -0.25877962 -0.1415548 0.027363013
-0.26382768 1.1338104 -0.0725376 -0.63410974 -0.26864517 -0.089265116 -0.04844256 -0.06115553
-0.11115167 -0.04621221 -0.500292 -0.061488092 -0.35893938 0.15320714 -0.30604455 -0.5595307
0.036045786 -0.027860967 -0.042185582 -0.09459751 -0.11375717 -0.07164887 0.2646118 -0.94889027
-0.039245218 0.20013538 -0.027516613 -0.045141093 -0.42647228 -0.070263855 -0.2447013 -0.025002383
-0.12200831 -0.035030913 -0.16376914 -0.114210404 -0.036237787 -0.26946265 -0.16612537 -0.6225342
-0.3871129 -0.089938335 -0.05808643 -0.017810507 -0.05785764 -0.36790997 -0.37599128 -0.07588196
-0.37432367 0.84208953 -1.2707194 -0.11608904 -0.1975073 -0.47161376 -0.059786543 1.2968149
0.9951907 -0.1099763 0.58843297 -0.082658984 -0.06857469 -0.6218429 -0.020735359 -0.10096554
-0.8301424 -0.096766315 -0.47828096 -0.20126721 0.22392574 -0.08662079 -0.062514 -0.022139419
0.06516203 -0.3203572 -0.018278262 -0.3198251 -0.70756286 -0.06784959 -0.08621572 -0.98309416
0.07446171 -0.92456406 -0.08798106 -0.12174249 -0.12866251 -0.35649183 -0.25249553 -0.072673306
-0.046814047 -0.3437194 -0.027931929 0.211989 -1.2516328 -0.60507286 -0.05022256 -0.8339031
-0.019619247 -0.0741595 -0.007879965 -0.1445468 -0.2217889 -0.062986635 -0.049759842 -0.2550741
-0.19231585 -0.078552894 -0.109290816 -0.055991158 -0.11718612 -0.81035995 -0.11015474 -0.058755126
0.34078905 -0.09155751 -0.14013447 0.09255064 -0.09367027 -0.10270747 -0.0067305947 -0.08698335
-0.09082549 -0.027247252 -0.060744494 -1.4777119 0.17686248 -0.49167302 -0.4402148 -0.09135696
-0.115362875 0.026304355 -1.4131132 -0.119041555 -0.095622554 -0.5593321 -0.19803949 -0.21325006
-0.07328447 -0.32844648 -0.0925818 0.774491 -0.11683008 -0.49365136 -0.08141037 -0.0931941
-0.5836182 -0.055776253 -0.08383639 -0.9351554 -0.6036296 -0.099022456 -0.07151966 -0.10606593
-0.19435322 -0.6037332 -0.3042673 -0.07890184 -0.3608 -0.09337648 -0.10904622 -0.02715538
-0.2473056 -0.29306376 -0.3252252 -0.742333 -0.040940113 -0.11058992 -0.039021146 -0.08644238
-0.9582842 -0.004244122 -0.22194529 -0.06544771 -0.0022555373 -0.14030707 -0.50402373 -0.6872393
-1.3119822 -0.116192736 -0.09138994 -0.17520556 -0.052346513 -0.048237815 -0.086474665 -1.0427926
-0.5747086 -0.113885134 -0.6785605 -1.2718396 -0.60750663 -0.29979056 -0.098536834 -0.0674564
-0.2462185 0.25518423 -0.6250643 -0.094033286 -0.51110667 -0.0022174367 -0.36992756 -0.07840486

l3.weight f4 [4, 300]
00000000: 619c 25bb 9dca cbbc 476f ec3c d9c5 713e
00000010: 70c3 afbf a8a3 cc3b 3305 203b 4dd3 8dbd
00000020: 708b 263e 5de0 b03d 290f e73e 8039 fd3f
00000030: c42c 31bf 2eb8 8e3f 28d7 eebd e572 87bf
00000040: b986 b53c 91de 54bd 81d8 a03c 7e05 2a3e
00000050: a057 043e 0079 323d 0121 823f 9b81 1abf
00000060: 15f8 c0bf fd10 a83f 4a2a 3dbd 31a1 a23d
00000070: 6253 06bf 6942 60bc c064 a8bc e061 f4be
00000080: 6770 0a3f 7e7b f4bc 8aa7 eebc d61e 5bbe
00000090: c0bc 16bd 7f24 6dbd bee2 44bd c203 46bd
000000a0: 6b8e e53e c5fc 3ebd 9da0 a7bc 777e 493e
000000b0: b279 17bf 5c1f 0c3c f575 c83c 5d47 22bd
000000c0: 6bf3 dbbb 79b2 233d 31fe 713d a686 39bd
000000d0: e74b dbbb deef 023e dc3e 0abd 8abd 38bf
000000e0: 01d0 64c0 8fa6 ca3f a7b4 dbbc 5600 0939
000000f0: 2b3f e6bd b76e 87bc 6960 dcbb 0334 68bc
00000100: 41d8 87bb 36dd df3c 30e9 cb3e 2218 b93d
00000110: 57eb 393e 27c9 613f 5b81 373e d110 3b3f
00000120: 1d02 ca3d 6c4e c13c d7b7 11bc fdab 0b3d
00000130: a34c 503c 2aca 383c e37f 923f c574 773e
00000140: e6ae 923d ce22 3d40 02b8 f03c 9d4b a3bb
00000150: 77e7 89be 7f0e c2bb 5fc6 c840 120f 90bc
00000160: b17c 2c3d 4ab9 26bc 3cd7 843c 6b77 123d
00000170: 1e44 4a3d 8474 78be 2553 093e 0cfe 893f
00000180: 8c11 193f 543c d3be f332 353c 4e77 be3c
00000190: 6531 c0bc 757d b4bd 4de9 133f 87af 943c
000001a0: f489 683f fa16 ea3f 35d7 a4be 1463 923d
000001b0: e7da 8cbe 1a2b 44bf 63fc 6a3b 6118 c63c
000001c0: 7f87 7f3d 3ce7 ee3c df42 b4be b4d1 3e3d
000001d0: 9add c23c 2dd7 e73d 9f14 93bd 54e5 98bd
000001e0: dd08 1d3e 1f22 42bd 5812 a0be 018c 47bf
000001f0: 4315 03bf 6b3c 3f3d 9160 b43c 1d8b 25bf
00000200: ca44 693f c528 663d 48e2 52bd 3069 823e
00000210: c00f 87bf af48 aa3c 281a be3b c68b f83e
00000220: 24c7 94bf b882 d93e fde8 2a3c 3c92 adbb
00000230: ac34 a13d 6a5a 4b3e 7f83 0e3e c770 aa3b
00000240: f729 543d f167 313e 1723 0c3d ea87 1340
00000250: e9c7 4f3f 5b19 d2bf 610d 483d 2797 4e3f
00000260: 2787 ea3c 840c 88bd 1e43 ffbc 55f7 f1bd
00000270: 6277 6a3f 3b07 c6bc 9ad7 e0bc 4ec8 28be
00000280: 5ad7 073e 3d5f b8bb 6b55 b9bc 0f20 7abd
00000290: 7a83 d03c f3f4 13bd 8fe8 b4bb f5b4 d13b
000002a0: 08ac 2e3f 780f 843c 8840 543d 7a1c 4b3f
000002b0: d1f1 143d 6228 ecbc 90b9 803d 01e1 8dbd
000002c0: 5ab6 8ebc cd94 f6bd a84a 163c 8392 343f
000002d0: ed35 54bf 294d 00c0 8b4a edbd 1939 333f
000002e0: c6a1 07bd 250c f2bd 4660 d63d cad9 7ebf
000002f0: 7922 08bd 87ba 92bf 5967 723e 4743 ee3e
00000300: 4901 a53b 115d 97bf 4f30 ffbc 76b5 b440
00000310: 9aff 13bd f367 08be d9fe 5e3c a81d 3dbc
00000320: bf20 933f ed4f a5ba 9f57 57bd b840 583f
00000330: 274f a4bc 0f79 413f eabe 8d3d 17fd 363d
00000340: 143f 39be 8088 0b3f 7fdc 3dbc a3e3 59bd
00000350: 3304 1d3c 7775 b3bd 30d6 023c fba2 363d
00000360: 309f 423f 7e61 14be a83d e7be 922a 8c3e
00000370: 6f91 2f3d ea81 363d 6db9 e2bb 60e9 a63b
00000380: 40ae 1bbe a18e 9f3c a568 b3bd c079 44bb
00000390: bcef 16bf 064e dcbe 1697 29bf 344d bfbc
000003a0: bf06 e5be 77b3 06bd 1a1e bb3c ab11 463d
000003b0: 5269 913d 9054 15be 8bfe d3bd 7675 1b3d
000003c0: d4d0 ab3e a6fa 9fbc 7486 6dbf 336f f2bf
000003d0: 66b7 773f 35b3 29be 384d aebb c5e2 0abd
000003e0: 02c6 3abc 5544 84bf 8125 f33e bc32 8f3e
000003f0: f92f b7be 5cb4 febc 3dab 2fc0 9d8a 453d
-0.002527021 -0.024876887 0.028861655 0.23610629 -1.3731518 0.0062450953 0.0024417161 -0.06925068
0.16264129 0.08636544 0.45128754 1.9783173 -0.6920893 1.1149957 -0.116621315 -1.0581938
0.022158967 -0.05197007 0.019634487 0.16603658 0.12924051 0.043572426 1.0166322 -0.6035401
-1.5075709 1.3130184 -0.046182908 0.07940901 -0.5247098 -0.013687708 -0.020555854 -0.47730923
0.5407776 -0.029844042 -0.029132623 -0.21398482 -0.0368011 -0.057896134 -0.0480678 -0.048343427
0.4483522 -0.04662778 -0.020462329 0.19677149 -0.5917007 0.0085523985 0.024470309 -0.03961884
-0.0067123673 0.039965127 0.059080306 -0.045294426 -0.006692398 0.12786815 -0.033751354 -0.72164214
-3.5751956 1.583208 -0.02681954 0.00013065463 -0.11242517 -0.016532285 -0.00672536 -0.014172557
-0.0041456525 0.027327161 0.39826345 0.09037806 0.18156181 0.8819756 0.17920439 0.73072535
0.09863684 0.023596965 -0.0088939285 0.034099568 0.012713584 0.011278668 1.1445278 0.24165638
0.071622655 2.9552493 0.029384617 -0.004983379 -0.26934406 -0.005922138 6.274215 -0.017585311
0.042111102 -0.010176012 0.016215913 0.035758417 0.049381368 -0.24263197 0.13410623 1.0780654
0.597924 -0.41256964 0.0110595105 0.023250248 -0.023461053 -0.088129915 0.57777864 0.018150104
0.908355 1.8288262 -0.3219544 0.07147804 -0.2751076 -0.7662827 0.0035856 0.024181547
0.06238508 0.029162996 -0.3520727 0.046586707 0.023787308 0.113203384 -0.071816675 -0.07465616
0.15335412 -0.04739582 -0.31263995 -0.77948004 -0.5120432 0.04668848 0.022018703 -0.64665395
0.9112059 0.056191225 -0.05148533 0.25470877 -1.0551682 0.020786611 0.005801458 0.4854414
-1.1623273 0.42482543 0.010431525 -0.0052969735 0.078713745 0.19858709 0.1391735 0.0052014324
0.051797833 0.17324807 0.03421315 2.3051705 0.81164414 -1.6413988 0.048840884 0.8069939
0.028628899 -0.06643012 -0.031159934 -0.11814753 0.91588414 -0.02417337 -0.027446557 -0.1648266
0.13265744 -0.0056265877 -0.022623738 -0.06106573 0.025453318 -0.036122274 -0.005520887 0.0063997456
0.6823125 0.016120657 0.051819354 0.79340327 0.036363427 -0.02882785 0.06285393 -0.06927682
-0.017420936 -0.120401 0.009173073 0.7053606 -0.82894784 -2.0047095 -0.115864836 0.70009
-0.033113264 -0.11818723 0.104675815 -0.9955107 -0.033236 -1.1463174 0.23672237 0.46535704
0.0050355536 -1.1825277 -0.031150965 5.647151 -0.036132433 -0.13320903 0.013610565 -0.011542715
1.1494368 -0.0012612321 -0.052573796 0.8447375 -0.020057274 0.75575346 0.069211796 0.04467496
-0.18090469 0.5450516 -0.011588215 -0.053195607 0.009583521 -0.08762639 0.007985637 0.044589024
0.7602415 -0.14490315 -0.45164227 0.2737623 0.042863306 0.04455749 -0.006919077 0.0050937384
-0.1520319 0.01947719 -0.08760194 -0.0029979795 -0.58959556 -0.43028277 -0.66246164 -0.023352243
-0.4473171 -0.032885995 0.022841502 0.048356693 0.071001664 -0.1458304 -0.103512846 0.037953816
0.3355776 -0.019528698 -0.92783284 -1.8940185 0.9676422 -0.16572268 -0.005319264 -0.03390767
-0.011399748 -1.0333353 0.4748955 0.27968395 -0.35778788 -0.031091861 -2.7448266 0.048227895

l3.bias f4 [4]
00000000: bdb2 d6c0 1800 d5be 9493 8ac0 a98c 1bc0
-6.7093186 -0.41601634 -4.330515 -2.4304602
