TD3_control/dir_Walker2D_002/biped-v7-2d-17_actor_t.pth (torch, 527895 bytes, 6 tensors)

l1.weight f4 [400, 24]
2.9137337 1.9384272 0.78885525 -1.2270374 -1.2765177 2.5537024 -0.03126365 -0.14243186
1.8055264 -0.2820111 -3.6255078 -0.13977149 1.5692965 0.24346966 -0.16313177 -0.17493288
-0.1978781 0.8604146 1.9640841 0.45784074 0.17973197 -0.10118164 -0.2050845 -0.5921968
-1.1864077 -2.4223113 -0.30035105 -1.9115348 0.16431972 -0.9839008 0.0996233 -0.20250036
-1.6855137 -1.4610901 0.41737893 -0.011582404 0.09299748 0.07647954 0.10674267 -0.08506785
-1.473011 -0.036465786 -3.6436353 -0.096670635 -0.047341935 0.1145893 -1.2320888 0.035175342
2.473054 1.368435 -1.0346278 0.24250165 -0.5928607 -1.023081 0.058531888 0.13429491
-3.6193688 0.48956138 0.9346868 -0.007685392 7.005167 0.4167461 -0.029519133 -0.15992217
-1.8186814 0.1066742 -2.2735026 -0.3390074 -0.03514049 -0.19978099 0.3262461 0.19524352
-16.088804 0.3910564 0.1417392 0.04038727 3.7546086 -5.7499723 -0.09529111 0.11150605
-0.17430742 0.07330644 -6.301411 0.17348288 -4.811369 0.68415195 0.017462373 0.012579176
1.0648875 -0.22295605 -2.3053296 -0.3519881 0.18892497 0.11095536 -0.21976458 -0.08361708
10.713883 0.1327508 0.88415015 -1.607439 2.3937287 -2.5709333 -0.14267358 -0.09496728
-2.0897639 0.049276944 0.41280177 -0.16860177 0.14978449 0.32869184 0.009568392 -0.14438272
-1.0840273 1.2787024 0.23236336 0.30005926 -0.05853656 0.14048384 -2.8772013 -1.4362755
-1.8374581 0.6692864 -0.28334936 1.2194434 1.7436383 -3.2707355 -0.11588175 -0.10699876
-0.8633017 0.21792434 2.9964879 0.11834473 8.38904 0.03627039 -0.043145623 -0.20264395
1.8908937 0.0590201 0.5961327 -0.38686094 0.056942593 0.016505484 -0.49620503 0.3458755
7.2279196 -0.406343 0.865352 -2.5303514 7.9837666 1.3614887 -0.18219659 0.17331359
-0.9181963 -0.22604819 0.5681213 0.64595366 -0.23722264 -0.16867967 0.18031348 0.13825038
-2.5251548 0.48192644 2.155461 1.0950443 -0.12803042 0.01083006 -2.123229 -2.3690095
1.3346977 0.3471797 -0.22453257 2.2786925 -2.8109035 -7.801646 0.005484137 -0.099613614
0.43828505 -0.22716558 -7.00438 -0.037202172 3.6253817 0.12533127 -0.18116343 -0.20128998
-0.08596982 0.15590778 -0.33257625 0.29062942 0.18151014 0.17729464 0.5985403 -0.86680907
-7.062448 -1.2219774 0.19353093 -1.131082 -0.10785935 3.8725367 0.061413117 -0.10513691
0.5872705 0.23905057 -4.112274 0.58941746 2.0856688 0.61872 -0.029964752 0.046625655
3.1359568 0.140311 -2.3423686 -0.10609698 0.01466682 -0.18772146 -0.6152406 -0.7453585
-3.2993188 0.1200536 -1.8034719 -2.1488843 -1.1505176 4.9682317 -0.105730645 -0.16567062
-1.1753799 -0.6491256 -0.96824795 -0.58759695 0.3701261 -0.73836166 -0.18232283 0.09459851
-3.1036544 -0.60842526 -0.3854932 0.20906715 -0.12984596 0.030947996 0.8445603 -3.5125875
-2.5145793 2.8577116 -0.39080715 -4.8743773 -1.4066352 -2.821472 0.0049455883 -0.18441251
0.19823778 -0.5828327 -1.1127602 -0.004759761 -2.482679 -0.045779765 0.06239887 -0.10659538
00000000: 9d7a 3a40 621e f83f 6bf2 493f 900f 9dbf
00000010: ef64 a3bf dc6f 2340 500e 00bd a8d9 11be
00000020: 7d1b e73f c263 90be 5208 68c0 4220 0fbe
00000030: b5de c83f 1c50 793e 040c 27be 9b21 33be
00000040: 8fa0 4abe 2244 5c3f 1c67 fb3f 1a6a ea3e
00000050: a80b 383e 5238 cfbd ac01 52be 369a 17bf
00000060: 35dc 97bf 2607 1bc0 9dc7 99be 2cad f4bf
00000070: 6e43 283e ece0 7bbf 4d07 cc3d 415c 4fbe
00000080: eabe d7bf 0005 bbbf b1b2 d53e 20c4 3dbc
00000090: 7675 be3d 4ea1 9c3d e79b da3d 0e38 aebd
000000a0: a08b bcbf 265d 15bd 5231 69c0 41fb c5bd
000000b0: 9ee9 41bd cbad ea3d 16b5 9dbf 0514 103d
000000c0: 8446 1e40 e128 af3f af6e 84bf 5a52 783e
000000d0: b8c5 17bf 51f4 82bf 22bf 6f3d 9b84 093e
000000e0: bda3 67c0 caa7 fa3e a247 6f3f bed5 fbbb
000000f0: 542a e040 bf5f d53e 1cd2 f1bc a3c2 23be
00000100: 8dca e8bf 0178 da3d 1181 11c0 6192 adbe
00000110: 79ef 0fbd 6393 4cbe bb09 a73e ebed 473e
00000120: dfb5 80c1 8b38 c83e 1524 113e 1f6d 253d
00000130: 824b 7040 c6ff b7c0 fc27 c3bd 495d e43d
00000140: a57d 32be b021 963d 29a5 c9c0 7fa5 313e
00000150: bcf6 99c0 9524 2f3f 400d 8f3c e318 4e3c
00000160: 3c4e 883f 974e 64be 858a 13c0 c937 b4be
00000170: 8c75 413e 903c e33d f709 61be 6e3f abbd
00000180: 116c 2b41 d3ef 073e aa57 623f 90c0 cdbf
00000190: da32 1940 2c8a 24c0 0619 12be 357e c2bd
000001a0: b1be 05c0 9fd6 493d c15a d33e f1a5 2cbe
000001b0: 1b61 193e 4c4a a83e bfc4 1c3c 10d9 13be
000001c0: 68c1 8abf 85ac a33f a9f0 6d3e 5ea1 993e
000001d0: 08c4 6fbd ffda 0f3e 1124 38c0 e0d7 b7bf
000001e0: d431 ebbf 5a56 2b3f 2b13 91be b916 9c3f
000001f0: 8a2f df3f bb53 51c0 6953 edbd 2a22 dbbd
00000200: 5701 5dbf 8f27 5f3e 75c6 3f40 b95e f23d
00000210: 8239 0641 4390 143d 77b9 30bd e581 4fbe
00000220: ce08 f23f 0fbf 713d 279c 183f a312 c6be
00000230: a33c 693d 8236 873c 960e febe 9816 b13e
00000240: 1e4b e740 310c d0be b587 5d3f 47f1 21c0
00000250: 047b ff40 4345 ae3f be91 3abe 1e79 313e
00000260: ea0e 6bbf 2d79 67be 6670 113f 385d 253f
00000270: 7eea 72be 5dba 2cbe 19a4 383e 8291 0d3e
00000280: 239c 21c0 10bf f63e 13f3 0940 692a 8c3f
00000290: 681a 03be 9070 313c fce2 07c0 da9d 17c0
000002a0: 60d7 aa3f 8ac1 b13e deeb 65be 19d6 1140
000002b0: d8e5 33c0 16a7 f9c0 47b4 b33b 3902 ccbd
000002c0: e666 e03e 189e 68be e223 e0c0 4e61 18bd
000002d0: 4106 6840 d756 003e e882 39be f61e 4ebe
000002e0: f210 b0bd 4aa6 1f3e 6f47 aabe 61cd 943e
000002f0: cbdd 393e ba8c 353e f039 193f 33e7 5dbf
00000300: 93ff e1c0 c169 9cbf f92c 463e 4cc7 90bf
00000310: 5de5 dcbd a4d7 7740 528c 7b3d 0552 d7bd
00000320: 5c57 163f acc9 743e c097 83c0 10e4 163f
00000330: 997b 0540 6f64 1e3f a478 f5bc 8bfa 3e3d
00000340: 84b3 4840 b0ad 0f3e 5ee9 15c0 6049 d9bd
00000350: 1a4d 703c 0e3a 40be 6880 1dbf d1cf 3ebf
00000360: 0a28 53c0 a9de f53d 2bd8 e6bf 5287 09c0
00000370: 2944 93bf c1fb 9e40 4f89 d8bd 8fa5 29be
00000380: d972 96bf 182d 26bf 19df 77bf c16c 16bf
00000390: 2b81 bd3e 4505 3dbf d6b2 3abe ddbc c13d
000003a0: 46a2 46c0 c2c1 1bbf 5d5f c5be b315 563e
000003b0: 57f6 04be a786 fd3c 1b35 583f 3cce 60c0
000003c0: deee 20c0 bfe4 3640 e017 c8be e6fa 9bc0
000003d0: 9f0c b4bf ff92 34c0 9a0e a23b a2d6 3cbe
000003e0: d8fe 4a3e 8634 15bf ed6e 8ebf c5f7 9bbb
000003f0: 36e4 1ec0 9083 3bbd f595 7f3d ae4e dabd

l1.bias f4 [400]
-0.9879942 -1.2993706 -1.0663385 -1.7475263 -2.8912008 -2.464442 -1.6687174 -0.3479504
-1.0808927 -0.7342894 -0.29288262 -1.7835666 -1.5483172 -2.1522782 -2.3885562 2.836234
0.9227037 -1.467786 -2.4420412 -1.1180987 -2.2242756 -1.1499536 0.1679056 -1.3780391
2.5702562 -0.6029917 -0.79216737 -1.0218167 -2.3238523 -0.8704927 -2.1308682 -1.2664195
-0.34277835 -1.5381233 -1.26826 -1.9433875 -3.177234 -0.38437256 -1.7183443 -1.6106808
-1.4390547 -0.13298808 -1.0255368 -2.0449877 2.4024503 -1.3053569 -1.768065 -2.0480006
-3.3063636 -0.16766621 -2.263759 -1.4754581 -2.066216 -2.417007 -0.9859369 -0.0062077967
-1.559927 -1.4673002 -0.7974056 -2.1532319 -1.8298048 -3.116519 -1.1063409 -0.9281463
-1.4812603 -1.3002948 -1.709472 -1.3190206 -1.5090961 -2.274921 -1.1869398 -1.2963189
-1.0788184 -3.4716725 0.22424696 -1.4535798 0.19670773 -1.073638 -2.0571015 -1.1179816
-1.9351621 -0.6185255 -0.9727902 -1.6769307 1.3916166 -1.6149894 -1.5357143 -0.35733202
-1.3327017 -1.6801255 -1.0887681 -0.91343296 -1.973304 -2.2574687 -0.78325444 -1.4310385
-3.2889545 -1.2089146 -1.765195 -0.98918176 -0.8683013 -0.5059294 -0.85449815 -1.5529989
-1.3853683 -2.6380804 0.23375623 2.4913487 -1.0452927 -1.474816 -1.7319815 -0.625149
-1.7626446 -0.74908525 -2.3365726 -2.5362756 -0.37748975 -1.4887233 -0.25441068 -2.9650955
-4.416763 -0.82323414 -1.8118042 -2.5798523 -1.2179784 -1.0531079 -1.2909862 -1.6583614
0.24986027 -1.4594659 -0.06243701 0.44370285 -1.8871865 -0.022932243 -0.6971624 -1.2513813
-1.6116675 -1.188553 -2.560928 -0.90445966 -0.12005522 -2.0926008 1.0500841 -2.024142
-2.2743506 -2.1676323 -0.09641117 -1.3677058 -2.3759625 0.45500082 -1.6782897 0.117326215
-1.3589276 -1.5710727 -0.71938205 -1.1534051 -2.028176 -1.854266 -2.9720683 -0.26171753
-2.270708 -0.42973545 -1.1136662 -1.5560205 -2.456474 0.27030414 -2.1082997 -0.7621339
-2.0522377 -1.5088633 -3.3972387 -1.4274119 -3.0131247 -1.0124626 -0.56394994 -1.0978155
-1.2854961 -1.4480963 -1.3266851 -1.3678968 -0.5452983 -1.3269182 -1.665129 -1.6497031
-2.4068906 -1.6459113 -2.5023725 -1.1475933 -1.7634661 -0.96595156 0.6660474 -2.5637648
-2.3701189 -0.037611187 -2.127244 -1.6550975 -1.3428335 -1.7921966 -2.0159502 -1.6480916
-1.1212205 -1.5726223 -2.0601087 -1.2816323 -0.011525132 -0.50119156 1.6364462 0.6037845
-0.8986309 -1.095249 -2.8479657 -1.2896575 -1.5010492 -2.5161715 -0.27668145 -1.5065956
-0.56773907 -1.4702386 -0.9777019 -0.7796498 -1.7830749 -1.3905693 -0.5702044 -1.1317384
-1.0904722 -0.62640375 -2.2417889 -1.3696293 -0.42926347 -2.4901175 -1.4653853 0.2601737
-1.1600626 0.73971266 -1.603736 -2.1189897 -4.2326174 -1.9093175 -1.1434097 -1.9472976
2.5611527 -0.46122417 -2.5273495 -1.5973676 -1.7532963 -1.5471454 1.0762818 -1.2550963
-2.9218462 -1.5463725 -2.3108 -1.8056055 -0.4997569 -1.7223805 -0.36880958 -1.1386633
00000000: 30ed 7cbf c751 a6bf c87d 88bf f1ae dfbf
00000010: 6f09 39c0 6bb9 1dc0 8898 d5bf 8e26 b2be
00000020: b15a 8abf 64fa 3bbf b6f4 95be e94b e4bf
00000030: 422f c6bf edbe 09c0 1bde 18c0 dc84 3540
00000040: 4f36 6c3f 69e0 bbbf 674a 1cc0 dc1d 8fbf
00000050: 885a 0ec0 ae31 93bf 72ef 2b3e 9663 b0bf
00000060: 147f 2440 aa5d 1abf 7bcb 4abf e4ca 82bf
00000070: ffb9 14c0 9cd8 5ebf 2560 08c0 091a a2bf
00000080: a580 afbe 39e1 c4bf 5856 a2bf ecc0 f8bf
00000090: cd57 4bc0 7bcc c4be b5f2 dbbf ca2a cebf
000000a0: f232 b8bf 072e 08be ca44 83bf 14e1 02c0
000000b0: bfc1 1940 ef15 a7bf f44f e2bf 7112 03c0
000000c0: 769b 53c0 b1b0 2bbe 6de1 10c0 d0db bcbf
000000d0: e23c 04c0 3eb0 1ac0 5c66 7cbf c66a cbbb
000000e0: b0ab c7bf 7ed0 bbbf c622 4cbf 8dce 09c0
000000f0: 0b37 eabf 0c75 47c0 949c 8dbf ff9a 6dbf
00000100: f099 bdbf 0f70 a6bf facf dabf abd5 a8bf
00000110: 102a c1bf 4e98 11c0 a5ed 97bf c7ed a5bf
00000120: b916 8abf e22f 5ec0 ffa0 653e e70e babf
00000130: c06d 493e f86c 89bf 8da7 03c0 051a 8fbf
00000140: 64b3 f7bf b057 1ebf c708 79bf aaa5 d6bf
00000150: 7e20 b23f f9b7 cebf 4992 c4bf 39f4 b6be
00000160: f895 aabf 5a0e d7bf c15c 8bbf bed6 69bf
00000170: 3a95 fcbf 5e7a 10c0 5d83 48bf 452c b7bf
00000180: 3b7e 52c0 b7bd 9abf e9f1 e1bf 043b 7dbf
00000190: fe48 5ebf 9784 01bf 64c0 5abf abc8 c6bf
000001a0: c053 b1bf 4fd6 28c0 cb5d 6f3e 4272 1f40
000001b0: 27cc 85bf c5c6 bcbf 92b1 ddbf c409 20bf
000001c0: 579e e1bf 0dc4 3fbf 688a 15c0 5752 22c0
000001d0: 5646 c1be 7c8e bebf 1e42 82be 20c4 3dc0
000001e0: 1f56 8dc0 79bf 52bf 33e9 e7bf 4d1c 25c0
000001f0: b7e6 9bbf 3dcc 86bf 093f a5bf 3045 d4bf
00000200: 5fdb 7f3e c7cf babf f3bd 7fbd 052d e33e
00000210: 548f f1bf 66dc bbbc 3c79 32bf 432d a0bf
00000220: 1f4b cebf 8122 98bf 3fe6 23c0 ab8a 67bf
00000230: 83df f5bd 2ced 05c0 2869 863f 8b8b 01c0
00000240: f68e 11c0 7dba 0ac0 3873 c5bd fc10 afbf
00000250: c50f 18c0 def5 e83e 32d2 d6bf ba48 f03d
00000260: 57f1 adbf e918 c9bf 6c29 38bf c7a2 93bf
00000270: a3cd 01c0 9758 edbf 5e36 3ec0 d7ff 85be
00000280: 4853 11c0 4906 dcbe 9d8c 8ebf ae2b c7bf
00000290: df36 1dc0 4e65 8a3e 62ee 06c0 351b 43bf
000002a0: dd57 03c0 6f22 c1bf 5c6c 59c0 6fb5 b6bf
000002b0: 09d7 40c0 6098 81bf 065f 10bf 3885 8cbf
000002c0: 238b a4bf 385b b9bf d1d0 a9bf 3e17 afbf
000002d0: ab98 0bbf 75d8 a9bf f222 d5bf 7929 d3bf
000002e0: 7f0a 1ac0 39ad d2bf df26 20c0 56e4 92bf
000002f0: 42b9 e1bf 9a48 77bf 1582 2a3f b914 24c0
00000300: 07b0 17c0 300e 1abd c424 08c0 3cda d3bf
00000310: f8e1 abbf b366 e5bf 5405 01c0 aaf4 d2bf
00000320: 2784 8fbf b04b c9bf d2d8 03c0 870c a4bf
00000330: e8d3 3cbc 174e 00bf 1277 d13f 9f91 1a3f
00000340: ad0c 66bf 1f31 8cbf 1245 36c0 7f13 a5bf
00000350: 6122 c0bf f408 21c0 31a9 8dbe 20d8 c0bf
00000360: 5957 11bf c730 bcbf ac4a 7abf 2197 47bf
00000370: cc3b e4bf 2dfe b1bf eaf8 11bf cedc 90bf
00000380: 9894 8bbf ff5b 20bf 7879 0fc0 0350 afbf
00000390: 6cc8 dbbe 165e 1fc0 bf91 bbbf 7d35 853e
000003a0: ee7c 94bf cf5d 3d3f 3947 cdbf 879d 07c0
000003b0: 9a71 87c0 8464 f4bf 405b 92bf 0c41 f9bf
000003c0: ede9 2340 9325 ecbe 18c0 21c0 8b76 ccbf
000003d0: 036c e0bf dc08 c6bf 9ac3 893f ffa6 a0bf
000003e0: 87ff 3ac0 89ef c5bf 26e4 13c0 151e e7bf
000003f0: 23e0 ffbe f776 dcbf 9cd4 bcbe b8bf 91bf

l2.weight f4 [300, 400]
-0.023753034 0.019522214 -0.003796517 -0.0040895813 -0.012336589 -0.110220276 -0.004197708 0.019357184
-0.01990704 -0.01030854 0.0019812745 -0.0031034725 -0.037197433 -0.0044565224 -0.0040769153 -0.00553751
0.0028126666 -0.013617905 0.01689961 -0.012235821 -0.053354032 -0.03682714 -0.0047391793 -0.014638263
0.023180826 0.01986308 -0.073602125 0.005803495 -0.052657403 -0.017557124 -0.036449395 0.005032732
0.0009903111 0.016389616 -0.07631712 0.021954088 -0.044466972 -0.004493776 -0.015539225 -0.02720936
-0.050521318 -0.019736422 -0.03986996 0.04034456 -0.018917602 -0.02062863 0.025532233 -0.029620372
-0.070510134 0.01546267 -0.023478853 -0.0028058216 -0.0524391 -0.029005697 0.0007115951 -0.04436639
0.006686297 -0.058198404 -0.06653152 -0.030690648 0.02062006 -0.0036674356 0.007662417 -0.016198508
0.008646686 0.03657158 -0.0095290225 -0.008230199 0.02256243 0.0019455695 -0.05198089 -0.028188368
-0.007447934 -0.045679927 0.00585062 0.027904872 -0.015887076 0.012113817 -0.03208037 0.018732825
-0.025294932 -0.058709517 0.014663409 -0.03548082 -0.02833738 -0.03194924 -0.0077407416 0.03218915
-0.03188442 0.0020963857 0.023043735 0.016117672 -0.009876778 0.022485686 0.007939812 0.011463381
-0.013727057 0.003593069 -0.04561138 -0.0126789445 -0.011149898 -0.006122567 -0.047421876 -0.03784191
-0.03392141 -0.013743076 -0.020636452 -0.030380704 -0.02160652 -0.043512553 -0.028617894 -0.049290482
-0.038446892 -0.018428098 -0.012882905 -0.030825876 -0.0024954113 0.020826813 -0.1085275 0.024426937
-0.06473593 -0.008942103 -0.032090057 0.0063154437 -0.011180259 -0.051701494 -0.01966676 -0.039772358
-0.018834528 -0.0381746 -0.037944723 -0.01176867 0.016033106 -0.0032446147 -0.08834684 0.027385194
0.026161062 -0.013158204 -0.024766313 -0.07299565 -0.03426935 -0.047872633 -0.020402132 -0.02589396
0.01916049 -0.027162792 -0.027467152 -0.040153082 -0.04172441 -0.08179628 -0.057395976 0.03415461
0.028598895 -0.0070726103 -0.055983346 -0.0068362406 -0.013804729 -0.018074196 0.0012235844 -0.02228266
-0.05858211 -0.042785373 -0.050072048 -0.029009422 -0.009650094 -0.056925844 0.026921023 0.026152493
0.016219743 -0.03991094 0.038656253 -0.013223955 -0.023916574 -0.020150675 -0.029699346 -0.05325047
-0.009376658 -0.01461945 -0.053646836 -0.026433753 -0.030681705 -0.028931936 -0.041816052 -0.012847142
0.00695666 0.021497367 -0.05286453 0.0034423345 -0.008295763 -0.007156522 -0.014298703 0.018486584
0.009425645 -0.018190425 -0.025997523 -0.025830258 -0.043894768 0.016905941 -0.053798087 -0.081067614
-0.010630219 -0.042031374 0.026418854 -0.038066916 -0.016159767 0.030061072 -0.009237145 -0.025855962
-0.00029593677 0.0072872797 -0.015674269 0.042710863 -0.024925383 -0.031393986 0.02228303 0.0062217526
-0.015813315 -0.048666123 0.012939902 0.028563876 -0.053588726 -0.018060785 -0.01426592 0.0321586
-0.052217074 -0.00885698 -0.04501608 0.006301847 -0.011766621 -0.0404973 -0.0035768643 0.012520619
0.016557626 -0.0067877183 -0.0016109219 -0.03571924 -0.0053993016 -0.007830895 0.003727785 -0.04360643
-0.031864304 -0.026674036 -0.013876813 0.03715943 0.03492053 0.011820638 -0.023934083 0.0375789
-0.025189133 -0.03882166 -0.028794846 0.03054238 -0.039792474 -0.0020797153 -0.03135673 -0.04617241
00000000: b995 c2bc 0ded 9f3c fcce 78bb e501 86bb
00000010: 681f 4abc 2bbb e1bd ed8c 89bb f592 9e3c
00000020: 1714 a3bc 27e5 28bc 45d8 013b a163 4bbb
00000030: 565c 18bd 0508 92bb a597 85bb 0074 b5bb
00000040: b754 383b a21d 5fbc 0d71 8a3c c178 48bc
00000050: c289 5abd 0ed8 16bd 1e4b 9bbb 53d5 6fbc
00000060: b7e5 bd3c e6b7 a23c b6bc 96bd 3f2b be3b
00000070: 4aaf 57bd f5d3 8fbc f64b 15bd 9ee9 a43b
00000080: 54cd 813a 8443 863c 264c 9cbd 0fd9 b33c
00000090: 0023 36bd 8640 93bb 3c98 7ebc 2ae6 debc
000000a0: 71ef 4ebd 47ae a1bc af4e 23bd 5640 253d
000000b0: 16f9 9abc 5ffd a8bc f928 d13c 6ca6 f2bc
000000c0: 9e67 90bd 2357 7d3c b956 c0bc e0e1 37bb
000000d0: 62ca 56bd 5b9d edbc 578a 3a3a 88b9 35bd
000000e0: b918 db3b 7361 6ebd ad41 88bd f46a fbbc
000000f0: 66eb a83c 5c59 70bb 0315 fb3b bcb2 84bc
00000100: d4aa 0d3c 15cc 153d 9e1f 1cbc f5d7 06bc
00000110: d8d4 b83c 7b02 ff3a eae9 54bd 4beb e6bc
00000120: cc0d f4bb e01a 3bbd 8fb6 bf3b c298 e43c
00000130: 9d25 82bc 0879 463c b566 03bd 9575 993c
00000140: 5137 cfbc 6479 70bd cc3e 703c 5654 11bd
00000150: cb23 e8bc 35dd 02bd 0ca6 fdbb c5d8 033d
00000160: 3d99 02bd 8463 093b 37c6 bc3c 3509 843c
00000170: 36d2 21bc e733 b83c fc15 023c e8d0 3b3c
00000180: 73e7 60bc b279 6b3b 00d3 3abd 59bb 4fbc
00000190: 10ae 36bc d19f c8bb 713d 42bd 1e00 1bbd
000001a0: 2df1 0abd a32a 61bc c70d a9bc f4e0 f8bc
000001b0: 2800 b1bc 383a 32bd 1370 eabc d1e4 49bd
000001c0: 7d7a 1dbd 86f6 96bc d212 53bc 8c86 fcbc
000001d0: 0e8a 23bb fe9c aa3c aa43 debd 001b c83c
000001e0: 4594 84bd e681 12bc dd70 03bd c8f1 ce3b
000001f0: 682d 37bc f2c4 53bd 2f1c a1bc 57e8 22bd
00000200: de4a 9abc f85c 1cbd ed6b 1bbd 61d1 40bc
00000210: dc57 833c 9aa3 54bb 30ef b4bd ea56 e03c
00000220: b94f d63c 8295 57bc b9e2 cabc be7e 95bd
00000230: 055e 0cbd 1816 44bd 5f22 a7bc 921f d4bc
00000240: 76f6 9c3c 8184 debc cb02 e1bc 8f77 24bd
00000250: 37e7 2abd cf84 a7bd 0b18 6bbd b4e5 0b3d
00000260: 3b48 ea3c 5bc1 e7bb cb4e 65bd 8b02 e0bb
00000270: 3b2d 62bc 5610 94bc ae60 a03a 208a b6bc
00000280: cbf3 6fbd b73f 2fbd 5918 4dbd 2ba5 edbc
00000290: 6e1b 1ebc 132b 69bd 7a89 dc3c c13d d63c
000002a0: 44df 843c a779 23bd 0556 1e3d 4aa9 58bc
000002b0: b1ec c3bc 0713 a5bc 0b4c f3bc 2a1d 5abd
000002c0: 8ea0 19bc 6b86 6fbc c9bc 5bbd 998b d8bc
000002d0: 3358 fbbc ab02 edbc 4f47 2bbd d27c 52bc
000002e0: b2f4 e33b 3f1b b03c 7a88 58bd ca98 613b
000002f0: f4ea 07bc 4281 eabb 1b45 6abc 2d71 973c
00000300: 056e 1a3c 1604 95bc c2f8 d4bc fa99 d3bc
00000310: 00cb 33bd 547e 8a3c 625b 5cbd c706 a6bd
00000320: 5f2a 2ebc 1729 2cbd 5a6c d83c 0eec 1bbd
00000330: 7d61 84bc a342 f63c 6557 17bc e2cf d3bc
00000340: f627 9bb9 22ca ee3b 5367 80bc 96f1 2e3d
00000350: 5130 ccbc fb96 00bd e78a b63c d8df cb3b
00000360: ed8a 81bc 2156 47bd e201 543c cafe e93c
00000370: da7f 5bbd 36f4 93bc 9bbb 69bc bcb8 033d
00000380: 92e1 55bd de1c 11bc c862 38bd b97f ce3b
00000390: c9c8 40bc 7fe0 25bd d369 6abb 4823 4d3c
000003a0: dca3 873c 826b debb 9225 d3ba 564e 12bd
000003b0: a0ec b0bb 274d 00bc db4d 743b a89c 32bd
000003c0: 2584 02bd 8283 dabc 935b 63bc 7d34 183d
000003d0: d408 0f3d 59ab 413c 6911 c4bc 55ec 193d
000003e0: 7159 cebc 7603 1fbd 2be3 ebbc 0334 fa3c
000003f0: 6ffd 22bd d54b 08bb ea6f 00bd 481f 3dbd

l2.bias f4 [300]
-0.080052845 -0.1377718 -0.051095016 -0.215696 -0.12298611 -0.30116767 -0.07958495 -0.46365604
-0.061592147 -1.3843359 -0.39950946 -0.07240854 -0.03529413 1.6803875 -0.04976583 -0.076427385
-0.078382425 -0.17698872 -0.705417 -2.387293 -0.024258183 -0.10163273 -0.09651715 -0.056399833
-0.025447495 -0.0729882 0.042961948 -0.2834378 -0.16288142 -0.11055704 -0.49768 -0.22808461
-0.092011034 -1.4210118 0.5343036 -0.1163521 0.0043021087 -0.06901703 -0.045365512 -1.2795718
-0.035030056 -0.069705464 -0.07119112 -0.042815175 -0.54720867 -0.050075773 -1.1187675 -0.15137956
-0.114181004 -0.41686302 2.6566727 -1.1587751 -0.3358648 -0.16222762 -0.20197798 -0.23406915
-0.08246683 0.24739973 -0.08239084 -1.1842083 -0.048555855 -0.1079389 -0.08155786 -0.26223984
-0.56082916 -0.9616086 -0.995023 -0.39539078 -1.4410584 -0.07106297 -0.2158778 -0.04016873
-0.13982518 -0.9604523 -0.04881141 -1.5771524 -0.67989296 0.7580247 0.24723452 0.1261129
-0.01425863 -0.12073156 -0.07878774 -0.06500564 -0.04100394 -0.07814401 -0.06346933 -1.3967886
-0.13934834 -0.06415776 -0.09501103 -0.09179645 -0.033623386 -0.09485269 -0.1272337 -0.015890801
-0.061045274 -0.049869392 -0.02391732 -0.02317077 0.1528508 -0.05039913 -0.05042222 -0.11745927
-2.152612 -0.11233624 -0.044558614 -0.07391803 -0.8236357 -0.93675345 -0.59658945 -1.8986653
-1.8271348 -1.0284315 -0.1020113 -0.029793225 -0.06075321 -0.111317 -0.10232563 -0.09315097
-0.07860594 -0.079926185 -0.15448794 -0.120643094 -0.02572595 -0.3237799 -0.074381456 -0.33484432
-0.11888233 -0.081979565 -0.08646929 -0.0820794 -1.535596 -0.15836821 -1.0372293 -0.03959131
-0.082477264 -0.11399772 -0.10563965 -0.033110786 -0.15160903 -0.09567077 -0.6190971 -0.040667173
-0.02537279 -0.038137697 -0.06720654 -0.07869237 -1.0290753 -2.8324392 -0.05809633 -0.08461558
-0.19941796 -0.12969239 -1.2595309 -0.11102941 -0.092517674 -0.11799571 -0.027676513 -0.03941771
-0.08395397 -0.04374501 -0.05981891 -0.04441631 -1.3182533 -0.20353714 0.0022360843 -0.024469035
-1.2710704 -0.14397964 -0.10935749 -0.008800356 -0.46755832 -0.0675746 -0.7524796 -0.043426126
0.8435684 -0.110451244 -0.08495682 -1.5999687 -0.40340164 -1.0733099 -0.3768537 -0.014320496
-0.034214962 -0.09430284 -0.06469271 1.4836936 -0.0228571 -0.07827205 -0.07893079 -0.39676765
0.30408457 -0.108248845 -0.08407914 -0.04708809 -0.028387299 -1.2299682 -0.1138949 -0.060809836
-0.1144075 -1.2659205 -0.07904255 -0.00055919576 -0.33544633 -0.080562465 -0.3971074 -0.020066483
-0.020123107 1.2562336 -0.06345592 -0.057865363 -0.53174925 0.9086289 -0.0629463 0.0077753863
-0.07199876 -0.037464164 -0.09895051 -0.045806587 -0.066389956 -0.13251169 -0.115475915 -0.01636652
-0.09051347 -0.06644062 -0.027996143 -0.077704415 -0.03701713 -0.066130675 -0.4203115 -0.7276006
-1.4964476 -0.029899396 -0.21958224 -0.30597475 -1.2362391 -0.057664197 -0.07049076 -0.09105289
-1.449789 -2.9665418 -0.18657017 1.3099353 -0.12972815 -0.11043783 -0.060847834 0.2866854
-0.11967805 -1.3789017 -0.032490898 -0.10519411 -0.054342724 -0.074526 -0.12418118 -0.45071587
00000000: bff2 a3bd 0d14 0dbe 0249 51bd 6adf 5cbe
00000010: 24e0 fbbd a632 9abe 6ffd a2bd 5364 edbe
00000020: 0c48 7cbd eb31 b1bf 818c ccbe ee4a 94bd
00000030: 9490 10bd f016 d73f 41d7 4bbd f685 9cbd
00000040: f786 a0bd 883c 35be 3596 34bf 69c9 18c0
00000050: 19b9 c6bc d224 d0bd c9aa c5bd 8303 67bd
00000060: 4477 d0bc d67a 95bd def8 2f3d c21e 91be
00000070: 63ca 26be bb6b e2bd eacf febe 038f 69be
00000080: 4870 bcbd b7e3 b5bf 1fc8 083f 034a eebd
00000090: b4f8 8c3b cd58 8dbd 30d1 39bd 02c9 a3bf
000000a0: ad7b 0fbd bdc1 8ebd a6cc 91bd f75e 2fbd
000000b0: de15 0cbf 411c 4dbd c633 8fbf 3e03 1bbe
000000c0: bbd7 e9bd 126f d5be ed06 2a40 be52 94bf
000000d0: 79f6 abbe ff1e 26be 51d3 4ebe d3af 6fbe
000000e0: 5fe4 a8bd 5b56 7d3e 87bc a8bd 2394 97bf
000000f0: 81e2 46bd 120f ddbd cf07 a7bd 4d44 86be
00000100: 8092 0fbf fb2b 76bf d4b9 7ebf a970 cabe
00000110: 9a74 b8bf 7689 91bd 120f 5dbe f787 24bd
00000120: 552e 0fbe 34e0 75bf 79ee 47bd 21e0 c9bf
00000130: 770d 2ebf e80d 423f 0c2b 7d3e bd23 013e
00000140: 079d 69bc 1c42 f7bd 775b a1bd ad21 85bd
00000150: bff3 27bd f709 a0bd 35fc 81bd f8c9 b2bf
00000160: 55b1 0ebe 2565 83bd 2595 c2bd c7ff bbbd
00000170: adb8 09bd 2142 c2bd 8d49 02be 6d2d 82bc
00000180: 9c0a 7abd d943 4cbd 41ee c3bc a0d0 bdbc
00000190: ec84 1c3e 516f 4ebd 8887 4ebd 7c8e f0bd
000001a0: 65c4 09c0 8b10 e6bd 1883 36bd 5662 97bd
000001b0: cad9 52bf 13cf 6fbf 16ba 18bf 7707 f3bf
000001c0: 8edf e9bf a5a3 83bf 4deb d0bd ec10 f4bc
000001d0: 5cd8 78bd 2bfa e3bd 1a90 d1bd f0c5 bebd
000001e0: 27fc a0bd 57b0 a3bd 1632 1ebe ba13 f7bd
000001f0: 3abf d2bc 7bc6 a5be 4e55 98bd b770 abbe
00000200: 9478 f3bd e7e4 a7bd d016 b1bd 3f19 a8bd
00000210: 698e c4bf 472b 22be eec3 84bf 7f2a 22bd
00000220: d7e9 a8bd a377 e9bd 9a59 d8bd 2d9f 07bd
00000230: 663f 1bbe 09ef c3bd 267d 1ebf 9f92 26bd
00000240: 99da cfbc 4636 1cbd 95a3 89bd 7729 a1bd
00000250: bdb8 83bf af46 35c0 6bf6 6dbd ef4a adbd
00000260: 3934 4cbe 15ce 04be 4f38 a1bf 6363 e3bd
00000270: e879 bdbd bca7 f1bd dbb9 e2bc 7774 21bd
00000280: 0ff0 abbd f82d 33bd ac04 75bd e0ed 35bd
00000290: 86bc a8bf 0a6c 50be 458b 123b 4973 c8bc
000002a0: 6fb2 a2bf 666f 13be d2f6 dfbd 5e2f 10bc
000002b0: ce63 efbe 8d64 8abd 81a2 40bf 98df 31bd
000002c0: 19f4 573f 4334 e2bd d7fd adbd c6cb ccbf
000002d0: a98a cebe 3862 89bf f8f2 c0be 83a0 6abc
000002e0: fd24 0cbd d921 c1bd 9d7d 84bd ace9 bd3f
000002f0: d03e bbbc 194d a0bd 77a6 a1bd 2125 cbbe
00000300: f9b0 9b3e 92b1 ddbd af31 acbd 71df 40bd
00000310: 7b8c e8bc 996f 9dbf bb41 e9bd bc13 79bd
00000320: 7b4e eabd af09 a2bf 0fe1 a1bd fe96 12ba
00000330: 9fbf abbe effd a4bd a951 cbbe 7762 a4bc
00000340: 37d9 a4bc 43cc a03f 2df5 81bd 3b04 6dbd
00000350: b820 08bf e79b 683f fde9 80bd abc8 fe3b
00000360: 1674 93bd 0674 19bd 91a6 cabd b09f 3bbd
00000370: 75f7 87bd 25b1 07be a37e ecbd 1513 86bc
00000380: 205f b9bd 0512 88bd 2b58 e5bc 7e23 9fbd
00000390: 469f 17bd 856f 87bd 1233 d7be 0844 3abf
000003a0: 988b bfbf 94ef f4bc 2bda 60be b9a8 9cbe
000003b0: 153d 9ebf 4b31 6cbd 765d 90bd f079 babd
000003c0: b092 b9bf d2db 3dc0 400c 3fbe f6ab a73f
000003d0: 75d7 04be 3b2d e2bd 943b 79bd 6ec8 923e
000003e0: c419 f5bd da7f b0bf 2d15 05bd 0270 d7bd
000003f0: 7a96 5ebd 16a1 98bd b452 febd 3bc4 e6be

l3.weight f4 [4, 300]
-0.007009839 -0.008162585 -0.01158259 -0.5816882 -0.025043102 -0.09811009 -0.020291118 -0.86105543
-0.031920183 0.3453961 0.02530946 0.06540499 0.70794547 0.17411327 -0.031708583 -0.008434717
-0.013580466 0.035331804 0.92652327 0.05261439 -0.07328771 0.012282386 -0.022148922 0.0100332415
0.17633142 -0.07593565 -0.28610554 -0.011980281 0.0725211 -0.024406822 -0.0054017706 0.06891456
-0.013817767 1.0563979 -2.2134717 -0.12622042 0.024404213 0.010694852 -0.05273116 2.1428134
0.015560832 -0.0021922654 -0.021887034 0.0005965534 -0.006981257 -0.008123283 -1.4157666 0.066383995
-0.09610439 0.07170834 -0.051835775 -0.28632012 0.16928414 0.24179988 -0.025695775 -0.09044939
-0.07327727 0.38740373 0.011556699 -1.8743106 0.0021345702 -0.039947446 -0.008927016 -0.7243581
0.058742628 -0.11442836 0.28094378 0.19160081 -0.21200475 0.022720752 0.023639038 0.0017134838
0.056750752 0.01423053 0.06112127 -0.74494547 -0.043987423 0.04846538 0.34667775 -0.19016318
0.06909733 0.019157883 0.042483624 -0.045245558 0.043060303 -0.053309325 -0.029521652 -0.7548399
-0.14493331 -0.028856311 0.025121508 0.034834106 0.04381281 0.06101398 0.08347713 0.047948632
-0.02193658 0.059965685 0.48363551 0.006452628 -0.015520459 -0.00636527 0.012369932 -0.009199892
1.1195074 -0.0068380097 0.06585202 0.008096647 -0.59457475 -0.86447674 0.530917 -0.19659866
-0.7472155 0.46580178 0.3249214 0.015270631 0.011574581 -0.040121045 -0.019317696 0.009642458
-0.010284511 -0.015279944 1.0898004 4.088609 -0.011563218 0.12190668 0.014289389 0.057310294
0.011422216 0.01588633 0.0154781295 0.18410552 0.3025445 -0.0018266164 0.013249008 0.007144136
-0.008671831 0.00952865 0.02859554 0.00828552 0.042460524 -0.015713478 -0.08418561 -0.005058437
-0.027097974 -0.006055605 -0.003974097 0.013236621 0.4822408 1.0555396 -0.052230485 -0.013987455
0.11202481 -0.0051383446 0.26625124 -0.06248249 -0.029089887 0.38147306 0.024878817 0.02044646
0.00997997 0.057780426 0.014185639 0.07842861 0.23266546 0.016216587 -0.0010667494 0.32892555
0.35330987 0.06725273 0.0037675991 0.011407502 1.4118361 0.099333465 0.37520865 -0.00987119
-1.3482921 -0.01880845 -0.040035363 -0.041184567 0.019265914 -0.09229155 -0.23150614 -0.070075005
-0.069842555 0.027077483 0.02228862 -0.10743264 0.028289696 -0.15545359 -0.053941883 0.48147187
-0.008065421 -0.005634833 0.04579541 -0.024287613 0.03463592 0.083405554 0.004647444 -0.029748522
-0.03920909 0.46496135 0.11180874 0.0071950792 -0.8948871 -0.08630836 -0.8027024 0.02289249
0.0124274865 -0.0517666 -0.008949181 0.00951766 0.04318574 -0.019599656 -0.0015620505 -0.06771169
-0.0018442184 0.005752738 -0.013383211 0.029421814 0.0025690326 -0.15765892 0.0059437533 0.004519201
0.047494892 0.0031524599 0.012223527 0.022612348 0.018179992 0.44249636 -0.99734753 1.3177289
-1.425518 0.04255664 1.3677491 -0.020631332 0.32133 0.008801472 0.0131127555 0.021947011
-0.3049883 0.010748359 0.20837656 0.42024446 -0.0035507404 0.56495124 0.032341138 -0.048901085
0.015268583 -0.13231787 -0.006833725 0.042324923 0.03516417 -0.01361064 0.10264302 -0.6997175
00000000: cbb2 e5bb 5dbc 05bc e7c4 3dbc 85e9 14bf
00000010: 3127 cdbc f1ed c8bd 8f39 a6bc 216e 5cbf
00000020: bdbe 02bd c2d7 b03e c955 cf3c 0df3 853d
00000030: ea3b 353f c04a 323e dce0 01bd c431 0abc
00000040: 9a80 5ebc 15b8 103d a130 6d3f 3082 573d
00000050: de17 96bd 103c 493c a871 b5bc 7762 243c
00000060: 3990 343e 2684 9bbd 6d7c 92be f148 44bc
00000070: f185 943d d1f0 c7bc 5601 b1bb 1423 8d3d
00000080: ea63 62bc 0c38 873f 85a9 0dc0 ed3f 01be
00000090: 58eb c73c 7639 2f3c a1fc 57bd db23 0940
000000a0: dcf2 7e3c 1cac 0fbb 704c b3bc 0562 1c3a
000000b0: 07c3 e4bb 8517 05bc d737 b5bf 55f4 873d
000000c0: 61d2 c4bd d2db 923d c051 54bd 8d98 92be
000000d0: d258 2d3e 639a 773e f27f d2bc 883d b9bd
000000e0: 6512 96bd c859 c63e 4f58 3d3c 69e9 efbf
000000f0: 25e4 0b3b ef9f 23bd 9e42 12bc 886f 39bf
00000100: 1c9c 703d 6a59 eabd ddd7 8f3e 0133 443e
00000110: c617 59be df20 ba3c a8a6 c13c fa96 e03a
00000120: 7a73 683d 2b27 693c 4c5a 7a3d bfb4 3ebf
00000130: 282c 34bd a283 463d bf7f b13e 23ba 42be
00000140: e782 8d3d fef0 9c3c 4f03 2e3d 6853 39bd
00000150: 0060 303d e15a 5abd 64d7 f1bc 303d 41bf
00000160: 6669 14be 1264 ecbc 9fcb cd3c 35ae 0e3d
00000170: 1075 333d cce9 793d 0ff6 aa3d c965 443d
00000180: 58b4 b3bc 949e 753d 139f f73e 9170 d33b
00000190: 8649 7ebc c193 d0bb 41ab 4a3c 25bb 16bc
000001a0: 054c 8f3f 6211 e0bb 6ddd 863d cda7 043c
000001b0: 0d36 18bf 594e 5dbf 2dea 073f 2951 49be
000001c0: 8449 3fbf 927d ee3e 195c a63e ab31 7a3c
000001d0: 50a3 3d3c f755 24bd 2540 9ebc 66fb 1d3c
000001e0: 5e80 28bc bb58 7abc 947e 8b3f e3d5 8240
000001f0: a773 3dbc 36aa f93d 0b1e 6a3c 33be 6a3d
00000200: 3f24 3b3c 0c24 823c fb97 7d3c 2886 3c3e
00000210: 1de7 9a3e 136b efba 5e12 593c 5b19 ea3b
00000220: 4c14 0ebc 0e1e 1c3c 3241 ea3c fdbf 073c
00000230: 16eb 2d3d 8db9 80bc 8169 acbd 3fc1 a5bb
00000240: 92fc ddbc 196e c6bb 2439 82bb 6ade 583c
00000250: 44e8 f63e ec1b 873f a2ef 55bd a32b 65bc
00000260: 436d e53d 8f5f a8bb 1552 883e a4ed 7fbd
00000270: ea4d eebc 7050 c33e a9ce cb3c 567f a73c
00000280: 0783 233c 2bab 6c3d e26a 683c 2e9f a03d
00000290: db3f 6e3e a6d8 843c 2cd2 8bba ee68 a83e
000002a0: 08e5 b43e cdbb 893d d3e9 763b 88e6 3a3c
000002b0: 0cb7 b43f 586f cb3d 591b c03e c6ba 21bc
000002c0: d694 acbf 2e14 9abc 1ffc 23bd 26b1 28bd
000002d0: 8dd3 9d3c 5a03 bdbd f20f 6dbe 7c83 8fbd
000002e0: 9d09 8fbd 99d1 dd3c a096 b63c a505 dcbd
000002f0: cbbf e73c 3a2f 1fbe 2af2 5cbd 7b83 f63e
00000300: d424 04bc 68a4 b8bb f893 3b3d d1f6 c6bc
00000310: 65de 0d3d 88d0 aa3d 9649 983b 2cb3 f3bc
00000320: b699 20bd 6a0f ee3e fbfb e43d b3c4 eb3b
00000330: 5217 65bf 70c2 b0bd e87d 4dbf 0889 bb3c
00000340: a89c 4b3c 3709 54bd 969f 12bc f6ef 1b3c
00000350: 88e3 303d 758f a0bc b8bd ccba 6dac 8abd
00000360: b3b9 f1ba 7781 bc3b 4145 5bbc 0406 f13c
00000370: 375d 283b 5771 21be d1c3 c23b ce15 943b
00000380: 018a 423d 8099 4e3b 3045 483c 883d b93c
00000390: 35ee 943c e28e e23e 2b52 7fbf 57ab a83f
000003a0: 6077 b6bf df4f 2e3d 6712 af3f 0a03 a9bc
000003b0: 5e85 a43e 0d34 103c e2d6 563c 38ca b33c
000003c0: 6d27 9cbe e319 303c aa60 553e 482a d73e
000003d0: 8ab3 68bb a5a0 103f 2478 043d 814c 48bd
000003e0: 1429 7a3c 567e 07be 71ed dfbb e65c 2d3d
000003f0: 4e08 103d 29ff 5ebc 8136 d23d b020 33bf

l3.bias f4 [4]
0.3478745 -0.37266374 0.09037891 -0.4731151
00000000: 9b1c b23e c8cd bebe 9418 b93d 243c f2be
