TD3_control/dir_Walker2D_002/biped-v7-2d-5_actor.pth (torch, 527895 bytes, 6 tensors)

l1.weight f4 [400, 24]
-2.2933915 0.9699155 -0.21887226 0.35667124 1.0064791 -0.77879673 0.12748624 -0.17058282
-0.059725165 0.031128075 -0.57505006 0.39064085 0.666015 0.14804249 0.043004368 0.02642087
3.5659235 -0.84763044 0.26928908 -0.1221244 -0.10691824 -0.10574451 -0.2536179 0.296336
-1.733057 0.849643 0.9901564 -2.6385903 -0.74784625 2.764851 0.01186051 0.050490104
0.8102202 0.0032185584 0.76022595 -0.043844253 0.34263104 0.027856637 0.0021199584 -0.17161484
-3.5369382 0.019559562 -0.65468127 0.15832347 -0.115796 -0.10835487 0.11040551 0.7793751
4.3636947 -0.8785279 -0.38826856 1.7894065 0.78799546 -0.6477224 -0.008808433 0.100546904
-0.4780982 0.35564044 2.182995 0.3342511 0.69975996 0.31392643 0.13343494 0.1117507
2.0323768 -0.14755723 -0.21256934 0.14774267 -0.1743038 0.13351154 -0.3870532 -1.4785458
0.580484 -1.0747615 0.8262693 -2.1410053 -0.57321167 0.08754919 0.19260171 -0.18396807
-0.35308728 -1.1208714 -0.57292175 -0.7405412 -3.9549627 -0.16640906 -0.17375617 0.16289605
-0.807183 0.42670602 0.85386395 -0.22366703 0.1122535 0.07977097 0.3187472 -0.11395273
1.5041609 0.079783045 -0.93103063 -1.2319227 -0.30891678 0.72677284 -0.16094972 -0.113508604
-1.4883556 -0.13021709 0.40477878 0.05249069 -1.5503204 0.08848099 -0.07869958 0.20304608
-0.083224356 0.25433937 -1.2163904 0.0129255075 -0.042531032 0.14426616 -1.1216823 -0.11191155
0.39738798 -0.06404545 -0.44938117 1.3875084 -2.1843393 2.6308513 -0.12735592 -0.13073435
-0.49798623 -0.1210244 -0.7347969 -0.080946535 -0.5422269 -0.036887657 0.16432178 0.03403341
2.9940739 0.22674355 -3.2410522 -0.2125224 0.09971648 0.1786476 -3.1890917 0.9365506
-1.8747942 0.6824555 0.101855785 -1.4068649 0.92298865 -1.3137522 0.13392441 -0.15682441
-0.6737863 -0.73023164 1.0618395 -0.11246673 0.26574466 0.23285931 -0.020982748 0.03519227
2.1789355 0.61155957 -2.0250344 0.28284103 -0.11266815 -0.059084136 -1.009089 0.09467777
-0.6086929 -1.3372929 0.401644 -0.2341197 0.44891262 -0.8886072 -0.13891919 0.14915319
-0.21017593 -0.18093173 0.74312156 0.50425696 0.056443032 0.07971645 0.01321209 0.14527494
-0.74151325 0.5087264 0.08660194 0.51026374 0.10012447 -0.054594703 -1.2878696 1.2364417
1.4307396 0.24789986 -0.5793358 -1.8506114 0.41117162 -1.5466675 0.11626398 -0.12250878
-1.9092859 -0.7418842 1.4157351 0.02719583 -1.0394232 0.08614569 -0.059452787 0.05396568
1.7870095 0.3635593 -0.3056993 0.21096686 0.092146836 -0.19952619 -1.3285433 -0.5497019
1.8976597 -0.91749346 1.3796334 -5.2928886 0.30864584 -1.4113581 0.07006251 0.039765626
-0.33952132 -0.48958907 0.64735883 0.10213956 -2.274574 0.10456396 -0.10078544 0.10849734
-0.58025134 -0.04740179 -0.2248968 0.017857298 -0.12274362 -0.042926695 0.060916267 -0.38411155
1.3034093 0.63876766 -0.9166793 -2.1613739 -0.7276589 -2.2288332 0.081872284 -0.12514973
-0.059729103 -0.12361316 -0.34890714 -0.117974624 -0.33722603 0.45528457 0.045681804 0.033705078
00000000: edc6 12c0 624c 783f 0d20 60be 9d9d b63e
00000010: 4fd4 803f 395f 47bf c18b 023e 43ad 2ebe
00000020: 60a2 74bd 4e00 ff3c 7b36 13bf 1402 c83e
00000030: f67f 2a3f 7398 173e 5925 303d 9570 d83c
00000040: 1738 6440 4ffe 58bf 42e0 893e 5c1c fabd
00000050: f3f7 dabd 9490 d8bd 35da 81be 5ab9 973e
00000060: d0d4 ddbf 3482 593f e47a 7d3f aade 28c0
00000070: da72 3fbf 52f3 3040 9652 423c b6ce 4e3d
00000080: 976a 4f3f 73ee 523b 2b9e 423f 0896 33bd
00000090: 566d af3e 9a33 e43c 00ef 0a3b cdbb 2fbe
000000a0: 325d 62c0 603b a03c 3199 27bf 8c1f 223e
000000b0: 7426 edbd 28e9 ddbd 491c e23d 2085 473f
000000c0: 63a3 8b40 34e7 60bf 23cb c6be 460b e53f
000000d0: 12ba 493f 23d1 25bf 3f51 10bc 89eb cd3d
000000e0: 4ac9 f4be 8116 b63e 31b6 0b40 f622 ab3e
000000f0: 7823 333f f7ba a03e 2ba3 083e 8ddd e43d
00000100: 7612 0240 3e19 17be c7ab 59be db49 173e
00000110: b27c 32be 40b7 083e d62b c6be fd40 bdbf
00000120: 999a 143f c991 89bf 6386 533f 3b06 09c0
00000130: 00be 12bf fd4c b33d 6239 453e 2062 3cbe
00000140: dbc7 b4be b778 8fbf 00ab 12bf 1c94 3dbf
00000150: 1c1e 7dc0 2367 2abe 23ed 31be 39ce 263e
00000160: 8ca3 4ebf 3679 da3e d496 5a3f f808 65be
00000170: 2ae5 e53d f65e a33d d532 a33e 0d60 e9bd
00000180: 5888 c03f 4b65 a33d 0658 6ebf a5af 9dbf
00000190: 572a 9ebe c90d 3a3f 01d0 24be 3377 e8bd
000001a0: 7082 bebf a157 05be 2a3f cf3e 7a00 573d
000001b0: e670 c6bf 8535 b53d 3f2d a1bd 50eb 4f3e
000001c0: 8871 aabd c538 823e aeb2 9bbf 82c5 533c
000001d0: 0535 2ebd 82ba 133e 4993 8fbf e231 e5bd
000001e0: 7076 cb3e 432a 83bd 4a15 e6be e099 b13f
000001f0: 37cc 0bc0 de5f 2840 9769 02be 3adf 05be
00000200: 0df8 febe a4db f7bd a61b 3cbf 4cc7 a5bd
00000210: 62cf 0abf 8317 17bd f843 283e 9e66 0b3d
00000220: e89e 3f40 762f 683e 666d 4fc0 799f 59be
00000230: 2738 cc3d 65ef 363e 141a 4cc0 c8c1 6f3f
00000240: 42f9 efbf 67b5 2e3f c499 d03d 2614 b4bf
00000250: fc48 6c3f 0829 a8bf 7b23 093e 9496 20be
00000260: 427d 2cbf 76f0 3abf 5bea 873f f554 e6bd
00000270: af0f 883e ac72 6e3e 03e4 abbc c525 103d
00000280: ae73 0b40 2b8f 1c3f 2a9a 01c0 8ad0 903e
00000290: 8fbe e6bd 3502 72bd d429 81bf 6be6 c13d
000002a0: 4cd3 1bbf 6a2c abbf 48a4 cd3e 13bd 6fbe
000002b0: e0d7 e53e c37b 63bf d540 0ebe 9dbb 183e
000002c0: 5c38 57be 2b46 39be 373d 3e3f fc16 013f
000002d0: cf30 673d 6142 a33d 8677 583c f4c2 143e
000002e0: d0d3 3dbf e53b 023f 5c5c b13d a5a0 023f
000002f0: 0f0e cd3d b29e 5fbd e9d8 a4bf b943 9e3f
00000300: 7a22 b73f 76d9 7d3e 5a4f 14bf d6e0 ecbf
00000310: 1685 d23e 33f9 c5bf cf1b ee3d e2e5 fabd
00000320: 7b63 f4bf 1fec 3dbf cf36 b53f cac9 de3c
00000330: d20b 85bf 276d b03d c484 73bd 1e0b 5d3d
00000340: babc e43f 7224 ba3e 9e84 9cbe b207 583e
00000350: 7bb7 bc3d 9850 4cbe b50d aabf 44b9 0cbf
00000360: 83e6 f23f dae0 6abf d497 b03f 585f a9c0
00000370: d406 9e3e 62a7 b4bf ef7c 8f3d 48e1 223d
00000380: bdd5 adbe 6bab fabe 4fb9 253f 8c2e d13d
00000390: 9f92 11c0 a125 d63d 9968 cebd da33 de3d
000003a0: 5a8b 14bf 6128 42bd 594b 66be 7849 923c
000003b0: 0261 fbbd e7d3 2fbd 5683 793d 45aa c4be
000003c0: 1ed6 a63f 4786 233f 7fab 6abf f353 0ac0
000003d0: db47 3abf 34a5 0ec0 a8ac a73d 4027 00be
000003e0: 81a6 74bd e528 fdbd f5a3 b2be ae9c f1bd
000003f0: e4a8 acbe 0f1b e93e d81c 3b3d 560e 0a3d

l1.bias f4 [400]
-1.1824137 -0.30211264 -0.6979177 0.71996456 -0.92839205 -0.613092 -1.0076064 -1.0916418
-1.6706071 0.75280154 -0.9708008 -0.86248916 -0.45317423 0.80040175 -0.17300557 -1.782222
-0.9538553 1.2889065 -0.9557538 0.50050724 -0.102194495 -1.000697 -0.75922424 -0.59506285
0.03349781 -0.6926464 0.33910206 0.2531222 -0.87813 -0.26297125 -0.15300511 -0.55559975
-0.72831285 -0.31734234 -0.81281245 -0.48457554 -1.1891191 -1.2709671 -0.9321435 0.31137025
-0.16623764 -0.9482499 -0.9852512 -1.6840148 -0.7906535 0.049530655 -0.49203616 -0.9136048
-0.55077213 -0.813791 0.16772498 0.79967874 0.76303476 -1.1006565 -0.47259113 0.2994773
-0.1415601 1.030982 0.0037563643 -0.52190804 1.2872432 -0.26859543 0.12703094 -0.35273373
-0.74235964 -0.39002392 -0.29025823 -1.0356289 -0.36056295 -1.1026311 -0.6351447 -0.61831623
-0.39868858 -1.0422839 -0.4469991 0.21803059 -0.22719653 -0.80554366 -0.20635206 -0.29152262
-0.12564173 -0.18910603 0.80779034 -1.6166533 -0.52000946 -0.65513754 -0.7603874 -1.4796844
-0.37915722 -1.1805278 -0.66732687 -0.83223826 -0.62981206 -0.7258539 -1.4138724 -0.0103164
-0.6757459 -0.30553105 0.7471886 -0.61216605 -1.1761519 -0.4217583 -1.660003 -1.539867
-0.9460173 -0.25499538 -1.3031406 -0.73749024 0.82482725 -1.2260725 -0.24714135 -0.66021025
-1.2211812 -0.7724339 -0.8571896 0.107855536 -0.6049241 -0.45482022 -0.087193765 -0.8979433
-0.51591384 -1.183224 -1.0703896 -0.024630023 -0.8666126 -0.36541536 -1.061916 -1.4717599
-1.0798632 -1.5021964 -0.5969407 -0.47866988 -0.05906898 -1.0481889 -0.67751426 0.8896183
-0.4319256 -1.5208188 -0.83457583 -1.1174202 -1.4656622 -1.8375002 -0.83072203 -1.3105084
-0.9534487 0.27615726 0.16891354 -0.70884395 -1.033972 -1.1162258 -0.5632667 -1.3697157
-1.1137588 -0.44724104 -0.60436076 -1.0444536 -1.2925607 -0.5494158 0.07067492 -1.4337983
0.47828093 -0.3920461 0.10695817 -0.59526765 -0.46169546 -0.4357939 -0.3322581 0.10519496
-0.45336726 -1.107843 -1.6546222 0.015028785 -0.63902414 -0.37767383 -1.4386694 -0.600118
-1.0652684 -1.0953789 0.03293615 -1.0353478 -0.19129328 -1.5080613 -0.03537518 -0.1782323
0.7526067 -1.0376582 -0.78942883 -0.9354897 -0.92846406 -0.7350976 -0.65890074 -0.60468405
-1.1026 -2.037616 0.14464457 0.4173618 -1.2823116 -0.61340606 0.29175082 -1.1289877
-1.3489817 -0.7084842 -0.8070095 -0.91359204 0.054286547 -0.116033435 -1.1973162 -1.0262384
0.18858936 -0.116553806 -0.76138175 -1.224771 -1.7781655 -1.1745859 -0.090801306 -0.3244893
-0.18064044 -1.5118394 -0.40141788 -1.4362676 -0.97300845 0.14067721 -0.4376982 -0.3644782
-1.0912148 -0.6432183 -0.7079711 -0.5238908 -0.8499735 -0.71121085 -1.1493515 -0.24961753
-1.0197387 -0.71156454 0.47123986 -0.18720935 -0.75051904 -0.19546251 -1.0212328 -0.75707406
-1.3331205 0.24036084 0.8811353 -0.52926326 -0.8624176 -1.0784955 0.10106166 -0.2101933
-0.27355918 0.19084519 0.6401833 -1.5427406 -1.0724704 -0.38328826 -1.0365883 -0.7406317
00000000: 5559 97bf 82ae 9abe bcaa 32bf 994f 383f
00000010: 1aab 6dbf 99f3 1cbf 3ff9 80bf ebba 8bbf
00000020: 74d6 d5bf 9ab7 403f 6786 78bf 17cc 5cbf
00000030: 7406 e8be 21e7 4c3f 5f28 31be da1f e4bf
00000040: dc2f 74bf e3fa a43f 48ac 74bf 3e21 003f
00000050: 594b d1bd d716 80bf 855c 42bf 0a56 18bf
00000060: 0035 093d 4651 31bf c99e ad3e 3c99 813e
00000070: 21cd 60bf 2ba4 86be 5fad 1cbe c93b 0ebf
00000080: b672 3abf b27a a2be 7a14 50bf 491a f8be
00000090: 0e35 98bf 0daf a2bf f5a0 6ebf ec6b 9f3e
000000a0: 333a 2abe 81c0 72bf 6c39 7cbf cc8d d7bf
000000b0: 4568 4abf a8e0 4a3d 2aec fbbe 01e2 69bf
000000c0: 67ff 0cbf 9b54 50bf 19c0 2b3e bfb7 4c3f
000000d0: 3f56 433f 50e2 8cbf 77f7 f1be 1755 993e
000000e0: 21f5 10be 38f7 833f 562d 763b c49b 05bf
000000f0: 63c4 a43f 5785 89be 6614 023e 8499 b4be
00000100: 480b 3ebf 37b1 c7be ba9c 94be 7d8f 84bf
00000110: b59b b8be 0423 8dbf d898 22bf f949 1ebf
00000120: e920 ccbe 8f69 85bf 11dd e4be 6943 5f3e
00000130: 35a6 68be 1c38 4ebf f44d 53be 7442 95be
00000140: 3aa8 00be 03a5 41be 59cb 4e3f 7fee cebf
00000150: 571f 05bf 18b7 27bf c0a8 42bf 4c66 bdbf
00000160: e520 c2be 891b 97bf efd5 2abf 910d 55bf
00000170: 5d3b 21bf 90d1 39bf c5f9 b4bf 1e06 29bc
00000180: affd 2cbf 916e 9cbe c147 3f3f eab6 1cbf
00000190: 258c 96bf b4f0 d7be fa7a d4bf 5d1a c5bf
000001a0: 312e 72bf c18e 82be 50cd a6bf 29cc 3cbf
000001b0: e127 533f f2ef 9cbf 9f12 7dbe 8a03 29bf
000001c0: aa4f 9cbf 3abe 45bf c770 5bbf 5de3 dc3d
000001d0: 4edc 1abf 32de e8be a592 b2bd 9ddf 65bf
000001e0: ee12 04bf e273 97bf 8702 89bf e7c4 c9bc
000001f0: 53da 5dbf b917 bbbe ddec 87bf a162 bcbf
00000200: f538 8abf f947 c0bf 1bd1 18bf 3814 f5be
00000210: 51f2 71bd 0e2b 86bf 9371 2dbf 06be 633f
00000220: 5a25 ddbe 31aa c2bf c3a6 55bf a007 8fbf
00000230: d29a bbbf 3533 ebbf 33aa 54bf bdbe a7bf
00000240: 3715 74bf 7c64 8d3e acf7 2c3e cc76 35bf
00000250: 3259 84bf 7de0 8ebf 3f32 10bf d852 afbf
00000260: a68f 8ebf c7fc e4be 63b7 1abf a8b0 85bf
00000270: a172 a5bf 84a6 0cbf 03be 903d b486 b7bf
00000280: 3de1 f43e 44ba c8be e30c db3d 7663 18bf
00000290: 5963 ecbe 6120 dfbe bc1d aabe 7570 d73d
000002a0: c11f e8be cdcd 8dbf a9ca d3bf 4b3b 763c
000002b0: 1697 23bf 775e c1be 5226 b8bf 55a1 19bf
000002c0: b75a 88bf 6035 8cbf 0ee8 063d 4786 84bf
000002d0: 63e2 43be 2708 c1bf 91e5 10bd 8782 36be
000002e0: d5aa 403f fcd1 84bf 0218 4abf 417c 6fbf
000002f0: d2af 6dbf 5b2f 3cbf b8ad 28bf 93cc 1abf
00000300: ff21 8dbf 4d68 02c0 b51d 143e 72b0 d53e
00000310: c922 a4bf 2e08 1dbf 5d60 953e ab82 90bf
00000320: 6fab acbf 385f 35bf 2d98 4ebf 2be1 69bf
00000330: 925b 5e3d f0a2 edbd a841 99bf c85b 83bf
00000340: 921d 413e c3b3 eebd eae9 42bf 4cc5 9cbf
00000350: ed9a e3bf d558 96bf 09f6 b9bd 7623 a6be
00000360: cff9 38be f483 c1bf a586 cdbe 9ed7 b7bf
00000370: 1517 79bf b00d 103e fa19 e0be e39c babe
00000380: edac 8bbf f4a9 24bf 983d 35bf b51d 06bf
00000390: dd97 59bf ea11 36bf f31d 93bf bd9b 7fbe
000003a0: cc86 82bf 1829 36bf 5a46 f13e cfb3 3fbe
000003b0: 0422 40bf 5327 48be c2b7 82bf 9bcf 41bf
000003c0: b1a3 aabf 2721 763e 1592 613f cc7d 07bf
000003d0: 66c7 5cbf 240c 8abf 6af9 ce3d ea3c 57be
000003e0: f30f 8cbe ec6c 433e 0ee3 233f 8678 c5bf
000003f0: b646 89bf 5c3e c4be edae 84bf 0a9a 3dbf

l2.weight f4 [300, 400]
-0.0919494 -0.048346728 -0.017167779 -0.041216794 -0.07971239 -0.018065223 -0.029664584 -0.0765372
0.020041637 -0.025415234 -0.07677844 -0.038253196 -0.06586715 -0.017518315 -0.055669665 0.017791811
-0.062427502 0.01801407 -0.04961578 -0.018172348 -0.043756682 -0.029524544 -0.03632912 -0.036650915
-0.0367174 0.08614392 -0.014335611 0.0012156344 0.0073663467 -0.089997746 -0.053022176 -0.012951501
-0.03225043 -0.06366962 -0.024355363 0.009974197 -0.023695456 -0.08836427 -0.09547743 -0.08077495
-0.019964902 -0.07602658 -0.008885409 0.003766923 -0.09204778 -0.083344385 -0.09563529 -0.040417235
0.00550382 -0.035153873 -0.0125031695 -0.037570506 -0.08294411 -0.026821792 -0.03908189 -0.036808938
-0.020275574 -0.01971395 -0.00096760696 -0.07384243 -0.03422744 0.027296921 -0.07580058 -0.014513646
-0.025961932 -0.072114155 -0.013168137 0.0052923537 -0.005162767 -0.034916736 0.058770716 -0.053875446
-0.0077011855 -0.046682823 -0.010662149 0.01753332 -0.03556632 -0.10359261 -0.013801315 -0.020722587
0.0130609935 -0.020451952 -0.015236854 -0.030680196 -0.039622463 -0.049719907 -0.071009904 -0.03323725
-0.031149091 0.034630828 -0.044426225 0.029722037 -0.051875662 0.007365268 -0.015494004 -0.055621777
-0.01807375 -0.050559714 0.0033505366 -0.025858944 0.0053367913 -0.02350958 -0.028298425 -0.056128792
0.0095830215 -0.1063754 -0.020324703 0.01234244 -0.06003102 -0.057163328 -0.053751457 -0.010288125
-0.09759871 -0.072573714 -0.032607075 -0.037635744 -0.081867516 -0.017055012 -0.07463541 -0.022278342
-0.050615914 -0.105128 -0.034679655 -0.024214987 -0.04448703 -0.060199942 -0.004494614 -0.08593934
-0.07878011 0.0583565 -0.05218173 -0.08334366 -0.017684132 -0.045251474 -0.09347365 -0.041956842
0.060470246 -0.049950004 -0.06470979 -0.03093523 -0.024306048 -0.11719846 -0.011992048 -0.03999453
0.033873744 -0.045885168 7.692855e-05 -0.06473487 0.017996391 -0.026173988 0.038515083 -0.082362734
-0.039848022 -0.025065664 -0.04235387 0.002167866 -0.03512879 -0.060051747 -0.046110936 -0.048247796
-0.0251457 -0.048209842 -0.008496562 -0.03655857 0.0016305394 -0.027002007 -0.088623956 -0.047263123
0.006782132 -0.08290539 -0.027206661 0.057896607 -0.12338975 -0.011053586 -0.09066854 -0.07397854
-0.024100157 -0.07087868 -0.037766147 -0.030609645 -0.098108865 -0.029066648 -0.040974103 -0.054328978
-0.058088608 -0.05739331 -0.030069882 0.00045687452 -0.013444895 -0.031646088 -0.03837419 -0.009768713
0.023449628 -0.06326144 -0.045939226 -0.08816558 -0.09675157 -0.009720506 0.028333312 -0.05947623
-0.021302665 -0.041514747 -0.05198078 -0.030748935 -0.10736352 -0.007062739 -0.027655998 -0.043331914
0.01535338 -0.057836443 0.0040203272 -0.018210405 -0.004371467 0.029980237 -0.0478758 -0.03617829
-0.028800592 -0.087381735 -0.07164947 -0.0022442534 -0.057691254 0.0436319 -0.05714307 -0.026952349
-0.09338385 -0.043308824 -0.12538724 -0.059412055 -0.0254616 0.008320697 -1.4519165e-05 -0.014360476
-0.07962969 -0.10690975 -0.040660497 -0.03607316 -0.056097724 -0.019028353 0.028878119 0.0051804064
-0.02236782 -0.054626882 -0.07631492 -0.017098295 -0.061815027 -0.017391317 -0.055105194 -0.0070315003
0.011543797 -0.018892018 -0.024085874 0.014699921 -0.04266538 -0.046962764 -0.11655583 0.036051743
00000000: f84f bcbd 3807 46bd 71a3 8cbc f1d2 28bd
00000010: 4040 a3bd 85fd 93bc 2403 f3bc 89bf 9cbd
00000020: 5c2e a43c 9c33 d0bc 043e 9dbd 62af 1cbd
00000030: 5be5 86bd 9282 8fbc e005 64bd 22c0 913c
00000040: fbb3 7fbd 3e92 933c eb39 4bbd 2dde 94bc
00000050: 353a 33bd 75dd f1bc d8cd 14bd 451f 16bd
00000060: fc64 16bd 396c b03d e9df 6abc ec55 9f3a
00000070: 6561 f13b bd50 b8bd c82d 59bd 8832 54bc
00000080: 0719 04bd 3865 82bd e684 c7bc d06a 233c
00000090: f91c c2bc 54f8 b4bd ac89 c3bd 566d a5bd
000000a0: 6f8d a3bc d3b3 9bbd 1b94 11bc 7bde 763b
000000b0: 8c83 bcbd 76b0 aabd 6fdc c3bd 8b8c 25bd
000000c0: 6359 b43b 82fd 0fbd 18da 4cbc 88e3 19bd
000000d0: 9ade a9bd 60b9 dbbc 5514 20bd f8c4 16bd
000000e0: f618 a6bc 267f a1bc 01a7 7dba b33a 97bd
000000f0: 1232 0cbd cb9d df3c 563d 9bbd a5ca 6dbc
00000100: 1eae d4bc 96b0 93bd 2bbf 57bc 7b6b ad3b
00000110: 6e2c a9bb da04 0fbd 90b9 703d 80ac 5cbd
00000120: 3a5a fcbb 7d36 3fbd 4bb0 2ebc 09a2 8f3c
00000130: fdad 11bd 5d28 d4bd e91e 62bc 6ac2 a9bc
00000140: c7fd 553c da8a a7bc ffa3 79bc 0955 fbbc
00000150: 2a4b 22bd 1aa7 4bbd a46d 91bd c823 08bd
00000160: 612c ffbc 0ed9 0d3d 46f8 35bd a17b f33c
00000170: 937b 54bd 5958 f13b 90da 7dbc a9d3 63bd
00000180: 670f 94bc b417 4fbd ad94 5b3b 23d6 d3bc
00000190: 40e0 ae3b 2a97 c0bc 19d2 e7bc 4ee7 65bd
000001a0: 1b02 1d3c 59db d9bd fe7f a6bc f237 4a3c
000001b0: 16e3 75bd 1824 6abd 7d2a 5cbd 868f 28bc
000001c0: d5e1 c7bd 87a1 94bd ff8e 05bd f027 1abd
000001d0: 28aa a7bd f4b6 8bbc 73da 98bd 1281 b6bc
000001e0: a252 4fbd 594d d7bd 410c 0ebd 825e c6bc
000001f0: 0838 36bd 3794 76bd 8e47 93bb f700 b0bd
00000200: 7757 a1bd 3a07 6f3d 82bc 55bd 15b0 aabd
00000210: 50de 90bc 9c59 39bd 1d6f bfbd f0da 2bbd
00000220: a6af 773d 6098 4cbd 9186 84bd e16b fdbc
00000230: 7a1d c7bc bf05 f0bd 4b7a 44bc 4ed1 23bd
00000240: 32bf 0a3d 16f2 3bbd b354 a138 b793 84bd
00000250: 2b6d 933c d56a d6bc fec1 1d3d cbad a8bd
00000260: ae37 23bd 8256 cdbc 407b 2dbd c212 0e3b
00000270: 35e3 0fbd d2f8 75bd d2de 3cbd 7b9f 45bd
00000280: 5bfe cdbc af77 45bd 2a35 0bbc 70be 15bd
00000290: d3b7 d53a 5033 ddbc 7a80 b5bd fa96 41bd
000002a0: a63c de3b 4dca a9bd 81e0 debc fe24 6d3d
000002b0: c4b3 fcbd 1a1a 35bc 6db0 b9bd 1082 97bd
000002c0: b16d c5bc d728 91bd adb0 1abd 14c1 fabc
000002d0: 4ded c8bd 2e1d eebc 76d4 27bd 1088 5ebd
000002e0: 52ee 6dbd 3f15 6bbd 1d55 f6bc a988 ef39
000002f0: fa47 5cbc 549f 01bd 412e 1dbd f40c 20bc
00000300: 6f19 c03c 378f 81bd c52a 3cbd 2890 b4bd
00000310: b025 c6bd c242 1fbc 431b e83c 599d 73bd
00000320: ed82 aebc 5e0b 2abd cce9 54bd 31e5 fbbc
00000330: 68e1 dbbd 8d6e e7bb d58e e2bc ce7c 31bd
00000340: be8c 7b3c e8e5 6cbd f3bc 833b fd2d 95bc
00000350: 863e 8fbb 1d99 f53c 6a19 44bd b02f 14bd
00000360: 38ef ebbc 32f5 b2bd f5bc 92bd 5314 13bb
00000370: aa4d 6cbd 5db7 323d da0e 6abd 2ccb dcbc
00000380: 0840 bfbd 9864 31bd 8365 00be 0e5a 73bd
00000390: d894 d0bc 8853 083c 5797 73b7 3448 6bbc
000003a0: e414 a3bd 80f3 dabd 9f8b 26bd 73c1 13bd
000003b0: bac6 65bd 59e1 9bbc ce91 ec3c 66c0 a93b
000003c0: b83c b7bc 70c0 5fbd ff4a 9cbd b911 8cbc
000003d0: c131 7dbd 3c78 8ebc fcb5 61bd 8068 e6bb
000003e0: 3222 3d3c 6fc3 9abc bd4f c5bc f0d7 703c
000003f0: e5c1 2ebd 075c 40bd d3b4 eebd feaa 133d

l2.bias f4 [300]
-0.07176642 -0.031339012 0.0012936855 -0.09562442 -0.02255571 -0.05532004 -0.003647792 -0.05927363
-0.06911754 -0.7703128 -0.02871867 -0.7312244 -0.10512412 -0.02463932 -0.84912413 -0.034642026
0.02057524 -0.035849657 -0.00572159 -0.015414033 -0.008242493 -0.30628285 -0.101519175 -1.2869006
-0.27313462 -0.028297339 0.002339339 -0.003761187 -0.10402671 -0.046184 0.31389737 -0.07898342
-0.807946 0.0048091146 -0.017184453 -1.1341985 0.12644011 -0.07329486 -0.06737284 -0.66500896
-0.025701493 0.011770724 -0.09031292 -0.08930568 0.011727287 -0.062351897 0.007949987 0.006715962
-0.0014353488 -0.20080003 -0.060229 -0.054193847 -0.07978982 0.20988077 -0.55057997 -0.66821
-0.052991237 -0.060315438 -0.072075084 -0.059502058 0.1742133 0.028009478 -0.17561954 0.013619074
0.06275011 -0.033903033 -0.031324822 -0.08148916 0.022885501 -0.06638794 0.79935277 0.02858092
-0.067877434 -0.044323277 -0.1189825 -0.02499518 -0.19462842 -0.085295685 -0.6432777 0.007995138
-0.030784404 -0.0064085126 -0.052720517 0.0068850084 -0.9223814 -0.021439893 -0.43944773 0.046712972
-0.025484452 0.00060540397 0.1814174 -0.08207462 -0.057646558 -0.07774475 -0.01797683 -0.24473913
-0.02797036 -0.076790184 -0.06842697 -0.051560044 0.5002143 -0.21321623 0.01836151 -0.05068737
-0.083598144 -0.7105532 -0.12591322 -0.69586736 -0.27239075 0.28987125 -0.027123334 0.5719364
-0.098421715 -0.7580291 0.16872568 -0.018536296 -0.00504469 -0.2868488 -0.02067043 -0.051907588
-0.056777716 -0.044387106 -0.4178293 -0.17794171 0.020341944 -0.07825683 -0.058273338 -0.03382713
-0.023427406 -0.0024862627 -0.05082058 0.51230913 -0.008260641 0.0241695 -0.66705143 -0.09643587
-0.61072785 0.010783326 -0.37867773 -0.058802366 -0.020706465 -0.15384744 -1.1658952 -0.033881787
-0.14958645 -0.104906045 -0.13015775 -0.03495584 0.018334419 -0.07060044 -0.5758628 -0.026264135
0.030799115 -0.0059909294 -0.08720107 -0.06523109 -0.01655439 -0.06609595 -0.008003735 -0.03721497
-0.029931134 -0.025375107 -0.06917911 -0.23921254 -0.09225034 -0.32266754 -0.01635594 -0.089970015
-0.08100349 0.117731184 -0.82087994 0.051759373 -0.010693233 0.054103103 -0.10835801 -0.0765209
-0.049515717 -0.0743573 0.304884 -0.08529837 -0.28406626 -0.01599893 -0.009147538 -0.03683823
0.015026658 -0.87990785 -0.06244092 0.27815983 -0.009344984 -0.7088219 -0.19269411 -0.22754674
-0.64837015 -0.05571826 -0.067227304 -0.03997369 -0.22811821 -0.7567191 -0.008802644 -0.1627089
-0.051568333 -0.04888886 -0.059798416 -0.054083947 0.03422401 -0.07449934 -0.08370317 0.010488601
-0.26787978 -0.06667979 -0.062029712 -0.08066635 -0.09176081 0.024602864 -0.041296314 -0.093225405
-0.036549374 -0.01370374 -0.030857354 -0.27742282 -0.09133317 -0.022838792 -0.0059126746 -0.10071933
-1.0206861 -0.02313382 -0.06328913 -0.064944394 -0.006141187 -0.867877 -1.0788605 -0.037635274
-0.065153696 -0.025459273 -0.07587692 -0.14057408 0.055972204 -0.083565064 -0.06254908 1.7929568
-0.066695765 0.07810561 0.022256546 0.0053182356 -0.025424365 -0.123752296 -0.07434966 -0.28680784
-0.86102384 0.7901201 -0.09004174 0.0025313988 -0.028490106 -0.23236233 -0.05156084 -0.030822035
00000000: 46fa 92bd 565d 00bd e290 a93a bcd6 c3bd
00000010: c1c6 b8bc 4497 62bd cb0f 6fbb e8c8 72bd
00000020: 7f8d 8dbd 3833 45bf 6b43 ebbc 8631 3bbf
00000030: 514b d7bd 66d8 c9bc 3360 59bf cce4 0dbd
00000040: 688d a83c 17d7 12bd 2d7c bbbb 248b 7cbc
00000050: 850b 07bc 1bd1 9cbe 49e9 cfbd 29b9 a4bf
00000060: 4dd8 8bbe d2cf e7bc 984f 193b 3f7e 76bb
00000070: f50b d5bd 6f2b 3dbd 28b7 a03e 0fc2 a1bd
00000080: 8dd5 4ebf c795 9d3b 69c6 8cbc 6b2d 91bf
00000090: 8479 013e 9e1b 96bd c6fa 89bd 073e 2abf
000000a0: f08b d2bc ffd9 403c fbf5 b8bd e5e5 b6bd
000000b0: cf23 403c b464 7fbd aa40 023c 9311 dc3b
000000c0: 5022 bcba 869e 4dbe afb2 76bd 5efa 5dbd
000000d0: d868 a3bd fcea 563e cff2 0cbf d00f 2bbf
000000e0: 570d 59bd 520d 77bd 1a9c 93bd 6eb8 73bd
000000f0: f964 323e 2274 e53c 9cd5 33be 8922 5f3c
00000100: 2183 803d e8dd 0abd 754e 00bd cae3 a6bd
00000110: 607a bb3c 66f6 87bd 62a2 4c3f 8922 ea3c
00000120: 5303 8bbd 538c 35bd 19ad f3bd b1c2 ccbc
00000130: ac4c 47be 81af aebd d9ad 24bf 0afe 023c
00000140: 932f fcbc 80fe d1bb 78f1 57bd a39b e13b
00000150: 3021 6cbf b7a2 afbc 4bff e0be 1a56 3f3d
00000160: c5c4 d0bc f9b3 1e3a 7cc5 393e bd16 a8bd
00000170: cc1e 6cbd a438 9fbd 2544 93bc e59c 7abe
00000180: 1922 e5bc 2c44 9dbd 7023 8cbd a030 53bd
00000190: 0b0e 003f 5b55 5abe e16a 963c 8f9d 4fbd
000001a0: 8135 abbd d1e6 35bf 65ef 00be 5d24 32bf
000001b0: cd76 8bbe 016a 943e c131 debc 6d6a 123f
000001c0: 5391 c9bd 320e 42bf 6dc6 2c3e 6ed9 97bc
000001d0: ed4d a5bb d9dd 92be 0955 a9bc 0d9d 54bd
000001e0: c08f 68bd 41cf 35bd b9ed d5be 5a36 36be
000001f0: 26a4 a63c 1e45 a0bd 06b0 6ebd 518e 0abd
00000200: d5ea bfbc 91f0 22bb 3e29 50bd b126 033f
00000210: a457 07bc 1eff c53c e2c3 2abf 2b80 c5bd
00000220: a958 1cbf 8cac 303c 0ce2 c1be c0da 70bd
00000230: 9ba0 a9bc 2f8a 1dbe 0e3c 95bf a1c7 0abd
00000240: 312d 19be fbd8 d6bd 1348 05be db2d 0fbd
00000250: 1032 963c f796 90bd bf6b 13bf e227 d7bc
00000260: 6d4e fc3c 8f4f c4bb 7996 b2bd e197 85bd
00000270: 129d 87bc 505d 87bd 1922 03bc b96e 18bd
00000280: 2332 f5bc 75df cfbc c7ad 8dbd 22f4 74be
00000290: bfed bcbd ae34 a5be e4fc 85bc 3342 b8bd
000002a0: 28e5 a5bd 0c1d f13d 3025 52bf a301 543d
000002b0: ac32 2fbc 379b 5d3d ceea ddbd fdb6 9cbd
000002c0: fed0 4abd a448 98bd c119 9c3e e9b0 aebd
000002d0: 2271 91be 3010 83bc 8edf 15bc afe3 16bd
000002e0: 5f32 763c a441 61bf 0dc2 7fbd f76a 8e3e
000002f0: b41b 19bc 5a75 35bf 9b51 45be 0302 69be
00000300: 96fb 25bf d538 64bd 78ae 89bd 74bb 23bd
00000310: d297 69be 58b8 41bf f738 10bc 299d 26be
00000320: 5139 53bd af3f 48bd 2fef 74bd 2187 5dbd
00000330: 7a2e 0c3d 1c93 98bd 916c abbd 62d8 2b3c
00000340: 8a27 89be 6a8f 88bd de12 7ebd 6634 a5bd
00000350: 17ed bbbd f28b c93c 5326 29bd f6ec bebd
00000360: ccb4 15bd a785 60bc 90c8 fcbc 5d0a 8ebe
00000370: e30c bbbd 6b18 bbbc 1cbf c1bb f045 cebd
00000380: d8a5 82bf 2383 bdbc bb9d 81bd 9101 85bd
00000390: 033c c9bb 302d 5ebf 1a18 8abf 7227 1abd
000003a0: 4d6f 85bd f78f d0bc 5c65 9bbd a7f2 0fbe
000003b0: 1c43 653d 2924 abbd bb19 80bd 9c7f e53f
000003c0: ca97 88bd d6f5 9f3d 5c53 b63c 9844 ae3b
000003d0: c246 d0bc d871 fdbd a244 98bd 7ad8 92be
000003e0: 0f6c 5cbf 5045 4a3f ce67 b8bd d3e5 253b
000003f0: 1564 e9bc 64f0 6dbe 7631 53bd 7e7e fcbc

l3.weight f4 [4, 300]
0.014023027 -0.03674668 0.03897399 -0.012178078 0.009206967 0.055395238 0.0035105683 0.025461597
0.08118468 -0.39116016 0.013290704 -0.22420424 -0.041292623 -0.4345186 -0.18418208 -0.01989905
0.034839585 -0.038601913 -0.021677447 -0.015598092 -0.008924153 0.28086004 0.03827839 -0.36548665
0.18253441 0.04783285 0.015815685 -0.026880486 -0.031900033 0.07121375 0.7603587 0.04003339
0.6089949 -0.052235242 -0.05662906 0.75101864 -0.025746774 0.0567866 -0.014054424 -0.70951575
-0.05028127 -0.05019719 -0.0018830511 0.010873747 -0.09277525 0.015212558 -0.7437677 -0.024184909
0.002599352 0.025607076 0.046319496 -0.023374582 0.022953738 -2.427872 -0.015078102 -0.0033650617
0.013994547 -0.04755675 0.018204344 0.014727702 0.047822572 -0.049192417 -0.15918753 -0.22267453
1.359793 -0.009015498 -0.07563636 0.05631198 -0.030322675 -0.14103015 -0.11862856 -0.14853965
0.036319118 0.024018193 -0.013224999 -0.024743348 -0.051624525 0.03398121 -0.004199924 -0.00018459419
0.019721655 0.16721575 0.017753271 -0.062554255 0.096076846 0.01797088 -1.6538634 -0.107412465
-0.027456542 0.029228447 0.58867955 -0.056820504 -0.0026549178 -0.059006978 0.0067414236 -1.1057708
0.013326753 -0.18759225 -1.0663 -0.4356069 -0.85439324 -0.62409765 -0.06464394 0.04776136
0.016196921 1.2266365 2.116746 0.042345926 0.49903327 0.061646182 -0.01148994 0.9596591
-0.048435923 0.2104217 -0.74806094 1.096307 -0.0053568524 0.69318855 0.06855529 -0.060344584
-0.005559542 -0.0021601017 -0.10389451 -0.6701337 0.0028933953 -0.12902278 -0.063685514 0.002551231
-0.11431122 -0.1860259 0.05619217 -0.15879866 0.048018597 -0.09032266 0.042709105 0.041570913
-0.5288592 0.0490493 0.351026 0.04812441 0.014269248 -0.012997233 1.0973078 -0.0098138405
-0.13516888 -0.04301083 0.21735048 0.0324732 -0.10778756 -0.11815061 0.2283883 -0.0018189934
0.1547476 -0.052250203 0.013302537 -0.014634767 -0.0024409883 -0.03527809 0.033639118 0.054574925
-0.0032861787 -0.16286534 -0.0061395303 1.5224892 -0.02889482 0.992451 -0.008158251 0.0074215764
0.04343754 0.8042122 -0.48435748 4.324822 0.034856997 -2.069638 -0.04116665 -0.05583755
-0.0028021268 -0.010973716 1.2637486 0.07521976 -1.3626441 -0.007535968 0.023769466 -0.05836664
0.010484444 -0.004838257 -0.019175924 0.048804548 -0.18227844 -0.05776088 0.3302881 -0.42218357
0.44363633 -0.063688375 0.0035725795 0.0071766283 -0.16291456 0.36747125 0.03801899 0.01988143
0.09339838 -0.046277724 0.04146942 -0.31550428 0.034150966 -0.008626966 -0.26761982 -0.066410705
-0.0018001097 -0.027528938 -0.014724972 -0.0914976 -0.01788339 0.03826182 0.013789604 -0.61400276
0.008940592 -0.007985917 -0.007041536 0.2579311 0.004298339 0.040174343 0.013939818 -0.047324967
0.38816866 -0.014892807 0.0077693597 -0.007398454 -0.34230858 -0.075780526 0.035176087 0.027842673
0.009344634 0.22083504 -0.05246562 -0.016194236 -0.04546047 -0.11994393 -0.023124775 0.55166066
0.016858859 0.3697979 -0.35869807 0.06003765 0.051679153 0.045206405 -0.09771824 -0.5793986
-0.759494 -1.4576381 0.04075812 0.025993079 0.05217633 0.071168214 0.024124516 0.019172998
00000000: d7c0 653c b083 16bd 31a3 1f3d 9086 47bc
00000010: d2d8 163c 1ee6 623d 9011 663b d794 d03c
00000020: 2744 a63d 2546 c8be 41c1 593c cc95 65be
00000030: 7422 29bd 3979 debe 3a9a 3cbe 5503 a3bc
00000040: f4b3 0e3d 0a1d 1ebd e794 b1bc 248f 7fbc
00000050: 9c36 12bc e3cc 8f3e cdc9 1c3d 1121 bbbe
00000060: 4dea 3a3e 61ec 433d e58f 813c 7734 dcbc
00000070: 9ca9 02bd 84d8 913d dea6 423f 0dfa 233d
00000080: 17e7 1b3f 9ff4 55bd e0f3 67bd c242 403f
00000090: e6ea d2bc 1199 683d 8744 66bc d3a2 35bf
000000a0: bcf3 4dbd 929b 4dbd b6d0 f6ba cd27 323c
000000b0: f300 bebd 183e 793c 8f67 3ebf 6e1f c6bc
000000c0: e459 2a3b eec5 d13c 83b9 3d3d 0d7c bfbc
000000d0: 7a09 bc3c 4162 1bc0 250a 77bc 5e88 5cbb
000000e0: 6249 653c deca 42bd 4721 953c 764c 713c
000000f0: 9ae1 433d fd7d 49bd 0e02 23be cb04 64be
00000100: b20d ae3f bdb5 13bc 3ce7 9abd 64a7 663d
00000110: 4267 f8bc 356a 10be 88f3 f2bd c71a 18be
00000120: 5bc3 143d cdc1 c43c abad 58bc 90b2 cabc
00000130: 3d74 53bd e22f 0b3d 849f 89bb a08f 41b9
00000140: 4f8f a13c 9b3a 2b3e 4f6f 913c 721c 80bd
00000150: f0c3 c43d ab37 933c ccb1 d3bf 11fb dbbd
00000160: 8bec e0bc 7f70 ef3c b4b3 163f 9ebc 68bd
00000170: 21fe 2dbb 4db1 71bd 29e7 dc3b e689 8dbf
00000180: 7458 5a3c 2f18 40be 857c 88bf de07 dfbe
00000190: 84b9 5abf ddc4 1fbf 0b64 84bd 6aa1 433d
000001a0: 68af 843c 6d02 9d3f c478 0740 ec72 2d3d
000001b0: 4a81 ff3e b580 7c3d 4d40 3cbc 38ac 753f
000001c0: bf64 46bd c978 573e ec80 3fbf ca53 8c3f
000001d0: 8988 afbb ce74 313f b766 8c3d e22b 77bd
000001e0: d22c b6bb 7e90 0dbb a5c6 d4bd e28d 2bbf
000001f0: 1e9f 3d3b 8c1e 04be 8d6d 82bd 8e32 273b
00000200: 001c eabd 937d 3ebe c329 663d 1e9c 22be
00000210: 26af 443d 16fb b8bd beef 2e3d 4346 2a3d
00000220: 5163 07bf ebe7 483d aeb9 b33e 1a1e 453d
00000230: 90c9 693c 59f2 54bc 9574 8c3f 3bca 20bc
00000240: b669 0abe 202c 30bd 2091 5e3e 9e02 053d
00000250: b9bf dcbd f2f8 f1bd 9fde 693e 4a6b eeba
00000260: 2876 1e3e 4f04 56bd e2f2 593c a9c6 6fbc
00000270: fdf8 1fbb c27f 10bd 2cc9 093d f589 5f3d
00000280: ee5c 57bb 2cc6 26be 1d2e c9bb ede0 c23f
00000290: d4b4 ecbc 4511 7e3f 2faa 05bc b230 f33b
000002a0: 90eb 313d dae0 4d3f b4fd f7be f164 8a40
000002b0: 36c6 0e3d f374 04c0 5c9e 28bd eab5 64bd
000002c0: e3a3 37bb 1acb 33bc 84c2 a13f d10c 9a3d
000002d0: 1f6b aebf 48f0 f6bb 2fb8 c23c dc11 6fbd
000002e0: f2c6 2b3c 3e8a 9ebb d416 9dbc 47e7 473d
000002f0: 33a7 3abe ac96 6cbd 861b a93e 7228 d8be
00000300: 4d24 e33e 0d6f 82bd f021 6a3b ec29 eb3b
00000310: 13d3 26be 3125 bc3e cdb9 1b3d 61de a23c
00000320: a647 bf3d b68d 3dbd d7db 293d c789 a1be
00000330: e2e1 0b3d 1e58 0dbc 7705 89be 5602 88bd
00000340: a9f1 ebba 5e84 e1bc 0241 71bc 1863 bbbd
00000350: 3080 92bc 6db8 1c3d cbed 613c 492f 1dbf
00000360: 907b 123c 5dd7 02bc afbc e6bb 8c0f 843e
00000370: 15d9 8c3b da8d 243d d663 643c d3d7 41bd
00000380: 0bbe c63e f600 74bc 1d96 fe3b bb6e f2bb
00000390: 1243 afbe d232 9bbd cd14 103d 5116 e43c
000003a0: 3c1a 193c 9522 623e 31e6 56bd c6a9 84bc
000003b0: c234 3abd 2aa5 f5bd 2b70 bdbc a239 0d3f
000003c0: 971b 8a3c 2656 bd3e 46a7 b7be 0aea 753d
000003d0: 85ad 533d 5a2a 393d 8020 c8bd 7753 14bf
000003e0: 336e 42bf e393 babf fdf1 263d 70ef d43c
000003f0: d9b6 553d a4c0 913d c7a0 c53c b110 9d3c

l3.bias f4 [4]
-0.19718036 -0.12005919 -0.14124742 -0.40073305
00000000: a6e9 49be 98e1 f5bd 2aa3 10be e22c cdbe
