TD3_control/dir_Walker2D_002/biped-v7-2d-13_actor_t.pth (torch, 527895 bytes, 6 tensors)

l1.weight f4 [400, 24]
0	0x4002f6b4	2.0463076
1	0x3f8fbb70	1.1229076
2	0xbfe8d85a	-1.8191025
3	0xbf2c6511	-0.67341715
4	0x40071e3e	2.1112208
5	0xbfd1b5f4	-1.6383653
6	0xbd000e50	-0.03126365
7	0xbe11d9a8	-0.14243186
8	0xc011c3b4	-2.2775698
9	0xbfb1c812	-1.3889182
10	0x3de04df4	0.109523684
11	0x3d8187c5	0.06324724
12	0xbfab600b	-1.3388685
13	0x3cbfa2ce	0.023393061
14	0xbe270c04	-0.16313177
15	0xbe33219b	-0.17493288
16	0xc00b1006	-2.172853
17	0x3c912fe0	0.017723024
18	0x3f793c62	0.9735776
19	0xbe8b0258	-0.27150226
20	0x3e380ba8	0.17973197
21	0xbdcf3852	-0.10118164
22	0x3eb09aaa	0.34493
23	0xc035842e	-2.8361926
24	0xc0264630	-2.598034
25	0xbf95fa20	-1.1716957
26	0xbf3fcbff	-0.7492065
27	0xbfc93c8c	-1.5721602
28	0xbe28ee77	-0.16497217
29	0x3eea518c	0.4576534
30	0x3dcc074d	0.0996233
31	0xbe4f5c41	-0.20250036
32	0xbe48b5e5	-0.19600637
33	0x3e8e44f2	0.27786976
34	0xc0052ce0	-2.080864
35	0x3dfee4ef	0.12446009
36	0xc0624b38	-3.535841
37	0x3e93cf75	0.28869215
38	0x3dda9be7	0.10674267
39	0xbdae380e	-0.08506785
40	0xc00520ce	-2.0801272
41	0xbf1c07da	-0.6094948
42	0xbf31a6f1	-0.6939536
43	0xbe358f2c	-0.17730397
44	0xbd41e99e	-0.047341935
45	0x3deaadcb	0.1145893
46	0xbabfd80c	-0.001463653
47	0x3f6cd68d	0.9251488
48	0xc0267b2e	-2.6012683
49	0x4053854c	3.3050108
50	0x3e7824b3	0.2423275
51	0xc004ea9b	-2.0768192
52	0x3ec101d7	0.37696716
53	0xc049d826	-3.1538177
54	0x3d6fbf22	0.058531888
55	0x3e09849b	0.13429491
56	0x3f81c0fa	1.0137017
57	0xbfa9db5f	-1.3270072
58	0xc012b56e	-2.2923236
59	0x3e019f91	0.12658526
60	0x3ec472a2	0.38368708
61	0xbc2bdcf4	-0.010489691
62	0xbcf1d21c	-0.029519133
63	0xbe23c2a3	-0.15992217
64	0xbfa81994	-1.3132806
65	0x3e127071	0.14300705
66	0xc027cf6e	-2.6220355
67	0x3ddb1164	0.106966764
68	0xbd0fef79	-0.03514049
69	0xbe4c9363	-0.19978099
70	0x3f07cfe8	0.53051615
71	0xbf557e44	-0.8339579
72	0xbf508fd4	-0.81469464
73	0xbd48322e	-0.04887598
74	0xbeeef137	-0.46668407
75	0xbf1c8e13	-0.6115429
76	0x401d2ef2	2.4559903
77	0xc034d2f9	-2.8253767
78	0xbdc327fc	-0.09529111
79	0x3de45d49	0.11150605
80	0xc0150a2d	-2.328746
81	0xbd18afdd	-0.03727709
82	0x3de3dadf	0.11125731
83	0x3e15ca5c	0.14627975
84	0xbf586278	-0.8452525
85	0x3d546a68	0.05185929
86	0x3c8f0d40	0.017462373
87	0x3c4e18e3	0.012579176
88	0xbf8350e9	-1.0259067
89	0xbd441bdd	-0.047878135
90	0xc0e433b6	-7.1313124
91	0xbd91ecd3	-0.07125249
92	0x3e41758c	0.18892497
93	0x3de33c90	0.11095536
94	0x3cd631e3	0.026146835
95	0xbecdb82d	-0.40179577
96	0x3fdaf00a	1.7104504
97	0x4018ee43	2.3895423
98	0xbe4aa75a	-0.19790402
99	0x3f8083ba	1.00402
100	0xbf503239	-0.81326634
101	0x3f314778	0.6924968
102	0xbe121906	-0.14267358
103	0xbdc27e35	-0.09496728
104	0xbf51a2e6	-0.8188919
105	0xbd00507a	-0.03132675
106	0x3fc7b25c	1.5601306
107	0xbe8631a6	-0.26209754
108	0x3f796382	0.9741746
109	0xbe585108	-0.21124661
110	0x3c1cc4bf	0.009568392
111	0xbe13d910	-0.14438272
112	0xc0212e46	-2.5184493
113	0x3ed8b2c6	0.42323893
114	0x3e7dda38	0.24790275
115	0xbe31432c	-0.1731078
116	0xbd6fc408	-0.05853656
117	0x3e0fdaff	0.14048384
118	0xbf0a5f8d	-0.5405205
119	0xbfa6cb86	-1.303086
120	0xbf7f2a83	-0.9967424
121	0x3fd78eb3	1.6840423
122	0xbd846238	-0.06464046
123	0x3f8d20a5	1.1025587
124	0x3f352825	0.7076438
125	0x3fb58a44	1.418282
126	0xbded5369	-0.11588175
127	0xbddb222a	-0.10699876
128	0xbec3cafd	-0.38240805
129	0xbf07ee3c	-0.5309789
130	0x403bea4f	2.936176
131	0x3dde144a	0.108437136
132	0x3f2bacfb	0.6706082
133	0xbe0e5f25	-0.13903482
134	0xbd30b977	-0.043145623
135	0xbe4f81e5	-0.20264395
136	0x401dd249	2.4659598
137	0x3e88fa98	0.26753688
138	0x3fe06025	1.7529341
139	0x3e82239a	0.25417787
140	0x3d693ca3	0.056942593
141	0x3c873682	0.016505484
142	0xbf32cb3a	-0.6984135
143	0x3e8bd868	0.27313542
144	0x3f913313	1.1343712
145	0x3ce5766c	0.02801057
146	0xbfd9f70c	-1.7028518
147	0xbf1279f1	-0.5721732
148	0xbf7dc056	-0.99121606
149	0x3c931bb0	0.017957538
150	0xbe3a91be	-0.18219659
151	0x3e31791e	0.17331359
152	0xbfc58322	-1.5430644
153	0xbee9c968	-0.45661473
154	0xc01fb991	-2.495701
155	0x3ea8ccb0	0.32968664
156	0x3e0a5a99	0.13511123
157	0xbe62cad7	-0.2214769
158	0x3e38a419	0.18031348
159	0x3e0d9182	0.13825038
160	0xbf731765	-0.9495757
161	0x3e04f7de	0.12985179
162	0xbc9e2c84	-0.019308336
163	0xbd4bda45	-0.049768705
164	0xbe031a68	-0.12803042
165	0x3c317090	0.01083006
166	0xbfc8bf83	-1.5683445
167	0xbec16698	-0.37773585
168	0xbead2edd	-0.33824816
169	0xc0d9ac1c	-6.8022594
170	0x3f100aaa	0.5626627
171	0xc0c56c63	-6.169481
172	0xbf0f3a93	-0.5594875
173	0xbf2b3e85	-0.6689227
174	0x3bb3b447	0.005484137
175	0xbdcc0239	-0.099613614
176	0x3fcb0a94	1.5862603
177	0x3dc4f9bb	0.09617945
178	0xbe6a9a4b	-0.2291042
179	0x3eb5a39b	0.35476384
180	0xbedbc6d3	-0.42925128
181	0xbd7ab316	-0.061205946
182	0xbe3982e8	-0.18116343
183	0xbe4e1ef6	-0.20128998
184	0x3fc2d620	1.5221596
185	0x3e5c1e0d	0.21495838
186	0x3fa2098f	1.2659167
187	0xbe636fa5	-0.22210558
188	0x3e39ddcb	0.18151014
189	0x3e358cba	0.17729464
190	0xbe8377e7	-0.25677416
191	0xbf53f5ac	-0.8279674
192	0xc00a5c5b	-2.161887
193	0x3db7cb5f	0.08974337
194	0xbf65ddb9	-0.89791447
195	0xc02fed44	-2.7488565
196	0x3ebb8838	0.36627364
197	0x3d9fda8a	0.07805355
198	0x3d7b8c52	0.061413117
199	0xbdd75205	-0.10513691
200	0x3f5897e2	0.84606755
201	0x3f6f933e	0.9358405
202	0xbfed67de	-1.8547323
203	0x3e4e296a	0.20132986
204	0xbf310e9c	-0.6916292
205	0xbe831b61	-0.25606826
206	0xbcf578a4	-0.029964752
207	0x3d3efa8b	0.046625655
208	0xc04e41b8	-3.2227612
209	0xbe94a117	-0.29029152
210	0xbee70778	-0.45122886
211	0x3e15e278	0.14637172
212	0x3c704d1a	0.01466682
213	0xbe403a0e	-0.18772146
214	0xbe326f47	-0.17425261
215	0xbf03a28f	-0.5141992
216	0xc0518b1e	-3.274116
217	0x3fb7691e	1.4328954
218	0xbe418813	-0.18899564
219	0x3fb2328c	1.3921676
220	0x3fa993bf	1.3248214
221	0xc04e0b7e	-3.2194514
222	0xbdd8894f	-0.105730645
223	0xbe29a58f	-0.16567062
224	0x3fdf022a	1.7422535
225	0x3efd1792	0.49432045
226	0x3fd08d98	1.6293211
227	0x3e03f7e4	0.12887532
228	0x40002128	2.0020237
229	0xbcbb5006	-0.022865307
230	0xbe3ab2d6	-0.18232283
231	0x3dc1bcdd	0.09459851
232	0x3ff2e3d1	1.8975774
233	0x3e07bb6e	0.13255093
234	0x3f6676f2	0.90025246
235	0x3d9e2fa2	0.07723929
236	0xbe04f657	-0.12984596
237	0x3cfd86a7	0.030947996
238	0xbf499a43	-0.7875101
239	0xbe216fc1	-0.15765287
240	0xbffe8edc	-1.9887347
241	0x3ef08134	0.46973574
242	0xbd718304	-0.058962837
243	0xc017c0dd	-2.3711464
244	0x3f81f464	1.0152707
245	0xbf677592	-0.90413773
246	0x3ba20e9a	0.0049455883
247	0xbe3cd6a2	-0.18441251
248	0xbf078adc	-0.5294626
249	0xbf0c8c1c	-0.5490129
250	0xc0280bf6	-2.62573
251	0x3c1cff0d	0.009582293
252	0xc0662733	-3.5961425
253	0x3cbea520	0.023272097
254	0x3d7f95f5	0.06239887
255	0xbdda4eae	-0.10659538

l1.bias f4 [400]
0	0xb7617760	-1.3438839e-05
1	0x3f57aff5	0.84252864
2	0xbf01c1b9	-0.5068622
3	0xbe91fd5f	-0.2851362
4	0xbe8b5f1b	-0.27220997
5	0xbf9bf760	-1.2184868
6	0xbf74c95c	-0.9561975
7	0xbfa9f7ce	-1.3278749
8	0xbefbf563	-0.49210653
9	0xbff64fec	-1.924314
10	0xbf317877	-0.6932444
11	0xbfaf3f66	-1.3691223
12	0xbe251823	-0.16122489
13	0xbfd21c9c	-1.6414981
14	0xbe9545b0	-0.2915473
15	0x3e989687	0.29802343
16	0xbea20afe	-0.3164901
17	0xbfe50329	-1.7891589
18	0xbf6753fb	-0.9036252
19	0xc00b7837	-2.1792123
20	0xbfbfa0b0	-1.4970913
21	0xbf16bd43	-0.5888254
22	0xbf9122c1	-1.1338731
23	0xbff48684	-1.9103551
24	0xbee7f502	-0.45304114
25	0x3f5f8e8a	0.8732687
26	0x3e4ab363	0.19794993
27	0x3f0e2130	0.5551939
28	0xbfdb3131	-1.7124387
29	0xbeae1ac6	-0.34004802
30	0xbe7ec18b	-0.24878518
31	0xbf4711f0	-0.77761745
32	0xbf919ce7	-1.1376008
33	0xbf26fda7	-0.6523079
34	0xbf4f76db	-0.81040734
35	0xbffaf934	-1.9607301
36	0x3f876593	1.0577873
37	0xbf11e724	-0.5699332
38	0xbfafc252	-1.3731177
39	0xc00c916f	-2.1963766
40	0xbf6f93d0	-0.9358492
41	0xc0098a20	-2.1490555
42	0xbfd14fce	-1.635248
43	0x3f21ce68	0.63205576
44	0xbeb548e2	-0.35407168
45	0xbf16520a	-0.5871893
46	0xc0176482	-2.3655095
47	0xbf7b5514	-0.98176694
48	0xbfa90312	-1.3204062
49	0xbd6f63fd	-0.058444966
50	0xbf635349	-0.8879896
51	0xbf87b0b8	-1.0600805
52	0xbf4884e3	-0.7832777
53	0xbf4c764d	-0.7986801
54	0x3e905fbd	0.28198043
55	0xbf593f7f	-0.8486251
56	0xbe0db0cd	-0.13836975
57	0xbf4a214e	-0.7895707
58	0xbfe6e075	-1.8037249
59	0xbfb8dec5	-1.4442984
60	0xbfbe45de	-1.4865072
61	0xbfe3c941	-1.7795793
62	0xbf976b0c	-1.1829543
63	0xbf020e4d	-0.5080307
64	0xbf7e6f07	-0.99388164
65	0x3fba44e2	1.4552271
66	0xbe9d45f2	-0.30717427
67	0xbfcb13f0	-1.586546
68	0xc00db4fa	-2.214171
69	0xbf9516ba	-1.1647561
70	0xbf8e1247	-1.1099328
71	0xbf7282c0	-0.9473076
72	0xbf9f2bda	-1.2435257
73	0xbf98910b	-1.1919264
74	0xbf1bc0bf	-0.6084098
75	0xbdce569f	-0.100751154
76	0xbf51a53d	-0.8189276
77	0xbe7842ab	-0.24244182
78	0xbe61a32f	-0.22034906
79	0xbf731e3d	-0.94968015
80	0xbf1f5615	-0.62240726
81	0x3f0526af	0.5201215
82	0xbf439441	-0.7639809
83	0xbfed6461	-1.8546258
84	0xbf203468	-0.62579966
85	0xbf912f1c	-1.1342502
86	0x3e2b2faf	0.16717409
87	0x3f32ec7e	0.6989211
88	0xbfd22906	-1.6418769
89	0xbfc5b469	-1.5445682
90	0xbfb7538d	-1.4322373
91	0xbf6a0f95	-0.91430026
92	0xbfe0e217	-1.7568997
93	0xbef4f1d1	-0.4784074
94	0xbf002bee	-0.5006703
95	0x3f12499d	0.57143575
96	0xbf3203e3	-0.6953718
97	0xbf112d18	-0.5670943
98	0xbefbf202	-0.49208075
99	0xbfbd8812	-1.480715
100	0xbf1f229b	-0.6216218
101	0xbfca5e39	-1.5810004
102	0xbf3e4991	-0.74331003
103	0xbf95b88a	-1.1696942
104	0xbef1ac26	-0.4720165
105	0xbefbea8c	-0.49202383
106	0xbfb79070	-1.4340954
107	0xbf7db5b9	-0.9910541
108	0xbfd3db26	-1.6551254
109	0xbe9ba459	-0.30398825
110	0xbfca1541	-1.5787736
111	0x3f0b0c0d	0.54315263
112	0xbf109817	-0.5648207
113	0xbf9ebf90	-1.240221
114	0xbf676e54	-0.9040272
115	0xbf78555b	-0.9700524
116	0xbf54c1b6	-0.8310808
117	0xbfcb4188	-1.5879374
118	0xbfc9b48e	-1.5758226
119	0x3e118ff6	0.14215073
120	0xbfdb29d4	-1.712214
121	0xbfac38ee	-1.3454874
122	0xbf9f4e05	-1.2445685
123	0xbfb80c0c	-1.4378676
124	0xbfda5a19	-1.7058746
125	0xbf957e8c	-1.1679244
126	0xbfd8ce4c	-1.6937957
127	0xbfac9e0a	-1.348573
128	0xbf770f9c	-0.96508193
129	0xbfde713b	-1.7378305
130	0x3e3f016f	0.1865289
131	0xbf5cb48d	-0.86213
132	0xbfcb5f56	-1.5888469
133	0x3e84ac31	0.25912622
134	0xbfe401aa	-1.7813008
135	0xbf69394a	-0.9110304
136	0xbe2276f6	-0.15865692
137	0xbf617869	-0.88074356
138	0xbf6e2566	-0.93025815
139	0x3e21b712	0.15792492
140	0xbfd09512	-1.6295493
141	0xbfde5a9d	-1.7371403
142	0xbfb77617	-1.4332913
143	0xbfddc8f7	-1.7326955
144	0xbf8084a3	-1.0040478
145	0xbfef2a9b	-1.8684877
146	0xbe9b60fd	-0.30347434
147	0xbf379051	-0.71704584
148	0xbef5d00d	-0.48010293
149	0xbeb5f4e1	-0.3553839
150	0xc00122e4	-2.0177546
151	0xbf3752ee	-0.71610916
152	0xc01b67d5	-2.4282124
153	0xbf944ee8	-1.158658
154	0xbe335857	-0.17514168
155	0xbf933d34	-1.1503053
156	0xbf74e604	-0.95663476
157	0xbfe1f255	-1.7652079
158	0xbff49c73	-1.9110245
159	0xbeef6dfb	-0.46763596
160	0xbfc4ea8b	-1.5384077
161	0xbf1f2aee	-0.6217488
162	0xbf448d73	-0.76778334
163	0xbfff52df	-1.9947165
164	0xbfaafc66	-1.3358276
165	0xbf8e3c0a	-1.1112072
166	0x3e819e63	0.25316152
167	0xbec7387a	-0.38910276
168	0xbf3742bd	-0.7158621
169	0xc0143018	-2.3154354
170	0xbff5a670	-1.9191418
171	0xbfd911cd	-1.6958557
172	0xbf9d3779	-1.2282554
173	0xbf933e9b	-1.1503481
174	0x3f624688	0.8838887
175	0xbf927184	-1.1440892
176	0x3ef7ef24	0.48424637
177	0xbfe84db3	-1.8148712
178	0xbf5ab4a4	-0.85431886
179	0x3d4b6b48	0.04966286
180	0xbf333096	-0.6999601
181	0xbee70e90	-0.45128298
182	0xbf509063	-0.81470317
183	0xbfa6068e	-1.297075
184	0xc011ea41	-2.2799227
185	0xbfac3da1	-1.3456308
186	0xbfb196db	-1.3874162
187	0xbf9e7150	-1.237833
188	0xbff47b3b	-1.9100107
189	0xbf4a5058	-0.79028845
190	0xbf01220c	-0.50442576
191	0xbfc744f1	-1.5567914
192	0xbf89e13b	-1.077186
193	0xbf8ab525	-1.0836531
194	0xbedf12b8	-0.4356897
195	0xbf9cc9ee	-1.2249124
196	0xbf98f3a3	-1.1949352
197	0xbfe53c8f	-1.7909106
198	0xbfa8953f	-1.3170546
199	0xbfe03198	-1.7515135
200	0xbfe13492	-1.7594168
201	0xbf8b4dd4	-1.0883126
202	0xbfade0c1	-1.3584214
203	0xbf23d694	-0.63999295
204	0x3f3843fc	0.71978736
205	0x3e3c938f	0.18415664
206	0x3f34d475	0.70636684
207	0xbf721183	-0.9455797
208	0xbeb14a89	-0.34627178
209	0xbfe3108b	-1.7739424
210	0xbe4fe057	-0.20300423
211	0xbf936019	-1.1513702
212	0xbfe9519d	-1.8228031
213	0xbf70883c	-0.9395788
214	0xbee6808e	-0.45019954
215	0xbf20a8bd	-0.62757474
216	0x3f241a24	0.6410239
217	0xbf9b5ca5	-1.2137648
218	0xbf48a0ac	-0.78370166
219	0xbd925997	-0.07145994
220	0xbf76940d	-0.9631966
221	0xbfd23bef	-1.642454
222	0xbfd3d949	-1.6550685
223	0xbd2a04f6	-0.041508637
224	0xbf9011ec	-1.1255469
225	0xbf645321	-0.89189345
226	0xbf6fd450	-0.9368334
227	0xbe9f18b0	-0.31073523
228	0xbf36a692	-0.71347916
229	0xbda2dd5c	-0.07952377
230	0xbe7c58e6	-0.24643287
231	0xbe861bb0	-0.26193
232	0x3dd9b0e5	0.10629443
233	0xbfbca244	-1.473702
234	0xbf5d9a06	-0.86563146
235	0xbfb47868	-1.4099245
236	0xbff2fb75	-1.8982989
237	0xc011ea5e	-2.2799296
238	0x3e8453c0	0.25845146
239	0xbe7622ac	-0.24036664
240	0xbf8937ca	-1.072015
241	0xbf9c307d	-1.2202297
242	0xbf9033ea	-1.1265843
243	0xbff078ee	-1.8786905
244	0xbf9b3309	-1.212495
245	0xbfad9f4f	-1.3564242
246	0xbf8a0c2f	-1.0784968
247	0xbf62535f	-0.88408464
248	0xbfcff7de	-1.6247518
249	0xbfcd7097	-1.6049985
250	0xc004ffdf	-2.0781171
251	0xbfe475b4	-1.784842
252	0xbe4a59e0	-0.19760847
253	0xbfd27882	-1.6443026
254	0xbee538ae	-0.44769806
255	0xbeed10f3	-0.46301994

l2.weight f4 [300, 400]
0	0x3b9945ed	0.0046775253
1	0x3d68a003	0.056793224
2	0xbed299b9	-0.41132906
3	0xbc21beaf	-0.009872123
4	0x3e1b1d05	0.15147789
5	0xbe877435	-0.26455846
6	0x3d63994b	0.055566113
7	0xbd3a7860	-0.045524955
8	0xbd9ce3b5	-0.07660619
9	0xbe0e018d	-0.13867779
10	0xbdfef46c	-0.124489635
11	0xbeb6f6b8	-0.35735106
12	0xbe1b5226	-0.15168056
13	0xbd022efd	-0.031783093
14	0xbd0f468d	-0.03497939
15	0xbcca97b8	-0.024730548
16	0x3df6d32c	0.120519966
17	0x3c850a3d	0.016240234
18	0x3d34c5c7	0.044133928
19	0xbd3ca950	-0.046059906
20	0xbd9c9595	-0.07645718
21	0x3d83b27d	0.06430528
22	0x3c3fdda0	0.011710554
23	0x3e297bee	0.16551182
24	0xbcb0b848	-0.021572247
25	0x3dc86d09	0.09786422
26	0xbe749b33	-0.23887329
27	0xbd98635e	-0.07440828
28	0xbde53373	-0.11191454
29	0x3d85f94c	0.0654169
30	0xbe9188ae	-0.2842459
31	0x3d8bd6dd	0.06828091
32	0xbe86da4c	-0.26338422
33	0x3e79a123	0.24377875
34	0xbdb83c80	-0.089959145
35	0xbe828e4c	-0.2549919
36	0xbd20781f	-0.039177056
37	0xbda30ab7	-0.07961028
38	0xbdc854d1	-0.097818024
39	0xbbffae5b	-0.007802767
40	0xbd232227	-0.039827492
41	0xbe0aee0d	-0.13567372
42	0xbc14f85e	-0.0090924185
43	0xbcfa2cfb	-0.030539026
44	0xbc95f25d	-0.018304044
45	0xbd85e81d	-0.06538413
46	0x3b9bbd2e	0.0047527766
47	0xbe86011d	-0.26172724
48	0xbe79fafc	-0.24412149
49	0xbdc5d4f9	-0.09659762
50	0x3e01b38c	0.12666148
51	0xbea31f07	-0.3185961
52	0xbe2ee9c7	-0.17081366
53	0x3e37f17f	0.17963217
54	0xbe372980	-0.17886925
55	0xbd44e200	-0.048067093
56	0xbed4444a	-0.4145835
57	0xbe4edb21	-0.20200779
58	0xbe8f995d	-0.28046694
59	0xbdc83019	-0.09774799
60	0xbd5ddee2	-0.054167636
61	0xbd15a11e	-0.036530606
62	0x3cbf5808	0.023357406
63	0xbe0bfa05	-0.13669594
64	0x3e77bbfb	0.24192803
65	0x3d1ca6c5	0.03824498
66	0x3decefeb	0.11569198
67	0xbd4f3751	-0.050589863
68	0x3cbbac2f	0.022909252
69	0xbd055795	-0.032554228
70	0xbeb1e8f8	-0.34748054
71	0xbeb93e4f	-0.3618035
72	0xbdf72aac	-0.12068686
73	0x3c8ecfcc	0.01743307
74	0x3e62d084	0.22149855
75	0x3c9329dd	0.017964298
76	0xbd0e48a4	-0.034737244
77	0x3eabf0d6	0.3358218
78	0xbd05b6e4	-0.03264512
79	0xbd8a1cad	-0.06743751
80	0xbd493cd9	-0.049130294
81	0x3d86a5f4	0.06574622
82	0xbdb32ad7	-0.087484054
83	0xbdad6bbf	-0.084678166
84	0xba8f5ba4	-0.0010937345
85	0xbea0254e	-0.3127846
86	0x3d4df891	0.05028588
87	0x3cc4ba28	0.024014547
88	0xbdb311d8	-0.08743638
89	0xbe163336	-0.14667973
90	0x3e2b73d6	0.16743407
91	0xbe2a9916	-0.1665996
92	0x3e436650	0.19081998
93	0xbc6993c3	-0.014256421
94	0x3cc43eb8	0.023955688
95	0xbd8000fb	-0.06250187
96	0x3cf84a2b	0.030308804
97	0x3e653c0a	0.22386184
98	0xbde83d93	-0.11339869
99	0xbed1a852	-0.4094873
100	0xbdbc6f7f	-0.09200954
101	0xbe4b7599	-0.19869079
102	0xbd42e631	-0.04758281
103	0xbbdaa6aa	-0.0066727
104	0xbea80a67	-0.32820436
105	0xbe4652c1	-0.19367506
106	0x3dd8dcd9	0.10588998
107	0xbd30cfb8	-0.043166846
108	0x3c8b471c	0.017001681
109	0x3daa182f	0.08305394
110	0x3cf6ee84	0.03014303
111	0xbd89f59d	-0.067363
112	0xbd67d1c3	-0.05659653
113	0xbcc08ef9	-0.023505675
114	0x3c739d4b	0.014869045
115	0xbd5514e2	-0.05202187
116	0xbe766504	-0.24061972
117	0x3c7e249b	0.015511657
118	0xbe74e183	-0.23914151
119	0xbdbb6450	-0.091499925
120	0x3d93c2fe	0.07214926
121	0xbe5c9f59	-0.21545161
122	0xbda3e18e	-0.080020055
123	0xbe981925	-0.29706684
124	0x3c526d32	0.012843417
125	0xbee754c3	-0.45181856
126	0xbd13cb95	-0.036082823
127	0x3dea45e2	0.1143911
128	0xbf0a8f84	-0.5412524
129	0xbbc41c58	-0.005984824
130	0x3d01be7c	0.0316758
131	0xbeaaf867	-0.3339264
132	0xbd7702d3	-0.060305428
133	0x3e07a6fc	0.13247293
134	0xbec65069	-0.38733223
135	0xbeb5f420	-0.35537815
136	0xbc24f0a7	-0.010067142
137	0xbe71fa8c	-0.23630732
138	0xbd0042ff	-0.031313892
139	0xbc9d60b6	-0.019211154
140	0xbd8e2c84	-0.069420844
141	0xbe7cb954	-0.24680072
142	0xbddfd791	-0.10929788
143	0x3e327bd8	0.17430055
144	0xbe4c0558	-0.19923913
145	0xbd0d9365	-0.034564395
146	0xbd1c4f46	-0.03816154
147	0xbd8fc51d	-0.07020018
148	0x3dc01c20	0.093803644
149	0xbd89cb6d	-0.067282535
150	0xbc66eda3	-0.014094743
151	0x3e009ff6	0.1256102
152	0xbd9029e6	-0.070392415
153	0xbe2804ef	-0.16408132
154	0xbe2147ee	-0.15750095
155	0xbd37f568	-0.044911772
156	0x3dba5e97	0.09100073
157	0x3d826cb5	0.063683905
158	0x3da416af	0.08012139
159	0xbe0c0bfd	-0.13676448
160	0xbdace0af	-0.084412925
161	0xbf1f156e	-0.62142074
162	0xbdcb86c9	-0.099378176
163	0xbea00547	-0.31254026
164	0x3dd96401	0.10614777
165	0x3d022984	0.031777874
166	0xbd81782d	-0.0632175
167	0x3dd2c579	0.10291571
168	0x3dff6d83	0.124720596
169	0xbdd6640a	-0.104683
170	0xbd8953e5	-0.06705455
171	0xbca77467	-0.020441247
172	0xbc3fe24f	-0.011711671
173	0xbe91024e	-0.2832207
174	0xbc9738ee	-0.018459763
175	0x3d893ecc	0.06701431
176	0xbb340a48	-0.0027471948
177	0xbb7bc0e4	-0.0038414532
178	0xbea180f6	-0.31543702
179	0x3e87b1ec	0.2650293
180	0xbddb8dea	-0.10720427
181	0x3e1795e5	0.14803274
182	0xbe7ad10c	-0.24493808
183	0xbda00ea7	-0.07815295
184	0x3dfaffeb	0.12255844
185	0xbccca580	-0.02498126
186	0x3e82308d	0.25427666
187	0xbe3a27e8	-0.18179286
188	0xbe415311	-0.18879344
189	0xbe62fd0b	-0.2216684
190	0xbdb2f108	-0.08737379
191	0x3e2c18ae	0.1680629
192	0x3e1fc535	0.15602572
193	0xbe43b219	-0.19110908
194	0xbec2de60	-0.38060284
195	0xbdee1802	-0.11625673
196	0xbe7be7f4	-0.24600202
197	0xbcab01c6	-0.02087487
198	0xbdced1c0	-0.100986004
199	0xbece86c0	-0.4033718
200	0xbe8547f5	-0.2603146
201	0xbe916fad	-0.28405514
202	0xbe38e158	-0.18054712
203	0xbe6a4c22	-0.22880605
204	0x3e003dea	0.12523618
205	0xbed17ee9	-0.40917137
206	0xbdae7ebf	-0.08520269
207	0xbd92b63d	-0.071636654
208	0x3ccbd290	0.024880677
209	0xbe4ad0c1	-0.19806196
210	0xbe56a41a	-0.20961037
211	0xbd9eee5e	-0.07760309
212	0x3d5fcca1	0.05463851
213	0xbe1a287e	-0.15054509
214	0x3e4f19a1	0.2022462
215	0xbe131bce	-0.14366075
216	0xbe2ed31f	-0.17072724
217	0x3ca6a23e	0.020341035
218	0xbcb9e260	-0.022690952
219	0x3d6a8782	0.057258137
220	0xbe906c4d	-0.28207627
221	0xbe482e89	-0.19549002
222	0x3d3ff1f0	0.04686159
223	0xbe5eda71	-0.21763016
224	0x3dd8c181	0.10583783
225	0xbe0138e5	-0.1261936
226	0xbe6cd943	-0.23129754
227	0xbe9c29c6	-0.3050062
228	0xbe0efd1c	-0.13963741
229	0xbcff4e44	-0.03116525
230	0xbe33de88	-0.17565358
231	0x3d934e95	0.07192723
232	0x3e15b955	0.1462148
233	0xbf0c1174	-0.5471413
234	0xbe465ce8	-0.19371378
235	0x3dac38b7	0.08409255
236	0x3d6672fb	0.056261998
237	0x3e4490c0	0.19195843
238	0xbdf48dec	-0.11941132
239	0xbd49d850	-0.049278557
240	0x3d7fa2a3	0.06241096
241	0xbe8804bc	-0.26566112
242	0xbe281557	-0.1641439
243	0x3d9071c5	0.0705295
244	0x3d0d86e4	0.03455247
245	0xbe47aff9	-0.19500722
246	0x3e055e9c	0.13024372
247	0x3c903d6d	0.017607415
248	0xbd20e70f	-0.039282855
249	0xbe754d54	-0.2395528
250	0x3cd8cbaa	0.026464302
251	0x3e88deb4	0.2673241
252	0xbeb97370	-0.36220884
253	0xbd4ebb18	-0.050471395
254	0xbc058d7d	-0.008151409
255	0x3d0bae3c	0.03410171

l2.bias f4 [300]
0	0xbe388780	-0.18020439
1	0x3ee064b3	0.43826827
2	0xbe8c4505	-0.27396408
3	0xbcec058b	-0.028811237
4	0xbe041f15	-0.12902482
5	0xbdc05911	-0.09391988
6	0xbd8c88fd	-0.06862066
7	0xbd801ac3	-0.062551044
8	0x3fb1a424	1.3878217
9	0x3f14e270	0.58158016
10	0xbfaea6be	-1.3644636
11	0xbda2f347	-0.07956558
12	0xbf1aa333	-0.6040527
13	0xbdd3eb3a	-0.103476
14	0xbd2f3d5f	-0.042783137
15	0xbdcdaf21	-0.10043169
16	0xbf22503c	-0.6340368
17	0xbfa396c6	-1.2780387
18	0xbd9d51de	-0.076816306
19	0xbda6cd37	-0.081446104
20	0xbeb76be8	-0.35824513
21	0xbd84a18d	-0.06476126
22	0xbd944aee	-0.07240854
23	0xbe9cc21d	-0.30616847
24	0xbdde70fa	-0.10861392
25	0xbd55da8a	-0.05221037
26	0xbf14a787	-0.58068126
27	0xbdc0ccb1	-0.09414042
28	0xbdb69060	-0.08914256
29	0xbd763df4	-0.060117677
30	0xbba98d1f	-0.0051742936
31	0xbda9e49f	-0.08295559
32	0xbda52d97	-0.08065336
33	0x3ccf0dc2	0.025275115
34	0xbd0a008d	-0.03369193
35	0xbd458161	-0.04821909
36	0xbf0f3047	-0.5593304
37	0xbed7ffc2	-0.42187315
38	0xbfb577f6	-1.4177234
39	0xbe25baff	-0.16184615
40	0xbd522b92	-0.051311083
41	0xbd4b3a39	-0.049616072
42	0xbd96d106	-0.07364087
43	0xbcb20130	-0.021729082
44	0xbcea276b	-0.02858325
45	0xbec96cb6	-0.39340752
46	0xbf85c3b6	-1.0450351
47	0xbdade027	-0.08490019
48	0xbf4c0e2f	-0.7970914
49	0xbd27f9ff	-0.0410099
50	0xbef38c85	-0.47568145
51	0xbd674073	-0.056457948
52	0xbb285567	-0.002568567
53	0xbc86a465	-0.016435811
54	0xbd811fe5	-0.063049115
55	0xbf8f285e	-1.1184194
56	0xbd4fa7d1	-0.05069715
57	0xbdb50128	-0.08838111
58	0x3e0814e5	0.1328922
59	0xbdbd4338	-0.092413366
60	0xbd6e0c4b	-0.058117192
61	0xbf130545	-0.57429916
62	0xbda41906	-0.08012585
63	0xbe9d6566	-0.30741423
64	0x3f272e30	0.6530485
65	0xbe93a166	-0.28834075
66	0xbce6c053	-0.02816788
67	0xbf394b98	-0.7238097
68	0xbc8d1025	-0.017219612
69	0xbe240d4f	-0.16020702
70	0xbe0241bd	-0.1272039
71	0xbd5c8c9a	-0.053845026
72	0xbdd88c62	-0.10573651
73	0xbddc15da	-0.10746355
74	0xbce737db	-0.028224876
75	0xbd113516	-0.035451017
76	0xbf401b58	-0.75041723
77	0xbf8044ad	-1.0020958
78	0xbd28af3f	-0.041182753
79	0xbf1a36ad	-0.6023968
80	0xbd1fbef6	-0.039000474
81	0xbd938866	-0.0720375
82	0xbd4aae61	-0.049482707
83	0xbf84199d	-1.0320317
84	0xbdcc4ae1	-0.099752195
85	0x3ef3c67f	0.47612378
86	0xbd9d1fde	-0.07672094
87	0x3f8459d2	1.0339911
88	0xbf84d51d	-1.0377537
89	0xbd9a7cde	-0.07543348
90	0xbdbde4f0	-0.09272182
91	0xbda96abf	-0.08272313
92	0xbd6b5c7a	-0.05746124
93	0x3c86ce94	0.016455926
94	0xbdc537f1	-0.096298106
95	0x3fb39531	1.4029905
96	0xbd81093d	-0.0630059
97	0x3f2ef874	0.6834786
98	0xbd07a6fd	-0.033118237
99	0xbcbb1f90	-0.022842199
100	0xbd12ef46	-0.03587272
101	0xbee92a1b	-0.45539936
102	0xbd83118d	-0.06399832
103	0xbd877a75	-0.06615154
104	0xbdabdaf7	-0.083913736
105	0xbe121936	-0.1426743
106	0xbf19a1d9	-0.60012585
107	0xbe1bb626	-0.15206203
108	0xbcd88eba	-0.026435245
109	0xbf2195e5	-0.63119346
110	0xbe7fdc74	-0.2498644
111	0xbf93ae8b	-1.1537641
112	0xbe964af4	-0.2935406
113	0xbda86d9f	-0.082240336
114	0xbf2bfee7	-0.67185825
115	0x3c703313	0.014660615
116	0xbc4a5871	-0.012350188
117	0xbd9bea7e	-0.07613085
118	0x3d28f8f4	0.041253045
119	0xbe0048da	-0.1252779
120	0xbd674fba	-0.056472518
121	0xbdbbc918	-0.09169215
122	0x3f4b9744	0.7952769
123	0xbe04dc25	-0.12974603
124	0xbf0a3cb5	-0.5399888
125	0xbcf1df34	-0.029525377
126	0xbdb360c0	-0.08758688
127	0xbda40edf	-0.08010649
128	0x3e23ec00	0.16007996
129	0x3e035067	0.1282364
130	0xbec9d9e0	-0.39424038
131	0x3c461b48	0.012091465
132	0xbdbb6770	-0.091505885
133	0xbdd13322	-0.10214831
134	0xbf1fe9cc	-0.6246612
135	0xbd889abd	-0.06670139
136	0xbf1875e7	-0.59554905
137	0xbdb4c5c8	-0.08826786
138	0xbdc14759	-0.094374366
139	0xbd8601e5	-0.0654333
140	0xbea7cd2c	-0.3277372
141	0xbe426544	-0.18983942
142	0xbd3cb120	-0.046067357
143	0xbd006df7	-0.03135487
144	0xbdff84f4	-0.12476531
145	0xbd0dd11d	-0.034623254
146	0xbd868c2d	-0.06569705
147	0xbdbe4440	-0.092903614
148	0xbd76f4c4	-0.06029202
149	0xbdb1e380	-0.0868597
150	0xbdc47ae1	-0.0959375
151	0xbdccfaa9	-0.10008747
152	0xbe046a15	-0.12931092
153	0xbdd7a5ea	-0.105296925
154	0xbd5ccfca	-0.0539091
155	0xbe015e65	-0.12633665
156	0xbe806bb9	-0.25082186
157	0xbf03a6ab	-0.5142619
158	0xbf9f3d82	-1.2440646
159	0x3d92d195	0.07168881
160	0xbe95ae66	-0.29234618
161	0xbe9e3536	-0.30899972
162	0x3c22b8ae	0.009931726
163	0xbcd42cf9	-0.02590035
164	0xbe5dfcec	-0.21678513
165	0xbd3600a0	-0.04443419
166	0xbd68255b	-0.05667625
167	0xbea42bc6	-0.32064646
168	0xbd962076	-0.0733041
169	0xbd94c0e6	-0.07263355
170	0xbe128376	-0.14307961
171	0xbcfa572c	-0.030559145
172	0xbeef627b	-0.46754822
173	0xbf8d7e53	-1.1054176
174	0xbdb47d20	-0.08812928
175	0xbd2e2cb7	-0.042523112
176	0xbd9625ee	-0.07331453
177	0x3e809e66	0.25120848
178	0x3be7ae9a	0.0070703747
179	0xbda732c7	-0.08163982
180	0xbe23eaef	-0.16007589
181	0xbe7b7454	-0.24556094
182	0x3f303b48	0.68840456
183	0xbe16439e	-0.14674231
184	0xbeeac62d	-0.4585432
185	0xbdb81958	-0.08989209
186	0xbcc83ef1	-0.024444075
187	0xbf2bb714	-0.6707623
188	0xbbbb85e8	-0.00572275
189	0xbb80dd7d	-0.0039326535
190	0xbd12762e	-0.035757236
191	0xbd87d12d	-0.06631694
192	0x3fe9512d	1.8227898
193	0xbeb94df0	-0.36192274
194	0x3bf63d2b	0.007514616
195	0xbdb0d148	-0.08633667
196	0xbd2530b7	-0.04032966
197	0xbda92d07	-0.082605414
198	0xbda931b7	-0.082614355
199	0xbe18f70c	-0.14937991
200	0xbdf79424	-0.120888025
201	0xbebbb241	-0.36659434
202	0x3d7ab7dd	0.061210502
203	0xbf64bab6	-0.893474
204	0xbee1c6e3	-0.4409705
205	0x3c31987f	0.010839581
206	0xbd0a1fcd	-0.033721734
207	0xbc09dbd5	-0.008414228
208	0xbf5e9c3a	-0.8695713
209	0xbfda74d0	-1.7066898
210	0xbc899265	-0.01679344
211	0x3f746725	0.95469886
212	0xbfab88bd	-1.3401104
213	0xbd8d4225	-0.06897382
214	0xbdb3f918	-0.08787745
215	0xbe832702	-0.25615698
216	0xbda121a7	-0.07867747
217	0xbd5d7d3a	-0.054074503
218	0xbeee6303	-0.46559915
219	0xbcaa7f4f	-0.020812659
220	0xbd9fd40e	-0.07804118
221	0xbca6460f	-0.020297078
222	0xbe00add5	-0.12566312
223	0x3e0faab7	0.14029966
224	0xbe4c2881	-0.19937326
225	0xbd8a648d	-0.0675746
226	0xbc98a756	-0.01863448
227	0xbca36f7f	-0.019950626
228	0xbe104f66	-0.14092788
229	0x3fb64562	1.4239924
230	0xbec1af41	-0.3782902
231	0x3da606bd	0.08106754
232	0xbf8637d4	-1.0485787
233	0xbedd65ed	-0.43241826
234	0xbba597d7	-0.005053501
235	0xbe027ac5	-0.12742145
236	0xbdaea11f	-0.08526825
237	0xbd88beae	-0.06676994
238	0xbda2c39f	-0.07947468
239	0xbdba44d0	-0.09095156
240	0xbd832dad	-0.06405196
241	0xbdafd107	-0.08584791
242	0xbda9854f	-0.0827738
243	0xbda36c5f	-0.079796545
244	0xbd906d16	-0.070520565
245	0xbdcc11d9	-0.09964342
246	0xbe1f8821	-0.15579273
247	0xbec6cb11	-0.38826802
248	0xbe40ccb1	-0.18828084
249	0xbde19d7b	-0.11016365
250	0x3cf86713	0.030322587
251	0x3f4cbcef	0.7997579
252	0xbd0cb265	-0.034349818
253	0xbcb84130	-0.022492021
254	0xbb4e6dc1	-0.0031498524
255	0xbc4f5051	-0.012653426

l3.weight f4 [4, 300]
0	0x3dc8cde9	0.09804899
1	0x3e24f5e7	0.1610943
2	0xbe37f30f	-0.17963813
3	0xbca2482f	-0.01980981
4	0xbcb42ca8	-0.02199395
5	0x3d30e728	0.043189198
6	0xbcdb703a	-0.026786912
7	0xbc9e440d	-0.019319559
8	0x3fa0941a	1.2545197
9	0x3d987b80	0.07445431
10	0xbf12d717	-0.5735945
11	0xbd72af04	-0.05924894
12	0x3f8a99ab	1.0828146
13	0x3d01ff54	0.03173764
14	0xbce730d2	-0.028221522
15	0xbc8a66e5	-0.016894767
16	0x3dcb4d7b	0.099268876
17	0x3fc775b5	1.5582796
18	0xbcec314b	-0.028832098
19	0xbd66c75b	-0.056342464
20	0xbeaf26b7	-0.34209225
21	0xbd035ee5	-0.03207292
22	0x3baea43f	0.0053296383
23	0x3ee146c3	0.439993
24	0xbcb88aa0	-0.022527039
25	0xba51e9f2	-0.0008007578
26	0x3f196c8a	0.5993124
27	0xbd0dbb3c	-0.03460239
28	0xbc9c613e	-0.019089337
29	0x3c29c306	0.010361439
30	0x3ccf06e0	0.025271833
31	0x3caf5e2f	0.021407215
32	0x3c8d9045	0.017280707
33	0x3b3f261b	0.0029167
34	0xbd6f4a43	-0.05842043
35	0xbcb0550f	-0.021524934
36	0xbf0bc142	-0.54591763
37	0x3bd8aa12	0.006612071
38	0xbf728f33	-0.94749755
39	0x3f93bbf5	1.1541735
40	0xbcd99dd2	-0.026564512
41	0xbce3d4ab	-0.027811369
42	0xbc5e25f9	-0.013558858
43	0xbc939cb5	-0.01801906
44	0xbc1853bd	-0.0092973085
45	0xbeda8528	-0.42679715
46	0xbeabc9e8	-0.3355248
47	0x3d10be55	0.035337765
48	0xbf98fbe4	-1.1951871
49	0xbce17282	-0.027520422
50	0x3ed6336b	0.41836104
51	0xbcaef007	-0.021354688
52	0x3b12dede	0.0022410671
53	0x3d8771dc	0.06613514
54	0x3ca46a46	0.020070206
55	0xbedfabf1	-0.43685868
56	0xbd4c1751	-0.049826924
57	0x3a8f931d	0.0010953877
58	0xbd28e65c	-0.041235313
59	0x3c8f21d4	0.017472185
60	0xb9ee687a	-0.0004547274
61	0x4037c901	2.8716433
62	0x3db04ae7	0.086080365
63	0xbd0e5844	-0.034752145
64	0x3f366ab8	0.7125659
65	0x3dd65d01	0.10466958
66	0xbd031d45	-0.032010335
67	0x3f150415	0.58209354
68	0xbc3d41a7	-0.011551297
69	0xbd2e96f7	-0.04262444
70	0x3cf10ab4	0.029424049
71	0xbcc9e279	-0.024644123
72	0x3c977515	0.018488446
73	0xbe09c84d	-0.13455315
74	0x3d0b0645	0.033941526
75	0x3c707a2c	0.014677566
76	0xbecb2391	-0.39675573
77	0x3f201ac5	0.6254085
78	0x3c53e4f9	0.012933009
79	0xbf555a18	-0.833406
80	0x3d634f13	0.055495333
81	0xbd685ff3	-0.05673213
82	0x3a9ca215	0.001195016
83	0xbf5efd99	-0.8710571
84	0x3be5dc33	0.007014775
85	0x3fb1d7b4	1.3893952
86	0x3c786fab	0.0151633425
87	0x4007f03a	2.1240373
88	0xc0206d2e	-2.5066638
89	0xbce093da	-0.027414251
90	0x3db31bff	0.08745574
91	0x3d1d9a86	0.038477443
92	0xbf1a83b4	-0.60357213
93	0x3d83c3ac	0.06433806
94	0xbcc0a349	-0.02351536
95	0x3ccfd6f2	0.025371049
96	0x3c17d2d6	0.009266576
97	0x3c8b014c	0.016968392
98	0xbbbc2228	-0.0057413764
99	0xbcb01a77	-0.021496994
100	0xbcb1cf2f	-0.021705238
101	0xbed06032	-0.4069839
102	0xbce8a963	-0.028401082
103	0x3cec24cb	0.028826138
104	0xbd1f570e	-0.03890138
105	0x3d397b40	0.045283556
106	0x3f5fd907	0.8744053
107	0xbded6452	-0.115914
108	0x3c3006ef	0.010743841
109	0xbbb13b75	-0.005408699
110	0xbc6d30c2	-0.014476957
111	0xbe72b206	-0.23700723
112	0xbf9cf895	-1.2263361
113	0x3cb6a960	0.022297561
114	0x3e5bd5c9	0.21468271
115	0xbbc2d500	-0.0059458017
116	0x3d9ea35e	0.077460036
117	0x3af14de4	0.0018410054
118	0x3d348f84	0.04408218
119	0xbfadbdc6	-1.3573539
120	0xbec6c652	-0.3882318
121	0xbcced738	-0.025249109
122	0x3f00df59	0.503408
123	0xbea8882e	-0.32916397
124	0xbed62b01	-0.41829684
125	0x3b7948dc	0.0038037812
126	0x3e26cdff	0.16289519
127	0xbcd62a38	-0.026143178
128	0x3f964ede	1.1742818
129	0x3de77283	0.11301138
130	0x3e643d5a	0.22289029
131	0xbddc40d1	-0.1075455
132	0xbd172a16	-0.03690537
133	0x3cbb194f	0.022839217
134	0xbef8bcb6	-0.48581475
135	0xbcae8757	-0.02130477
136	0x3f334a5f	0.70035356
137	0x3c83519d	0.016030127
138	0x3c0d05fc	0.008607384
139	0x3b149e85	0.0022677493
140	0x3c5ad4da	0.013356412
141	0x3f4117c9	0.7542692
142	0x3cb67507	0.0222726
143	0x3e807563	0.2508956
144	0xbbbf9f20	-0.0058478266
145	0xbb5cd6d2	-0.0033697379
146	0xbcca7620	-0.02471453
147	0xbc368e08	-0.011142261
148	0x3c0aadfd	0.008464334
149	0x3d517d59	0.05114493
150	0xbcc583b9	-0.024110662
151	0x3c8bfeb5	0.017089227
152	0xbccf03c0	-0.025270343
153	0xbce676e2	-0.02813286
154	0x3c06a144	0.00821716
155	0xbc286506	-0.010277992
156	0xbffe3419	-1.9859649
157	0xbf99c9f6	-1.2014759
158	0x3c516e9f	0.012782722
159	0x3fc14501	1.5099183
160	0x3d0c9965	0.034325976
161	0xbe57a391	-0.2105849
162	0xbd27dabe	-0.040980093
163	0x3f977b05	1.1834418
164	0x3f820339	1.0157233
165	0xbc46c4d0	-0.012131885
166	0xbc77f694	-0.015134472
167	0xbecda4f8	-0.40164924
168	0x3cc81971	0.024426194
169	0x3c82e1e4	0.015976854
170	0x3c93cdee	0.01804253
171	0xbc57d272	-0.013172733
172	0x3e26c567	0.1628624
173	0x3f1fab6e	0.62370956
174	0xbd4f0c58	-0.05054888
175	0x3cce8dc9	0.025214093
176	0xbd575702	-0.05257321
177	0x3e39caef	0.1814382
178	0x3f20ebbe	0.62859714
179	0xbd0b3a9d	-0.033991445
180	0xbe8f549c	-0.2799424
181	0x3f13cc5d	0.5773371
182	0x3dfb6324	0.12274769
183	0xbf4f8ae9	-0.81071335
184	0xbf2614de	-0.6487559
185	0x3d26a6ee	0.04068654
186	0xbca027a7	-0.019550158
187	0xbe09fee2	-0.13476136
188	0x3dab1de7	0.08355313
189	0x3d0cbc8d	0.034359504
190	0x3f3abf78	0.7294841
191	0x3d143b4e	0.03618937
192	0x3f44f330	0.76933575
193	0x3d394620	0.045232892
194	0xbd0cb264	-0.034349814
195	0xbc80a925	-0.015705654
196	0xbca19b87	-0.019727482
197	0xbc82ef2c	-0.015983187
198	0xbce63543	-0.028101569
199	0xbe5c173d	-0.2149324
200	0xbe971a75	-0.29512373
201	0xbee392cc	-0.44447935
202	0xbe62989d	-0.2212853
203	0xbe53a431	-0.20668103
204	0x3f732ccb	0.94990224
205	0x3c23f8fe	0.010008095
206	0xbd88352c	-0.06650767
207	0x3d91e735	0.07124177
208	0xbd8cdcf8	-0.06878084
209	0xbf4dff1e	-0.804674
210	0xbdf3d8ab	-0.119065605
211	0xbea3d515	-0.31998506
212	0x3fad23e1	1.3526574
213	0xbb41d970	-0.0029579066
214	0xbd44e840	-0.048073053
215	0x3ed43a3a	0.41450673
216	0xbac6c660	-0.0015165322
217	0x3c64b992	0.013960259
218	0xbb64e16c	-0.00349244
219	0xbc19e54e	-0.009393049
220	0x3db5f290	0.08884156
221	0xbaad431f	-0.0013218856
222	0x3c713803	0.014722827
223	0x3cb9bc31	0.022672744
224	0x3d4def30	0.050276935
225	0xbb9b61c5	-0.0047418796
226	0x3ca51496	0.020151418
227	0x3d38a148	0.045075685
228	0xbe76562b	-0.24056308
229	0x3cbe4687	0.02322699
230	0xbf34ecd7	-0.7067389
231	0xbd6f6e1f	-0.05845463
232	0x3ec17619	0.37785414
233	0x3f7591cf	0.9592561
234	0x3db5118f	0.0884124
235	0xbc088b1d	-0.008333948
236	0xbcb335c8	-0.02187623
237	0x3e0eeb25	0.13956888
238	0x3dc2c628	0.095104516
239	0x3c8ba7fd	0.017047876
240	0xbcb6a0c8	-0.022293463
241	0x3db84ce8	0.08999044
242	0xbce50c63	-0.027960008
243	0xbc4c2df8	-0.012462132
244	0xbccfbce8	-0.025358632
245	0x3cd7b1a1	0.026329817
246	0xbdd9dc43	-0.10637715
247	0x3fa86506	1.315583
248	0x3f1689ed	0.5880421
249	0x3d3334ff	0.043751713
250	0xbe241776	-0.16024575
251	0x3fd2d995	1.6472651
252	0x3cd26ec1	0.025687577
253	0xbc53ec02	-0.012934687
254	0xb8e15a4a	-0.00010745654
255	0x3c625062	0.01381311

l3.bias f4 [4]
0	0xbeb2157b	-0.34782013
1	0xbdf8e23a	-0.12152524
2	0x3f2982e2	0.66215336
3	0xbf44c1f6	-0.7685846
