TD3_control/dir_Walker2D_002/biped-v6-2d-17_actor_t.pth (torch, 527895 bytes, 6 tensors)

l1.weight f4 [400, 24]
00000000: a8cc 0440 da78 493f 8a3b 17bf 29fa 26c0
00000010: f974 1ac0 4fc0 4640 d5ad 5dbd e73e e23c
00000020: e219 00bf ee0d 98be f345 a2bf a304 2e3d
00000030: e664 1abe 9877 cdbe 5def 0f3f 467c 0e3d
00000040: af5a 383e 5ffa e9be bb0b e7bf 653a e03e
00000050: c78e bbbf 1aeb 133e 4430 ccbf eeb6 cdbe
00000060: 945c e73f b3c8 0ec0 d3e4 83be 1962 21be
00000070: 7778 47c0 94c1 c0c0 09c6 3fbe 6cc6 713c
00000080: 3c7a 703f c53e a7be abc4 37bf 7fc3 723f
00000090: b849 32bf 4a77 9b3e 1d51 b8be 70bf 7fbc
000000a0: b0c9 ab3f fb15 5ebd a184 6dbf 1783 eb3d
000000b0: 4be5 913f 002b ad3d 11e1 74bf f0ea 93bf
000000c0: eccf 1240 cd87 f8be 4132 09be 99f7 50c0
000000d0: 03f0 12c0 b1ec 25be 7b37 b8bd 6319 bb3d
000000e0: eea9 15c0 8fe1 bd3d 39b7 c5bf 67fb 643f
000000f0: f9ac 6c3f e2cb 253e a018 0540 8b53 bd3e
00000100: 85ba 57bf ca50 83be 8469 8fbf ba8b 1cbe
00000110: b3fd 863f 4cbb 7dbe 09b4 82bf 64a2 0cbf
00000120: a53f 8340 cd9a 0240 573f 3abf 9daf 84bf
00000130: 6b0f ee3e 4e02 2a3f 8a8f d5bc 4f29 a5bd
00000140: 18e9 bebf 9d89 02bf 4eb9 183d 365b 00be
00000150: ff43 a4bf 4ef5 a7bd b403 073e b294 da3c
00000160: 14c6 fdbc b226 e43c 66c0 2bc0 7d72 163e
00000170: af41 3abe d8e7 393d 7b14 63bf f646 1abf
00000180: 941d 0740 12ea a8bf 66bd e0bf 9851 2a3f
00000190: 736e f5be 0ca7 853f ecc7 383e 0c4f 5bbd
000001a0: 2bca d5bf f852 dfbe 8051 c63d 242a 633d
000001b0: a078 0bbf cf99 55be 1b8a 32bc cd18 cb3b
000001c0: 27e7 bc3e 9772 173f d8b1 cbbe deb6 79bc
000001d0: 82a3 f6bf 0b25 2ebe fdf4 20c0 5974 853d
000001e0: 336c c5bf fee0 2640 2e84 94bf 08b1 a6bf
000001f0: cd7d 2cc0 073f e23f b1fc 2ebe f08b e1bd
00000200: 46bb d4be 660f cdbe 9a62 91bf 8d4d 9abc
00000210: 8b7a 95bf 2fa9 cdbe a363 b73f 426b 91bd
00000220: 0ae2 9f3f ce23 563e b7e6 20bf 910d 3f3d
00000230: 00c6 24c0 6115 50be afdc abbe 0b3a b33e
00000240: 96da 01bf 8b05 1abf 863f 6d3e fce8 dbbf
00000250: 5ae4 973f e595 1740 b714 dc3d 9f1a 44be
00000260: a88a c5bd 2bd1 f8be 20a3 04c0 ca4f 563f
00000270: bf7d 17bf 65dc 923d 064e 0f3f 81dd 183e
00000280: 39ed fcbe ed9a ca3e 35a5 10c0 953b 7a3d
00000290: 80cc 8e3d 7ad0 123e ebb5 20bf a1f7 80bf
000002a0: c2f3 c53f fbf7 643f 5c63 03c0 df15 1ec0
000002b0: a45c 51bf 0028 a7bc 2249 ab3b e056 24be
000002c0: 062a 21bf 7575 18bd cdaa 843f 4a18 bfbb
000002d0: e817 543e 559a 103f 1869 a23e 6358 c33e
000002e0: 68bb ce3e 8ee2 90be c3f4 8cbd a636 57be
000002f0: 949a 6bbf 6755 8e3d 0bc0 d3bf 5522 8fbf
00000300: 7294 033f d0e9 4040 7152 bcbe f188 febe
00000310: cbe6 05bd a3b1 0c40 6ae6 353e 7248 a2bd
00000320: 3d3d 33bf c1e9 00bf 79f6 9cbe e60a 9fbe
00000330: 715f 14bf 254f f13e 9aa6 03c0 ee62 d3bd
00000340: f261 eebf e084 4cbe 5fa4 45bf 96a0 96be
00000350: 1063 01c0 5563 92bd 9851 653f b3b0 e8bf
00000360: d205 d840 e227 83bf 1ed6 1dbe c0e8 c1bf
00000370: af20 82c0 f09d 3bc0 b183 463d 44ae f33d
00000380: 0d11 a23e 1104 0ebf 85f1 45bf 4a1c aabe
00000390: a3cd 733e 34c7 423f e288 6bbf 164e 2d3d
000003a0: cdfb 413f 7738 893e c665 4cbf 2d92 f93d
000003b0: 6611 773e f76a dfbd ef35 f4be 6ccb 10bf
000003c0: 7378 02bf 3936 2941 74c6 8a3f bea8 7cbe
000003d0: dfd7 d8bf d51e 21bc 242a b6bd 826c f13d
000003e0: 358f 77bf 1796 11bb 8c75 5cbd 50d1 1dbd
000003f0: 3bd6 e9be 68dc 0f3e 73b7 093f 3e59 a93c
2.0749912 0.7870003 -0.59075224 -2.6090186 -2.4133894 3.1054876 -0.054120857 0.027617885
-0.50039494 -0.29698128 -1.2677597 0.04248489 -0.15077552 -0.40130305 0.56224614 0.034786485
0.18003343 -0.4569883 -1.8050455 0.43794551 -1.4652947 0.14445153 -1.595223 -0.40178627
1.8075128 -2.2309997 -0.25760517 -0.15760078 -3.1167276 -6.02363 -0.18727888 0.01475678
0.93936515 -0.32665077 -0.71784467 0.94829553 -0.69643736 0.30364448 -0.35999385 -0.015609607
1.3420925 -0.05422018 -0.927805 0.11499613 1.13981 0.08455467 -0.95655924 -1.1556072
2.2939405 -0.48541108 -0.13398077 -3.2651122 -2.2958992 -0.16203572 -0.08994957 0.091357015
-2.3384967 0.092715375 -1.544654 0.8944611 0.92451435 0.16191056 2.079628 0.369778
-0.8426898 -0.25647575 -1.1204076 -0.15287676 1.0546173 -0.2477848 -1.0211192 -0.5493529
4.101519 2.0406983 -0.727529 -1.0366093 0.46496138 0.66409767 -0.026069421 -0.080645196
-1.4914885 -0.5099123 0.037286095 -0.12534794 -1.2833251 -0.08201085 0.13185006 0.026682232
-0.03097824 0.027850483 -2.683618 0.14692111 -0.18189119 0.04538712 -0.88703126 -0.6026453
2.1111803 -1.3196433 -1.75578 0.6653075 -0.4793583 1.0441604 0.18045014 -0.05354218
-1.6702322 -0.43617988 0.09683514 0.05546011 -0.54480934 -0.20859455 -0.010897185 0.006198025
0.36895105 0.59159225 -0.39784122 -0.015241353 -1.9268649 -0.17006318 -2.514953 0.06516332
-1.5423645 2.6074824 -1.1602838 -1.3022776 -2.6951783 1.7675484 -0.17088582 -0.11013019
-0.41549128 -0.4005081 -1.1358216 -0.018835807 -1.1678022 -0.4016814 1.4327282 -0.07100536
1.2490857 0.20912096 -0.6285204 0.046643797 -2.574585 -0.20320655 -0.33566806 0.3500522
-0.5072416 -0.6016471 0.23168764 -1.7180476 1.1866562 2.3685238 0.107461385 -0.1915078
-0.09645587 -0.48597082 -2.0724564 0.837155 -0.5917625 0.07170943 0.5597843 0.14928247
-0.49399737 0.39571324 -2.2600834 0.061091978 0.06972599 0.1433734 -0.62777585 -1.007557
1.5465014 0.8944089 -2.0529394 -2.470085 -0.81781983 -0.020404816 0.005227224 -0.16048765
-0.6295475 -0.03722139 1.0364624 -0.005831753 0.20712245 0.5648549 0.31720805 0.3815337
0.40377355 -0.28297848 -0.06882622 -0.2101694 -0.9203274 0.06949883 -1.6542982 -1.1182352
0.51398385 3.0142708 -0.36781648 -0.49713853 -0.032690804 2.198342 0.17763677 -0.07923974
-0.7001532 -0.5035668 -0.30656794 -0.31063002 -0.5795813 0.47130695 -2.0570436 -0.10321604
-1.862364 -0.19972563 -0.77203935 -0.29419392 -2.0216713 -0.07147852 0.8957763 -1.8178924
6.7507105 -1.0246546 -0.1541371 -1.5149155 -4.0664897 -2.9315147 0.048465434 0.11898473
0.31653634 -0.55474955 -0.77321655 -0.33224708 0.23808913 0.7608521 -0.9200574 0.042310797
0.7577484 0.26800892 -0.79842794 0.12186084 0.2412773 -0.10909074 -0.47697398 -0.565604
-0.5096504 10.575738 1.0841813 -0.24673745 -1.6940879 -0.009834011 -0.088947564 0.11788274
-0.9670289 -0.0022214705 -0.05382304 -0.038529694 -0.45671257 0.14048922 0.53795546 0.020672437

l1.bias f4 [400]
00000000: 6006 72bf 5456 7bbf f0f8 49bf 2da1 8fbf
00000010: ac4b babf 5b6a 8cbf 7227 5bbf fed8 b3bf
00000020: 3013 113f 4184 b1be 05b4 05bf 1535 a13f
00000030: 2695 66bf 6d08 9dbf 3fd7 95bf 5505 05bf
00000040: 88e4 75bf f96a 36bf 3995 85be 4603 143f
00000050: 4a50 23bf cb49 13c0 c436 003f 9285 3cbf
00000060: ff75 87bf 1202 5bbf 9c25 d4bf 7002 583e
00000070: d1b1 afbf d301 a5bf 3486 03be 1df9 80bf
00000080: 6174 18bf 2b69 6fbe 5d42 6dbe 055f 2ebf
00000090: 8f9f 2fbf 8ee9 a9bd 9689 8bbf 55b0 0fbd
000000a0: bf98 33bf 1f42 c53e 8d26 51bf 8a5f 41bf
000000b0: 54a3 8abe 9311 8abf 9c43 4c3e 0f62 c2bf
000000c0: 130d 02bf 6b4d 4b3f 34ae 4fbf 9cef e3bf
000000d0: 6057 9ebf fce4 e1be d80c b43d 86e0 b8be
000000e0: c116 59bf 5df2 9ebf a408 7dbf 3f24 a0be
000000f0: c3a2 b0be d5ae 04c0 cf6c 1dbf 6e78 043e
00000100: 8072 8fbf 9d94 94bf 6443 d7be 1c61 e6be
00000110: 19b2 29be 32fb 45bf ef7d aabf 86d0 c03f
00000120: 9416 a5be 0c8d 95bd 912e 61bf 8bd8 01bf
00000130: e051 d4bf e36b b6be 7652 d9be 812d bb3e
00000140: 7ad6 67bf e460 38bf 02eb 26bf 26c9 9bbf
00000150: 7658 d7be 847b 27bf 8632 b8bf cf8e 11bd
00000160: ccc6 983d 06b6 76bf 12eb 99bf 93a1 8ebf
00000170: 8381 4ebf 0954 71be e2cb b9bf 59d3 c7bf
00000180: 3dd6 95bf 9a87 8dbf 2b08 97be a605 cebf
00000190: 78f3 86bf 9520 5fbe 021e 4fbf 0738 13be
000001a0: 391b 36bf 39f8 3c3e fccd 4cbf b046 4cbf
000001b0: 000e 96bf b48a be3f f5a9 4bbf 4c23 a5bf
000001c0: 57e7 b0bf b9e2 c2bf 000d a2be be6b 94bf
000001d0: 8523 a0bf 1bc1 abbf c155 c3be a633 a4bf
000001e0: 029d 7bbe 3b76 59bf 7eb2 01bf 57d9 d8bf
000001f0: 1f13 5f3f 21a5 e8be 883b 9abd 88bb c5be
00000200: df4a 7cbf 25ef a93f 7dc5 92bf f215 80bf
00000210: f833 52bf 2eed 4ebf aac8 62bf ef44 da3e
00000220: ba52 56bf 6a30 d1bf 5522 9abe 7b4d 83bf
00000230: aae5 93bf 8632 89bf 3fe9 02c0 4593 5bbf
00000240: f963 82bf 8b56 43bd 4a25 f7bd aaea cfbf
00000250: d3e9 1abf 5060 e7bf 45b4 79bf 5d97 49bf
00000260: 9ae0 41bf 9edb 1bbf 1fdd 50bf ec55 aebe
00000270: 21fd 9abf ba37 81bf e164 a13e fe13 86bf
00000280: 8059 4dbf e8a5 a03e 431b 643f 4bc9 a1bf
00000290: fb74 a33e c12a 8abf 9b76 74bf 87de 68bf
000002a0: 5764 313f d97e b2bd e7da 23bf 48d2 d8be
000002b0: eba5 23bf 0586 d8be d08e 9bbf edd7 f2bf
000002c0: e05c 24bf a57c 6ebf a0a0 5ebf 4969 2fbf
000002d0: 02e0 783d 65ad 9a3e d1a2 76bf a6ce 0abf
000002e0: 0170 57bf fa65 90bf 2663 3cbf 226e 33bf
000002f0: 99c8 f63f 8b70 9dbd e1b9 a7bf 679d 98bf
00000300: ab2a 813f 5913 9cbf 9ec7 663c c277 91bf
00000310: 0f53 343e 472c a6bf c26e 81bf b1ed 78bf
00000320: 642d 623f f565 d0be df83 2dbf ef93 66bf
00000330: abc8 abbf 821c d3bf f51d 84bf 88cc cdbf
00000340: ae83 8fbf 989a 29bf 1f51 46bf 84e9 c2bf
00000350: c987 b5bf 58bc 7d3c eb66 32bf ad7b e4be
00000360: 9b96 0ebf f9e7 2abf 3f38 a7bf c819 b9bf
00000370: da22 64bf 90c4 84bd 766c babf 4aad 06bf
00000380: d8a9 9cbf 0512 e0bf fea4 a3bf 491e a9bf
00000390: 47af 30be 7565 67bf 0987 a8bf 2747 71bf
000003a0: 6514 85bf 7b0c 9abf 6b47 29bf f1c7 a2bf
000003b0: 0b1b 93bf ca81 a3bf 368d 2b3e d52a 5cbf
000003c0: af46 9ebf 9ecc 98be 20b8 59bf 807f 703e
000003d0: 7fae c9bf caf3 aabf b2a2 c83e eee5 c8bf
000003e0: 14bd f2bf bb18 4dbf 6b4e 98bf ab67 1b3e
000003f0: 558b bebe 0e73 92bf a56d 28bf 808f c3bf
-0.9454098 -0.981786 -0.78895473 -1.1221062 -1.4554343 -1.0969957 -0.85607064 -1.4050596
0.566699 -0.34671214 -0.52227813 1.2594324 -0.9007133 -1.2268196 -1.1706313 -0.5196126
-0.96051836 -0.7125698 -0.2609041 0.57817495 -0.63794386 -2.301379 0.50083566 -0.7364131
-1.0582885 -0.85550034 -1.6573977 0.2109468 -1.372614 -1.2891182 -0.12844163 -1.0076023
-0.5955258 -0.23379962 -0.23169847 -0.6811374 -0.6860284 -0.082965 -1.0901363 -0.035080273
-0.7015495 0.3852701 -0.8169945 -0.75536406 -0.27077734 -1.0786613 0.19947666 -1.5186175
-0.508012 0.79415005 -0.8112519 -1.7807498 -1.2370415 -0.44120014 0.08791512 -0.36108798
-0.84800345 -1.2417713 -0.9884131 -0.31277654 -0.34499177 -2.073171 -0.61494154 0.12936565
-1.1206818 -1.1607853 -0.42043602 -0.44995964 -0.16571845 -0.7733642 -1.3319682 1.5063636
-0.32243788 -0.07302293 -0.8796168 -0.50721043 -1.6587486 -0.35629186 -0.42445725 0.36558154
-0.9056164 -0.72022843 -0.65202343 -1.2170761 -0.42059678 -0.65422845 -1.4390419 -0.035536584
0.074597925 -0.96371496 -1.2024863 -1.1143059 -0.8066637 -0.23567213 -1.4515345 -1.5611373
-1.1706005 -1.1057007 -0.2949842 -1.6095474 -1.0543051 -0.21789773 -0.80905163 -0.14376841
-0.7113529 0.18454064 -0.8000181 -0.7979536 -1.1723022 1.4886079 -0.7955621 -1.2901397
-1.3820599 -1.522544 -0.31650543 -1.159538 -1.251084 -1.3418306 -0.38151363 -1.2828262
-0.24571612 -0.8494603 -0.5066298 -1.6941327 0.8713855 -0.45438483 -0.07530886 -0.38619637
-0.98551744 1.3276106 -1.1466519 -1.0006697 -0.8211055 -0.8083066 -0.8858744 0.42630717
-0.8371998 -1.63429 -0.30104318 -1.025802 -1.1554463 -1.0718544 -2.0454862 -0.8577159
-1.0186759 -0.047689956 -0.12067659 -1.6243489 -0.6051304 -1.8076267 -0.97540694 -0.7874659
-0.7573334 -0.60881984 -0.81587404 -0.34049928 -1.2108499 -1.0095131 0.31522277 -1.0474851
-0.8021469 0.31376576 0.891041 -1.2639555 0.31925187 -1.0794297 -0.9549348 -0.9096455
0.6929373 -0.087156005 -0.64005893 -0.42347932 -0.63925046 -0.4228975 -1.2152958 -1.8972145
-0.64204216 -0.9315894 -0.86963844 -0.6852003 0.060760505 0.30210415 -0.9634219 -0.5422157
-0.8415528 -1.1281121 -0.7358879 -0.70089924 1.9279968 -0.076874815 -1.3103601 -1.1923035
1.0091146 -1.2193404 0.014085678 -1.1364672 0.1760981 -1.2982262 -1.0111926 -0.9723769
0.8835051 -0.40702787 -0.67779344 -0.9006948 -1.3420614 -1.6493075 -1.0321642 -1.6078043
-1.121206 -0.66251516 -0.7746753 -1.5227513 -1.4182063 0.015486799 -0.6968829 -0.44625607
-0.55698556 -0.6676021 -1.306404 -1.4460993 -0.8911568 -0.06482804 -1.456435 -0.5260817
-1.2239332 -1.7505499 -1.2784727 -1.3212367 -0.17254363 -0.90389186 -1.316621 -0.94249195
-1.0396849 -1.2035059 -0.661246 -1.2717267 -1.1492628 -1.2773983 0.16753086 -0.86002856
-1.2365321 -0.2984361 -0.8504658 0.23486137 -1.5756377 -1.3355649 0.39186627 -1.5695169
-1.8963952 -0.8011586 -1.1898931 0.15176265 -0.37215677 -1.1441362 -0.65792304 -1.5278168

l2.weight f4 [300, 400]
00000000: dd4f 153d d889 b8bd e2f2 623d 4502 943c
00000010: ee90 19bb f224 ddbb d4b0 8c3c 2266 55bc
00000020: bd81 88bd e92f 41bd b326 e4bc 8849 37bd
00000030: f17e cebd 86b7 94bd 4eeb 98bc deec 98bd
00000040: 115a c4bd f01d 413c afb4 abbb 73bc fcbc
00000050: 9ebc 1fbd c14d cbbd 8016 b6bd 40d9 babc
00000060: 678d a7ba 2c3c 8bbb 6652 9cbd 5880 c43c
00000070: 4f3f 24bd 3a68 ed3b 9d04 943c b849 bebd
00000080: e4c1 ffbd 7c31 8cba 4327 60bd eecf 9bbc
00000090: fc8a 7bbd 31b1 4fbd 1141 44bd b5f8 0cbc
000000a0: b0c8 30bc 3c35 023d 2bee 7e3d b4b3 72bd
000000b0: 091c c9bb 70bc 31bd c248 50bd f71d a5bb
000000c0: f1e5 c1bd 0468 023d 5664 1fbd c00f 34bb
000000d0: d6a4 a73c 7c39 7abd 10cc 31bc c6b8 99bd
000000e0: 5161 c8bc e4d2 78bd a624 14bc 6554 8bbd
000000f0: 90f1 b1bc 5c86 75bd dc8e febc a67e 9ebd
00000100: 2299 59bd d603 94bc 6b08 ebbd f702 36bd
00000110: b71d a4bd bbee e1bd 2d3c 0bbd d9c4 c3bc
00000120: 102d bfbd f339 e6bd f594 0dbd 646e 76bd
00000130: 5d21 0abd e757 b2bd bc6d 033b ddee 87bd
00000140: d6ea 2c3d f580 88bd 7fdb aabd 25b9 0ebd
00000150: e4c7 febd 68b1 3abd 500e c13c d83d 34bd
00000160: ee47 a1bd f937 c2bd cddf 9c3d ca57 57bd
00000170: 9c04 7bbc a4b5 003d 1204 633c 8ff4 a4bd
00000180: ac8f 7bbd eccd fabc 5d53 0abd 7770 aabc
00000190: 05e7 8abd fd55 083d 74bb 78bd 2d9f 07bb
000001a0: 2203 59bd 0aae 523b 964e 2c3d ac70 7cbc
000001b0: 163a 253d ebdd 6fbd 08a7 b6bd 657a 0dbe
000001c0: e21a 543c c322 67bd 22a2 e43b 782f b9bc
000001d0: 26e6 93bc b3a4 e83c 184a 33bd eb31 62bd
000001e0: e2ed e7bc 602c b6bd a964 4cbd bc35 043c
000001f0: 6106 4dbd 8bf8 693a 956f 01bd 0263 55bc
00000200: 26d0 1f3d 4281 51bd 3bd3 f03c 7859 32bd
00000210: 6d18 923d 8478 79bd 8fdc 28bd 5fb3 acbd
00000220: 27dc 363d b859 103d 86fe 9dbd 58f8 c93c
00000230: dc35 78bd f5fa 953c 718e 41bb c92f cdbc
00000240: 96a4 263c b308 e9bd f64a 2a3b 6f59 b5bb
00000250: 56d7 90bc b008 b7bd f234 eb3c 8c10 7fbd
00000260: 9700 20bd c27e 003d 58ef 3ebb e9e5 5d3c
00000270: 2ffe a5bd 0168 d03c fef0 9cbd 85ea 183d
00000280: 3aed 5bbd 6dd1 083d d5e4 143d c804 b7b8
00000290: 4286 e53a 6ef5 1b3d a485 88bc 1c23 78bd
000002a0: 2c16 70bd 095b cbbc 1e45 1cbd e959 53bd
000002b0: df2d a3bc 0ae9 5dbd 4672 12bd b433 ffbc
000002c0: 31b1 4fbd 9665 243c e45e 833d 8388 eeb9
000002d0: 8f2c 3d3c 8e6c aa3b 3517 0abd ed3f 81bd
000002e0: 6469 7bbc 301c 3abd 3c2b 0c3d 2537 933c
000002f0: eb53 edba 5117 4c3d 1208 5abd 54aa 8b3b
00000300: 0ff1 afbd 0c14 74bc 40fd 34bb be48 9e3c
00000310: c894 b8bd b325 80bd 5c89 813d 9d97 08bd
00000320: 297c c6bd 4236 ea3b 6268 5ebd f0f4 32bd
00000330: 984a b5bc b6e5 a43c 8782 3abd 9622 92bd
00000340: 0fc8 21bd 1b2b e6bd c18f d9bb 10bc bc3c
00000350: 26a6 a6bc 8f1f 22bd 0ce3 77bd 24ae 7bbd
00000360: c6b2 1abe 73e1 7abd 9d7e 88bd c4a0 84bc
00000370: 4cea fbbc 555f 8bbc 03de ff39 12a9 6d3c
00000380: 8adc ddbd c0de b7bd 5cd6 893b b522 863d
00000390: ae21 1ebd 26c4 213d 6275 803c 2a57 613d
000003a0: 20e7 cc3c 5df5 083d 1d90 1c3b 850a 83bd
000003b0: e007 babd c5a1 88bd 1a3c 5fbd 6cb0 013c
000003c0: 10f5 bfbd 2c55 f2bb a59f 8cbd 28ac bebc
000003d0: 2f35 21bd efdd ba3b ad2f 8bbd d6a7 9a3c
000003e0: bcb4 f3bd 5ebb 9abd ee75 91bd d9bd 59bc
000003f0: 5ed4 9abd aec5 243b ad07 81bd 9935 c5bd
0.036453117 -0.090106666 0.055407412 0.018067488 -0.0023432332 -0.006748789 0.017174162 -0.013024839
-0.066653706 -0.04716483 -0.027850484 -0.04474786 -0.10082806 -0.07261567 -0.01866689 -0.07467054
-0.09587491 0.011786923 -0.005240045 -0.030851578 -0.03899824 -0.0992694 -0.0889101 -0.022808671
-0.001278323 -0.0042491164 -0.07632904 0.02398698 -0.04009944 0.007245091 0.018068606 -0.092914045
-0.124881536 -0.00106959 -0.054724943 -0.019020047 -0.061411843 -0.050706092 -0.047913615 -0.008604218
-0.010790035 0.03178905 0.062238853 -0.05925341 -0.0061373753 -0.0433926 -0.050850637 -0.0050389725
-0.09467686 0.03183748 -0.038914047 -0.0027475208 0.020464342 -0.061089978 -0.010851875 -0.07505946
-0.024460467 -0.060747996 -0.009041941 -0.06803206 -0.021721631 -0.05994259 -0.03107398 -0.07739
-0.053124554 -0.018068235 -0.11476215 -0.04443642 -0.0801348 -0.11031862 -0.033992935 -0.023897575
-0.09334767 -0.11241522 -0.034565885 -0.06016387 -0.033723224 -0.08708172 0.002005442 -0.066373564
0.042216145 -0.066652216 -0.08342647 -0.034844536 -0.1244047 -0.045579344 0.023566395 -0.04400429
-0.078750476 -0.09483332 0.07659874 -0.052573957 -0.015320923 0.031423226 0.013855951 -0.08054458
-0.061416313 -0.03061577 -0.033770908 -0.02080558 -0.06782345 0.03328513 -0.060725644 -0.0020694241
-0.052981503 0.0032147192 0.042067133 -0.015407722 0.0403386 -0.058561247 -0.089185774 -0.13816221
0.0129458625 -0.056429636 0.0069773355 -0.022605643 -0.01805408 0.028398847 -0.043771833 -0.055223387
-0.028311674 -0.088951826 -0.049900685 0.008069452 -0.05005491 0.00089252804 -0.031600554 -0.013024094
0.039016865 -0.05114866 0.029397598 -0.043542355 0.07133565 -0.06090595 -0.041225966 -0.0843265
0.044643547 0.035241812 -0.07714562 0.024654552 -0.06059824 0.018308142 -0.0029534365 -0.0250472
0.010171076 -0.11378612 0.0025984622 -0.005534343 -0.017680805 -0.08937204 0.02871177 -0.06227164
-0.039063063 0.031370886 -0.002913436 0.013543584 -0.08105122 0.025440218 -0.07663153 0.03733303
-0.053693034 0.03340285 0.036351044 -8.7270106e-05 0.0017511325 0.038075857 -0.016665287 -0.060580358
-0.058614895 -0.024823682 -0.038151853 -0.051599417 -0.019919334 -0.05417732 -0.03575351 -0.031152584
-0.050706092 0.010033986 0.06414583 -0.00045496607 0.011546268 0.005200929 -0.03371354 -0.06311021
-0.015344951 -0.045437038 0.03422092 0.01797063 -0.0018106675 0.049826924 -0.053230353 0.004262248
-0.085909 -0.014897358 -0.002761677 0.019321796 -0.09012753 -0.062571906 0.06325027 -0.033347715
-0.096916504 0.0071475813 -0.054298766 -0.04369062 -0.022130296 0.020129066 -0.045534637 -0.07135503
-0.03949743 -0.112386905 -0.0066394513 0.023038894 -0.020342898 -0.039580878 -0.060519263 -0.06144537
-0.15107259 -0.06125016 -0.066647746 -0.01618994 -0.03075137 -0.017013231 0.00048802802 0.014505642
-0.1083308 -0.08978033 0.004206462 0.065495886 -0.03860634 0.039493702 0.015680972 0.055014767
0.025012553 0.03343712 0.002388961 -0.06398491 -0.09083533 -0.0667148 -0.054500677 0.007915597
-0.09372914 -0.007395407 -0.06866387 -0.02327545 -0.03935736 0.005702726 -0.06796203 0.018878859
-0.11899707 -0.07555269 -0.071025714 -0.013289892 -0.07560037 0.002514224 -0.06300292 -0.096293636

l2.bias f4 [300]
00000000: 48a6 33bd 80a7 54bf a365 65be 0bbc f13d
00000010: 5c0e f0bd 1264 d3bd e3ad 2b3e 7580 06bd
00000020: b53d 8ebd 211c 40bd b5ab 04bd 8f71 25bd
00000030: b201 8abe 7c06 e73e 12a8 50bd 480b 1d3c
00000040: 67e6 2dbd e670 99bd 6d25 a4bd cedf 1cbd
00000050: 4712 22bd 71e4 95bf 3749 a3bc 01e3 48bd
00000060: 13ca 5ebc 534a 69bd e6e7 9abd d50c 06bc
00000070: 41b0 de3a 9eda 0fbe 9825 37bd f821 bebf
00000080: 6963 013d 84cc 043f e514 07be 958f 84bd
00000090: 5a21 21be 6fde a3bd b35f 26bf 0614 90bd
000000a0: 4337 6ebd 2ad0 d1bd 43df 6abf 1435 c3be
000000b0: 7c69 72bd 8329 69bd 1cde c13e b2b9 58bd
000000c0: bdf7 69be 7412 f7bd e2d6 56bd 2a3e c73e
000000d0: ee43 11be ed21 13bf e7fe abbd cf76 a1bd
000000e0: 74a7 73bd 9363 d0be dc0f 01c0 a592 0abe
000000f0: 20ef babd 9ea3 1fbd 8523 03bf 76c1 10be
00000100: 2827 af3d 328d 283f df6d a9bd ff38 083e
00000110: 068a c43e 9d4b 04be 67bf 27bd 25cf 82bd
00000120: 8d0d 8cbd 94a6 7cbe c314 fa3d af58 3dbf
00000130: e528 0cbe 4bf3 edbd 450b 06bd 181f b6be
00000140: 456f 86bd d7a5 abbd 7e67 9cbd 6d36 a3bf
00000150: 7c4d 0dbf ee8a f43f a4bc 833c 9702 a8bd
00000160: b84c 54bf f540 02be 644a 7cbd 4262 52be
00000170: 9dd0 0bbf c1fd 4fbf d309 133f 2e1b b5bd
00000180: 1525 03bf 6f09 21bd c9d9 27be c83e bebd
00000190: 95d4 85bd aafc 343e 5421 09bf 3652 68bf
000001a0: f872 34bd c33d efbc f359 e9bd 5bc0 e3bc
000001b0: a592 0abc 25dd 88bd 7279 51bd 3efc 97be
000001c0: 2364 66bd afb8 a2bb c348 b1be 175a 28be
000001d0: 9582 1b3c d6f3 9ebd 2846 b6bb ecb7 2b3f
000001e0: 6f63 abbd 229f 58bd f026 33be 2cbc febc
000001f0: 0ecd 9cbd 1a18 e63e a527 7fbf b51e 0fbb
00000200: 9f27 a3bd 3f86 8e3e 95c9 9dbd 1c11 7bbd
00000210: 5b2d efbe cecb 41be ea88 19bf ef10 a6bd
00000220: c7ed 25bd a563 94bf e5f8 1338 dab0 d7bd
00000230: 8961 4cbc cf20 27bf 04fd 7ebd 4fbf 0abf
00000240: de63 1abd c829 b5bd c732 a7bd 88be b0be
00000250: 14a0 7bbd fea5 063f d3a6 80bf 6253 25bf
00000260: 2ad0 0bbf 08f1 32bd 96ba 9abd 809a 39be
00000270: 7a7c dabc 469e 93bc 06b4 9fbd f236 5abf
00000280: b0f4 b1bd c098 fabe e66e 91bb d367 e2bd
00000290: f4e0 f8bd 19ec 4abc 21a1 47be 852b 8abf
000002a0: c971 c2be f13d c4bd 33eb 6fbd ff90 dc3e
000002b0: 69fb cfbd 05a0 81bd 17d0 08bf 8935 cbbd
000002c0: 90ee 3ebe c5c2 0fbe 412a 7ebf 44d2 853f
000002d0: 937d 093b 00b3 b7be d7f1 2fbe 06c5 98bd
000002e0: 5d4e 8fbd b0e1 b0bc 6501 84bd 3249 58bc
000002f0: d1f0 c7bd 67f9 aebd 2913 4bbe 8639 90bd
00000300: 90ee 3ebe f798 b6bd 72b2 6dbc 8f7c 5fbf
00000310: 4c10 7ebd 2c9d ffbd 6735 25bd d0be a1be
00000320: 8630 14bf 2b18 073f b517 c1be 66a7 92be
00000330: b60d 96bd 9892 ccbe 6984 cebd d9fc 42bf
00000340: 1087 30be 1ac1 a7bd c374 cabe dfe6 aa3f
00000350: a129 0bbf e917 5ebf 9336 e5bc 2d2d 81be
00000360: bb39 e2bc 8653 94bd 88c8 bfbe 0ce3 77bd
00000370: 4565 15bf 0581 65bf d08d b2bd bf7b a2bd
00000380: 14e2 70be d19b 59bf 813f c4bd 158c 663f
00000390: 76c1 10be e44e 0ebd 4ddf 1ebf fe84 15bd
000003a0: 4eb4 1dbd e6b4 8dbf 0e80 94bd 4216 e3be
000003b0: 4c7f 78bd 8512 0abe cc89 f0bd e351 8bbf
000003c0: 7d33 553d ab20 e8bd 8654 18be 193e 4ebf
000003d0: c78f 79be 4ede 96be 5e15 4f3f 4b47 80bd
000003e0: aecc 27bf 8eb9 99be d127 5c3e f34b e3bd
000003f0: 5f5c 1cbf e8ce b93f f301 67be 8c58 0cbd
-0.04385975 -0.83068085 -0.22402053 0.118034445 -0.11721489 -0.10321821 0.16765551 -0.03283735
-0.069453634 -0.046901826 -0.032390315 -0.0403915 -0.26954418 0.45122135 -0.050941534 0.009585209
-0.042456057 -0.07492237 -0.08014951 -0.038299374 -0.039568212 -1.171034 -0.019932372 -0.049044613
-0.013597983 -0.056955647 -0.07563762 -0.00818177 0.0016989784 -0.1404824 -0.044713587 -1.4854116
0.031588946 0.51874566 -0.13191564 -0.064726986 -0.15735379 -0.0800141 -0.64989775 -0.07035069
-0.05815817 -0.10244782 -0.9174692 -0.38126433 -0.05918263 -0.056924354 0.37864769 -0.052911468
-0.22848411 -0.120640665 -0.052451022 0.38914615 -0.1418607 -0.5747364 -0.08398228 -0.07883989
-0.059485868 -0.4070097 -2.016593 -0.13532503 -0.09127641 -0.038974397 -0.51226074 -0.141363
0.0855239 0.65840447 -0.082729094 0.13302992 0.38386554 -0.12919469 -0.04095402 -0.06387166
-0.06838522 -0.2467292 0.12210991 -0.73963445 -0.13687475 -0.1161867 -0.03272559 -0.35570598
-0.06564192 -0.08381241 -0.07636927 -1.2750984 -0.55196357 1.9104898 0.016081162 -0.08203619
-0.82929564 -0.12720092 -0.061594382 -0.20545295 -0.54615194 -0.8124657 0.57436866 -0.08843075
-0.5122846 -0.039315637 -0.16391672 -0.09289318 -0.065346874 0.17674509 -0.5356648 -0.90750444
-0.044054955 -0.029204255 -0.113941096 -0.027801683 -0.008457814 -0.06682805 -0.05114121 -0.29684633
-0.05624784 -0.0049658637 -0.34625825 -0.16440617 0.009491582 -0.07761352 -0.0055625625 0.6707752
-0.08368575 -0.052886136 -0.17495322 -0.031095587 -0.076562986 0.44940263 -0.9966987 -0.0021838371
-0.079665415 0.27836797 -0.07704464 -0.061295614 -0.4671429 -0.18925402 -0.5997454 -0.081086986
-0.040509965 -1.1592909 3.5279332e-05 -0.10531779 -0.012474426 -0.65284437 -0.062253013 -0.54198164
-0.037692897 -0.0884586 -0.08163982 -0.34520364 -0.06143196 0.52597034 -1.0050911 -0.6458036
-0.5461451 -0.043686897 -0.0755512 -0.18125343 -0.026670683 -0.018019807 -0.077980086 -0.8524009
-0.086892486 -0.48944664 -0.004438269 -0.11054959 -0.121522814 -0.012385392 -0.1949506 -1.0794531
-0.37977436 -0.09582127 -0.058573913 0.43079373 -0.101553746 -0.063293494 -0.5344252 -0.099223204
-0.18645692 -0.14039142 -0.99283224 1.0454793 0.002097939 -0.35878754 -0.17182098 -0.07459454
-0.069973685 -0.021591991 -0.064455785 -0.013201045 -0.09762729 -0.085436635 -0.19831528 -0.07042222
-0.18645692 -0.089158945 -0.014507877 -0.87299436 -0.06202726 -0.1248115 -0.04033413 -0.3159089
-0.5788654 0.5277125 -0.377134 -0.2864334 -0.07326834 -0.39955592 -0.10083849 -0.76167065
-0.17239022 -0.08191128 -0.39542207 1.3351706 -0.54360396 -0.86755234 -0.027980125 -0.2522978
-0.027615419 -0.07242493 -0.3745768 -0.060519263 -0.5835765 -0.89649993 -0.08718455 -0.07933759
-0.23523742 -0.8500338 -0.09582425 0.900575 -0.141363 -0.034743205 -0.6205948 -0.036503784
-0.03850203 -1.1070831 -0.07250987 -0.4435292 -0.060668275 -0.13483627 -0.11745033 -1.0884365
0.052051056 -0.11334356 -0.14875993 -0.80563504 -0.24371253 -0.2946648 0.8089198 -0.06263598
-0.6554669 -0.3002438 0.21499564 -0.110984705 -0.6107845 1.4516268 -0.22559337 -0.034264132

l3.weight f4 [4, 300]
00000000: 988b 3fbc 1afe 1cbf 46e9 52bf 983c 48bf
00000010: 72c6 d93c 8eea 95bc 000d 1f3d c3e2 6039
00000020: c2d4 da3c 251f 17bd 75dc 18bc 977e bd3c
00000030: 0c6b 11bd 7584 963f 2d8e 8ebd b93e f13d
00000040: ef79 213d 9812 36bd 335c d8bf 686f c53c
00000050: 4f51 a13c 4443 3fbe a24a e4bb 4bee 72bd
00000060: 3a37 4f3d af11 29bd e091 bc3c c911 523d
00000070: b8ad bebd e850 453f 215b c2bc 474e b7be
00000080: 7de3 12be 3bf5 1b3f 13f0 763d 28c3 4f3c
00000090: aa2e a3bd ba8e d8bc 10ed edbd 3ddf 87bc
000000a0: d188 503c 283a 383c ee9f 66bf f945 9bbf
000000b0: cc83 0a3b ee7d 18bd 0e81 c53d ee37 ac3c
000000c0: 03e9 cf3f d9cb 463d af25 ae3c 0612 56bd
000000d0: 0ef0 abbb b93d 293f bdd2 07bd 57c8 383d
000000e0: 3bc2 f7bc d825 07bd d096 58bf 1224 e6bc
000000f0: 9532 87bb e00f 413d a263 64bf 99e9 59bd
00000100: e36e 603e b714 e53c 66df 113d 5bb4 72be
00000110: 949d 99be 36ce 11be 16d3 983c 8a78 5dbc
00000120: 7e2c aa3c 3ddd 983e 8b1c 643e 7858 8fbe
00000130: 813e d9bd bd6f 8bbd 3400 f9bc 4131 56be
00000140: 6ed3 103d 0da5 923d 703f 313d f20e 603c
00000150: 1ce4 393e 985c 97be 60fa 4ebf ed6b 82bb
00000160: 94d8 5bbf b5e9 02bd 9f8f 333c 31da 5d3b
00000170: 7c14 7c3e df08 25be 70dd 0239 d7d6 633d
00000180: 91f8 cd3e 9dbc 063d 6309 51bf bea5 9b3c
00000190: 415c d3bb 93fe debf c7bd 9abe 161d 8e3e
000001a0: 0d22 13bb 5b5e eb3c 240a 753d 79be 4fbc
000001b0: 77cc 23bd f50f 86bc a43b 733c bbdf f03e
000001c0: 886a 3e3d 3008 cebb add5 993d 0653 2b3f
000001d0: c621 153d f69c 943d 2c0b 8f3d 88a9 5a3f
000001e0: 4512 89bc c18d d1bc 31a7 c0bd 5453 0dbd
000001f0: 4821 453c 79de 513f cf42 d03b c5d8 03bc
00000200: a5b6 84bc 1dfa 6cbd 53b4 ecbf 47d6 abbd
00000210: c78e 00bf e59c 813f a6ff 0b3e c57a 023d
00000220: c340 e2bc b8d6 4a3f 8e9e 91be 72cb 6d3c
00000230: 6581 903c 70ae c43f 305f 333d dae8 1c3f
00000240: 6428 8a3c 25ab 88bc d7e1 21bb b5ec 8ebf
00000250: 76d7 9dbd a371 cb3e 24b1 0a3e f96e 143f
00000260: f28e 3cbf 2ada e0bc 5dc1 993b 5a8a 53be
00000270: c731 a3bd 755c 8c3c 9d51 83bd e48c 0c3b
00000280: 3f82 23bd b781 9e3e daae 68bd b28a 64bd
00000290: f01f 303e 1d27 88bc 4327 603c 42fe d13b
000002a0: 491f d63e 81b4 d6bd 98f9 353d 277b 813e
000002b0: 4400 73bc 3a4e 69bd f877 28be 72c6 59bd
000002c0: 1bde 76bd edd7 89bd 50ac 4e3d 83f1 df3e
000002d0: 075a 98bf edff 933f b3ae f73c 6231 e3bc
000002e0: d972 c0bc befc 993c 55ec 00bb 9509 123c
000002f0: 86ab 96bd ca5f de3c 8e74 183c 974f 303c
00000300: 85f3 0abe a98e 5e3c 61e6 493c cb7b 2f3f
00000310: 05e5 023b 8b74 ffbb e5ed 19bd 91a2 adbe
00000320: 406b a63d eb7b 723e 5cf9 f83d c2e8 5f3e
00000330: aaab ee3c ed70 2d3f bd22 1c3d 8bf1 663e
00000340: 42fe 51bd 024f 283f d1b0 17be 42b3 c0bf
00000350: 1e68 4cbe 423c 50be dd83 9d3c 0d65 0cbe
00000360: f12b 473c 3d48 033d f704 3ebf 6a68 5bbc
00000370: 55a2 63be 4ebf 97be 7a81 553d 0eea 13bd
00000380: 86d6 2cbf 5179 a43e 86e7 253c 42b3 173c
00000390: bd52 943d df1f b63c 2f6c 7e3e ab45 66bc
000003a0: 161f 1d3c b90c 86be aff9 ac3b 9a1a 1b3f
000003b0: 6331 e33c 6851 b1bc 5e8f 193d 88ae 443f
000003c0: b168 b13e 5970 cf3a 7dfe 073f 65a7 923d
000003d0: 1f37 fbbf 732f ee3e af33 343d 3d14 14be
000003e0: 71d8 d63e 18d0 bebc a070 343f 769f 9e3c
000003f0: ea50 a83e 78b2 45bd cccb 7e3d 6afb 683d
-0.011690997 -0.6132523 -0.82387197 -0.7821746 0.026583884 -0.018300321 0.038830757 0.0002144678
0.026712779 -0.036894936 -0.009329905 0.023131652 -0.03550248 1.1759173 -0.06960712 0.117795415
0.039422926 -0.044451326 -1.6903137 0.024100974 0.019692091 -0.18678004 -0.0069669047 -0.059309285
0.050589778 -0.04127663 0.023018777 0.051286492 -0.09310478 0.7707658 -0.023725094 -0.35801908
-0.14344592 0.60921067 0.060287546 0.012680806 -0.07967885 -0.026435245 -0.11617482 -0.01658594
0.012727932 0.011244334 -0.90087783 -1.2130729 0.0021135686 -0.03722947 0.09643756 0.021022763
1.6242985 0.048534248 0.021258203 -0.052263282 -0.0052471226 0.66109806 -0.03315996 0.045112934
-0.030243983 -0.032995075 -0.8460512 -0.028093372 -0.004125903 0.04713428 -0.8921453 -0.05320129
0.219173 0.02796398 0.03561344 -0.23701613 -0.30003035 -0.1423882 0.018655341 -0.013517508
0.020773169 0.2985629 0.22276513 -0.27997184 -0.10607625 -0.06808422 -0.030395605 -0.20917226
0.035357885 0.07160387 0.04327339 0.013675438 0.18153423 -0.2956283 -0.8085079 -0.003980151
-0.85877347 -0.03196116 0.010959535 0.0033851976 0.24617189 -0.16116665 0.00012480258 0.05562481
0.40228704 0.03289472 -0.8165495 0.01899993 -0.0064502065 -1.742144 -0.30222914 0.27756566
-0.0022450716 0.028731516 0.059824124 -0.01267969 -0.039989915 -0.01636503 0.014845762 0.47045693
0.046488315 -0.006287597 0.075114585 0.6692356 0.036409162 0.072565004 0.06984553 0.85414934
-0.016732344 -0.025580289 -0.09406889 -0.034503296 0.012031861 0.8198009 0.0063556205 -0.008047287
-0.016200373 -0.057855714 -1.849253 -0.083904795 -0.5021786 1.0126005 0.13671741 0.031855363
-0.027618771 0.79233885 -0.2844128 0.014513837 0.017639825 1.5365734 0.04379195 0.61292803
0.016864963 -0.01668317 -0.0024701261 -1.1165987 -0.077071115 0.39735135 0.13544136 0.5798183
-0.7365562 -0.027447779 0.00469224 -0.20658246 -0.07968479 0.01713393 -0.06412051 0.0021446282
-0.039919134 0.3095834 -0.056807376 -0.055796333 0.17199683 -0.016620213 0.013681236 0.0064084837
0.41820744 -0.10483647 0.044427484 0.2528927 -0.014831606 -0.05695937 -0.16452014 -0.053167768
-0.06027041 -0.06730638 0.0504573 0.43738946 -1.1902474 1.1562477 0.03023467 -0.027733508
-0.023492264 0.018797275 -0.0019672115 0.008913417 -0.07356934 0.027145285 0.009305133 0.010761163
-0.13569458 0.0135838175 0.012322993 0.6854827 0.0019972932 -0.0077958754 -0.03758039 -0.3391309
0.08125925 0.23680083 0.121569365 0.21866134 0.02913459 0.67750436 0.038119067 0.22553079
-0.05126787 0.65745556 -0.14813544 -1.5054705 -0.19961593 -0.20335487 0.019227916 -0.13710423
0.012156473 0.032051314 -0.74226326 -0.0133915935 -0.22229894 -0.2963814 0.05212543 -0.036111884
-0.67514837 0.32123807 0.010126 0.009259047 0.072423436 0.022231994 0.24845956 -0.014054696
0.009589931 -0.26181582 0.005278788 0.60587466 0.02773351 -0.021645263 0.03749024 0.76828814
0.34650186 0.0015826329 0.53122693 0.07160834 -1.9626197 0.46520576 0.0439946 -0.14460845
0.41962007 -0.023292586 0.7048435 0.019363146 0.32874233 -0.048265904 0.062206075 0.056880392

l3.bias f4 [4]
00000000: bb29 ca3e 5b51 763f db47 0e3e 2941 ffbd
0.39484963 0.9621789 0.13894598 -0.124636
