TD3_control/dir_Walker2D_002/biped-v9-2d-1_actor.pth (torch, 531543 bytes, 6 tensors)

l1.weight f4 [400, 24]
00000000: 3bb6 a33e bb36 983e 7ed4 ba3d 6373 f4bd
00000010: da51 57be 9228 18be d5ad 5dbd e73e e23c
00000020: 72e4 39be 0332 4dbe 8786 4b3d 16b7 9bbb
00000030: fed6 ab3c 58ca 963d baeb 6c3d 5cec 803b
00000040: 86cc 303e 7c4c dd3d 62ed 59bd db20 5d3e
00000050: fa39 d3bd 88a7 fa3d 5232 85be 5b05 6f3d
00000060: 3760 213d ae01 303e 36d0 98be 98b6 8fbd
00000070: aef7 55bb 83f0 1f3e 09c6 3fbe 6cc6 713c
00000080: 9d0a 87be 57d1 11be 45c3 1e3e 4c0d 743d
00000090: b9eb b6bc 2c9e afbd c970 0d3e 1651 b43d
000000a0: 73f5 083d f0b0 d53c 26d7 e3bd ad39 793d
000000b0: 79fe 3ebb fb50 d9bd 06e6 73be c446 9f3b
000000c0: fa2d 7fbd b378 8ebe 14c4 9c3e c5e3 75be
000000d0: ecbe a5bc 693e 3ebd 7b37 b8bd 6319 bb3d
000000e0: ef3a 173e 033e 4f3e 758b 23be 67f1 f8bd
000000f0: 53a2 6f3e cddb 81bd af5c 38be 5683 db3d
00000100: 0b6c 35be f6ff a8be a579 b13c 887b d93b
00000110: 9b8c c83c 00f3 673e 6375 873e 44ee b93e
00000120: 0e72 433e 279a dc3d fa44 41be e8d6 043e
00000130: 8056 d23b 1a87 533e 7e8f d5bc 4f29 a5bd
00000140: 5da4 10be a1ef 8f3d f1a6 0cbe ff10 22bd
00000150: d480 08be b056 0bbe 0445 bcbd bf41 08be
00000160: da1c e7bd ab32 83be f924 35be b7bf 183e
00000170: 3109 193e c5ad 5f3d 7a04 a3ba 21c6 0d3d
00000180: 3a41 1abe 774a 68ba 31c9 6e3e 6159 ac3e
00000190: 841c 64be adaf 67be ecc7 383e 0c4f 5bbd
000001a0: b5d6 983e eaa9 00be 621d ddbc 905b 903d
000001b0: 3eb4 4f3d 9c76 043e f039 4a3c 0707 d13c
000001c0: 4c68 a8be 9b27 b13e 59fc 7f3e 4062 84be
000001d0: 8030 bcbd 0bde 86be 45b6 d53d ba83 493e
000001e0: 4161 8dbd ea95 3a3e 81e0 c63d aabc 9ebd
000001f0: 2d39 353d 73eb c43e b1fc 2ebe f08b e1bd
00000200: 562b e6bd 3081 233d 0abb b0be 358e 97bb
00000210: 7ff9 823c 5627 e43d 913a 0a3d 1e2d 403c
00000220: 2262 59bb 08a8 cebd cd61 373e c7cf 463e
00000230: 6a38 43be d015 673e 930b bf3d f170 573d
00000240: 00b1 98bd 04c7 833e 1b69 473d 40f6 cc3c
00000250: 2810 79be 5cf0 30be b714 dc3d 9f1a 44be
00000260: 978e 6f3c 2bbb 243d 03ff 613e ac33 113e
00000270: c99f 17bc c755 b5bc 375e 46bd 338b 47bc
00000280: 715f d8bd b8db 5cbe 75fd 35bd 9feb 243e
00000290: dc48 fb3c b053 f03d 2b73 29bd b0b1 0bbe
000002a0: 5369 cabd 527b 43be d34b f6bb ae8b b7be
000002b0: b734 2dbe 2df5 853e 2249 ab3b e056 24be
000002c0: df25 603c 218f be38 5c62 86be 21fa 58bd
000002d0: d06a 953c d351 fe3d bd06 ffbc a678 c33b
000002e0: e3da 00be c5a4 26be f966 e0bd c73b 703e
000002f0: 626f 37be 459b cebd 5552 81be f659 41be
00000300: c85e 90be a124 113e 30fe fb3d d278 d03e
00000310: f96a fc3d 6321 6b3c 6ae6 353e 7248 a2bd
00000320: 3df0 afbd 480d 223d b184 083b a809 c43d
00000330: 88ef 923d d875 8ebd 0c5d 57bd c8f6 8e3d
00000340: 5d4d d8bc 2ce1 973e 268b 2abe 2f0e 2dbe
00000350: f06c 16be 5cb6 d6be f0cf 86bb 456f cfbd
00000360: 1866 db3d 81af 2abe 471b 4c3e 6d73 70be
00000370: 8fab 59be 16be 383e b183 463d 44ae f33d
00000380: 7ef0 af3c e7b9 083e c4b0 85be d3af cabd
00000390: bc38 8cbd f625 56bd 531b 14bd 0844 a63d
000003a0: ab53 463e 04be 5cbe ecb9 0ebe 63b6 143e
000003b0: 8aac 0ebe e020 1abe d9c2 febc 93af 073a
000003c0: 32cb 263d 6fb6 8b3e 8aa3 afbe 03f1 61be
000003d0: ec25 a3bd 73af 37bc 242a b6bd 826c f13d
000003e0: 1600 19be 5eec 22be fe38 27bd c792 803b
000003f0: 5662 61be c1f9 9c3d 9736 3e3e 0447 b23b
0.31974968 0.29729256 0.09122561 -0.11936071 -0.21027318 -0.14859226 -0.054120857 0.027617885
-0.18153551 -0.20038609 0.049688842 -0.00475205 0.02097654 0.07362813 0.057841994 0.0039344262
0.1726552 0.10805604 -0.0532049 0.21594565 -0.103137925 0.12238985 -0.26014954 0.058354717
0.0393984 0.17188141 -0.29846352 -0.07017249 -0.003264885 0.15619092 -0.18727888 0.01475678
-0.26375285 -0.14240013 0.15504177 0.059582993 -0.022329198 -0.08575091 0.13812555 0.088045284
0.033437204 0.026085347 -0.11125021 0.06084602 -0.0029143377 -0.10611149 -0.23818216 0.004860731
-0.062299706 -0.2782646 0.30618346 -0.24012668 -0.02023264 -0.046446238 -0.08994957 0.091357015
0.14768575 0.202385 -0.15971167 -0.12155419 0.23401766 -0.06340752 -0.18004106 0.1071841
-0.17716996 -0.33007783 0.02166445 0.0066370405 0.024481108 0.22651291 0.26456746 0.36314595
0.19086477 0.1077159 -0.18873969 0.12972605 0.006419003 0.20657006 -0.026069399 -0.080645196
-0.141252 0.070281275 -0.13735558 -0.03956699 -0.13330394 -0.13607287 -0.09192851 -0.1330633
-0.112848 -0.25624594 -0.17689885 0.14916883 0.14944912 0.05460908 -0.0012437247 0.03461278
-0.15063944 -0.0008861194 0.23318936 0.3366194 -0.22276503 -0.22625609 0.18045014 -0.05354218
0.29851308 -0.12564817 -0.02699155 0.07048714 0.050709 0.12935871 0.012342915 0.025516046
-0.32892072 0.3460053 0.24998607 -0.2585621 -0.09188938 -0.2634128 0.10435156 0.19679156
-0.06903315 0.1822125 0.097107895 -0.077508286 0.04424398 0.38460883 -0.17088582 -0.11013019
-0.112387344 0.039918125 -0.345177 -0.0046251067 0.01598811 0.11140315 0.03374726 0.011729507
-0.0033170064 -0.10090643 0.17908402 0.19415198 -0.19064489 0.22566915 0.093283795 0.052597944
-0.07455635 0.25737774 0.04868422 0.025019765 -0.2432257 -0.1727919 0.107461385 -0.1915078
0.014621398 0.04021756 0.22069936 0.14179868 -0.009254404 -0.022135628 -0.048429694 -0.012179184
-0.10565079 -0.21568191 -0.04443117 0.16105507 0.03067439 0.11734712 -0.0413696 -0.13642001
-0.0988337 -0.19090012 -0.007516363 -0.35848755 -0.1691464 0.26163617 0.005227224 -0.16048765
0.013680904 9.086566e-05 -0.26246917 -0.052972917 0.018239409 0.124179505 -0.031131143 0.00596531
-0.12583499 -0.16273792 -0.109571405 0.23460303 -0.17913583 -0.10088209 -0.25258127 -0.18881974
-0.28197312 0.14174129 0.12304342 0.4071718 0.12325091 0.014351222 0.17763677 -0.07923974
-0.08590744 0.039563447 0.0020831043 0.09572154 0.07174593 -0.06956071 -0.05257897 0.069806635
-0.026404077 0.2966398 -0.16654643 -0.16899942 -0.14689994 -0.41936004 -0.0041141436 -0.10128645
0.10712832 -0.16668512 0.1993228 -0.23481531 -0.2125685 0.18041262 0.048465434 0.11898473
0.02147698 0.13352166 -0.26111424 -0.09896817 -0.06846759 -0.052282296 -0.03615887 0.08118445
0.19367854 -0.2155686 -0.13938111 0.145227 -0.13933006 -0.15051603 -0.03109877 0.0005176004
0.040721126 0.27287623 -0.34304458 -0.22064595 -0.079662174 -0.011211264 -0.088947564 0.11788274
-0.14941439 -0.1591048 -0.040825836 0.003923747 -0.22010168 0.07664824 0.18575512 0.0054405946

l1.bias f4 [400]
00000000: c6b9 f5bd 5a79 89bd 7bd2 713e 7817 33be
00000010: d3a9 973d 5422 3a3e 57c9 80be e7ef dabd
00000020: f5c5 933e 54ed 00be 1c01 98bd 74f4 dfbc
00000030: 4f5a 6fbc b697 8bbd 242c 5abe 144b b9bd
00000040: 7830 06be 33a4 4dbd ed2c 9dbd 54db a13e
00000050: 7841 e73c 359b 63be eeee 5c3d f08f b6be
00000060: 06a3 aabe 45dc 31be 3beb 48be 0802 8dbe
00000070: 2856 923c 27fc 5abe bc15 49bd b4cd abbe
00000080: b02c c4be 1d16 463d 4714 f73d 7006 aebc
00000090: 9fe5 34bd ebf3 5dbe 895a 16be d6be 09be
000000a0: 3ac2 9dbe a64e 23be ec4d 7dbe 1e14 693e
000000b0: f635 71bd b4d2 22be e13c 7dbd cf4a 3abc
000000c0: 2205 3bbe 28d8 75be d98a 0bbe 1ef0 56bd
000000d0: b4ed afbd a108 45be fae0 34bd 6bda 77bd
000000e0: f9ea 85be 8536 1cbe f8de 43bd ed84 85bd
000000f0: 5890 503d 90d8 fdbd 97e2 b5bb d73c 87bb
00000100: bcf3 32be c005 8abe b253 85be 078c 77be
00000110: 377d 44bd 5656 99bd 2d4c 80be dcd3 51bd
00000120: 0472 12be 3716 b6bd 13a4 9abe 2361 853d
00000130: 0736 7bbe 5427 f3bd 3a8e 46be ad03 463e
00000140: 14bd a43d ca8d 833c e108 d63e 7a4b b83e
00000150: ac5a 56be b08d 8ebe 5217 18be f325 1ebd
00000160: 9adc 04bd ad58 fabd cd62 b6bd 98e1 9fbe
00000170: b0e9 5abd 10ad c2bd 7edc f8bd 5ea2 893e
00000180: 24f7 29be 50b4 67bc 683c b0bc 913d a0bd
00000190: 4da8 ffbd 40d2 a8bd 6d25 4ebe b258 dcbd
000001a0: c474 61be cf3c 2abd 0869 bfbd aa62 843b
000001b0: 7d3e 2cbe 4a9a 063d 3217 203c 67a8 993b
000001c0: 5432 48be db0d 40be 3ac9 dc3c 63cd 97bc
000001d0: b431 2cbe bb45 56be a127 3b3e 7eb1 79bd
000001e0: ef60 93be 2fe8 66be 7620 133c 9c7a d1bd
000001f0: 423e 903d 6ef7 a139 0767 2dbe 1a68 e93c
00000200: 6f95 45be e09a 3a3d 79f0 0b3d cc58 5ebd
00000210: f5ac 903d 9aeb 0fbc 65bf 18be dcd1 d9bd
00000220: f495 a2bd f7c6 aabd 8523 903e a4df 1bbe
00000230: 3916 083e 9eb3 88bc f3f3 00be 7cc0 aabd
00000240: 7521 503e 8706 c03c 3877 43be dd8c 7fbe
00000250: d862 5fbe 7eb2 7b3e e2c0 0dbe cc68 7b3d
00000260: 1566 36bd 5669 f93c 2602 ed3d 275d 953b
00000270: 6b27 8ebe 429a 35be 2c8f c73d 5079 7ebe
00000280: d574 ce3d 121f 02bd 99ba 42be 780d d9bd
00000290: 9211 aa3c d342 32bb 0b5c 9ebe 6b48 96be
000002a0: c35a 8bbd 8760 0a3d 2085 353e eb43 e93c
000002b0: 0312 29bd be36 e8bc 92b2 9cbd 7844 fbbd
000002c0: c7e0 a0bd f04a 6bbb 6f99 4b3d b6c2 193e
000002d0: e7bd 1a3e a046 67be f247 2ebd b70e 63bd
000002e0: c8ab e6bd 4c9e 3d3e cff6 07bd 03b1 02be
000002f0: 5b32 253e 8dc7 6dbe 96c0 b3bc 07df e73d
00000300: 7084 08be e669 d53c 7da7 68bd 974a 27bd
00000310: cdcd 28bd ae06 7fbe fc17 073e f9c9 a7bd
00000320: 6a19 febd b0bc e5bd c072 a1bc 4f0f 5abe
00000330: 32fe 84be 13a5 64be 4cd5 23bd b7e6 0ebe
00000340: 76ae 74be e8c3 d9bc b2c4 293e 2363 8fbd
00000350: c775 efbc f0ac 80bd 25a2 74be bbdc 1cbd
00000360: 10e8 453a 5f71 063d d223 9e3d 190f 0f3e
00000370: 9623 a7bd e974 d83b ac67 80bb 0929 203c
00000380: 42f3 52be bbd9 bbbb 8406 47be 584a e0bc
00000390: 97df cb3d 80b2 0b3e fa32 15bd 399d 92be
000003a0: 55bd 843d d5c8 15be fbd5 0dbe 0d26 4bbe
000003b0: ff95 e2bd d3a8 293c 5bdb 053e 7669 aa3e
000003c0: bed4 5abe 369b ef3c e0ea 9ebc 8918 55bd
000003d0: 6b74 91be e27c 52be a965 84be 8d41 9dbe
000003e0: 59a5 7abe f895 723c 2a4f 27be fa26 18be
000003f0: 784c f9bd d329 5abe 1c33 77bd 4660 80be
-0.11998324 -0.06712599 0.23615448 -0.17489421 0.07405438 0.18177158 -0.2515361 -0.10690289
0.28861967 -0.12590533 -0.074220866 -0.027338244 -0.014608934 -0.06816046 -0.21305901 -0.09047523
-0.13104427 -0.05020542 -0.076745845 0.31612647 0.02822946 -0.22227176 0.0539388 -0.3565669
-0.33327502 -0.17369182 -0.19620983 -0.27540612 0.017863348 -0.21385251 -0.049092993 -0.33555377
-0.38315344 0.048360933 0.120644145 -0.021243304 -0.044164296 -0.21675079 -0.14682974 -0.13451704
-0.30812246 -0.15947971 -0.24736756 0.2276158 -0.05888935 -0.1590069 -0.061825637 -0.011370375
-0.18263677 -0.24008238 -0.13627185 -0.052475087 -0.0859026 -0.19241573 -0.044159867 -0.060511034
-0.26155832 -0.15255173 -0.04782006 -0.06519494 0.050918907 -0.12394822 -0.0055506933 -0.0041271257
-0.1747579 -0.26957512 -0.26040417 -0.2417451 -0.047970977 -0.074871704 -0.25058118 -0.051227435
-0.14301306 -0.08890956 -0.30203304 0.06512668 -0.24532329 -0.118727356 -0.19390193 0.1933734
0.08043876 0.016058821 0.4180365 0.35995084 -0.20933026 -0.27842474 -0.14852646 -0.03861041
-0.032436945 -0.12223945 -0.089055635 -0.31226802 -0.053445518 -0.09505665 -0.121514305 0.2688169
-0.16598183 -0.014142111 -0.021513179 -0.07824243 -0.12483273 -0.08243227 -0.20131464 -0.10759105
-0.22017199 -0.041561898 -0.09346205 0.004040082 -0.16820712 0.032861985 0.009771155 0.0046892646
-0.19550449 -0.18755285 0.026951421 -0.018530553 -0.16815835 -0.20925038 0.18276836 -0.060960285
-0.28784892 -0.22549509 0.008979907 -0.10228464 0.07043125 0.00030892662 -0.16933833 0.028492022
-0.19295286 0.045557857 0.03416488 -0.054283902 0.07064239 -0.008784199 -0.14916761 -0.106357306
-0.079387575 -0.08338731 0.281521 -0.15222031 0.13289727 -0.01668721 -0.12593059 -0.08337495
0.20325263 0.023440612 -0.19088447 -0.24956079 -0.2181505 0.24579808 -0.1384311 0.06137924
-0.044530947 0.030445736 0.115726754 0.0045582238 -0.2776445 -0.17734626 0.09744105 -0.24850965
0.10080878 -0.031767912 -0.19016494 -0.10598272 0.020760331 -0.0027200475 -0.30929598 -0.29352126
-0.06804421 0.033783462 0.17726564 0.028474769 -0.041276943 -0.028346416 -0.07651247 -0.12268919
-0.07855373 -0.003590282 0.049706873 0.15015683 0.15111504 -0.22585535 -0.04254908 -0.055433955
-0.112632334 0.18517417 -0.03319436 -0.12762837 0.1613249 -0.23220654 -0.021942418 0.11321836
-0.13331771 0.026051473 -0.056800354 -0.04084262 -0.041211892 -0.24904892 0.13192743 -0.0819282
-0.12407191 -0.1121763 -0.019708037 -0.21294902 -0.25975186 -0.22328596 -0.039998338 -0.13955198
-0.23894677 -0.026582673 0.1657894 -0.07001331 -0.029230965 -0.06282985 -0.23889978 -0.038296442
0.00075495336 0.032822963 0.07721676 0.13970603 -0.08161084 0.0066057337 -0.0039186087 0.009775409
-0.20600608 -0.0057327426 -0.1943608 -0.0273792 0.09954756 0.13642311 -0.03642557 -0.28635576
0.06481425 -0.14627393 -0.13851158 -0.19838734 -0.11063766 0.010355192 0.13071959 0.33283585
-0.21370217 0.029248815 -0.019399107 -0.05202535 -0.28409132 -0.20555452 -0.2585881 -0.30714074
-0.24477138 0.014806263 -0.16338792 -0.14858618 -0.121727884 -0.21305017 -0.060351476 -0.2507345

l2.weight f4 [300, 400]
00000000: 1670 a03c 737e b5bc 90db 943c bcff 353d
00000010: 01b5 443c 4f5e 5bbd 8b3d 933c 7845 97bc
00000020: 68a7 05bd 09e5 4abd 691f 1abd 236f f5bc
00000030: c536 7bbc bb3e 2abc e3bc 953c b3ab 29bd
00000040: e180 1cbd e270 243d 40a4 ed3c 53ef 22bd
00000050: f235 fb3c 8435 62bd b291 5abd 7c9d 143c
00000060: a50c bcbb db39 06bd e603 59bd cf76 163d
00000070: c3ee 88bc 660a dd3c 1039 95bc 72be 44bd
00000080: e48d 53bd 0d02 913c 5130 80bc 49a8 48bd
00000090: ee11 57bd b8f6 a7bc 0083 38bd 6c22 573c
000000a0: 050e dc3c 5de1 1b3d 5ed3 083d 4689 dfbc
000000b0: ec23 5d3c ce1f 023d c54d 41bd fecf 15bd
000000c0: cb04 49bd 753a 243d 4430 e4bc ff8a fa3c
000000d0: 69e9 173c 1b62 41bd df00 da3c 09dc 2cbd
000000e0: a0c5 e4bc f43c 5bbc 814f 2abd bff1 01bd
000000f0: c570 eb3c d78a fc3b b870 a23c 9528 73bd
00000100: b076 4db9 320a d13b 3fe4 58bd 4fae 1bbc
00000110: 3ad1 2dbd f349 56bc ee5b aebc f51e 1d3b
00000120: bc81 00bd b09c 61bd fbd5 2bbd f4f9 49bb
00000130: 787c af3c e162 6dbd 914b 1e3d 7614 7dbc
00000140: 717b 2f3c bec7 ebbc be2d b8bc 3da0 d0bb
00000150: c0bf 2ebd f148 1c3d 5b10 afbc a6bb 20bb
00000160: efc7 0bbd eab5 12bd 4753 0d3d dec1 f7bc
00000170: 9451 b3bb 3d6d 013d d34d c53c caa4 43bd
00000180: b292 4d39 4d4b a73b 6843 8a3b 4cce cfbc
00000190: 4ee7 46bd 9c32 48bd d81d 18bd ca66 373d
000001a0: 2193 d53c 2158 e83c bdb3 f13c ce7a dc3c
000001b0: a1bd 893b e324 0fbc fef7 22bd 2f4c 54bd
000001c0: a2c4 6e3b 2511 abbc 9694 5a3c c114 6d3c
000001d0: 7a36 133d 7884 94bc fbc2 c4bc eeca 3b3d
000001e0: 6cd8 e9bc 8808 1fbd 163f 49bd 9640 1dbc
000001f0: 50f5 6cbb 8ff3 c1ba 5eaa 90bc fd8f 8bbb
00000200: 2232 bc3c 623a d2bc 3456 2b3b b58a ffbb
00000210: d26c 113d 6a1a f1bc 447c 373c 14c6 47bd
00000220: 8656 b93c 30ca ee3c 5742 50bd ecc4 043d
00000230: cca4 a1bc 4646 51bd 9a55 0d3d 1aba a7bc
00000240: 2834 e43c acfe 15bd 3a96 72bc 2312 babc
00000250: e326 e43c fc24 683a 224f 0d3d df5c bfba
00000260: 14d0 07bd e510 2c3d b3a4 49bd 66cc 56bc
00000270: 7c2b 47bd 4c8a 203d a79e b9bc da82 1d3d
00000280: 3d79 54bc 8f88 94bc bf8c 9c3c 4575 2b3c
00000290: e649 82bc 560a 8e3c e368 f8bc 5dac a6bb
000002a0: 6609 c3bc 216b 023d 1588 a8bc 1732 70bc
000002b0: 2c89 373d 7c5f d33c 24c6 d2bc e0bf c4bc
000002c0: a272 98bc 92a9 fc3c 182b 013d 51d1 213d
000002d0: 7d42 283d dfb5 2a3d 82d8 a03c 26f2 08bd
000002e0: 7d9c 633c 5425 f5bc 2f5e cb3c d9f4 0cbd
000002f0: 505f a13c 9113 003d 6d4a 223d b5b5 353c
00000300: c515 adbc 9ccd 953c 7afa 1e3b 1f21 be3b
00000310: cc42 e2bc 21af edbc e53e f63c 8a73 4ebd
00000320: ec13 2fbd 81d5 083d 2fe2 27bd 3e3b f23a
00000330: 8f9d df3c ea5d 173d 34f8 93bc 3e26 42bd
00000340: b644 9b3c 8d83 4fbd 12a5 243c 484a 293c
00000350: 4523 44bc 2834 30bc 4e24 1abd ec87 fbbc
00000360: 91a1 70bd 132c 1ebd ec1d 65bd d8e6 333c
00000370: 69fe e73c 6c47 253c 5958 cb3c b248 873c
00000380: c7ca 36bd 0b2a 4dbd 3b0d b63a cc47 173d
00000390: aaa0 b3bc 5738 d2bc cec5 9f3c 75fb 0d3d
000003a0: c0d6 08bd eead 8bbb 0385 d53c 3c05 f3bc
000003b0: 0c84 13bd 8046 d2bc 0b85 4cbd 6a2c 23bd
000003c0: e243 64bd 77ae 43bd 64c5 31bd d743 b73c
000003d0: 55e9 ffbc 084b 143d c846 06bd 3193 ec3c
000003e0: 9392 64bd 1d86 4abd 8264 12bd 713f 91bc
000003f0: 24fa adbc f222 c2bb 615b a8bc cb2c 1abd
0.019584697 -0.022155022 0.018171102 0.04443334 0.012006045 -0.053556737 0.017973682 -0.018465742
-0.032630354 -0.04953483 -0.03762761 -0.02996022 -0.015332882 -0.010390933 0.018278545 -0.04142351
-0.038208846 0.040146716 0.029008985 -0.03977902 0.030665372 -0.055226818 -0.053361602 0.00907075
-0.005738812 -0.03277002 -0.052982233 0.0367344 -0.016715413 0.026982497 -0.018215686 -0.048033185
-0.05164899 0.017701173 -0.015648039 -0.048988614 -0.052507333 -0.020503387 -0.045046806 0.013130765
0.026862154 0.03805672 0.0334047 -0.027287137 0.013497334 0.031768613 -0.047193307 -0.03657531
-0.049076837 0.04009481 -0.027855046 0.030583857 0.009271958 -0.0472127 0.026611743 -0.04220203
-0.027926266 -0.013381232 -0.041579727 -0.031724688 0.028740296 0.0077069807 0.01982914 -0.059364874
-0.00019594538 0.006379389 -0.052952047 -0.009502008 -0.042435862 -0.013079154 -0.02128407 0.002397475
-0.031373724 -0.05508107 -0.041952115 -0.003081915 0.021421656 -0.057955626 0.038646284 -0.015446773
0.010710583 -0.028781768 -0.02248275 -0.006366758 -0.042663336 0.0381555 -0.021370104 -0.002452591
-0.03412622 -0.035818018 0.034503248 -0.03024381 -0.0054723714 0.03159832 0.024084961 -0.047764577
0.00019604972 0.005105412 0.004219461 -0.025366925 -0.048560433 -0.04887639 -0.037137836 0.04477576
0.026071133 0.028362336 0.029504651 0.026914027 0.0042035137 -0.008736822 -0.039787285 -0.051830467
0.003643312 -0.020882199 0.01334109 0.01447028 0.035940625 -0.018129572 -0.024018755 0.045847826
-0.02854558 -0.038826495 -0.04913243 -0.009597918 -0.003615696 -0.0014797318 -0.017659362 -0.004259108
0.022973124 -0.025662605 0.002614391 -0.0077985176 0.03550417 -0.02943154 0.011199061 -0.048772886
0.022624265 0.029149145 -0.050844517 0.03241436 -0.019731902 -0.05109241 0.034505464 -0.020474482
0.027856901 -0.036619827 -0.014806325 -0.022713726 0.027850574 0.0008855609 0.034499295 -0.0014599821
-0.033157423 0.0420083 -0.049229335 -0.013110256 -0.048625454 0.03919439 -0.02265866 0.038454868
-0.012968359 -0.018131522 0.019110082 0.010464971 -0.015904378 0.017338913 -0.030323451 -0.0050864653
-0.023808192 0.031840447 -0.020572701 -0.01466038 0.04480855 0.025802366 -0.025729246 -0.024017274
-0.018609349 0.030842576 0.031535238 0.03950626 0.041079033 0.041677352 0.019634489 -0.033434056
0.01389229 -0.029925026 0.024825184 -0.034413192 0.019698769 0.03126866 0.03962176 0.011090686
-0.021128545 0.018286519 0.0024258182 0.005802288 -0.027619742 -0.029014172 0.030059287 -0.050403155
-0.04274361 0.03340674 -0.04098719 0.001848079 0.02729681 0.036954798 -0.018062688 -0.04739975
0.018953662 -0.050662566 0.010049121 0.010332651 -0.0119713 -0.0107546225 -0.03763228 -0.030704461
-0.05874783 -0.03861625 -0.05593674 0.01098033 0.028319554 0.010087829 0.0248224 0.016514156
-0.044626977 -0.050088923 0.0013889441 0.036933705 -0.021927197 -0.02566163 0.0195035 0.034663636
-0.033407927 -0.0042626774 0.026064401 -0.029665582 -0.0360146 -0.025668383 -0.049931567 -0.03983728
-0.0557288 -0.047773805 -0.043401137 0.022371216 -0.031239191 0.036204368 -0.032782346 0.02887878
-0.055803847 -0.049444307 -0.035740383 -0.017730447 -0.02123744 -0.005924576 -0.020551385 -0.037640374

l2.bias f4 [300]
00000000: 304e e3bc 2830 81bd 18c1 533d 698b 06bc
00000010: 0ebb 29bd 8a4f 21bd a87f cabd 31d5 b93c
00000020: ac2d 59bd fea6 b43b 1036 223e 5032 8e3c
00000030: bc97 453c a59d 58bd 9c90 9e3c b201 83bd
00000040: c3b6 aabc 70ac bdbc 4da5 89bc 17de 9f3c
00000050: 95a9 ba3c a50d b3bd 5ea0 e9bb ce93 97bc
00000060: b026 af3d 3bed 23bd ffcb 9dbc 9d79 883c
00000070: 53f0 d8bc be80 89bd 51a1 e2bc 1630 05bc
00000080: 4988 803b 8ffc 8cbc 1108 61bd 7065 4dbd
00000090: e68e 39bd ade7 27bd 0476 bfbc afbd abbd
000000a0: 4cf2 23ba 0551 853e 2bf8 7fbc c5e5 2abd
000000b0: 2eb2 b33e 41c5 233d 7ae2 dfbd 4963 16bd
000000c0: 018b 88bd 9414 a23b 912c 103e eb6a 19bd
000000d0: 25fa 103c 456b ad3c 6229 1cbe e6e4 603d
000000e0: ebdf d5bd 696b 02bd 4378 41ba 6296 31bd
000000f0: 2d35 95bd 5668 a63d c744 d6bc cfa0 78bd
00000100: cead 903e b860 15bd 8132 cbbc 910e 8c3a
00000110: c1ca 8dbd 0922 8d3c 9025 96bb 1eae db3b
00000120: 6f43 abbc e854 27be 2003 1ebd 9779 063d
00000130: 689f 66bd c8b9 00be ac3f aa3c 78a0 263d
00000140: ad69 20bd 2493 f5bc dd28 82bc d631 193d
00000150: 4186 6fbd d7ed 83bd 285b c63c 24d9 94bc
00000160: 2147 23bd 3778 1cbd f76f 58bc 0272 55bd
00000170: 1c5e 03bd 69eb 77bc 06a6 323d 73b2 8c3d
00000180: 6558 97bc d82b bb3b 9312 163d 3b8d 93bc
00000190: f6fe 33bd 5f95 393c 9f35 6abd 23b5 ba3d
000001a0: 7553 353c 692c 253b 14e1 13bd 1e04 093b
000001b0: 80f6 0a3d 8476 31bd 31e7 5f3d 3e9a 24bd
000001c0: 217a 0b3b eef9 f63c bc0f 5fbd 425a 40bd
000001d0: c40c f63c 9069 543d 439e 933d 620b 00bd
000001e0: b7d3 47bd ff4f 003e 79c1 47bd 7319 47bd
000001f0: 7451 0abb dc28 b1bd 7897 b0bc e842 673b
00000200: 61c0 babd 9014 4fbc f912 dd3c 82ae 1d3d
00000210: 1350 57bc 5e84 a039 75a3 19bd e6ea 52bd
00000220: b5d5 6bbd 6b8b ad3d 5a28 813c dbd0 8bbd
00000230: 70e5 acbb 606a f43b e80e 75bd 2b85 813c
00000240: 33b0 3e3c 92c1 45bd 7849 27be 493f 3abd
00000250: 240b ddbc 244a 27bd 2f01 4ebd 96a6 96bd
00000260: 4753 08bd ee4a 133d 7cbd 7abc 8b6f 043e
00000270: 2e99 963c 4cfc ba3c d1a3 213d 4150 113d
00000280: 2013 58bd 9a96 393e 5a6b ae3c cca7 b1bd
00000290: bd49 a0bc e1f8 873d 2d12 aebc d871 80bd
000002a0: 0a0e 6c3b ef82 1fbd fb62 01bd 2316 aabc
000002b0: e667 7dbc 9122 87bb fa12 4cbd be49 023c
000002c0: 4dcd 92bd 50c9 653c 9b1c 64bd 8933 01be
000002d0: a005 783c a2c7 29bd 758f d5bc 5b96 57bd
000002e0: 0ded a5bb feba ea3d a691 77bd fddd af3c
000002f0: 43d9 11bd a009 debc dd28 babb cb92 14bd
00000300: 9079 d13d 497d 65bd 4584 8abc 0be5 01bd
00000310: 16b3 2a3c af16 3cbd 44c9 67bc 5869 85bd
00000320: 0eba 1abd 965e 8e3e 1f1b 5abd ec00 333e
00000330: 555a 96bd 892d b23c 26d0 1fbd 4316 35bd
00000340: 7b85 b33b 956f a13c 9923 8cbd 7388 d0bc
00000350: 3d83 26bd 6dbb 753c ed52 bc3d 1fc1 8c3e
00000360: 0292 483e 4b69 55bc 9b75 a33e 111e 12bd
00000370: 6781 d9bd eefc b23c 6639 f13d 96fc ed3d
00000380: a29b afbd 024b 143c 0717 20bd 0d5c 9c3e
00000390: f11b 37bd 5be7 c6bb 54a0 023d 3aa5 e93d
000003a0: ab0a 0e3d 9245 39bd 3eef 2ebd 5308 7b3c
000003b0: 34c2 12bc eaa9 34bd f842 b1bd 7d35 a5bc
000003c0: 231c adbc a80b 8dbd 787d ba3c 3287 9d3c
000003d0: 4c94 58bb 4def 0cbd 95b4 46bd 23ed 683e
000003e0: 575e acbd 8749 cfbc 9cdd aa3c b35e 8dbd
000003f0: 07a9 ba3c 7363 7f3c d273 6abd 14d6 03bc
-0.027747244 -0.06308013 0.05169782 -0.008211949 -0.041438155 -0.039382495 -0.0988763 0.022684665
-0.05302207 0.005513071 0.15840936 0.017357975 0.012060102 -0.052884717 0.019356064 -0.06396808
-0.0208391 -0.023153514 -0.016802454 0.01951508 0.022785941 -0.08742837 -0.007129713 -0.018503096
0.08552301 -0.040021162 -0.019262312 0.016659552 -0.026481783 -0.06714009 -0.027664812 -0.00812914
0.0039224965 -0.017210273 -0.054939333 -0.050145566 -0.045302294 -0.040992428 -0.023371704 -0.08385789
-0.00062540616 0.26038375 -0.015623133 -0.04172303 0.35096878 0.039983038 -0.10931869 -0.03671578
-0.06667138 0.0049463008 0.140795 -0.03745548 0.008848702 0.021169314 -0.15250161 0.054905795
-0.104430996 -0.031840716 -0.0007380286 -0.043356307 -0.07285533 0.08125369 -0.026155842 -0.060700234
0.28257602 -0.03646919 -0.024804356 0.0010685493 -0.06923438 0.017228143 -0.0045821145 0.006704106
-0.020906178 -0.16340983 -0.0385772 0.0328308 -0.056304365 -0.1257087 0.020782314 0.04068038
-0.03916328 -0.029977389 -0.015888626 0.037401043 -0.058477644 -0.06441849 0.024213389 -0.018169947
-0.039862756 -0.038200583 -0.013210288 -0.05211068 -0.03207217 -0.01513181 0.043615364 0.06869974
-0.018474767 0.0057120137 0.036638808 -0.01801168 -0.04394432 0.011327117 -0.057180043 0.0911658
0.011067261 0.0025203472 -0.036103323 0.0020906995 0.033926487 -0.043325916 0.05466384 -0.04018616
0.0021282511 0.030148473 -0.054458365 -0.046961077 0.030035384 0.051858485 0.072079204 -0.031260855
-0.04878589 0.12530516 -0.048768494 -0.048608255 -0.0021105679 -0.086503714 -0.0215566 0.0035287682
-0.091187246 -0.01263918 0.026986586 0.0384965 -0.01314165 0.000306162 -0.0375094 -0.051493548
-0.057576854 0.084738575 0.015766311 -0.068269454 -0.0052763745 0.00745897 -0.05982867 0.01581057
0.011638689 -0.048280306 -0.1633662 -0.04547051 -0.026982851 -0.04084219 -0.050294098 -0.073559925
-0.033282544 0.03596013 -0.015303966 0.12933175 0.018383589 0.022825383 0.039462868 0.035476927
-0.052752614 0.18123856 0.021291424 -0.08674583 -0.019566411 0.06639267 -0.021248901 -0.06271714
0.003601911 -0.038943227 -0.031588536 -0.020762509 -0.015466666 -0.0041239937 -0.049822785 0.007952152
-0.07168064 0.014025047 -0.055691343 -0.12617315 0.01513806 -0.04145015 -0.026069382 -0.052633625
-0.005063659 0.11461447 -0.060441636 0.021468157 -0.035607588 -0.027104199 -0.005681141 -0.036272805
0.10228264 -0.056027684 -0.016908774 -0.031712573 0.010418674 -0.04592007 -0.014147107 -0.06514233
-0.03777509 0.27806538 -0.05324852 0.1748082 -0.07341448 0.021750228 -0.039016865 -0.044210684
0.0054785586 0.019706527 -0.06842727 -0.025455689 -0.040652502 0.014998299 0.09195504 0.2749109
0.19586948 -0.013025592 0.31925663 -0.035673205 -0.10620385 0.021849122 0.11778526 0.116204426
-0.085746065 0.009051086 -0.03908446 0.3053898 -0.04470438 -0.00607006 0.031891182 0.114084676
0.034678143 -0.045232363 -0.042708628 0.015321809 -0.008957434 -0.044107355 -0.086553514 -0.020167107
-0.02113158 -0.06886989 0.022764906 0.019229505 -0.0033047376 -0.034407903 -0.04851206 0.2274671
-0.084164314 -0.025303615 0.020857625 -0.06902828 0.022785677 0.015587675 -0.05723936 -0.008046646

l3.weight f4 [7, 300]
00000000: 6045 5a3d 41d1 7fbc 4ec3 3b3b e0af b5bc
00000010: 4f53 42bd 135d babb 5bd1 12bc a7c9 cfbb
00000020: f63e 0f3d e0b3 073e cdf4 8bbb d5cf 0fbc
00000030: 27b1 a73d 204b 243d 15f6 0abc 2bf7 aa3e
00000040: da75 f1bc 6a0e 973d 89a9 1dbc 9294 193d
00000050: f78f 213d cf52 3b3f d08f 57bd 90df 50bd
00000060: 28cb 0abd 3787 be3c eca4 78ba b508 023d
00000070: c304 bebc 29d0 163d 4255 12bb c88a 973d
00000080: 842f 9a3d 5aa5 0b3d 2a0a fb38 9ba5 733d
00000090: 7f8f e5bc 3898 453d b0f1 fbba 7038 a33c
000000a0: c684 713b 46df 6a3e d8fe 65bd 1754 643a
000000b0: aefd 093d 52de 17bd 4836 b03d f55f 603d
000000c0: 2052 a7bb 91f8 103d 084b 19bd f746 363c
000000d0: 4175 553d dff6 1d3d 66e6 f53d f69f a13d
000000e0: 9e98 2e3e 7d61 a33d 5f7b 21ba 5a39 37bd
000000f0: a829 533d ad29 3c3e 790c a63b fc86 a13c
00000100: 27b6 3d3d 4920 01bd eae0 7fbc 90fe c4bb
00000110: 070e 853d 554d 2abd 8789 963d 20e4 773c
00000120: 6fc5 843d 64a6 113d c320 0dbd b75d 8f3c
00000130: a43c bfbc 3226 a63d 7333 693c 94f6 eb3b
00000140: 3892 613d d7af 2b3d a5ba 583d c1ca cc3c
00000150: 573f 223c 5431 81bb d227 6d3c 8467 cd3c
00000160: 432c 0bbd 10a4 073d 8843 5e3e 5244 77bc
00000170: 2461 91bb e960 123d 9c2a 01bc c26e 743d
00000180: 8b55 b13d fdb4 323b d3ce 183d 6ef3 1d3d
00000190: c43c 0d3e 2ffa a33c c767 283d 6919 30bd
000001a0: 60df c13c 2d38 1a3d e7d5 c13c a9f2 d8bb
000001b0: 32d4 7d3b 6e21 663c 04b7 b6bc a0f4 563d
000001c0: a92b 8d3d 6927 b73c 8d58 f6bc f3ea 56bc
000001d0: 2ea3 253c b9dd 133d 2c9f 343d 8fdd 5c3d
000001e0: 59ba bb3c a1a0 0fbd 0bde 533d e4a5 ad3d
000001f0: 38ee 4a3e b4d6 88bc 1abd 853d 5e0c e43d
00000200: 55e7 6a3d 24c8 723b f5eb 1abb 4a9e 3bbd
00000210: 0d52 9dbc 0679 323d be27 cd3c e760 e73d
00000220: f6eb 9d3d fa73 043e 672e 9abc cfe8 3f3d
00000230: 4f5b 2e3d 3de9 373d 4557 5d3d c723 933c
00000240: 7b45 4c3d d3e4 663d 796c aa3d 771b 673d
00000250: 8ccb 0f3d 579f 083d 64c0 e3bc 50c9 5e3d
00000260: 14f9 c43c 2a03 0ebc 30d7 fa3c e98a b7bc
00000270: 5c0e 7bbc a635 fa3a f6fb 6d3d 957e 613d
00000280: 9ee2 50bc b2b9 af3d d88e 16bd b2d2 05bd
00000290: 787f 333c d879 5e3d cb95 c3bc 8a9c 3c3d
000002a0: 4d90 febc de4c 88ba 2c82 b43d 451d b83c
000002b0: 02fe 8b3b 966b d3bc 6ba5 1c3d 6c71 8b3d
000002c0: 239b 87bc a928 3d3d c59a 763d 976d b23c
000002d0: a7b3 c3bc 3e1c 5d3d f8fd d83c 1bf8 bfbc
000002e0: eb00 413c d017 de3b 8d63 433c 988f ac3b
000002f0: 4de3 6abd aa5b 1fbc 3bbd 3b3d ab16 8e3d
00000300: 7efc 3ebc add9 7c3d 7dd2 763c aaee 123d
00000310: 12ae 17bd 2ea4 07bd 3dd4 fbbc 80b4 f33c
00000320: ef69 3b3e 381e 973d f6bf 7fbd ce62 f7bc
00000330: 914d a63d 1a29 86bb d49e 3b3d 4a7b 403e
00000340: 826c 3bbd ea1b 25bd 8485 043d c1a8 273b
00000350: f9d1 843d 98a5 abbb 4530 bf3d 0727 dc3c
00000360: 3ec2 873d ca26 ab3b 0e74 823e d5be fc3b
00000370: f83a 9a3c 7ea2 cb3c efb9 373c 6baf d6bc
00000380: 1b5a 88bd 8a64 7b3c bbd0 743c bedd 963e
00000390: e91f 4bbd 4cf1 873d 8479 e83c a8fa d13c
000003a0: d9e8 2a3c d0a5 f5bb f3be 02bd de4d 55b9
000003b0: 385d 8dbb d871 113d 1d8a 733c cfaa f13d
000003c0: d0af c1bc 6640 10bd fd4b 123c 750d 643c
000003d0: 726d 8b3c c7e4 453d 4f1d 313d decd 81bc
000003e0: 3b7c 163c efa1 8d3c 8850 a33c 8f07 bc3b
000003f0: 0b4a c4bc b526 903c 66b6 29bd 2c58 343d
0.053288817 -0.015613855 0.0028650346 -0.02217859 -0.04744273 -0.005687365 -0.008961047 -0.0063411775
0.034972154 0.1325221 -0.004271126 -0.008777578 0.08188086 0.040110707 -0.008481522 0.333917
-0.029475141 0.07375796 -0.00962294 0.037495203 0.039443936 0.7317323 -0.052627385 -0.050994456
-0.03388515 0.023257835 -0.00094850245 0.031746585 -0.02319563 0.03681961 -0.002232865 0.07399517
0.07528594 0.03409324 0.00011970506 0.059484106 -0.028022526 0.04824087 -0.0019221809 0.019924372
0.003685282 0.22936735 -0.05615124 0.000871004 0.033689193 -0.037077256 0.08604103 0.05477901
-0.0051062256 0.0353933 -0.03742507 0.011125318 0.052113775 0.038565513 0.12006836 0.07891838
0.17050406 0.07977579 -0.00061600463 -0.04473243 0.0515534 0.18375273 0.005067405 0.019717686
0.046316292 -0.03152493 -0.015617589 -0.0060117915 0.06496816 -0.041577656 0.0735045 0.015130073
0.0648297 0.035559073 -0.034455072 0.017500741 -0.023344345 0.08112754 0.014233458 0.0072010253
0.055071086 0.04191574 0.052912373 0.024999024 0.009902797 -0.003942648 0.014474826 0.025073774
-0.03397776 0.033115447 0.21705449 -0.015091972 -0.004436629 0.035736952 -0.007883694 0.05967594
0.08658894 0.0027268522 0.037306618 0.03856223 0.13792711 0.020016758 0.041114595 -0.042992983
0.023666084 0.03765123 0.023661567 -0.006620724 0.0038731215 0.014046056 -0.022304066 0.052479386
0.06893093 0.02235766 -0.030071521 -0.01311754 0.010109706 0.036100123 0.04409711 0.053922232
0.022916006 -0.035065297 0.05172543 0.08478907 0.19817436 -0.01670394 0.06530209 0.11135171
0.05734952 0.0037045563 -0.0023639177 -0.045805253 -0.019204164 0.04357245 0.025043365 0.112977795
0.077110216 0.12934867 -0.018820954 0.046852883 0.042567547 0.044900168 0.054038305 0.017961396
0.04987095 0.056370568 0.08321471 0.056422677 0.035106227 0.033355083 -0.0278017 0.054391205
0.024044551 -0.008667747 0.030620188 -0.022405105 -0.015323248 0.0019089475 0.058101617 0.05505236
-0.012749342 0.085803404 -0.03675732 -0.032671638 0.010955684 0.054315418 -0.023875138 0.046047725
-0.031074667 -0.0010398885 0.08813891 0.022474894 0.0042722235 -0.025808137 0.038243692 0.06808743
-0.016553467 0.046181355 0.060206193 0.021780772 -0.023889376 0.053982012 0.02648829 -0.023433736
0.011780004 0.006777741 0.01192559 0.005266141 -0.057345677 -0.009726444 0.04583476 0.06937917
-0.0116568785 0.06173103 0.015064833 0.03587214 -0.03703124 -0.03311556 -0.030740852 0.029749155
0.18302129 0.07378811 -0.062438928 -0.030198481 0.08120263 -0.004094255 0.045805767 0.18797031
-0.045757778 -0.040309824 0.032353893 0.0025582763 0.064853616 -0.005238246 0.093353786 0.026874078
0.06628846 0.00522313 0.25479168 0.0077131786 0.018826947 0.024857756 0.011213764 -0.026206693
-0.06657811 0.015343795 0.014942343 0.2946605 -0.04959098 0.066378206 0.028378256 0.025632218
0.010431492 -0.007496573 -0.031920385 -0.0002034227 -0.004314091 0.03550896 0.014864472 0.11800157
-0.023643404 -0.035217665 0.00892925 0.013919224 0.017019961 0.048313882 0.04324084 -0.015845235
0.009184892 0.01728913 0.019935861 0.0057382057 -0.023961088 0.017596582 -0.041433714 0.0440294

l3.bias f4 [7]
00000000: 0061 e2bc 67f5 42bd a8c3 edbc f254 c33c
00000010: 6576 8c3d 75cc b0bd cfde 403d
-0.027634144 -0.047597315 -0.02902396 0.023844216 0.068585195 -0.08632747 0.047087487
